experiments/learn_racetrack/racetrack2/2022_01_20_202157183023_2_fbdf8/2022_01_20_202157183023_2_fbdf8_4999.pth (torch, 24919 bytes, 6 tensors)

layers.0.weight f4 [64, 15]
0	0xbb8c2f62	-0.0042781094
1	0x3d95cfe5	0.07315043
2	0x3df0d0d4	0.11758581
3	0xbe40abc6	-0.18815526
4	0xbcb6807d	-0.022278065
5	0xbdf8cc7a	-0.12148376
6	0xbe91b22b	-0.28456244
7	0x3e7f8ce2	0.24956086
8	0xbdf505eb	-0.119640194
9	0x3d244472	0.040104337
10	0x3db762d6	0.08954398
11	0x3dd28023	0.102783464
12	0xbdd09c74	-0.10186091
13	0x3c5dbe20	0.013534099
14	0x3d0fc402	0.035099037
15	0xbe36618a	-0.17810646
16	0xbd1ae660	-0.03781736
17	0xbd090bb4	-0.033458427
18	0x3e31013c	0.17285627
19	0xbe7b9c9c	-0.2457146
20	0x3da57ff4	0.08081046
21	0xbe82f392	-0.25576454
22	0xbe0f4ae6	-0.13993415
23	0x3d12eb20	0.035868764
24	0xbe715ea2	-0.23571256
25	0xbde2f062	-0.11081006
26	0xbe4f11ca	-0.2022163
27	0x3dc657a8	0.09684688
28	0x3db40280	0.08789539
29	0x3e609e96	0.21935496
30	0x3cf028b0	0.029316276
31	0xbcf65641	-0.030070426
32	0x3cc3cc89	0.02390124
33	0xbd6c61b3	-0.05771036
34	0xbd6b13dd	-0.05739199
35	0xbd7fc923	-0.06244768
36	0x3e30499c	0.1721558
37	0xbda93d11	-0.082636006
38	0xbdb27b9c	-0.08714983
39	0xbd874d2d	-0.06606517
40	0xbde7b3a0	-0.113135576
41	0xbe5cfe65	-0.21581419
42	0xbde918ce	-0.11381684
43	0x3e25905d	0.16168351
44	0xbe3fa294	-0.18714362
45	0xbd72e8f7	-0.059304204
46	0xbd7bd40b	-0.061481517
47	0xbe3eecc3	-0.18645005
48	0x3e67b494	0.22627479
49	0xbe1aa26a	-0.15101019
50	0xbd4e80c9	-0.050415788
51	0xbda22138	-0.07916492
52	0x3dd6231c	0.10455915
53	0xbab88f69	-0.0014080825
54	0xbe078cb2	-0.13237265
55	0xbc9bd667	-0.019023133
56	0x3e41f97b	0.18942825
57	0xbe7981a1	-0.24365856
58	0xbe530559	-0.20607509
59	0x3d452be5	0.048137564
60	0xbea88715	-0.3291556
61	0xbdcf237d	-0.10114191
62	0x3dcd1b16	0.10014932
63	0xbe1692a1	-0.14704372
64	0x3d6322d8	0.05545315
65	0xbe44cf53	-0.19219713
66	0xbe0ce46d	-0.13759013
67	0x3e237135	0.15961154
68	0x3e14806a	0.14502111
69	0x3c856719	0.016284512
70	0xbe9e973d	-0.3097476
71	0xbd634ebd	-0.055495013
72	0x3d8d7d1a	0.06908627
73	0xbc42a0fa	-0.0118792
74	0xbe299ced	-0.16563769
75	0xbc1fdc2a	-0.009757081
76	0x3eb6f908	0.3573687
77	0x3e065712	0.13119152
78	0x3dc958a7	0.09831362
79	0xbc84989c	-0.016186051
80	0x3dddcf9e	0.108306155
81	0x3d6c61a2	0.057710297
82	0xbda81e14	-0.08208862
83	0xbe9405f8	-0.28910804
84	0x3e4d56a0	0.20052576
85	0xbdf72eb5	-0.120694555
86	0xbd25a161	-0.040437106
87	0x3df3c04f	0.11901914
88	0xbe3c7c83	-0.18406872
89	0x3d946267	0.07245331
90	0xbcfd7b2d	-0.030942524
91	0xbecc9de7	-0.3996422
92	0xbe31414b	-0.17310064
93	0x3e8db96c	0.27680528
94	0xbcaa5ecd	-0.020797158
95	0x3db8e92a	0.090288475
96	0x3e951c3a	0.29123098
97	0xbe17c007	-0.14819346
98	0xbd517f06	-0.05114653
99	0xbeab605a	-0.33471948
100	0x3e369eb9	0.17833985
101	0xbe743615	-0.23848756
102	0xbe68cc63	-0.22734217
103	0x3e15a23f	0.14612673
104	0xbe4bef55	-0.19915517
105	0xbbf5bdce	-0.007499433
106	0xbe9180f5	-0.284187
107	0xbe1b71d4	-0.1518014
108	0x3dcc6931	0.09981001
109	0x3e2f3901	0.17111589
110	0x3e6ed00d	0.23321553
111	0xbe5f62cf	-0.21815036
112	0xbe825fba	-0.2546366
113	0x3e71515b	0.23566191
114	0x3ca67187	0.020317806
115	0x3e21f673	0.15816669
116	0xbd2132e6	-0.03935518
117	0xbe41f7ac	-0.18942136
118	0x3cf5939b	0.02997761
119	0xbe23b673	-0.15987568
120	0x3f106eda	0.56419146
121	0x3e37d8af	0.17953752
122	0x3e273f28	0.16332686
123	0xbe8d9760	-0.27654552
124	0x3d9b5459	0.075844474
125	0xbdb96566	-0.09052543
126	0xbe6973ae	-0.22798035
127	0xbdedc49f	-0.11609768
128	0x3b7365c2	0.003713951
129	0x3d6551e9	0.05598632
130	0xbe92ab69	-0.286464
131	0x3d5d5c41	0.05404306
132	0xbe629477	-0.22126947
133	0xbe165028	-0.14679015
134	0x3e69e990	0.22843003
135	0xbdbff765	-0.09373359
136	0xbc2d05eb	-0.010560493
137	0x3cd46328	0.025926188
138	0xbd623aed	-0.055231977
139	0x3dd33d10	0.10314381
140	0xbbd49f81	-0.006488741
141	0x3dd744cc	0.10511169
142	0x3e182264	0.14856869
143	0xbdd6e486	-0.10492806
144	0x3e2fcbee	0.17167637
145	0x3da9f71f	0.08299088
146	0x3df65c94	0.120293766
147	0xbe898343	-0.26857957
148	0x3e0cd912	0.13754681
149	0xbe4f65b1	-0.20253636
150	0xbe0b024b	-0.13575093
151	0xbe65ee10	-0.22454095
152	0x3e027140	0.12738514
153	0xbdffd3de	-0.12491582
154	0x3d8cfe20	0.06884408
155	0xbe129ce1	-0.14317657
156	0x3d9df5bc	0.07712886
157	0x3dc9bfcb	0.09851035
158	0xbe819faa	-0.25317127
159	0x3d3debfb	0.046367627
160	0x3e3f322a	0.1867148
161	0xbe2a5557	-0.16634117
162	0x3e5caf2c	0.21551198
163	0xbe96c39c	-0.29446113
164	0xbd18fd70	-0.03735107
165	0x3de40537	0.11133807
166	0x3e5afdf0	0.21385932
167	0x3ddf132e	0.1089233
168	0x3e2fca88	0.17167103
169	0xbe038dae	-0.12847015
170	0xbe5d198f	-0.21591781
171	0xbdef7b02	-0.11693384
172	0x3e4089e2	0.18802598
173	0xbe8ab5b5	-0.27091756
174	0xbe866c42	-0.2625447
175	0xbd7a02c6	-0.0610378
176	0xbe2295af	-0.15877412
177	0x3dd82de4	0.10555628
178	0x3e0cf389	0.13764776
179	0x3e8df91f	0.27729127
180	0xbed3c39f	-0.41360185
181	0x3f08d395	0.5344785
182	0x3d842232	0.06451835
183	0x3dfb7d89	0.12279803
184	0x3d8a20b3	0.06744518
185	0x3a9b4936	0.001184738
186	0x3e52bc48	0.20579636
187	0xbe602e8b	-0.21892755
188	0x3c6389e3	0.013887855
189	0x3dcf3e3e	0.10119294
190	0x3cc732c9	0.024316208
191	0xbe404b13	-0.18778639
192	0xbe11f4e4	-0.14253575
193	0x3d3a0c0e	0.045421652
194	0xbe5118f3	-0.20419674
195	0x3d41f0ff	0.047348972
196	0xbf76de5f	-0.9643306
197	0xbe0448ba	-0.12918368
198	0x3d9ea9d5	0.07747237
199	0xbd16143a	-0.036640383
200	0xbecb4fac	-0.39709222
201	0xbdae5d8f	-0.08513939
202	0x3db7ec80	0.08980656
203	0xbd9e99c7	-0.077441745
204	0x3e4014bb	0.18757908
205	0x3e49fec7	0.19726096
206	0x3dea8db8	0.11452812
207	0xbcd4531c	-0.025918536
208	0x3dae522e	0.08511768
209	0x3e0bc2e3	0.13648562
210	0x3e3da3f6	0.18519577
211	0x3e720e38	0.23638237
212	0xbe458f60	-0.19292974
213	0x3e7016a8	0.23446143
214	0xbe22ce9a	-0.15899125
215	0x3d211708	0.039328605
216	0xbe5e9ee0	-0.21740294
217	0xbe490eb4	-0.19634515
218	0x3e16fbb2	0.14744452
219	0x3d6e7ab8	0.058222502
220	0xbe1cc857	-0.15310799
221	0x3c83a050	0.016067654
222	0xbe2cc023	-0.1687017
223	0xbd861406	-0.06546788
224	0x3e26adf0	0.1627729
225	0x3e1e8964	0.15482098
226	0x3d0dc87f	0.034615036
227	0xbe31beb3	-0.17357902
228	0x3e032bef	0.12809728
229	0xbc75b4cd	-0.01499672
230	0xbe3aec40	-0.18254185
231	0x3c840efc	0.016120426
232	0x3de79cf2	0.11309232
233	0x3e4fe894	0.20303565
234	0x3da4b106	0.08041577
235	0x3e68d258	0.2273649
236	0x3cae3369	0.021264749
237	0xbe64f180	-0.2235775
238	0xbdbd60aa	-0.09246953
239	0xbe0f5efb	-0.14001076
240	0x3f897960	1.0740166
241	0x3e06c473	0.13160877
242	0x3e607aac	0.21921796
243	0xbe5d3bd0	-0.21604848
244	0xbe47ddb8	-0.19518173
245	0xbe014809	-0.12625135
246	0xbe9bc4eb	-0.30423674
247	0x3e2b66c6	0.16738424
248	0xbd8ab362	-0.06772496
249	0xbdc621a9	-0.09674389
250	0xbe0a16de	-0.13485286
251	0xbd135994	-0.0359741
252	0x3d65928e	0.05604797
253	0xbe055403	-0.13020329
254	0x3dedae0e	0.11605464
255	0x3de93464	0.11386946

layers.0.bias f4 [64]
0	0x3e56f77d	0.20992847
1	0x3d605788	0.054770976
2	0x3e348449	0.17628588
3	0x3d2c4933	0.042061996
4	0xbd483278	-0.048876256
5	0x3e5305a0	0.20607615
6	0x3e18e734	0.14931947
7	0x3d13ece3	0.036114585
8	0x3e109138	0.14117897
9	0x3e109db9	0.14122666
10	0xbdbe5fef	-0.09295642
11	0xbe36b6e9	-0.17843212
12	0xbe6428b3	-0.2228115
13	0xbe833148	-0.25623536
14	0xbde76d38	-0.11300129
15	0x3e24aeb4	0.16082269
16	0xbe845f14	-0.2585379
17	0xbda730d2	-0.081636086
18	0x3e5dd417	0.21662937
19	0xbdf4ff1a	-0.11962719
20	0xbe8b75e8	-0.27238393
21	0xbde4d45c	-0.11173317
22	0x3d4dac21	0.050212983
23	0xbdcec4b6	-0.100961134
24	0xbdfdc617	-0.12391298
25	0xbca92270	-0.020646304
26	0xbd66d004	-0.056350723
27	0xbe6f3f6b	-0.23364036
28	0xbe7b8807	-0.24563609
29	0x3e15d654	0.14632541
30	0xbd89d66c	-0.06730351
31	0x3e3d3f90	0.18481278
32	0x3c9699d6	0.018383902
33	0xbd089982	-0.03334952
34	0x3d239fc7	0.039947297
35	0x3bf23c0b	0.0073924116
36	0xbe88e325	-0.26735798
37	0xbd5ac6df	-0.053412315
38	0x3d8aed3f	0.06783532
39	0xbe0284b3	-0.12745933
40	0x3e598a7b	0.21244232
41	0x3ddb6d08	0.107141554
42	0x3ca5da01	0.020245554
43	0xbe0a4a5c	-0.13504928
44	0x3cecc950	0.028904587
45	0x3cb42020	0.021987975
46	0x3d39fb48	0.045405656
47	0xbdef4110	-0.116823316
48	0xbde470ff	-0.11154365
49	0x3d957c05	0.072990455
50	0xbd14b52a	-0.036305584
51	0x3dd22180	0.10260296
52	0x3d75a32c	0.059970066
53	0x3e72d292	0.23713139
54	0xbd908966	-0.07057457
55	0x3d7eda7c	0.06222008
56	0x3e588d2e	0.21147606
57	0xbdb5a6c9	-0.08869702
58	0xbd5c6193	-0.05380399
59	0x3d6f1606	0.058370613
60	0x3b084378	0.0020792168
61	0x3e33f227	0.17572843
62	0x3e439e21	0.1910329
63	0x3e7bab73	0.24577121

layers.1.weight f4 [64, 64]
0	0x3d1cbbaa	0.038264908
1	0xbd28fc1c	-0.041256055
2	0x3d8481fa	0.064701036
3	0x3dc20350	0.09473288
4	0xbe0e1672	-0.1387575
5	0xbcf75226	-0.030190539
6	0xbd83c25a	-0.06433554
7	0x3d1e09b0	0.038583457
8	0xbdbd8224	-0.09253338
9	0xbdf0d770	-0.117598414
10	0xbd95f770	-0.073225856
11	0xbdf52da0	-0.11971593
12	0xbbc77ac0	-0.006087631
13	0x3d9f4372	0.07776536
14	0xbdae25fa	-0.08503337
15	0xbd118d68	-0.035535246
16	0x3d449577	0.047994103
17	0xbdbb4b1e	-0.09145187
18	0xbdcd1582	-0.10013868
19	0xbca48070	-0.020080775
20	0x3d01a564	0.03165187
21	0xbd57be04	-0.052671447
22	0xbc2c232b	-0.010506432
23	0xbc1dbb70	-0.009627208
24	0xbdfbeef8	-0.12301439
25	0xbdb17146	-0.08664183
26	0x3d5d4fb8	0.054031104
27	0xbdbd4da4	-0.092433244
28	0xbd0449a0	-0.032296777
29	0xbcc49fa0	-0.024001896
30	0x3d0159fb	0.031579953
31	0xbceb2439	-0.028703796
32	0xbd245270	-0.04011768
33	0xbd4dc7d0	-0.050239384
34	0x3da45255	0.08023516
35	0x3d2818c6	0.04103925
36	0x3da25911	0.07927144
37	0xbc667f50	-0.01406844
38	0xbe02c960	-0.12772131
39	0xbcd47ad5	-0.025937477
40	0x3d780418	0.06055078
41	0x3ddf75af	0.10911118
42	0xbd1ac724	-0.03778757
43	0xbda89433	-0.08231392
44	0x3d9ff6b8	0.0781073
45	0x3cccc510	0.02499631
46	0xbdebb30c	-0.1150876
47	0xbce716a0	-0.02820903
48	0xbd09baa3	-0.033625256
49	0xbda239c1	-0.07921172
50	0xbdfc9c96	-0.12334554
51	0xbdd8e4aa	-0.10590489
52	0x3d61a2a3	0.055086743
53	0x3daea417	0.085273914
54	0xbdcdfbe2	-0.100578085
55	0xbdf5ce4a	-0.12002237
56	0x3de319b6	0.11088888
57	0xbd57fe1c	-0.052732572
58	0x3d9cdc98	0.076592624
59	0x3d1d7ff0	0.03845209
60	0xb807335e	-3.2234348e-05
61	0xbd983390	-0.0743171
62	0xbc9411a0	-0.01807481
63	0x3d57a6ab	0.05264918
64	0xbd19cc8b	-0.037548583
65	0xbdf1d7cc	-0.11808738
66	0x3c7ecb88	0.015551455
67	0xbded4491	-0.11585344
68	0xbc442841	-0.011972488
69	0x3dd796ca	0.105268076
70	0x3cc0d3c3	0.023538476
71	0x3ccced2c	0.025015436
72	0xbadcf713	-0.0016858302
73	0xbd7e479d	-0.062080014
74	0xbc3fe01b	-0.011711146
75	0x3bea99fa	0.0071594687
76	0x3d54a3c5	0.051913995
77	0x3c3c6156	0.011497816
78	0x3d51193c	0.051049456
79	0x3df8b5cd	0.12144051
80	0xbdf5a4e7	-0.11994343
81	0x3d6f91d4	0.058488682
82	0x3dc59fa2	0.09649588
83	0x3cfe5784	0.03104759
84	0xbda0f23f	-0.07858705
85	0x3d2a7768	0.04161778
86	0xbdf972be	-0.121800885
87	0xbde3b3b2	-0.111182585
88	0xbd8f647c	-0.07001588
89	0x3d98087d	0.07423494
90	0x3d19f5f8	0.03758809
91	0x3c2e157a	0.010625238
92	0x3e3bc076	0.18335137
93	0xbb8e1140	-0.0043355525
94	0x3e1df563	0.15425639
95	0x3b7ff94c	0.0039058505
96	0x3c889384	0.016671903
97	0xbe1c235f	-0.15247868
98	0xbd9ac7d1	-0.07557643
99	0x3d9b537f	0.07584285
100	0xbe061356	-0.13093314
101	0xbbec4b45	-0.0072111213
102	0xbe21eac1	-0.15812208
103	0xbc07c293	-0.008286136
104	0xbd9eaeef	-0.0774821
105	0xbd2ba6ad	-0.041907
106	0xbcccbf14	-0.024993457
107	0xbdaea0be	-0.08526753
108	0xbdd599e8	-0.10429746
109	0xbd340fd8	-0.043960422
110	0xbcc28335	-0.023744205
111	0x3d9af2ee	0.075658664
112	0x3d1b507d	0.037918556
113	0xbd93e771	-0.07221878
114	0x3dc99d37	0.098444395
115	0xbd6976e4	-0.05699815
116	0x3d877862	0.06614758
117	0xbe26cb4c	-0.16288489
118	0x3deed35e	0.11661409
119	0x3db3cc99	0.08779258
120	0x3d8925a8	0.066966355
121	0xbcff8fc0	-0.031196475
122	0x3cfe02ce	0.031007197
123	0x3e0b4244	0.13599497
124	0x3cceb42b	0.025232395
125	0xbccebae6	-0.025235604
126	0x3d9e8259	0.077397056
127	0x3d9b06f5	0.07569686
128	0xbdff7834	-0.12474099
129	0xbdd4df74	-0.10394183
130	0x3b7557c0	0.0037436336
131	0xbdb27f9a	-0.08715744
132	0xbe04018a	-0.12891212
133	0x3ce0ad24	0.02742631
134	0x3dca09f8	0.09865183
135	0xbd4c0d28	-0.049817234
136	0x3cd88288	0.02642943
137	0x3dd493cd	0.10379753
138	0xbdfa6eb9	-0.1222815
139	0xbd203a0d	-0.03911786
140	0x3dbd4c6b	0.09243091
141	0xbd81e6c6	-0.06342845
142	0xbc6b4c90	-0.014361516
143	0x3d88fe9c	0.06689188
144	0x3dd5695e	0.10420488
145	0x3d9f5f98	0.07781905
146	0x3c3f88c0	0.011690319
147	0x3dd05f01	0.101743706
148	0xbde4f8e4	-0.111802846
149	0xbdc73d5e	-0.09728502
150	0x3db5e5b0	0.088817
151	0x3cabdbd8	0.020978853
152	0x3dcb6bdc	0.09932682
153	0xbd8d4826	-0.06898527
154	0xbdff1c10	-0.12456524
155	0x3ba3d9a0	0.005000308
156	0x3cc513b8	0.024057254
157	0x3ddf3ac8	0.108998835
158	0x3d46dadc	0.048548564
159	0x3dc06fbe	0.09396313
160	0x3d57fbe0	0.05273044
161	0x3cd2dc51	0.02573982
162	0x3daaf00c	0.083465666
163	0xbdb69e89	-0.08916957
164	0x3ce304a0	0.027712166
165	0xbdd3b2bc	-0.10336825
166	0xbd09bff1	-0.033630315
167	0xbdfdd50c	-0.12394151
168	0xbde819b6	-0.11333029
169	0xbd11a032	-0.035553165
170	0x3d9d105e	0.076691374
171	0xbdd6ae0d	-0.10482416
172	0x3d14483c	0.0362017
173	0x3d9eed40	0.077600956
174	0xbd447216	-0.047960363
175	0xbddd12a0	-0.10794568
176	0xbd27bde4	-0.04095258
177	0xbd8d46cc	-0.06898269
178	0xbd9217c8	-0.07133442
179	0xbd65b5ac	-0.05608146
180	0x3d13fed4	0.036131695
181	0xbc81b3c8	-0.015832797
182	0x3c9a21d0	0.018814951
183	0xbdc104cc	-0.09424743
184	0xbccc5308	-0.024941936
185	0xbd2016e0	-0.039084315
186	0xbdc50cda	-0.09621592
187	0xbc712e50	-0.014720514
188	0xbdcaf3a3	-0.09909751
189	0xbbb14220	-0.005409494
190	0x3c297d80	0.010344863
191	0x3db6be63	0.08923032
192	0x3d7db904	0.061944023
193	0x3df3398e	0.11876212
194	0x3cf6500e	0.03006747
195	0xbc8e5950	-0.017376572
196	0xbdfb58ca	-0.122727945
197	0x3bd61f37	0.006534483
198	0xbae39a9c	-0.0017364803
199	0x3cf7caff	0.030248163
200	0xbdd59d67	-0.10430413
201	0xbd982f25	-0.07430867
202	0x3daf9206	0.08572774
203	0xbe070aa3	-0.13187651
204	0x3dd8fb7b	0.10594841
205	0x3daa67a3	0.083205484
206	0xbd40dd20	-0.04708588
207	0x3ca6f8c0	0.020382285
208	0xbdb99314	-0.09061256
209	0xbdcf7ea4	-0.10131577
210	0xbb252100	-0.0025196671
211	0xbcb8a00b	-0.022537252
212	0x3d22f20b	0.03978161
213	0x3d910d96	0.070826694
214	0x3da6746f	0.08127677
215	0xbd6502bc	-0.05591081
216	0xbdf4659a	-0.119334415
217	0x3dafdf4c	0.085875124
218	0x3dcb400c	0.09924325
219	0xbd494e2d	-0.04914682
220	0xbd883ebc	-0.06652591
221	0x3d1489f4	0.036264375
222	0xbdfecaf2	-0.124410525
223	0x3ce86e57	0.028372927
224	0xbdef9f43	-0.11700299
225	0xbd633362	-0.055468924
226	0xbe07970c	-0.13241214
227	0xbd9c698b	-0.07637318
228	0x3dc00496	0.09375875
229	0xbd0e4db2	-0.034742065
230	0xbcfce7ea	-0.030872304
231	0xbe01ae91	-0.12664248
232	0xbdd989d5	-0.106219925
233	0x3cf9b1e1	0.030480327
234	0x3d16d50c	0.03682427
235	0x3c05e070	0.008171186
236	0x3dda58b6	0.106614515
237	0xbda7fc10	-0.08202374
238	0x3c21d679	0.009877794
239	0x3c68f3a0	0.014218241
240	0x3daab2f8	0.08334917
241	0xbd93d70e	-0.07218753
242	0xbe03ba47	-0.12864028
243	0x3d96ffb8	0.07372993
244	0xbd3cd91c	-0.04610549
245	0xbdb69b5e	-0.08916353
246	0x3db1873c	0.08668372
247	0x3dded541	0.10880519
248	0xbd012152	-0.031525917
249	0xbd344d94	-0.044019297
250	0x3dab425d	0.08362267
251	0xbd9a9b6e	-0.07549177
252	0x3d64f838	0.055900782
253	0xbdd7ba34	-0.10533562
254	0x3d9289be	0.071551785
255	0x3cb474c8	0.022028342

layers.1.bias f4 [64]
0	0x3d0b48fe	0.034005158
1	0xbd9930f2	-0.07480039
2	0xbe0adb51	-0.13560225
3	0xbe16b72e	-0.14718315
4	0x3d4e932f	0.050433334
5	0xbd23edba	-0.040021636
6	0x3c834c48	0.016027585
7	0x3dac3bf9	0.084098764
8	0xbc90d076	-0.017677527
9	0xbb80c2a4	-0.003929453
10	0xbde3c9e7	-0.11122494
11	0x3c96d863	0.018413728
12	0xbd8a5ff1	-0.067565806
13	0xbdb2cee6	-0.08730869
14	0x3d25ece7	0.04050913
15	0x3d33cac6	0.04389455
16	0xbdc6800b	-0.09692391
17	0xbdc62584	-0.09675124
18	0x3c90626f	0.017625062
19	0xbd01a6d2	-0.031653233
20	0xbc8dd32c	-0.017312609
21	0xbc822ba7	-0.015889956
22	0xbda10022	-0.078613535
23	0xbdb76fb7	-0.08956855
24	0xbd31a9f5	-0.043374974
25	0xbdfe897e	-0.12428568
26	0xbdc3b634	-0.09556237
27	0x3d8f2cc8	0.06990963
28	0xbe09738f	-0.13422988
29	0xbcdcb83b	-0.026943317
30	0xbe04aeb1	-0.12957264
31	0xbdd8b68e	-0.105816945
32	0x3c866586	0.016405832
33	0xb901dd58	-0.00012384856
34	0x3d198fa5	0.037490506
35	0xbdde62e1	-0.108587034
36	0xbdc8c087	-0.09802347
37	0xbcdc076a	-0.026859004
38	0xbe0f0c52	-0.13969544
39	0x3dad60c4	0.08465722
40	0xbdfb6b8e	-0.12276374
41	0x3d9a4f38	0.07534641
42	0xbdcfd355	-0.1014773
43	0xbcbd79b1	-0.023129316
44	0x3ce73888	0.028225198
45	0x3c9cffcc	0.019164942
46	0xbde13287	-0.109959655
47	0x3d9fc53f	0.078012936
48	0xbdcb5eb7	-0.09930175
49	0xbc3e0288	-0.011597283
50	0x3d7e5ad5	0.062098343
51	0x3d650a5c	0.055918083
52	0xbd30d896	-0.043175302
53	0xbbbd64f8	-0.0057798587
54	0xbd556ea2	-0.05210746
55	0xbc9f5564	-0.019449897
56	0xbd988520	-0.074472666
57	0x3de8a442	0.11359455
58	0xbd467753	-0.04845364
59	0x3c2d9c06	0.010596281
60	0x3bdd84a1	0.0067601954
61	0xbd49e233	-0.049287986
62	0x3ded4954	0.11586252
63	0xbdd00015	-0.10156266

layers.2.weight f4 [9, 64]
0	0xbdfea8aa	-0.12434514
1	0xbcfcd140	-0.030861497
2	0xbd8f5ed6	-0.070005104
3	0xbdf5f205	-0.12009052
4	0x3db151cd	0.086581804
5	0x3d15f453	0.03660996
6	0xbd86cc98	-0.06581992
7	0xbc831d7d	-0.016005272
8	0xbddf4ad0	-0.10902941
9	0x3da6e900	0.0814991
10	0xbdbdce3d	-0.092678525
11	0xbe9b15d4	-0.3029009
12	0xbdfa7590	-0.122294545
13	0xbce0f65b	-0.027461221
14	0xbe14147e	-0.14460942
15	0xbadebb80	-0.0016993135
16	0xbce339bc	-0.02773749
17	0xbd638625	-0.055547852
18	0x3d667c86	0.0562711
19	0x3acc95a3	0.001560856
20	0xbd946277	-0.07245343
21	0x3dbe3ebc	0.092893094
22	0x3c835c4c	0.016035222
23	0xbe253bae	-0.16136047
24	0x3dc36312	0.095403805
25	0xbd873ffe	-0.066040024
26	0x3d2f8477	0.042850938
27	0xbd53f9f0	-0.05175203
28	0xbe7cacf9	-0.24675359
29	0x3d601688	0.054708987
30	0xbc95aa88	-0.018269792
31	0x3dce40ce	0.10070954
32	0xbde08698	-0.10963172
33	0xbd820df7	-0.0635032
34	0xbd15ad7a	-0.036542393
35	0xbe00c09f	-0.12573479
36	0xbdcf7e11	-0.10131467
37	0x3d072cc6	0.033001684
38	0xbc673c8e	-0.014113558
39	0x3df38e48	0.11892372
40	0xbdc77220	-0.097385645
41	0xbd9224b7	-0.07135909
42	0xbe3d6a16	-0.184975
43	0xbd6aad57	-0.057294216
44	0x3cdb8e68	0.026801303
45	0x3dddb52a	0.1082557
46	0x3c938f64	0.01801271
47	0x3d394fa0	0.045241952
48	0x3cd0e7b2	0.025501106
49	0x3dc1f9cd	0.09471474
50	0x3dbda862	0.09260632
51	0xbd89340c	-0.0669938
52	0xbd50d964	-0.05098857
53	0x3cf14ec2	0.0294565
54	0x3cc1c193	0.023651874
55	0xbd9093b6	-0.070594236
56	0x3dcefd4b	0.101069055
57	0x3d971ebe	0.073789105
58	0xbe047f60	-0.12939215
59	0x3c67d7f0	0.014150605
60	0x3d8d1dd3	0.06890454
61	0x3d3252bb	0.04353593
62	0x3deb7bdc	0.11498234
63	0xbddcb836	-0.10777323
64	0x3dcd1d32	0.10015334
65	0xbd5ead06	-0.054364227
66	0x3ce26348	0.027635232
67	0x3da14eb5	0.0787634
68	0x3dbe0e2b	0.09280046
69	0x3d6943de	0.05694949
70	0xbc1c2a55	-0.009531577
71	0x3d13e618	0.036108106
72	0x3d6f27ba	0.058387496
73	0x3d29e6ea	0.041479982
74	0x3d81b673	0.063336276
75	0xbe585a0e	-0.21128103
76	0x3cd98698	0.026553437
77	0xbdc0c274	-0.09412089
78	0x3d0aa35f	0.03384721
79	0xbe0df06e	-0.13861248
80	0x3d0dbdda	0.034604885
81	0xbca112a9	-0.019662218
82	0x3cc27625	0.023737976
83	0x3c909a5d	0.017651731
84	0xbd71475f	-0.058905955
85	0x3dac7163	0.08420064
86	0x3d4e8394	0.05041845
87	0xbe2a9629	-0.16658844
88	0xbdf14e24	-0.11782482
89	0xbdc47813	-0.09593215
90	0x3c775adc	0.015097346
91	0xbc7ab269	-0.015301325
92	0xbe8eda17	-0.27900764
93	0x3d962215	0.073307194
94	0x3dfcb112	0.12338461
95	0xbd4e371a	-0.050345518
96	0x3d395e36	0.045255862
97	0xbda721fc	-0.08160779
98	0xbc074e2d	-0.008258385
99	0xbc1f4a6a	-0.009722332
100	0x3d63e7ab	0.055640858
101	0xbd0f22cc	-0.034945294
102	0xbd2c21be	-0.042024367
103	0xbc8badd7	-0.017050667
104	0x3d374a90	0.044748843
105	0x3c426380	0.011864543
106	0xbdb68f56	-0.08914058
107	0xbcd5e80e	-0.026111629
108	0xbd026c65	-0.031841654
109	0xbd32d609	-0.04366115
110	0xbcdc78e0	-0.026913106
111	0x3d080c12	0.033214636
112	0xbbb0d4b7	-0.0053964513
113	0x3da54472	0.080696955
114	0x3d940d69	0.0722912
115	0xbe09a9a6	-0.13443622
116	0xbd27955a	-0.040913917
117	0xbdb50a6a	-0.08839877
118	0xbd76e891	-0.060280386
119	0xbd6f1158	-0.05836615
120	0x3da55c3e	0.080742344
121	0x3e1a7828	0.15084898
122	0xbdc3a747	-0.0955339
123	0xbdaa671e	-0.08320449
124	0x3cf56dee	0.029959645
125	0x3cce952c	0.025217615
126	0x3db00ba0	0.08595967
127	0x3d81e4e2	0.06342484
128	0xbdb73c64	-0.089470655
129	0xbd9b4d53	-0.07583108
130	0x3df2a91e	0.11848663
131	0xbdc90514	-0.09815422
132	0x3cddb058	0.027061626
133	0x3dba4ece	0.09097062
134	0x3d854a92	0.06508364
135	0x3d65d534	0.05611153
136	0x3e5a7459	0.21333446
137	0xbc1093bf	-0.008824288
138	0x3d4d6964	0.050149336
139	0xbda0bce3	-0.07848527
140	0xbdba977a	-0.09110923
141	0xbe8ba13b	-0.27271447
142	0xbd599f28	-0.0531303
143	0xbd857a92	-0.06517519
144	0xbdab75ae	-0.08372055
145	0xbdaf5c0c	-0.085624784
146	0xbd8c20ef	-0.06842219
147	0xbbeda78a	-0.007252638
148	0x3d3984d7	0.0452927
149	0x3dfd895d	0.123797156
150	0xbd8f367e	-0.069928154
151	0x3dfc5732	0.12321319
152	0x3b150698	0.0022739526
153	0x3d25388f	0.04033714
154	0xbdba0cd1	-0.09084476
155	0x3dc852f2	0.097814456
156	0xbe97d6ab	-0.29655966
157	0xbcc45ccd	-0.023970032
158	0xbd9839aa	-0.074328735
159	0xbd8ad460	-0.067787886
160	0x3d7964ff	0.060887333
161	0xbe30b259	-0.17255534
162	0xbc1d7acd	-0.0096117975
163	0xbbdef179	-0.006803688
164	0x3d85d434	0.06534615
165	0xbdb11472	-0.08646478
166	0xbc11d89f	-0.008901744
167	0x3d870fc5	0.06594805
168	0xbdd44802	-0.10365297
169	0x3db1c77a	0.08680625
170	0x3ce0c460	0.027437389
171	0xbd5d276e	-0.05399268
172	0x3d1c9b1d	0.038233865
173	0x3ded542a	0.11588319
174	0x3ca4eb85	0.020131836
175	0x3daada26	0.0834239
176	0xbc85fa4d	-0.016354704
177	0xbbac4d8c	-0.0052582677
178	0x3dc653cf	0.09683954
179	0xbe73f53a	-0.23824015
180	0xbe2906cb	-0.16506498
181	0x3d9c3234	0.07626763
182	0x3cf4c81a	0.029880572
183	0xbc8d585d	-0.017254049
184	0x3dd54b42	0.10414745
185	0xbc4c3d76	-0.012465825
186	0xbd683b25	-0.05669703
187	0x3d1b1c04	0.037868515
188	0x3dd90f9b	0.1059868
189	0x3ce6325d	0.028100187
190	0x3d4b4522	0.049626477
191	0x3dc812d2	0.09769215
192	0x3d445b68	0.047938734
193	0x3cec4661	0.028842153
194	0x3dadbdda	0.08483477
195	0x3db79cc2	0.08965446
196	0x3db0e9d6	0.08638351
197	0xbca087cf	-0.019596009
198	0xbd233e2f	-0.039854225
199	0xbd896855	-0.06709353
200	0xbd308fd5	-0.04310592
201	0x3da5a1e8	0.08087522
202	0x3d31a8a2	0.04337371
203	0xbe16208d	-0.14660855
204	0xbda8f72c	-0.08250269
205	0xbd38ef16	-0.045149885
206	0x3cff86fa	0.031192292
207	0xbd8553ba	-0.0651011
208	0x3c903d67	0.017607404
209	0x3c8f700f	0.017509488
210	0xbcc23494	-0.023706712
211	0x3cd174cc	0.025568388
212	0xbcfb921c	-0.030709319
213	0x3dc99eac	0.098447174
214	0x3d89d11a	0.06729336
215	0xbe1e2ceb	-0.15446822
216	0xbd2e6f03	-0.042586338
217	0x3d97502a	0.07388337
218	0x3caac8dc	0.02084773
219	0xbdcd5852	-0.100266114
220	0xbea7d86d	-0.32782307
221	0x3dd68c16	0.10475938
222	0x3cef72c9	0.029229539
223	0x3ce05286	0.0273831
224	0x3d029eeb	0.031889837
225	0x3daf9e67	0.08575135
226	0xbd9f6e53	-0.077847145
227	0x3c83caaa	0.016087849
228	0x3d98ae8b	0.074551664
229	0x3c99b2bc	0.018761985
230	0xbd70f415	-0.058826525
231	0xbc066cba	-0.008204633
232	0x3d9e2d26	0.07723455
233	0xbda5bdd0	-0.080928445
234	0xbd24689e	-0.040138833
235	0xbd55d97a	-0.052209355
236	0xbdb3c5fd	-0.08777998
237	0xbda502c6	-0.080571696
238	0x3db96775	0.09052936
239	0xbd419912	-0.04726512
240	0xbc9f5cd6	-0.019453447
241	0x3d896edc	0.06710598
242	0x3dcfed95	0.10152737
243	0xbd8ed327	-0.06973868
244	0xbd191e8f	-0.03738266
245	0x3d84e8f7	0.06489747
246	0xbbae732e	-0.005323789
247	0xbcb9b0aa	-0.022667248
248	0x3dae7bca	0.08519705
249	0x3dc3e792	0.09565653
250	0xbcb628d9	-0.022236275
251	0xbde9696a	-0.11397059
252	0x3d5cc926	0.053902768
253	0x3c883552	0.016626988
254	0x3d00afa5	0.031417508
255	0xbce4e540	-0.027941346

layers.2.bias f4 [9]
0	0x3db029db	0.08601733
1	0xbd47c346	-0.04877021
2	0x3ddeda07	0.10881429
3	0x3de77486	0.11301522
4	0x3bce0d25	0.006288188
5	0xbd3baeed	-0.04582112
6	0x3d397839	0.04528067
7	0x3e0b79e0	0.1362071
8	0x3e1b9e42	0.1519709
