experiments/learn_racetrack/racetrack2/2022_01_20_202157183023_2_fbdf8/2022_01_20_202157183023_2_fbdf8_9999.pth (torch, 24919 bytes, 6 tensors)

layers.0.weight f4 [64, 15]
00000000: 9313 f23d 2b9f 8c3d eb91 a93d c2f2 47be
00000010: dfe4 433d b873 37be 88be 93be 7040 823e
00000020: 57c9 00be 75a8 713d 716a bf3d 3b6b 823d
00000030: bce2 79bd 81a9 d43d b1df 2c3d 8a61 36be
00000040: 60e6 1abd b40b 09bd 3c01 313e 9c9c 7bbe
00000050: f47f a53d 92f3 82be e64a 0fbe 20eb 123d
00000060: a25e 71be 62f0 e2bd ca11 4fbe a857 c63d
00000070: 8002 b43d 969e 603e b028 f03c 4156 f6bc
00000080: 89cc c33c b361 6cbd dd13 6bbd 23c9 7fbd
00000090: 9c49 303e 113d a9bd 9c7b b2bd 2d4d 87bd
000000a0: a0b3 e7bd 65fe 5cbe ce18 e9bd 5d90 253e
000000b0: 94a2 3fbe f7e8 72bd 0bd4 7bbd c3ec 3ebe
000000c0: 94b4 673e 6aa2 1abe c980 4ebd 3821 a2bd
000000d0: 1c23 d63d 698f b8ba b28c 07be 67d6 9bbc
000000e0: 7bf9 413e a181 79be 5905 53be e52b 453d
000000f0: 7087 06bf a08e 1cbe 8197 c63d dab0 43be
00000100: d0ca c33c d1e1 81be 1b28 74be a1ba c03d
00000110: 0df7 233e 7f29 2fbc 4dcf 8cbe 8e16 00bd
00000120: 1fbc 063d 511e 08bd 99fd f8bd 7eea bbbc
00000130: f9ff 103f 1a60 f03d 2784 dc3d 973b cd3c
00000140: 75c1 8b3d de57 343d c5af 3cbd 27bc 94be
00000150: 94fe 693e ffc4 ecbd 4328 6cbd f200 113e
00000160: fdf3 14be d236 813d 2d7b fdbc e79d ccbe
00000170: 4b41 31be 6cb9 8d3e cd5e aabc 2ae9 b83d
00000180: 3a1c 953e 07c0 17be 067f 51bd 5a60 abbe
00000190: b99e 363e 1536 74be 63cc 68be 3fa2 153e
000001a0: 55ef 4bbe 9cae 8ebe e2c5 9cbe 78d8 1ebe
000001b0: a284 e23d 3d61 373e 8019 743e a089 50be
000001c0: 69c5 7ebe 27a7 7b3e 4a1d 4d3c 6a2c 573e
000001d0: 92cf 57bd 1b09 3abe eec6 143d 0cc4 2ebe
000001e0: 5dcb 383f ef2a 533d 64f2 263e e588 81be
000001f0: 33e0 783d 8fd4 97bd e2ad 83be b892 cdbd
00000200: d142 b9bc 09d7 1b3d 6102 99be 3582 a13d
00000210: b8b9 3dbe 94f6 c8bd c8cc 513e 1b0d aebd
00000220: 9e75 5dbd 7ad8 933c 450b 6abd d219 093e
00000230: 522d 91bc c471 fa3d d5c2 253e 36e1 babd
00000240: fa0f 493e 5b13 953d 98a7 a03d 54be 87be
00000250: 5343 1b3e 5a71 4dbe 154d b0bd f9ed 64be
00000260: e8ba 8e3d 3cae 44be 1ae0 30ba ccf5 6dbe
00000270: 0ef6 7c3d 9992 b13d 14cc 9dbe 414a 58bd
00000280: 646b 063e 923a 28be 6684 1c3e c81c a6be
00000290: 7b28 f43c b7d8 423e 5463 a03e 2c41 b53d
000002a0: d5b1 273e 5dcc 1cbe b247 55be 8d03 d8bd
000002b0: a22a 493e a399 babe 3365 b9be 9ab1 16be
000002c0: 94c7 63be 52a8 ac3d 6ab4 e73d 7b05 923e
000002d0: 5f38 06bf 21e4 423f 004d 8c3d 9967 1c3e
000002e0: bdac a13d 8681 7e3c aa5a 573e 30e9 2fbe
000002f0: f887 c3bb 7b94 cc3d 4c26 b2bc c8db 10be
00000300: 65f6 02be 7746 4a3d c7c1 6fbe 9fe8 bb3d
00000310: e95d 9cbf 701b 01be ed26 bc3d 6a27 1dbd
00000320: 6c56 efbe e74f 8ebd 69b8 e33d 83a6 bfbd
00000330: b77a 5e3e 38e5 3c3e 3d93 f03d 9aae e0bc
00000340: 83d1 a23d af08 fa3d f6a3 3d3e 380e 723e
00000350: 608f 45be a816 703e 9ace 22be 0817 213d
00000360: e09e 5ebe b40e 49be b2fb 163e b87a 6e3d
00000370: 57c8 1cbe 50a0 833c 23c0 2cbe 0614 86bd
00000380: f0ad 263e 6489 1e3e 7fc8 0d3d b3be 31be
00000390: ef2b 033e cdb4 75bc 40ec 3abe fc0e 843c
000003a0: f29c e73d 94e8 4f3e 06b1 a43d 58d2 683e
000003b0: 6933 ae3c 80f1 64be aa60 bdbd fb5e 0fbe
000003c0: bead a43f c91d 1d3e 8c05 563e bbf3 69be
000003d0: 66af 54be 99f9 b8bd 09be 59be d44d 203e
000003e0: 6b8e 98bd d4c8 3dbe 31c0 08be b809 2dbd
000003f0: 51ab 7e3d e306 73bd f98e 033e 6434 e93d
0.1182014 0.068662964 0.08279785 -0.19526199 0.04782569 -0.17915237 -0.288563 0.25439787
-0.12576805 0.058998544 0.09346474 0.06368109 -0.061007246 0.10383893 0.042205516 -0.17810646
-0.03781736 -0.033458427 0.17285627 -0.2457146 0.08081046 -0.25576454 -0.13993415 0.035868764
-0.23571256 -0.11081006 -0.2022163 0.09684688 0.08789539 0.21935496 0.029316276 -0.030070426
0.02390124 -0.05771036 -0.05739199 -0.06244768 0.1721558 -0.082636006 -0.08714983 -0.06606517
-0.113135576 -0.21581419 -0.11381684 0.16168351 -0.18714362 -0.059304204 -0.061481517 -0.18645005
0.22627479 -0.15101019 -0.050415788 -0.07916492 0.10455915 -0.0014080825 -0.13237265 -0.019023133
0.18942825 -0.24365856 -0.20607509 0.048137564 -0.5255041 -0.15288782 0.09696866 -0.19110432
0.02390042 -0.25367597 -0.23843424 0.09410597 0.16012211 -0.010691046 -0.27501908 -0.03127151
0.03289425 -0.033232037 -0.12157745 -0.022938963 0.56640583 0.1173708 0.107673936 0.025052829
0.068240084 0.04402911 -0.046066064 -0.290498 0.2285102 -0.115610115 -0.057655584 0.14160517
-0.14546199 0.06309284 -0.030942524 -0.3996422 -0.17310064 0.27680528 -0.020797158 0.090288475
0.29123098 -0.14819346 -0.05114653 -0.33471948 0.17833985 -0.23848756 -0.22734217 0.14612673
-0.19915517 -0.2786759 -0.30619723 -0.15512264 0.11060454 0.17908187 0.23837852 -0.20365
-0.24879993 0.24575482 0.01251919 0.21013036 -0.05268819 -0.18167536 0.036322527 -0.17066973
0.7218531 0.051554617 0.16303402 -0.25299755 0.060760688 -0.07413589 -0.257186 -0.1003775
-0.022614868 0.03804687 -0.29884627 0.07886163 -0.18527877 -0.09812656 0.20488274 -0.084985934
-0.054067247 0.01804756 -0.057139654 0.13388756 -0.017721806 0.1222873 0.16187604 -0.09124987
0.19635001 0.072790824 0.07844466 -0.26512396 0.15162401 -0.20062771 -0.08608452 -0.22356404
0.06969243 -0.1920709 -0.0006747261 -0.23238295 0.061758094 0.086705394 -0.30819762 -0.05280519
0.13126904 -0.16428593 0.15284881 -0.32443833 0.029804459 0.19027983 0.3132578 0.08850321
0.16376431 -0.15312333 -0.20828131 -0.10547552 0.1964517 -0.3644534 -0.3621002 -0.14716187
-0.22244102 0.08430542 0.11313708 0.28519806 -0.52429765 0.7612935 0.06850624 0.15273894
0.07894275 0.0155338105 0.2103068 -0.17178798 -0.0059671365 0.09989258 -0.021746777 -0.1414634
-0.12789305 0.049383607 -0.23413764 0.09175228 -1.2216159 -0.12608123 0.09187112 -0.038367666
-0.46745622 -0.06948834 0.11119158 -0.093579315 0.217265 0.18446815 0.117468335 -0.027427007
0.079501174 0.122086875 0.18519577 0.23638237 -0.19292974 0.23446143 -0.15899125 0.039328605
-0.21740294 -0.19634515 0.14744452 0.058222502 -0.15310799 0.016067654 -0.1687017 -0.06546788
0.1627729 0.15482098 0.034615036 -0.17357902 0.12809728 -0.01499672 -0.18254185 0.016120426
0.11309232 0.20303565 0.08041577 0.2273649 0.021264749 -0.2235775 -0.09246953 -0.14001076
1.2865522 0.15343393 0.20900553 -0.22846882 -0.20770034 -0.09031982 -0.21263899 0.15654689
-0.07449039 -0.18533641 -0.13354565 -0.042245597 0.0621751 -0.05933274 0.12847508 0.11386946

layers.0.bias f4 [64]
00000000: f45f 463e 8857 603d 4984 343e 3349 2c3d
00000010: b7e6 84bd 4653 4e3e 34e7 183e bff1 3d3d
00000020: 9195 103e 65a8 0e3e f5df 27be 1a92 51be
00000030: 7272 5ebe e8f7 83be 386d e7bd b4ae 243e
00000040: e663 8abe d230 a7bd 17d4 5d3e 8b79 0cbe
00000050: fe15 8abe 5cd4 e4bd 102c 323c b6c4 cebd
00000060: f9e4 ecbd 4720 39bc 04d0 66bd 36d5 80be
00000070: c0d2 80be 54d6 153e 8293 4bbd c0fb 413e
00000080: f1dc e83c 1b37 5fbd a030 cc3b 4d1e 8bbc
00000090: e365 a0be 9b9a a5bd f360 9b3d 1b56 1abe
000000a0: ede3 3d3e 41bb b03d 423f b43c 74c9 febd
000000b0: 50c9 ec3c 2020 b43c 7dfb 4f3c 1041 efbd
000000c0: aeea b9bd 1f70 6f3d 762c c9bc 8021 d23d
000000d0: 33d7 793d 2466 733e 6689 90bd 3bf0 6e3d
000000e0: 9b99 6a3e 86d7 9dbd 3b6c d9bd 069e 923d
000000f0: dbab e3bb 4b13 2f3e bd9a 3e3e 2383 853e
0.1937254 0.054770976 0.17628588 0.042061996 -0.06489318 0.20148954 0.14931947 0.046373125
0.14119555 0.13931425 -0.16394027 -0.2046589 -0.21723345 -0.25775075 -0.11300129 0.16082269
-0.2702934 -0.081636086 0.21662937 -0.1371824 -0.26969904 -0.11173317 0.010874763 -0.100961134
-0.115671106 -0.011299199 -0.056350723 -0.25162667 -0.2516079 0.14632541 -0.04970122 0.18943691
0.028425666 -0.054495912 0.0062313825 -0.016982222 -0.31327733 -0.08086129 0.07586851 -0.15071909
0.18543978 0.08629466 0.02200282 -0.12440768 0.028904587 0.021987975 0.012694237 -0.116823316
-0.09077965 0.058456536 -0.024557333 0.10260296 0.060996246 0.23769432 -0.07057457 0.05833457
0.22910158 -0.077071235 -0.106163464 0.07159047 -0.006947977 0.17097203 0.18613715 0.26076612

layers.1.weight f4 [64, 64]
00000000: aabb 1c3d 1cfc 28bd fa81 843d 5003 c23d
00000010: 7216 0ebe 2652 f7bc 5ac2 83bd b009 1e3d
00000020: 2482 bdbd 70d7 f0bd 70f7 95bd a02d f5bd
00000030: c07a c7bb 7243 9f3d fa25 aebd 688d 11bd
00000040: 7795 443d 1e4b bbbd 8215 cdbd 7080 a4bc
00000050: 64a5 013d 04be 57bd 2b23 2cbc 70bb 1dbc
00000060: f8ee fbbd 4671 b1bd b84f 5d3d a44d bdbd
00000070: a049 04bd a09f c4bc fb59 013d 3924 ebbc
00000080: 7052 24bd d0c7 4dbd 5552 a43d c618 283d
00000090: 1159 a23d 507f 66bc 60c9 02be d57a d4bc
000000a0: 1804 783d af75 df3d 24c7 1abd 3394 a8bd
000000b0: b8f6 9f3d 10c5 cc3c 0cb3 ebbd a016 e7bc
000000c0: a3ba 09bd c139 a2bd 969c fcbd aae4 d8bd
000000d0: a3a2 613d 17a4 ae3d e2fb cdbd 4ace f5bd
000000e0: b619 e33d 1cfe 57bd 98dc 9c3d f07f 1d3d
000000f0: 5e33 07b8 9033 98bd a011 94bc aba6 573d
00000100: 37e8 24bd ccd7 f1bd 88cb 7e3c 9144 edbd
00000110: 575c acbc 5a7c 9d3d c3d3 c03c ec01 133c
00000120: 0f9b 59bc 3922 c8bd dcb4 01bd e7c2 1dbd
00000130: 1998 033d f32a a5ba 3c19 513d cdb5 f83d
00000140: 92b8 29be d491 6f3d a29f c53d 4000 8a3b
00000150: a552 acbd 6877 2a3d 01df 01be b2b3 e3bd
00000160: 2660 d1bd c08b 373d f8f5 193d d652 003d
00000170: 6f8b 663e 4011 8ebb d0fc 293e 771f fdbb
00000180: 5fb1 953d 3ba1 2cbe 1eff babd cdc0 533d
00000190: a92a 06be c4f3 b8bc b7a2 64be 62c4 18bd
000001a0: 7244 8cbd 3ad4 46bd dee5 f3bc cfb8 f7bd
000001b0: e899 d5bd d80f 34bd 13e2 18bd eef2 9a3d
000001c0: 26c7 c63c 2109 d7bd e7ee 3e3e e476 69bd
000001d0: 6278 873d 0f19 29be 5ed3 ee3d c518 f53d
000001e0: abb2 d93d 1bc0 20bd 11a2 f43c 4ab7 f43d
000001f0: 4091 a9bb 5a27 3dbd 19f6 ce3d 2a62 113d
00000200: 2e9f 5bbe 74df d4bd c057 753b 9a7f b2bd
00000210: a968 10be 281e 343c f809 ca3d e561 033d
00000220: 8882 d83c 4058 7a3d 8439 0abe 9e91 b0bb
00000230: fb66 da3d c6e6 81bd 904c 6bbc 9cfe 883d
00000240: 8121 853d 985f 9f3d c088 3f3c da07 283e
00000250: 8afc 43be 5e3d c7bd be1a 633d d8db ab3c
00000260: c33a 8f3d 94c7 653c 101c ffbd 1f6f 5d3d
00000270: 3ffc ba3d c83a df3d ad6b ccbc be6f c03d
00000280: 242d 583b 858b 933d 98f2 d83d bcf6 20be
00000290: a004 e33c 270a 6cbd 7306 3abd ac49 2cbe
000002a0: 48ea 3dbe a4b1 eb3b cf45 94bc 6e8d 22bc
000002b0: 3c48 143d 40ed 9e3d d0f6 9abd a012 ddbd
000002c0: aed5 cabd 5193 82bd dbe8 c6bd acb5 65bd
000002d0: d4fe 133d 6016 2ebd d021 9a3c 885c 1b3d
000002e0: 8f6a 3fbd c738 6fbc e1ee 3fbd 7b03 fabc
000002f0: e2d7 c0bd 8ac6 2e3d 807d 293c 1c10 a73d
00000300: 0121 3f3d 8e39 f33d 0e50 f63c 5059 8ebc
00000310: 0fa2 06be 434f b9bb 9c9a e3ba ca61 073c
00000320: 679d d5bd ba57 c6bd a116 8f3d a30a 07be
00000330: 6c3e cb3d 7702 2d3d 20dd 40bd c0f8 a63c
00000340: e34c ddbd a47e cfbd 0021 25bb a6fa 2fbd
00000350: bf25 bf3c 960d 913d 76e0 913d bc02 65bd
00000360: 08dd fdbd 5966 a13d 0c40 cb3d 2d4e 49bd
00000370: bc3e 88bd f489 143d df2d 0fbe 576e e83c
00000380: 439f efbd ebfd 7bbd e652 00be a851 bfbd
00000390: 9604 c03d ac22 36bd c2f2 58bd 2bcc 03be
000003a0: a39d 06be e1b1 f93c 6a60 5a3d e36b febc
000003b0: b658 da3d 10fc a7bd 883a adbb a0f3 683c
000003c0: fede 893d 88c0 dabd 36d4 13be b8ff 963d
000003d0: 3c7b 9ebd 6970 8dbd 3c87 b13d 1237 ca3d
000003e0: 45e0 33bd 944d 34bd 5a71 953d 6e9b 9abd
000003f0: 4147 a13c 6fdf fbbd 2971 3e3d 1b55 d8bb
0.038264908 -0.041256055 0.064701036 0.09473288 -0.1387575 -0.030190539 -0.06433554 0.038583457
-0.09253338 -0.117598414 -0.073225856 -0.11971593 -0.006087631 0.07776536 -0.08503337 -0.035535246
0.047994103 -0.09145187 -0.10013868 -0.020080775 0.03165187 -0.052671447 -0.010506432 -0.009627208
-0.12301439 -0.08664183 0.054031104 -0.092433244 -0.032296777 -0.024001896 0.031579953 -0.028703796
-0.04011768 -0.050239384 0.08023516 0.04103925 0.07927144 -0.01406844 -0.12772131 -0.025937477
0.06055078 0.10911118 -0.03778757 -0.08231392 0.0781073 0.02499631 -0.1150876 -0.02820903
-0.033625256 -0.07921172 -0.12334554 -0.10590489 0.055086743 0.085273914 -0.100578085 -0.12002237
0.11088888 -0.052732572 0.076592624 0.03845209 -3.2234348e-05 -0.0743171 -0.01807481 0.05264918
-0.04026052 -0.11808738 0.015551455 -0.11585344 -0.021040125 0.07689734 0.023538476 0.008972626
-0.013281598 -0.097721525 -0.03166662 -0.03851595 0.032127474 -0.0012601301 0.051049456 0.12144051
-0.16574314 0.058488682 0.09649588 0.0042114556 -0.08414201 0.04161778 -0.12682725 -0.111182585
-0.10223417 0.04481101 0.03758809 0.031329 0.22514127 -0.0043355525 0.16600347 -0.007724698
0.073092215 -0.1685838 -0.09130691 0.05169754 -0.13102211 -0.022577174 -0.22327696 -0.03729666
-0.068489924 -0.04854224 -0.029772695 -0.12095796 -0.10429746 -0.043960422 -0.037324976 0.075658664
0.024264883 -0.10499788 0.18645822 -0.05699815 0.06614758 -0.16513465 0.11661409 0.11967615
0.10629781 -0.039245706 0.029862436 0.11949022 -0.005174786 -0.046180107 0.10105533 0.035494007
-0.21447441 -0.10394183 0.0037436336 -0.08715744 -0.14102425 0.010993518 0.09865183 0.03207578
0.02642943 0.061119318 -0.13498503 -0.0053884527 0.10664173 -0.06342845 -0.014361516 0.06689188
0.06500531 0.07781905 0.011690319 0.16409245 -0.19139305 -0.09728502 0.055445425 0.020978853
0.0699363 0.014024634 -0.12456524 0.05406105 0.091301434 0.108998835 -0.024953688 0.09396313
0.003298589 0.072043456 0.10593146 -0.15719122 0.027712166 -0.05762687 -0.045416307 -0.16824979
-0.18546402 0.0071928073 -0.018099694 -0.009921415 0.0362017 0.077600956 -0.07566607 -0.10794568
-0.099040374 -0.063757546 -0.097123824 -0.05608146 0.036131695 -0.042501807 0.018814951 0.03793004
-0.04673248 -0.014600939 -0.046858672 -0.030519238 -0.094161764 0.04266981 0.010344863 0.081573695
0.046662334 0.11876212 0.03006747 -0.017376572 -0.13147758 -0.0056552007 -0.0017364803 0.008263061
-0.10430413 -0.09684701 0.06986738 -0.13187651 0.099240154 0.04223868 -0.04708588 0.020382285
-0.108056806 -0.10131577 -0.0025196671 -0.042963646 0.023333428 0.070826694 0.07122891 -0.05591081
-0.12395674 0.078808494 0.09924325 -0.04914682 -0.06652591 0.036264375 -0.13982342 0.028372927
-0.11700299 -0.061521452 -0.12531623 -0.093417466 0.09375875 -0.04446666 -0.052965887 -0.12870853
-0.13146071 0.030480327 0.053314604 -0.031057304 0.106614515 -0.08202374 -0.0052865185 0.014218241
0.067319855 -0.10681254 -0.14436421 0.07372993 -0.07738349 -0.06906206 0.08668372 0.09873785
-0.043915052 -0.044019297 0.07297011 -0.07549177 0.019687297 -0.12298476 0.046494637 -0.0066019422

layers.1.bias f4 [64]
00000000: fe48 0b3d 80db edbd b850 0cbe a9a9 3cbe
00000010: 58e9 c03d d27c 5abc fa40 b03b 5d5a 8f3d
00000020: 3387 04bd 3323 f33c af34 2dbe ed04 a7bb
00000030: 56ed a4bd 62cc c5bd 082e 6b3c 0781 e53c
00000040: d108 c8bd 8425 c6bd a6e5 e13a 4db6 7bbd
00000050: 88d2 38bd fa23 2e3d 2200 a1bd 860e aebd
00000060: 9e71 f8bc db9d 0abe b972 e3bd d28c 823d
00000070: b897 3bbe 06db d83c 61f1 0bbe c5f6 f1bd
00000080: 76b9 88bb bde7 8cbc e11d 063d 378b 0bbe
00000090: 3b3f 0bbe 41ec 31bd 26e6 94bd 32a2 6a3d
000000a0: 6bf6 0dbe df7b 443d a495 94bd cfc8 68bd
000000b0: f5af 023d 6478 5f3b e6e3 f1bd 2692 4e3d
000000c0: 4d57 04be 94fd b43c a9e7 d43d 7fcf ff3c
000000d0: 634b 09bd f864 bdbb dd69 78bd bdc2 75bc
000000e0: 3975 62bd 3721 d93d 1ea5 dc3b 069c 2d3c
000000f0: 5562 843c 826f 54bd 8b7f 253e 1500 d0bd
0.034005158 -0.11614132 -0.13702667 -0.18424095 0.09419507 -0.013335424 0.0053788396 0.06999657
-0.0323555 0.02967987 -0.16914628 -0.0050970227 -0.08053081 -0.096581236 0.014354236 0.028015627
-0.097673066 -0.09675124 0.0017234578 -0.061453152 -0.045122653 0.04251478 -0.078613535 -0.08498864
-0.030327614 -0.1353678 -0.11105866 0.063745156 -0.18319595 0.026471626 -0.13666297 -0.11814646
-0.0041724993 -0.017200345 0.03274334 -0.13627325 -0.1359834 -0.0434382 -0.0727046 0.057283588
-0.13863532 0.047969695 -0.07255104 -0.05683213 0.031906087 0.0034098858 -0.11811046 0.050432347
-0.12923928 0.022093572 0.10395748 0.031226872 -0.03351916 -0.0057798587 -0.060647834 -0.0150000425
-0.055287573 0.10602038 0.0067335507 0.010596281 0.01616017 -0.051864155 0.16161935 -0.10156266

layers.2.weight f4 [9, 64]
00000000: aaa8 febd 4cfd 263d 9c03 6a3d 0987 c9bd
00000010: dbd4 943d db66 053d 910e e5bc ebc9 edbd
00000020: d04a dfbd ff6e b53d 11c2 a13a df0c c8be
00000030: 9075 fabd 43ee 7f3a cc57 bdbd 80bb deba
00000040: dc6c f1bb 2586 63bd 867c 663d 717f 3e3c
00000050: d9d1 1bbd a4ac ce3d 4c5c 833c e15f 93be
00000060: 1bd1 263c 0898 afbe 68f6 263d f0f9 53bd
00000070: 757d 05bf 7f3e b83d caf7 f93a ce40 ce3d
00000080: 9eda dabd fea6 12bd 2257 d13b 89ef 09be
00000090: 1a9c ccbd 5d36 c93d 2233 803c 488e f33d
000000a0: 40f6 a6bd e23f 24bd c69f 16be 1e4d e4bc
000000b0: 9e85 b13d 2ab5 dd3d f3ae 183c 8f9a f03c
000000c0: 3db3 f03c 6c7e b53d 4bb3 d73d f33b 76bd
000000d0: 8ab8 1abd c24e f13c 93c1 c13c 9059 893d
000000e0: 7166 cc3d e626 e93d 58f8 dfbd f0d7 673c
000000f0: fe3f ce3d 550d 223d 97ab d03d 36b8 dcbd
00000100: 321d cd3d 0ad8 b3bd 1e37 283d 6539 553d
00000110: f676 ec3d c88d ca3d 70d3 61bc 2241 9a3b
00000120: ba27 6f3d 40fc 103d a6b9 143d ab0d 85be
00000130: 9886 d93c 80e7 efbd 783c bbbc 6ef0 0dbe
00000140: 0752 1c3d a912 a1bc 2576 c23c c467 d73c
00000150: d902 d4bd 4666 ad3d 9483 4e3d 1cc8 87be
00000160: c319 2dbe 30cd 60bd dfa8 bf3b ea07 febc
00000170: 9464 b7be 9c57 3e3d 12b1 fc3d 1a37 4ebd
00000180: 9d56 f5bc ff10 4fbe 436b 5fbd f200 583d
00000190: e737 d43c 0c8f a53c e1ed 4cbc 5c2f 6cbc
000001a0: 904a 373d c870 163c c935 a7bd 4bde 37be
000001b0: bede 263d 09d6 32bd e078 dcbc 120c 083d
000001c0: efa5 07bd b675 b73d 5aec c33d 7ab3 1fbe
000001d0: fb6c b3bd 6a0a b5bd 91e8 76bd 0fc7 ccbd
000001e0: 85e4 a33d 71c9 233e c4dd 92bd 1e67 aabd
000001f0: 5647 bd3d 2b39 cc3c 3256 c53d e2e4 813d
00000200: 643c b7bd a0be 78bd fc5c f63d d57a a4bd
00000210: a628 b43d ec8a db3d dc17 643d 5d36 ae3c
00000220: 5974 5a3e c61c 033d db9e 643d b237 31be
00000230: 7a97 babd e943 acbe 8c5e d8bc 927a 85bd
00000240: 7c16 a8bb 0c5c afbd ef20 8cbd 9c4e 433c
00000250: 72bf cd3d aab7 c23d 7e36 8fbd 2961 6e3e
00000260: 9d50 de3c ce36 323c d10c babd f252 c83d
00000270: 9a18 d2be ed34 6bbd d537 8cbd 60d4 8abd
00000280: d009 3ebd 03d1 b7be 2429 f3bc 6360 543d
00000290: 1c54 493d cfd6 4fbd b9e5 77bc c50f 873d
000002a0: 0248 d4bd c206 3e3d 77bf febb 6ef4 29be
000002b0: fbe5 ee3c 2a54 ed3d 4df3 a43c 26da aa3d
000002c0: fc95 6e3b 5ff3 d23b d6c3 b93d 0541 74be
000002d0: ed08 a9be 3432 9c3d 1ac8 f43c ab48 99bd
000002e0: 1f8b cf3d 5bb4 1f3d 9c2d 4ebd 041c 1b3d
000002f0: 9eff 333e a333 483c e57c b33d d212 c83d
00000300: 685b 443d 75e6 673c 955e 9a3d f4c0 be3d
00000310: be26 893d 94eb fcbc 90d7 cebc ea8d 68be
00000320: d58f 30bd cfb5 e43d 2479 113d 42f7 0dbe
00000330: 2cf7 a8bd 88f9 e4bc cbc1 263d ba53 85bd
00000340: 9162 ca3a 0f70 8f3c 8ec8 bbbc d9d8 513d
00000350: 2cea 9abd c2ef c53d 1ad1 893d 8534 7cbe
00000360: 8c0f a8bd b201 1dbd 330b 363d fcbb a1bd
00000370: 3edc d9be bbae bb3d 317b 883d b166 2f3d
00000380: 0422 71be 7b59 8abc 543e f2bd a849 d4bc
00000390: 99d5 f43d 8b00 32bd 60e7 90bd ba6c 06bc
000003a0: 262d 9e3d e029 33be d8fc 14bd ad73 6fbe
000003b0: 3e7d 3fbd c602 a5bd f234 b83d 0d94 40bd
000003c0: 4a1e 60bc 1cea cb3d 34ed df3d b146 03be
000003d0: 23f5 e93b f7e8 843d 512f 25bc 1574 a83d
000003e0: b0f3 c53d 303a d83d 07f2 07bd 6a69 e9bd
000003f0: b607 1c3d f2c7 3abc 2771 8d3d 40e5 e4bc
-0.12434514 0.040768906 0.05713235 -0.09840209 0.072671615 0.032568794 -0.027961047 -0.116107784
-0.10902941 0.088590614 0.0012341161 -0.3907232 -0.122294545 0.0009762982 -0.092452615 -0.0016993135
-0.0073677134 -0.055547852 0.0562711 0.011627064 -0.038041923 0.10091522 0.016035222 -0.28784087
0.010181691 -0.34295678 0.040762335 -0.05175203 -0.5214456 0.08996295 0.0019071039 0.10070954
-0.10686229 -0.035803787 0.006388561 -0.13470282 -0.099907115 0.09824822 0.015649382 0.11892372
-0.08152437 -0.040099986 -0.14709386 -0.027868804 0.086680636 0.1082557 0.009319055 0.029370574
0.029382342 0.08862004 0.10532244 -0.060115766 -0.037773646 0.0294565 0.023651874 0.06706536
0.09980477 0.113843724 -0.1093604 0.014150605 0.10070799 0.039563496 0.10188978 -0.10777323
0.10015334 -0.087814406 0.04106819 0.05205669 0.115461275 0.09890324 -0.013783321 0.0047074715
0.058387496 0.035396814 0.03630986 -0.2598699 0.026553437 -0.11714077 -0.022855982 -0.13861248
0.038164165 -0.019662218 0.023737976 0.026294596 -0.10352106 0.08466773 0.05041845 -0.2651986
-0.16904359 -0.054883182 0.0058489884 -0.031009633 -0.35818923 0.04647027 0.12338461 -0.050345518
-0.029948527 -0.20221327 -0.054545652 0.052735277 0.025905563 0.020209812 -0.012507887 -0.014415588
0.044748843 0.009182163 -0.081645556 -0.17955892 0.040739767 -0.04366115 -0.026913106 0.033214636
-0.03311723 0.089579985 0.09566565 -0.15595809 -0.08761021 -0.08839877 -0.060280386 -0.09998905
0.08002571 0.15994813 -0.07171205 -0.08320449 0.09242122 0.024929604 0.09635581 0.06342484
-0.089470655 -0.06072867 0.12029454 -0.08031241 0.087968156 0.107198566 0.055686817 0.021266157
0.21333446 0.032009862 0.05581556 -0.17306402 -0.09110923 -0.3364556 -0.026412271 -0.06517519
-0.0051296335 -0.085624784 -0.06842219 0.011920597 0.10046281 0.095076874 -0.069928154 0.23279251
0.027138049 0.010877324 -0.09084476 0.097814456 -0.41034395 -0.05742352 -0.068465866 -0.067787886
-0.046396077 -0.3590165 -0.029682703 0.051849734 0.04915248 -0.050741967 -0.015130454 0.06594805
-0.10365297 0.046393164 -0.007774289 -0.16597149 0.029162398 0.11588319 0.020135546 0.0834239
0.0036405316 0.0064377035 0.09070556 -0.23852928 -0.33014622 0.07626763 0.029880572 -0.074845634
0.10133957 0.03899036 -0.050336465 0.037868515 0.17577979 0.012219342 0.08764056 0.09769215
0.047938734 0.014154066 0.07537571 0.09314147 0.066968426 -0.030874051 -0.025249273 -0.22710386
-0.04310592 0.1116749 0.03551592 -0.13863853 -0.08250269 -0.027951017 0.04071216 -0.0651011
0.0015440752 0.017509488 -0.02292278 0.051232193 -0.07564196 0.09664871 0.06729336 -0.2462941
-0.0820609 -0.038331695 0.044444274 -0.07897183 -0.42550844 0.091641866 0.06664122 0.042822544
-0.23548132 -0.01688837 -0.118282944 -0.025914028 0.11954803 -0.04345755 -0.07075381 -0.008204633
0.07723455 -0.17496443 -0.036373943 -0.2338397 -0.0467503 -0.080571696 0.089944735 -0.047016192
-0.0136790965 0.09956762 0.10933915 -0.12819935 0.0071398183 0.06489747 -0.010082082 0.08225266
0.0966562 0.105579734 -0.0331898 -0.11397059 0.03809329 -0.01140021 0.06906348 -0.027941346

layers.2.bias f4 [9]
00000000: 90fa f63d c20f 89bc 4fa5 083e 2861 1f3e
00000010: 549e b23d 0f61 cc3b fe69 5d3d afc2 233e
00000020: 8301 1e3e
0.1205951 -0.016731147 0.1334431 0.15564406 0.08721605 0.006237156 0.05405616 0.15992235
0.15430264
