experiments/learn_cdrive/cdrive/2022_01_20_133149959763_0_664e5/2022_01_20_133149959763_0_664e5_6999.pth (torch, 32215 bytes, 6 tensors)

layers.0.weight f4 [64, 7]
000000 89 5d 13 be 7c d9 a0 be be d7 13 3e 5c bf 11 3e
       -0.1439115 -0.31415927 0.14437768 0.14233154
000010 8d d0 a2 be 74 3a c4 be 7a b2 7e 3e 7d 28 81 3d
       -0.31799737 -0.38325846 0.24872771 0.06306551
000020 0b 7d e6 3d 70 78 be bc 3e 3e 99 be 93 a5 0b bd
       0.11254319 -0.023250788 -0.299303 -0.03409345
000030 f6 7e 36 be fa b6 03 be 4c 88 20 3e d6 48 44 3e
       -0.17821869 -0.12862769 0.15676993 0.1916841
000040 f9 9c d0 bd 2f c1 c8 be 5b 1e 74 bd 00 ef 83 3e
       -0.1018619 -0.39209887 -0.05959926 0.2576828
000050 c4 20 4a 3e fe 76 2b 3e 16 ae ac be 03 b1 b2 be
       0.19739062 0.1674461 -0.33726567 -0.34900674
000060 7b fc 51 be 80 0a bb bd c8 4b 98 be 00 9d 9a 3d
       -0.2050647 -0.09132862 -0.29745317 0.075494766
000070 20 8d 8f bd 40 ac b2 3b e0 07 0f bc 30 f8 ff 3c
       -0.07009339 0.0054526627 -0.008729905 0.031246275
000080 4c 27 ea bd 52 29 ba be 58 61 af 3d 00 45 0d 3d
       -0.114332765 -0.3635965 0.08563489 0.03448963
000090 3f a7 27 be fe 9d 93 be fd 9c 67 3d 92 58 42 be
       -0.16372393 -0.28831476 0.0565462 -0.189791
0000a0 6c fa e0 bc 94 a4 8b 3e 3e 29 1d ba 9e 18 77 3e
       -0.02746316 0.27274 -0.000599522 0.24130484
0000b0 ca dd 8b 3e 80 18 ae bd 67 e4 a2 be 3c ae ce be
       0.2731765 -0.08500767 -0.31814882 -0.40367305
0000c0 3f 87 a6 3c 0e e8 18 be b5 27 a7 3e 73 36 99 bd
       0.020328162 -0.14932272 0.32647482 -0.074810885
0000d0 64 f1 1d bc a3 20 3e 3e 9f ed 9e 3d 30 92 03 be
       -0.009640072 0.18567137 0.077601664 -0.12848735
0000e0 cb 2a 37 3e cd 62 7b be 76 2b 93 be 93 c2 85 3e
       0.17887418 -0.24549408 -0.28744096 0.2612501
0000f0 d6 d8 9d bd d6 9e 76 bd ee d3 03 be d5 93 0f be
       -0.07707374 -0.06021007 -0.12873814 -0.14021237
000100 43 dd 81 be 82 8e 2b 3e 79 c0 32 3e ca b0 a1 be
       -0.25364122 0.16753581 0.17456235 -0.31580192
000110 21 0c c2 3e 31 72 88 be 84 0e aa be 4c bb 9e 3d
       0.3789988 -0.2664962 -0.332142 0.07750568
000120 f4 6a db bd 63 5b a0 be ce a8 92 be e2 7f 9c be
       -0.10713759 -0.31319723 -0.28644413 -0.30566317
000130 28 43 21 bd 54 dd b0 be 0d bf 5e 3d d1 36 68 be
       -0.039370686 -0.3454386 0.05438142 -0.22677161
000140 ae be c1 3e a5 74 a6 3e 9b d3 72 bd 4d cd 9a 3e
       0.3784079 0.32510868 -0.059283834 0.30234757
000150 23 39 7c 3e 64 8d 87 3e 53 7e e9 be 59 2f 2e 3e
       0.24631171 0.2647506 -0.4560419 0.17010249
000160 43 f5 81 bd 9c 47 92 be 28 36 7e 3d 35 01 7a 3e
       -0.06345608 -0.2857026 0.062063366 0.24414523
000170 c9 6b ca 3e 74 81 22 be 31 52 b4 3e 79 48 94 bd
       0.3953536 -0.15869695 0.35218957 -0.072403856
000180 21 70 ff 3d f9 81 57 be cf 23 e7 bd 55 26 75 3e
       0.12472559 -0.21045674 -0.11286127 0.23940404
000190 50 69 87 3e 76 ae 7c be 66 f2 72 be 9f b2 8e bd
       0.26447535 -0.24675927 -0.2372528 -0.06967663
0001a0 11 bd 85 be ce 33 70 3e d8 ec ff bc e1 24 29 be
       -0.2612081 0.23457262 -0.031240866 -0.16517974
0001b0 b3 f1 00 3e 42 ca af be 76 75 b7 3e 44 5b b2 be
       0.12592201 -0.34333998 0.35831803 -0.34835255
0001c0 cb 84 96 be 67 56 99 bd 74 22 b6 be 41 92 97 3d
       -0.29398188 -0.07487183 -0.3557316 0.074009426
0001d0 cc dd b5 bc f1 bb 02 3d d0 48 76 be 23 be 77 3e
       -0.022200488 0.031917516 -0.24051213 0.24193625
0001e0 58 be f9 3d 9d ab ee 3c e9 aa eb be 21 c8 86 3e
       0.12194508 0.029134566 -0.46028832 0.2632456
0001f0 36 c5 e4 bd fb e1 99 be ce 8c 14 be 17 b4 b4 3d
       -0.111704275 -0.30055222 -0.14506838 0.08823412
000200 14 11 83 3e 81 04 91 be 59 bc a3 bd 5b bd 89 3e
       0.25598967 -0.2832375 -0.07994909 0.2690228
000210 ad 78 b5 be 04 5d 83 3d 31 aa 50 3d a2 7a ab bd
       -0.3544363 0.06414226 0.050943557 -0.08373
000220 03 b3 ae be e6 a4 af 3d 64 e2 54 3e c7 ec 89 3e
       -0.3412095 0.08576374 0.20789486 0.2693846
000230 7a 26 a1 3e 60 89 1a 3e a1 2f 11 3e 0e 67 8a 3e
       0.31474668 0.15091467 0.14178325 0.2703175
000240 1c 91 92 be 74 3c 1b 3e 52 3b a3 3c 76 02 a7 3e
       -0.28626335 0.1515978 0.019925747 0.32619065
000250 31 2c 5d be 73 96 40 be 73 3a 1c 3e a7 b2 59 be
       -0.21598889 -0.18807392 0.15256672 -0.21259557
000260 9e 7c ce 3e 6f 77 09 3e 2f 43 89 bd 66 da 87 be
       0.4032945 0.13424467 -0.067022674 -0.26533812
000270 e1 1f 44 be 66 14 ae bd 63 a1 5f 3e 9b fc 1a be
       -0.19152786 -0.084999844 0.21838908 -0.15135424
000280 1d 99 91 3e b4 16 d9 be 39 c9 e9 be ce 28 81 3e
       0.2843713 -0.42400134 -0.45661333 0.25226444
000290 3c b5 ff 3d 95 18 ae be 3b 89 bd be 7c ac 7a 3e
       0.124857396 -0.3400313 -0.3701876 0.2447986
0002a0 5f cb 79 be 18 86 24 3d a8 f7 e6 3d a0 77 a9 bc
       -0.24393986 0.040166944 0.112777054 -0.020686924
0002b0 70 bb cd bc f0 54 d1 3c fc f6 c0 bd 6c e9 4e 3e
       -0.025113791 0.025553197 -0.094221085 0.20206231
0002c0 98 3b 45 bd d3 ab a4 3e b4 d0 9e 3e 58 96 e1 3c
       -0.048152536 0.3216234 0.31018603 0.02753751
0002d0 3f 17 11 3e 54 a0 c8 bc 73 b7 88 3d 98 76 89 3e
       0.14169024 -0.024490513 0.06675615 0.26848292
0002e0 aa a5 19 be 91 51 cd 3e e7 10 31 3d de cd a2 be
       -0.15004602 0.40101293 0.04322901 -0.3179769
0002f0 c5 18 3a 3e 17 19 54 3e 49 e9 92 bd f4 c1 27 be
       0.18173511 0.20712696 -0.07173402 -0.16382581
000300 30 4e c2 be ac 92 90 3e 3a 26 35 be 33 f6 b0 be
       -0.37950277 0.28236902 -0.17690364 -0.34562835
000310 50 d2 20 be 38 49 f3 bd 74 81 89 bd 30 4d aa be
       -0.15705228 -0.118792 -0.06714144 -0.33262014
000320 d3 50 2e be 58 81 96 bd 6d d4 a3 be b8 9d 7c 3d
       -0.1702302 -0.07348889 -0.31998006 0.06167385
000330 af 89 bc bd 64 c8 79 3d 2a 50 ef bd a8 30 4d be
       -0.092059486 0.060982123 -0.11685212 -0.20038092
000340 fc 37 0b 3e c8 70 a1 3e 06 8d 2f 3e 10 27 49 be
       0.13595575 0.31531358 0.1714364 -0.19643807
000350 9b 10 87 bd 16 5f 09 be e1 09 60 3d 9a d5 9d be
       -0.06594964 -0.13415179 0.05469692 -0.30827028
000360 1a 55 18 3e 4c c0 dd 3b 23 00 3d bb 90 ff e9 bd
       0.14876214 0.0067673083 -0.0028839193 -0.11425698
000370 4c bf a0 be f8 6a a4 be 57 36 8a 3e c5 a4 14 bd
       -0.31395948 -0.3211286 0.26994583 -0.03628995
000380 5c d3 ce bd 67 a5 8e be 00 10 bd b8 88 cb 8b be
       -0.10098907 -0.27860567 -9.0152025e-05 -0.2730372
000390 80 14 d8 3b 3e f9 b1 be 28 f9 6d 3d 21 3b a7 3e
       0.0065942407 -0.3476047 0.058098942 0.326623
0003a0 c9 fd ba be b8 6c 2b 3e 3b dd 64 be a4 5d 4d 3e
       -0.36521748 0.16740692 -0.22350018 0.20055252
0003b0 d3 df 9f be 74 8a 73 3e 62 5c 69 3e e3 16 c9 3e
       -0.31225452 0.23783284 0.22789147 0.39275274
0003c0 2f b3 c5 3d 3a a0 9f 3d 86 33 98 be 89 2c c0 3e
       0.09653317 0.07794233 -0.2972681 0.37533978
0003d0 9d 43 35 bd c1 d0 97 3e 59 eb 5c 3e dc e3 d3 be
       -0.044253934 0.29651454 0.21574153 -0.4138478
0003e0 d6 0f ac 3e 5e 0a 04 3d 88 bc d5 3d e1 cb 91 be
       0.33605832 0.03223645 0.1043635 -0.2847586
0003f0 0f 39 29 3e 74 b2 b8 bd 83 b3 e1 bd 75 19 6a 3c
       0.16525672 -0.09018412 -0.11020567 0.014288296

layers.0.bias f4 [64]
000000 91 a7 9d be cd 9d 2f 3d 4b 6c b0 ba 42 e1 97 be
       -0.30791906 0.0428751 -0.0013460008 -0.29664046
000010 5c 64 ba be 9c ef 49 3e c7 f2 89 be 4c 1f 27 be
       -0.36404693 0.1972031 -0.26943037 -0.16320533
000020 19 0a f7 3d 19 cf 4f 3e 05 17 85 3e f6 90 3c be
       0.12062473 0.20293845 0.25994125 -0.18414673
000030 c3 2c 71 be 20 17 92 3e 56 8c c3 3e 5c 59 98 be
       -0.23552231 0.28533268 0.38193005 -0.29755676
000040 b3 5c 73 3e 3e 3b 72 3d f5 2e 2a b9 a7 70 b2 bd
       0.2376583 0.05913853 -0.00016229956 -0.08712893
000050 ba 92 8d bd ad 18 71 be 35 ad 95 be eb 72 ac be
       -0.069127515 -0.2354457 -0.2923371 -0.33681425
000060 66 d9 a5 be bf 3c 54 be 84 4f d2 3e 39 62 96 bc
       -0.32392424 -0.20726298 0.4107629 -0.018357383
000070 f0 2f 65 bd b4 c1 16 3d 27 31 3a 3e 74 11 16 3d
       -0.05595392 0.036805823 0.18182813 0.03663774
000080 fd 78 7b be 86 7b 25 be 32 75 8c be 4a 24 72 3e
       -0.24557872 -0.16160402 -0.27433163 0.23646656
000090 77 16 1e 3e 51 22 d8 bd e4 54 76 be 41 43 34 bd
       0.15438257 -0.1055342 -0.2405582 -0.04400945
0000a0 45 75 25 bd 07 6c 8d be c0 ac 59 3e 52 e0 bb be
       -0.04039504 -0.2762148 0.21257305 -0.3669458
0000b0 d4 99 ea bd 32 5b c0 be d6 26 b2 3e 0a 0a bd be
       -0.11455122 -0.37569577 0.34795254 -0.36921722
0000c0 8d 0f 51 3e 44 4e 93 3e 9a 18 37 be ee 7a a0 3d
       0.20416088 0.2877065 -0.17880479 0.07835947
0000d0 4f aa 9f bd e6 30 59 be c4 14 a4 bd 50 41 1c bd
       -0.07796156 -0.2121006 -0.08011773 -0.038148224
0000e0 4b 80 97 be 28 2a a2 be c7 c3 a7 be 81 fc 8e 3e
       -0.29590067 -0.31672788 -0.32766554 0.2792702
0000f0 38 ef 05 3e 67 ab 21 be 4a d2 1b 3e 1a 05 79 be
       0.13079536 -0.15788041 0.15216938 -0.24318352

layers.1.weight f4 [64, 64]
000000 24 46 af bd 81 1d d3 bd c8 08 4c bc 2c d8 36 3d
       -0.085583 -0.10308362 -0.0124532655 0.04463975
000010 f6 68 8b 3d eb d2 2d 3d 7f a4 80 bc 46 bd d3 3c
       0.06807129 0.042437475 -0.015703438 0.025847089
000020 1d 25 db 3d d7 20 0d 3e e4 70 b8 3d 72 1d 09 3d
       0.10700438 0.13782059 0.09005907 0.033475347
000030 61 e0 cd 3c 17 d7 e3 3d cd 2e 32 bb 3b 04 f8 3d
       0.025131406 0.111250095 -0.002718854 0.12110182
000040 a2 34 e3 3d 59 71 6a bc bc f0 26 3e b4 57 ae 3c
       0.11094023 -0.014309251 0.1630277 0.021282054
000050 7c 81 3d 3e d6 45 a2 3c 68 b0 ac bd d0 ee f3 bd
       0.18506426 0.019808691 -0.08432084 -0.11910784
000060 28 ce d7 bd a8 ff c2 3d 68 4e 22 3e 95 df c9 bd
       -0.10537368 0.09521419 0.15850222 -0.09857098
000070 d0 57 7f bc a8 55 1d bd 3a 38 23 3c 07 f6 08 3c
       -0.015584901 -0.038411766 0.009962136 0.008359439
000080 be 3e a8 3d 65 39 8d 3d aa 80 a5 3b 95 2a 6c bd
       0.08215092 0.06895713 0.0050507383 -0.057657797
000090 c8 ea 92 3d 93 14 c8 3d 44 b5 9b bd 9c 2d 1d 3e
       0.07173687 0.09769549 -0.07602933 0.1534943
0000a0 94 6c e3 3d e8 d0 07 bd 0f 42 35 3d 94 83 e9 bd
       0.11104694 -0.033158213 0.04425245 -0.1140205
0000b0 7c 76 eb 3d 28 67 37 3d b6 08 b9 3d cc d6 5e bd
       0.114972085 0.04477611 0.090348646 -0.054404065
0000c0 93 70 bd 3b 67 78 ff 3d 26 cd 36 bd 8d 55 15 be
       0.005781242 0.12474137 -0.04462924 -0.14583416
0000d0 69 6a 97 bd b9 3c 2f bb 35 4e e8 3c 70 31 21 bd
       -0.07393343 -0.0026739074 0.028357605 -0.039353788
0000e0 b4 4c 12 bd 6c 19 33 3e e8 df 10 3d eb 3d 4c bd
       -0.03571768 0.17490166 0.035369784 -0.049863737
0000f0 79 b0 00 3d f4 84 09 be 68 06 1f 3d 5b 24 ca bd
       0.031418297 -0.13429624 0.03882447 -0.098702155
000100 9c f0 32 bd 48 96 c1 bd 99 d2 d7 bd 44 a9 12 bd
       -0.043686494 -0.09452492 -0.10538215 -0.035805956
000110 88 a3 69 3d 42 61 c5 3d 41 01 69 3d f8 43 67 3b
       0.05704072 0.09637691 0.05688596 0.0035288315
000120 35 2e 0f bd 53 92 c3 3c 80 b5 82 3a 79 99 c1 bd
       -0.034956176 0.023873484 0.0009972304 -0.09453101
000130 3f 60 d6 bd d5 c3 77 3c 2b a5 bd bd 58 64 d3 bd
       -0.10467576 0.015122374 -0.09260019 -0.103218734
000140 cb bf 99 3d a0 ad f0 bc ab f9 da bd d4 ec 40 bd
       0.07507285 -0.029379666 -0.10692152 -0.047100857
000150 2c d5 be 3d 80 bd dd bd 08 2a ec 3d 80 26 39 3c
       0.09318003 -0.1082716 0.11531454 0.011300683
000160 18 2e d9 bd 91 f7 90 bd 06 7c cf 3b 48 84 94 3d
       -0.10604495 -0.070784695 0.0063319234 0.07251793
000170 f0 fd d4 bc 7e 0f 90 3d 85 10 2a 3d c6 05 9a 3d
       -0.025999993 0.07034205 0.04151966 0.075206324
000180 40 75 3e bc 7b 63 f3 bc 32 e7 e6 bd 66 24 07 be
       -0.011624634 -0.029710522 -0.11274566 -0.13197479
000190 47 ab bf bd 77 09 98 bd 28 18 a9 3c 23 46 91 3d
       -0.093588404 -0.0742368 0.020641401 0.07093456
0001a0 a2 33 d9 bc 0e 61 20 bd 17 8c 1e bd f2 b9 e6 3d
       -0.026513878 -0.03915506 -0.03870782 0.11265935
0001b0 4c 99 aa 3d f8 34 de bd e6 d6 80 3d 58 0c cf bc
       0.0833002 -0.10849947 0.062909886 -0.02527444
0001c0 a1 19 aa bd b7 d2 1b 3d aa 42 90 3d 2d 98 de 3d
       -0.083056696 0.03804275 0.07043965 0.10868869
0001d0 00 bc b5 3a 07 72 37 3d cc cd e1 3b 06 c4 c2 3d
       0.0013865232 0.04478648 0.006890988 0.09510045
0001e0 e8 3b b1 bd 26 17 25 be 2c 78 18 3d 65 b2 22 3c
       -0.08654004 -0.16122112 0.03722398 0.009930228
0001f0 7f aa eb 3c 06 35 91 3d 98 2c df bc 3e be ca bd
       0.028767822 0.070901915 -0.027242944 -0.09899567
000200 a2 ef 40 bd 71 fd c7 bc c4 9b 24 be e0 48 b5 3c
       -0.04710353 -0.024412842 -0.16075045 0.022129476
000210 94 19 a2 3d 4a 46 19 be 93 c9 81 3c 90 27 d6 3c
       0.07915035 -0.1496822 0.015843188 0.026141912
000220 2b 91 01 3e 8b 20 b6 3c 98 eb 9c bc 95 6e d5 3a
       0.12653033 0.022232315 -0.019155309 0.0016283566
000230 4d 1c c8 bd 26 72 9a 3d d5 13 29 3a 78 d2 72 bd
       -0.09771023 0.07541303 0.00064497936 -0.05928275
000240 d4 1d c1 bd 8e ae dc bd 45 f2 9b 3c 05 7c 7a bd
       -0.094295174 -0.10775481 0.019036422 -0.06115343
000250 45 1f 8c 3d 01 3f 10 3e 50 b5 e1 bd 6f 98 b8 bc
       0.06841902 0.14086534 -0.11020911 -0.022533624
000260 58 9f e9 3d e3 f3 3f bc 66 83 48 3d e0 9a 09 be
       0.114073455 -0.011715862 0.048953436 -0.13437986
000270 e0 ab a2 3b 78 b8 a3 3d 1c b1 3a be 8b 0f aa bd
       0.0049643368 0.07994169 -0.18231624 -0.08303746
000280 00 91 05 bd 67 c2 dc bd c8 75 d8 3d ba 4a aa bc
       -0.032608986 -0.10779267 0.1056934 -0.020787586
000290 5d b0 98 3c b0 a4 1b be ca 2e aa bd 11 fe 54 bd
       0.018638784 -0.15199542 -0.083097056 -0.05200011
0002a0 7a d3 05 bd 02 c4 e1 bd 32 ee 9b bc ac 62 75 3d
       -0.032672383 -0.11023714 -0.019034479 0.059908554
0002b0 d0 85 f7 bd dc 37 bb bd d9 f5 15 bd a0 2d 91 3b
       -0.120860696 -0.09141514 -0.03661141 0.0044304878
0002c0 92 8b d7 bd 37 1d 62 3d d8 85 f5 bc f9 d0 f2 bc
       -0.10524668 0.055203643 -0.029971048 -0.029640662
0002d0 de a1 e3 bd 3d 36 5d bd f8 55 b9 bd f8 83 89 bc
       -0.11114858 -0.054006804 -0.090496 -0.01678656
0002e0 0f 35 a2 3d 87 fd 2f 3d 2e 1d f1 bd 7a 80 4d 39
       0.079202764 0.042966392 -0.11773144 0.00019598185
0002f0 9c 03 9b bd 29 d0 d1 bd 44 14 8f 3d 50 dc 4e 3d
       -0.07569048 -0.102447815 0.06986287 0.050503075
000300 12 59 8d 3d 1e 20 6e bd 1d b9 4f bd a0 b3 93 bd
       0.069017544 -0.058136098 -0.050713647 -0.07211995
000310 a4 3e db bd 90 3c 9d bd ae 7a be bd 13 c9 dd 3d
       -0.10705307 -0.07677567 -0.09300743 0.108293675
000320 4d 81 94 3c 2e b5 14 3b d0 b9 47 3d 97 b5 ab 3d
       0.018128062 0.0022691 0.04876119 0.08384245
000330 fb 47 98 bc 02 24 9a 3c dd 12 0f be 8e 9d a4 3d
       -0.01858901 0.018815998 -0.1397204 0.08037864
000340 17 ab fd 3d db 56 48 3d 5f 62 11 3b 78 02 2a 3d
       0.123861484 0.048910957 0.0022183878 0.04150626
000350 39 a0 80 3c a5 cc ca 3a f3 e0 a6 3d 1c 30 a7 bb
       0.0157014 0.0015472366 0.081483744 -0.0051021706
000360 2a 6e d5 bd 44 5f 0a bd 48 ea af 3c b0 50 32 be
       -0.10421403 -0.03378226 0.021474019 -0.17413592
000370 3c ae 5d bd 80 af 15 bd f2 b4 ed 3d 2d 21 a7 3d
       -0.05412124 -0.036544323 0.11606778 0.08160625
000380 2c dc e6 3d 60 7b 2d 3d 86 ce 09 be f8 e4 df bd
       0.11272463 0.042353988 -0.13457689 -0.10932344
000390 4b 5d e9 3b c0 5f 5d 3b a4 83 3c 3d 3c 35 e7 bd
       0.007121717 0.0033778995 0.04602398 -0.112894505
0003a0 87 d1 cb bd d0 c5 9e bd 91 c5 98 3d d2 61 fc bd
       -0.099520735 -0.077525735 0.07459558 -0.12323345
0003b0 1e 37 80 bd 34 55 ac 3d d4 1c 10 bd 5a 54 c1 bd
       -0.06260513 0.08414689 -0.035183743 -0.09439917
0003c0 6d 6c 06 be 5e d0 81 3b 24 27 cf 3d 88 3f 9a 3d
       -0.13127299 0.003961607 0.10114887 0.07531649
0003d0 a4 45 3f 3d ff ed 49 bd 9e 71 7f bc f4 ab b7 bd
       0.046697274 -0.049299236 -0.015591053 -0.08968344
0003e0 e3 b2 98 bd 99 f9 94 bd 68 d6 87 3d eb 59 68 bd
       -0.07455995 -0.072741695 0.066326916 -0.056726377
0003f0 f2 4e fe bd d9 e9 46 3d d0 2a 63 bc af 01 33 3d
       -0.124174014 0.04856286 -0.013865188 0.043702777

layers.1.bias f4 [64]
000000 05 30 a9 3c 67 0b a0 bd 04 ea 1f 3b 39 cd 30 3d
       0.02065278 -0.07814675 0.0024400959 0.043164466
000010 5e e0 92 3d 00 10 93 b9 ae ac e4 bd 7a c2 b5 3d
       0.07171701 -0.00028049946 -0.111657485 0.08874984
000020 17 1e 86 3c 0e 6c b6 3d 13 04 63 bd 30 7d 8a 3c
       0.01637177 0.089073285 -0.055423807 0.016905397
000030 d1 4f f2 bc 4d d9 a9 3d ca 29 23 bd 04 80 04 3d
       -0.029579075 0.082934 -0.039834775 0.032348648
000040 e3 c5 30 bc 7d b1 94 3d 4c 23 01 bd 60 1a ff 3d
       -0.010789367 0.07260416 -0.031527802 0.124562025
000050 d8 e3 f5 3c 29 ed 1a bd a1 82 81 bd a5 21 23 3d
       0.03001587 -0.03782383 -0.063237436 0.039827008
000060 d3 13 a3 bd 9b 5e d1 bd 71 53 33 3d 6f a4 12 39
       -0.079627655 -0.10223123 0.043780748 0.00013984901
000070 99 84 00 3e 59 77 14 3e a8 40 30 bd a1 1d b0 3d
       0.12550582 0.14498653 -0.04303041 0.08599401
000080 ed 47 37 3d 01 7e f3 3b ea 39 13 3d b0 0b 02 bd
       0.04474633 0.0074307923 0.035943903 -0.031749427
000090 99 83 5f bd 17 93 e8 bc d7 fa 95 3c aa 0f 80 3b
       -0.05456886 -0.02839045 0.018308086 0.0039081173
0000a0 03 49 cb 3c 0a d5 8b bd 15 a7 f6 3b 6e d1 ba bb
       0.024815088 -0.06827743 0.007527242 -0.0057012355
0000b0 54 7b ee bd 0c b2 9c 3d 01 3c ab 3d 27 b4 b9 bd
       -0.11644617 0.07651147 0.08361054 -0.090675645
0000c0 a5 6f 1c 3c ec a5 c0 bd f5 70 c4 3d f0 14 2c 3e
       0.0095481025 -0.09406647 0.09591857 0.16804862
0000d0 da 57 2d bd 3c 10 5d bd 2c 12 17 bd c1 59 b5 bd
       -0.04232011 -0.05397056 -0.036882564 -0.0885501
0000e0 b0 8a 79 3c 0f d0 4c bd b2 3c e1 bd 78 0d b1 3d
       0.01523082 -0.050003108 -0.10997905 0.08645147
0000f0 c3 56 a0 3c 2c c6 d2 bd 51 88 aa bd d7 03 93 3d
       0.019572621 -0.102917045 -0.083267815 0.07178467

layers.2.weight f4 [45, 64]
000000 2d fd f5 3d c0 00 f6 3d 94 05 67 3c c9 87 fa 3b
       0.1201118 0.12011862 0.014100451 0.0076455814
000010 c7 b3 06 bc 1c 9d 9a bd 84 19 76 bd f8 31 91 3d
       -0.008221573 -0.075494975 -0.060082927 0.07089609
000020 00 db b5 ba be 6b 1f be ed 54 14 3e 72 36 84 bd
       -0.0013874471 -0.15568444 0.14485522 -0.06455697
000030 5f 4b 98 bd ab 25 32 bc 54 52 39 3d f6 fa ef bd
       -0.07436251 -0.010873239 0.04524453 -0.11717789
000040 68 63 bd bc 04 b7 a8 3d d3 76 06 ba fe 83 2a 3d
       -0.02311869 0.082380325 -0.00051294005 0.041629784
000050 09 e9 36 bb 14 21 56 3d dd f0 b9 3c c9 73 bb 3d
       -0.0027909896 0.05227764 0.02269786 0.09152944
000060 91 a7 aa 3d b4 9a db 3d 3a 80 50 3d 65 0e 22 bc
       0.08332742 0.10722867 0.050903536 -0.009891127
000070 1d 19 0b 3e 32 f6 0a 3e 38 6f 66 3d f6 91 08 bd
       0.13583799 0.13570479 0.05625841 -0.033342324
000080 bf 42 5f bc a8 1b ac 3d 96 18 0d 3e 86 17 16 3e
       -0.013626753 0.084037125 0.1377891 0.14657411
000090 ec 00 b4 bb 00 6a cf 3d 95 fb 91 3d f8 12 13 3e
       -0.005493274 0.1012764 0.071280636 0.14362705
0000a0 7e be d7 3d 5a be e3 3c 5b 2d c6 bc 69 2b 17 3d
       0.105343804 0.027800728 -0.024191549 0.036906634
0000b0 80 96 b0 bd ba 7b 2c bd 7d c5 9f 3d 73 f4 2e bd
       -0.086224556 -0.042110182 0.0780134 -0.042713594
0000c0 9c 43 e6 bd b1 25 99 bd ae 70 1b 3d 26 6e 74 3d
       -0.11243364 -0.07477892 0.037949257 0.05967536
0000d0 cf bc 55 bd e0 7f 24 3d f6 08 e7 bd 6e 82 8b 3d
       -0.052182015 0.040161014 -0.11281006 0.06811987
0000e0 a0 34 af bb a1 3e f5 3d f0 2c 56 3c 47 fa 3a bd
       -0.0053468496 0.11974836 0.013072237 -0.04564884
0000f0 32 d2 b7 bc 98 01 95 bc 08 ff 29 3d ec 86 1e 3e
       -0.022439096 -0.018189237 0.041502982 0.15481156
000100 e2 57 b3 bd a8 7a c5 bd c0 57 d2 bd ea 70 9e 3d
       -0.08756997 -0.096425354 -0.10270643 0.077363804
000110 f8 55 2e 3d 2c 19 50 3d 58 f0 8b 3d 80 40 e2 3b
       0.042562455 0.050805256 0.06832951 0.0069046617
000120 d2 1d d0 3d 3c 68 1c 3d b0 1f a3 bc 1a f2 e0 3d
       0.10161938 0.038185343 -0.01991257 0.10983677
000130 72 45 c9 bd 50 53 5a 3c 1a 5d b9 3d e0 3a 1b 3d
       -0.09827699 0.013325527 0.09050961 0.037897944
000140 d4 7e 9d bd 74 f2 f6 3d 00 d1 61 ba 10 8c 6e bc
       -0.07690206 0.12057963 -0.0008614212 -0.014559761
000150 38 e9 14 bd 3a fb cb bd 00 23 99 3b 10 dd 11 bc
       -0.036355227 -0.09960027 0.004673362 -0.008902803
000160 fc 4b 02 3d dc 8c 8c bd 00 a9 f7 3a e4 e3 fd bd
       0.031810746 -0.06862804 0.001889497 -0.12396982
000170 cc d6 c3 3d b0 47 ad 3c cc e7 19 3d 1c 89 cc 3d
       0.09562454 0.021152347 0.037574574 0.09987089
000180 b8 78 0b bd 4c b4 37 3d da 90 a4 3d bc 1c 8d bd
       -0.034050673 0.04484968 0.08035441 -0.06890246
000190 d0 b6 2c bd f8 26 37 bd 68 79 60 bd 8e 36 c7 3d
       -0.04216653 -0.044714898 -0.054803282 0.09727202
0001a0 6a 8f ba 3d a0 ae c0 bb 82 71 f6 bd a0 0e 2f 3d
       0.09109385 -0.005880192 -0.12033369 0.042738557
0001b0 c0 a1 be 3b d0 f3 d0 bd 88 1d d5 bc f4 bc 61 bd
       0.005817622 -0.102027535 -0.026015058 -0.05511184
0001c0 20 79 2e 3d 3c 73 8c 3d 20 18 19 bc c4 93 fc bd
       0.042595983 0.06857917 -0.009344131 -0.123328716
0001d0 c6 f1 a7 3d f8 f4 f5 bc aa bd 9a 3d c0 3c 3e bb
       0.082004115 -0.030024037 0.07555707 -0.002902791
0001e0 c8 13 ba 3c 76 34 e8 bd 5e ec d7 bd 68 4e 83 3c
       0.02271451 -0.11338131 -0.1054313 0.016028598
0001f0 70 40 3d bd d4 15 07 3d c0 9f 39 bc 0e 7f bc bd
       -0.04620403 0.0329798 -0.011329591 -0.09203921
000200 cd 58 d0 3c 9c 15 48 bd 92 3d 92 3d 60 2e 83 3d
       0.025432969 -0.048848733 0.0714065 0.0640533
000210 af c0 22 3c 2e 3d 9e 3d 30 f4 2c bc ed c8 2f 3e
       0.009933635 0.07726513 -0.010556266 0.17166491
000220 76 b1 f9 3d 48 c7 39 3d 02 aa c2 3d 1a ef 8c 3d
       0.12192051 0.045356065 0.09505083 0.068815425
000230 50 f4 d4 bd b2 9a 02 3e 4a 1c 55 3d 70 96 6c 3c
       -0.103981614 0.12754324 0.05202893 0.014440164
000240 c8 2d 05 3d 08 90 98 bc 9b e5 a4 3c ea 61 dc 3c
       0.032514364 -0.018623367 0.020129016 0.026902158
000250 be 70 0e bd e0 93 8b bb 74 f0 bb 3d ec a7 e4 bc
       -0.034775488 -0.0042595714 0.09176722 -0.027912103
000260 da 19 1e 3e 8a 40 e4 bd 6d 03 1d 3e f2 05 9e bc
       0.15439549 -0.11145122 0.15333338 -0.019289944
000270 0a c9 86 3d f0 4e e7 3d 64 df f8 3d 42 e6 a8 3d
       0.06581314 0.11294353 0.121519834 0.08247043
000280 9a 81 8a bd 44 0a 32 bd 3d c0 02 3e 84 6a c2 3d
       -0.06763001 -0.04346682 0.12768646 0.094929725
000290 0c e0 d6 bd 4a 99 95 3d 85 d3 c8 3d 98 db 29 3d
       -0.10491952 0.07304628 0.09805969 0.041469187
0002a0 cf 8c 63 bd 7a 85 a9 bd f3 c9 5e 39 f3 88 1a 3e
       -0.055554207 -0.08277412 0.00021246802 0.15091304
0002b0 04 65 f7 3d a7 87 70 3c a9 3c 72 3c 08 5c b1 bd
       0.12079814 0.01468078 0.01478497 -0.08660132
0002c0 c2 88 b7 3d 51 6a be bd f4 0e 32 3d bd 2b 38 3e
       0.08961631 -0.09297622 0.04347129 0.17985435
0002d0 1d 11 f9 3d a8 d1 80 bd 90 f9 58 bc bb 7b 65 bc
       0.12161467 -0.06289989 -0.013243094 -0.01400655
0002e0 ae 4d ef 3d 07 df 1a 3e 9d 41 81 bd 54 a0 05 3e
       0.11684738 0.1512414 -0.06311343 0.13049442
0002f0 59 99 cc 3d f4 b6 f9 3d 1a ac 3c ba 8e 1f a7 3d
       0.09990186 0.12193099 -0.0007197276 0.081603155
000300 53 7d 56 bc e4 89 29 bd 85 a5 53 bd ba 90 40 bd
       -0.013091403 -0.04139127 -0.051671524 -0.047013022
000310 79 37 21 3e d4 be c6 3d 8e d4 ac bd f8 f9 19 3e
       0.15743817 0.09704366 -0.08438979 0.15036762
000320 10 45 0a be 4d e8 9e 3d 51 9c 0f 3e 7a 6a 9f 3d
       -0.13502908 0.077591516 0.14024474 0.07783981
000330 98 91 db 3c b3 49 24 3e 93 88 7a 3d 60 b2 04 bc
       0.026802823 0.16043739 0.061165404 -0.008099169
000340 94 59 c6 3d 91 fd 60 3d 1e be 28 bd 9d 90 cc 3c
       0.096850544 0.05492932 -0.041196935 0.0249713
000350 00 04 5f bb 80 a7 36 ba f7 59 37 3d ce ea e5 3d
       -0.0034029484 -0.00069677085 0.04476353 0.11226426
000360 0f 35 8e bd b4 ce 7e bd ec 3c 00 3d 51 0b 84 bc
       -0.06943714 -0.062208846 0.0313081 -0.016118677
000370 7c d3 d6 3d 09 97 de 3b dc 92 fc 3d bf 4f 14 3d
       0.10489556 0.006792907 0.12332699 0.036208864
000380 e2 74 0d 3e 60 27 c6 bc 86 6c 4e bc bd 70 02 3e
       0.13814119 -0.024188697 -0.012599116 0.12738319
000390 05 8a 9e 3d de 42 de bd 92 59 a9 3c 39 b1 8c 3d
       0.07741169 -0.10852598 0.020672593 0.0686974
0003a0 25 b8 c5 bc 12 52 22 3e 84 f1 db 3d ce 3a 39 3d
       -0.024135659 0.1585162 0.10739425 0.045222096
0003b0 30 5e ac bc c8 35 89 3d aa b2 f6 bc 88 d7 e6 3c
       -0.021041006 0.06699711 -0.03011449 0.028178945
0003c0 0e 04 c7 3d e5 b3 98 3d ba c6 0e 3e 0e 6e 39 3b
       0.0971757 0.07456187 0.13942996 0.0028294357
0003d0 70 77 26 3b 18 6a 8f 3c 34 67 a0 bd 20 f9 7e 3d
       0.002540078 0.017506644 -0.078321844 0.062249303
0003e0 a8 a6 dc bc 0c 1e fa 3c ad e9 4e 3d 27 78 e0 3d
       -0.026934937 0.030531906 0.05051582 0.10960417
0003f0 67 0d 47 b8 08 dc e7 3c c6 6f af bc cd 71 d3 3d
       -4.745778e-05 0.028303161 -0.021415602 0.1032444

layers.2.bias f4 [45]
000000 22 a7 5d 3d c0 3a e6 bc e2 f7 b7 bc b4 4d c6 3d
       0.05411447 -0.028104186 -0.022457067 0.096827894
000010 9c ed ee bd 1c 57 3c bd 47 62 03 3e 90 72 38 3d
       -0.11666414 -0.04598151 0.12830459 0.04503113
000020 f6 1e 0e 3d b0 77 97 bc 4a dc 88 bd f0 6b 00 be
       0.034697495 -0.018489689 -0.06682642 -0.12541175
000030 48 53 e4 bd 8e 2c 19 3e 80 aa cf 3b 1a 4b c1 3d
       -0.11148697 0.14958403 0.006337464 0.094381526
000040 22 2d d2 3d f0 f2 19 3e ac fd 89 3d db b0 08 3e
       0.10262515 0.1503408 0.06737837 0.13348715
000050 76 af 38 3e 00 99 5f 3b 92 99 f0 3d 1c 01 99 bd
       0.18035683 0.0034118295 0.11748041 -0.07470915
000060 59 03 41 3e 38 7e c1 bd e8 61 c6 bd 6f d9 43 bd
       0.18848933 -0.094479024 -0.09686643 -0.047814783
000070 b8 0b d8 3b f6 a4 a1 3d 60 d3 dd bb dc 20 fc 3d
       0.006593194 0.07892792 -0.0067695826 0.12310955
000080 94 79 fd 3d 38 3d 7a 3d 34 de cb 3d 56 5e 82 bd
       0.12376705 0.06109354 0.09954491 -0.063656494
000090 9c d3 ce 3d b8 f3 49 3d 84 c4 02 3e 80 bd e6 3d
       0.10098955 0.049304694 0.12770277 0.11266613
0000a0 5d 0a 93 3d 13 f9 03 3e 85 69 b6 3d f4 a3 ea 3d
       0.07179711 0.12887983 0.08906845 0.11457053
0000b0 07 d3 0a 3e
       0.13557063
