experiments/learn_cdrive/cdrive/2022_01_20_133149959763_0_664e5/2022_01_20_133149959763_0_664e5_1999.pth (torch, 32215 bytes, 6 tensors)

layers.0.weight f4 [64, 7]
00000000: 895d 13be 7cd9 a0be bed7 133e 5cbf 113e
00000010: 8dd0 a2be 743a c4be 7ab2 7e3e e599 a93d
00000020: 3177 073e 7078 bebc 3e3e 99be edef 07bd
00000030: 4a46 22be fab6 03be 77d3 213e 551d 463e
00000040: f007 76bd 6ae2 c4be e7f4 28bd d538 853e
00000050: d2f8 5a3d fe76 2b3e 16ae acbe 03b1 b2be
00000060: 7bfc 51be 800a bbbd c84b 98be 009d 9a3d
00000070: 208d 8fbd 40ac b23b e007 0fbc 30f8 ff3c
00000080: 4c27 eabd 5229 babe 5861 af3d e317 013d
00000090: 79c6 28be 7a6b 87be fd6b 9a3d 2d4d 53be
000000a0: 4fe9 d6bc af8e 8e3e 8237 e13c 00b8 753e
000000b0: 70d2 a93e e2e0 72bd ca88 9bbe 22d0 b1be
000000c0: 3194 3c3d d392 0ebe bd63 a73e 6a2b a2bd
000000d0: 1851 82bb 4712 3f3e 5c5f a93d 9553 16be
000000e0: fabb 573e 7472 66be b50a 84be ff15 923e
000000f0: c5e8 6fbd 817d cdbc a4a0 a6bd 0af2 fdbd
00000100: 436c 77be 6cd2 273e 3d70 2f3e d183 a1be
00000110: aa75 c73e aea2 8bbe 840e aabe 4cbb 9e3d
00000120: f46a dbbd 635b a0be cea8 92be e27f 9cbe
00000130: 2843 21bd 0997 a1be 2e21 b53d a338 7cbe
00000140: 5cf2 b83e 7ce9 ad3e 9887 0cbd 33e8 a53e
00000150: 7ed8 833e 0143 8d3e 9bbe b6be fc66 4c3e
00000160: 87fd 8cbc 0b59 8cbe 5742 fa3b 1d2f 813e
00000170: 79dd c43e 3ca2 10be 1fc9 b93e 74e9 6fbd
00000180: 6563 fd3d 6aca 73be 12f7 d9bd 1f8f 723e
00000190: 78fb 8e3e f68b 7dbe e522 67be 4753 8ebd
000001a0: 3e44 9cbe 4134 823e 4ded 8dbc 17ff 19be
000001b0: dbcb d93d 42ca afbe dc9f be3e 445b b2be
000001c0: cb84 96be 1e09 8bbd 7422 b6be 8adf a53d
000001d0: 8678 cdbb ca56 1f3d bd26 a6bc 6e40 853e
000001e0: e77f fa3d 5df7 ce3d 87b6 c4be 4b90 933e
000001f0: edac c5bd ed2e a6be 8add e3bd bca5 db3d
00000200: b817 8d3e fee3 91be 7025 86bd 4899 963e
00000210: 173e acbe e972 b73d 05cf 963d 9522 78bd
00000220: f889 acbe 6c82 eb3d b9ae 6e3e 9603 b73e
00000230: f2d5 a33e 155a 1c3e 5af9 033e 1d50 803e
00000240: 6340 93be 657e 1e3e 70eb cbbb fcee a63e
00000250: 0acf 5cbe e317 38be 7ae8 233e c545 55be
00000260: bc92 cf3e eefa 723c 8a31 2bbc 4d57 54be
00000270: 33d9 3abe e9d0 cfbd 5b76 8a3e 2f4e ccbd
00000280: 756c ac3e 47f9 b7be 8698 c2be f243 ae3e
00000290: 3e47 523e 9518 aebe fb4f 94be 7c8c a63e
000002a0: 5fcb 79be 1886 243d a8f7 e63d a077 a9bc
000002b0: 70bb cdbc f054 d13c fcf6 c0bd 7453 623e
000002c0: 1675 bebc b073 a23e 3cdc 9e3e 2849 103d
000002d0: d674 263e 3430 9bbc 2af6 873d 55bb 853e
000002e0: b5c1 2abe b040 c63e 0909 0b3d 547c a5be
000002f0: d8c0 233e 128e 623e 08bd 6bbd 16bf 34be
00000300: 6bc9 c8be 818d 953e 4cb1 26be 8235 acbe
00000310: 50d2 20be 3849 f3bd 7481 89bd 304d aabe
00000320: d350 2ebe 5881 96bd 6dd4 a3be 6da6 7a3d
00000330: e26d 9ebd ad10 7c3d 3cc1 e0bd dc80 51be
00000340: 311b 123e bc12 a63e 4b06 513e 35aa 21be
00000350: 9b06 aebd f42b 21be f0ba 903d 41c7 8bbe
00000360: 26ac 563e fe25 a23b 631a 9abb 90ff e9bd
00000370: 4cbf a0be f86a a4be f647 893e 09c1 54be
00000380: 5cd3 cebd 67a5 8ebe 0010 bdb8 88cb 8bbe
00000390: 8014 d83b 3ef9 b1be 28f9 6d3d aa12 a43e
000003a0: 9e04 a9be d1dc 203e 0459 6dbe 33c4 453e
000003b0: 806c a3be 3d7f 6c3e bbd8 6a3e 4382 c63e
000003c0: 5ce8 e73d 673a a93d 157f 96be 276c be3e
000003d0: e2c1 b5bd 1e67 943e 24a6 503e 16eb b8be
000003e0: ad05 af3e ab09 e33c 3a71 c43d 071c babe
000003f0: 38fb 3b3e ccc0 cebd 4805 b4bd be50 8b3c
-0.1439115 -0.31415927 0.14437768 0.14233154 -0.31799737 -0.38325846 0.24872771 0.08281306
0.13229062 -0.023250788 -0.299303 -0.033187795 -0.15847126 -0.12862769 0.15803324 0.19347127
-0.060066164 -0.3845399 -0.041249182 0.26019922 0.05345995 0.1674461 -0.33726567 -0.34900674
-0.2050647 -0.09132862 -0.29745317 0.075494766 -0.07009339 0.0054526627 -0.008729905 0.031246275
-0.114332765 -0.3635965 0.08563489 0.03151692 -0.16481961 -0.26449186 0.075401284 -0.20634909
-0.026234297 0.27843234 0.027492289 0.23995972 0.33168364 -0.059296496 -0.303778 -0.34729105
0.046039764 -0.13923196 0.32693282 -0.07918437 -0.0039769523 0.18659316 0.082701415 -0.14680322
0.21067801 -0.22504598 -0.2578942 0.28532407 -0.058571596 -0.025084259 -0.081361085 -0.12399681
-0.24162392 0.16388863 0.1713266 -0.3154588 0.38956958 -0.27272552 -0.332142 0.07750568
-0.10713759 -0.31319723 -0.28644413 -0.30566317 -0.039370686 -0.31560543 0.08844219 -0.2463098
0.36122406 0.33967197 -0.034309 0.32403716 0.25751108 0.27590182 -0.35692295 0.1996116
-0.017210735 -0.27411684 0.007637303 0.25231257 0.3845022 -0.14124388 0.36286256 -0.058572248
0.123724736 -0.23807684 -0.10642828 0.23687409 0.2792623 -0.24760422 -0.22571905 -0.06949478
-0.30520815 0.25430492 -0.017325068 -0.15038715 0.106345855 -0.34333998 0.37231338 -0.34835255
-0.29398188 -0.06788848 -0.3557316 0.08099277 -0.006270471 0.038901128 -0.020282144 0.26025718
0.12231427 0.101057746 -0.38420507 0.28821024 -0.096521236 -0.32457677 -0.111262396 0.10724971
0.27557158 -0.28494257 -0.065501094 0.2941382 -0.3364112 0.08957464 0.073637046 -0.060579855
-0.33699012 0.114994854 0.23308839 0.35744923 0.31999165 0.15268739 0.12888089 0.25061122
-0.2876006 0.15477903 -0.0062231347 0.32604206 -0.21563354 -0.17977862 0.16006652 -0.20827396
0.40541637 0.014830334 -0.010448823 -0.20736428 -0.18246917 -0.10147268 0.27043423 -0.0997585
0.33676496 -0.3593237 -0.3800699 0.34036213 0.20534989 -0.3400313 -0.2896727 0.32529056
-0.24393986 0.040166944 0.112777054 -0.020686924 -0.025113791 0.025553197 -0.094221085 0.22102147
-0.02324919 0.31728888 0.310274 0.035226017 0.16255507 -0.018943883 0.06638749 0.26119485
-0.16675456 0.38721228 0.033944163 -0.32321417 0.15991533 0.22124508 -0.05755332 -0.17651019
-0.3921617 0.2920952 -0.16278571 -0.33634573 -0.15705228 -0.118792 -0.06714144 -0.33262014
-0.1702302 -0.07348889 -0.31998006 0.061193872 -0.07735802 0.06153934 -0.109743565 -0.20459312
0.14268185 0.32436168 0.20412557 -0.15787585 -0.08497354 -0.15739423 0.070669055 -0.27300456
0.20964107 0.0049483767 -0.0047028526 -0.11425698 -0.31395948 -0.3211286 0.26812714 -0.20776762
-0.10098907 -0.27860567 -9.0152025e-05 -0.2730372 0.0065942407 -0.3476047 0.058098942 0.3204549
-0.33011335 0.15709235 -0.23178488 0.19313125 -0.31918716 0.23095413 0.22934239 0.38771257
0.11323616 0.082630925 -0.2939383 0.3719189 -0.08874871 0.28984922 0.20375878 -0.36116856
0.34184018 0.027714571 0.09591909 -0.36349508 0.18357551 -0.10095367 -0.0879007 0.017006274

layers.0.bias f4 [64]
00000000: 91a7 9dbe 6040 803d e147 913a 42e1 97be
00000010: 5c64 babe 81ea 4a3e 6391 79be 1a16 21be
00000020: 7e58 1d3e 09a2 5a3e 0517 853e d089 25be
00000030: 1dc1 65be b369 923e 3a0a c43e f62e 91be
00000040: 7c83 7a3e 913a 9c3d 3c6a cc3c d70c 80bd
00000050: 0136 8fbd 7103 6fbe e66b 71be ae3c 83be
00000060: 66d9 a5be 9c3e 42be f0bf ce3e a1ec 8abb
00000070: f02f 65bd e3e4 393d 69aa 5b3e 3e9e 0e3d
00000080: fd78 7bbe 83cc 2bbe 522b 8dbe bcef 693e
00000090: 4856 243e 360f c9bd e454 76be 41e0 32bd
000000a0: ac5d 1dbd 076c 8dbe 21b1 593e 52e0 bbbe
000000b0: d499 eabd 325b c0be 7a86 ad3e 0a0a bdbe
000000c0: b16e 4f3e 4f9c 8e3e 9a18 37be 73db ba3d
000000d0: f321 52bd cbd3 33be 81df 81bd 5041 1cbd
000000e0: 44ac 92be 6ac3 a9be c7c3 a7be 46bc a83e
000000f0: 3eed 083e b3ca 1fbe 4ad2 1b3e e523 78be
-0.30791906 0.062622786 0.0011084044 -0.29664046 -0.36404693 0.19816019 -0.24371867 -0.15731087
0.15365788 0.21350874 0.25994125 -0.16165853 -0.22436948 0.28596267 0.38289052 -0.2835614
0.2446422 0.07628358 0.024953 -0.06252449 -0.06992722 -0.23341157 -0.23576316 -0.25632232
-0.32392424 -0.18969196 0.40380812 -0.004239634 -0.05595392 0.0453843 0.21451725 0.03481888
-0.24557872 -0.16777234 -0.27572113 0.22845358 0.16048539 -0.098173544 -0.2405582 -0.043670896
-0.03841941 -0.2762148 0.21258976 -0.3669458 -0.11455122 -0.37569577 0.3389166 -0.36921722
0.20257069 0.2785363 -0.17880479 0.09123888 -0.051301908 -0.17561261 -0.06341458 -0.038148224
-0.28647053 -0.33156902 -0.32766554 0.3295614 0.1337175 -0.15604667 0.15216938 -0.24232443

layers.1.weight f4 [64, 64]
00000000: 2446 afbd 3893 8abd 7803 ac3b 2cd8 363d
00000010: f668 8b3d 04bd 39bc 8adf 8abc 7b43 8a3c
00000020: a0c6 df3d 0c7b 073e e470 b83d 1f56 263c
00000030: c13e 393d 73e6 aa3d bcb4 b3bc 9f63 0f3e
00000040: 3620 be3d 7f3e 53bc 587b 223e f681 6dbb
00000050: 1668 253e a726 8a3c 395a 9bbd 38b4 eabd
00000060: 28ce d7bd d1aa 873d 0332 013e 6777 63bd
00000070: d057 7fbc 3a82 2ebd 70a9 573c 4852 c53c
00000080: be3e a83d b25c 5f3d 92ad 80bc 4527 82bd
00000090: b17a 6a3d aac9 b03d 44b5 9bbd 1ab2 f73d
000000a0: 00a3 cf3d e8d0 07bd 88b1 513d 9483 e9bd
000000b0: 7c76 eb3d 2867 373d 9c91 a53d ccd6 5ebd
000000c0: fde8 e33b 96ea d03d 26cd 36bd be15 32be
000000d0: 333f b0bd a4f3 20bc a59a 9a3c 7031 21bd
000000e0: 48c9 6dbd 3026 143e e8df 103d 68ec 85bd
000000f0: d35d 1b3d 3ec7 e3bd 6806 1f3d 1b31 d4bd
00000100: 9cf0 32bd 4896 c1bd 99d2 d7bd 44a9 12bd
00000110: 88a3 693d 4142 c73d 4ca1 7a3d f843 673b
00000120: d07f 0ebd 5392 c33c 80b5 823a 0a2f c1bd
00000130: 8df7 d5bd 1a6f 813c 41e2 b4bd 5864 d3bd
00000140: cbbf 993d a0ad f0bc abf9 dabd 4dad 3fbd
00000150: 7e89 c03d 80bd ddbd 082a ec3d 8026 393c
00000160: 182e d9bd b63a 8fbd a404 e93b 4884 943d
00000170: f0fd d4bc 9650 913d fc05 2f3d c605 9a3d
00000180: 4075 3ebc 7b63 f3bc 62d4 e4bd 34c2 06be
00000190: 7412 bfbd fa5a 96bd 2818 a93c 4917 933d
000001a0: 1af1 d2bc 0e61 20bd 178c 1ebd f2b9 e63d
000001b0: 4c99 aa3d f834 debd bde4 813d 580c cfbc
000001c0: a119 aabd ed80 1e3d aa42 903d 761b e03d
000001d0: 00bc b53a ee44 383d 089d f83b 06c4 c23d
000001e0: e83b b1bd b00d 20be 2c78 183d 8ab1 293c
000001f0: 689e fc3c 0635 913d 982c dfbc 3ebe cabd
00000200: a2ef 40bd 4a82 493b a8a0 04be e048 b53c
00000210: 9419 a23d 79ef 09be c7f8 8b3c 5d41 343d
00000220: 0f5f 093e d060 be3c 98eb 9cbc 3d62 553b
00000230: 5262 9abd cc41 bc3d fbff a03c ca60 1cbd
00000240: 3db3 b4bd d698 92bd 2bf7 f93c 00de 87bd
00000250: 87b9 953d 05c2 0c3e 25dc 75bd 12ee febc
00000260: 589f e93d 4142 7ebc 44b4 703d 09c2 01be
00000270: e0ab a23b 8480 813d 825a 24be 03e6 70bd
00000280: 0091 05bd e8e6 fabd 432d f23d 5cd5 2f3a
00000290: b5a8 273d f0d0 05be ca2e aabd 3966 6abd
000002a0: 0b3e 17bc 02c4 e1bd 6fbd 163b ac62 753d
000002b0: d085 f7bd dc37 bbbd 2f5d 76bc a02d 913b
000002c0: 3008 b7bd 204c 963d d885 f5bc f068 39bc
000002d0: 9abe d1bd a00f 22bd a9da 01be f883 89bc
000002e0: a396 aa3d 8ccb 2e3d 2e1d f1bd d361 8f3c
000002f0: 7259 97bd 42f8 a7bd 4414 8f3d 368a 8f3d
00000300: 1259 8d3d 68c0 3cbd a3a6 f8bc a0b3 93bd
00000310: a43e dbbd 982b 92bd b898 b2bd d097 ec3d
00000320: aff9 f23c 9040 273c d0b9 473d e481 a63d
00000330: c372 9cbc f528 e23c d0c9 0ebe 8e9d a43d
00000340: c887 f73d f77a 8a3d 7867 a23c b51e 723d
00000350: 0d2a a33c 2675 493c a686 863d 1c30 a7bb
00000360: 2a6e d5bd 0535 e1bc fc79 c13c ca7c 1abe
00000370: 3cae 5dbd ad4b eebc 3f41 f43d 2d21 a73d
00000380: 2cdc e63d daa9 1a3d 4868 01be 2d24 c9bd
00000390: 3081 ae3c 0c9e 4c3c a483 3c3d ca98 f4bd
000003a0: 9a33 bdbd d0c5 9ebd ae78 b93d d261 fcbd
000003b0: 1e37 80bd 3455 ac3d ad9f e8bc 5a54 c1bd
000003c0: 94dd 05be 561e 833c 2427 cf3d f485 a23d
000003d0: 6406 643d 775e 43bd 4208 fcbb f4ab b7bd
000003e0: ba42 95bd 99ba 82bd 68d6 873d c246 33bd
000003f0: b8d1 fbbd fd0c 873d d02a 63bc d61b 303d
-0.085583 -0.06766361 0.005249437 0.04463975 0.06807129 -0.011336569 -0.016952295 0.01687788
0.109265566 0.13230532 0.09005907 0.010152369 0.045225862 0.08344736 -0.021936767 0.14002846
0.092834875 -0.012893318 0.15867364 -0.0036240793 0.16152987 0.016864134 -0.07585568 -0.11460155
-0.10537368 0.066243775 0.12616734 -0.055533793 -0.015584901 -0.042604662 0.013162956 0.024087086
0.08215092 0.05453176 -0.015707765 -0.06355146 0.057245914 0.08632214 -0.07602933 0.12094517
0.10138512 -0.033158213 0.051194698 -0.1140205 0.114972085 0.04477611 0.080844134 -0.054404065
0.0069552646 0.10200994 -0.04462924 -0.17391106 -0.08605804 -0.009823713 0.018872568 -0.039353788
-0.058053285 0.14467692 0.035369784 -0.065392315 0.037931275 -0.11121987 0.03882447 -0.103609286
-0.043686494 -0.09452492 -0.10538215 -0.035805956 0.05704072 0.09729434 0.06118898 0.0035288315
-0.03478986 0.023873484 0.0009972304 -0.094328 -0.10447607 0.015800048 -0.08832217 -0.103218734
0.07507285 -0.029379666 -0.10692152 -0.046796132 0.094012246 -0.1082716 0.11531454 0.011300683
-0.10604495 -0.0699362 0.007111149 0.07251793 -0.025999993 0.07095449 0.042730317 0.075206324
-0.011624634 -0.029710522 -0.11173321 -0.1316002 -0.093296915 -0.07341571 0.020641401 0.07182176
-0.025749732 -0.03915506 -0.03870782 0.11265935 0.0833002 -0.10849947 0.063424565 -0.02527444
-0.083056696 0.038697172 0.07043965 0.10942738 0.0013865232 0.04498761 0.007587079 0.09510045
-0.08654004 -0.15630221 0.03722398 0.01035727 0.030837253 0.070901915 -0.027242944 -0.09899567
-0.04710353 0.0030747824 -0.1295191 0.022129476 0.07915035 -0.13470258 0.0170864 0.044007648
0.13415168 0.023239523 -0.019155309 0.0032559775 -0.07538284 0.09192237 0.019653311 -0.038178243
-0.088232495 -0.071580574 0.030513367 -0.0663414 0.07310777 0.13745888 -0.0600244 -0.03111938
0.114073455 -0.015518726 0.058765665 -0.12671675 0.0049643368 0.063233405 -0.16050151 -0.058813106
-0.032608986 -0.12251073 0.11825039 0.0006707513 0.040932376 -0.13067985 -0.083097056 -0.057226393
-0.009231101 -0.11023714 0.0023001095 0.059908554 -0.120860696 -0.09141514 -0.015036865 0.0044304878
-0.089371085 0.073387384 -0.029971048 -0.011316523 -0.102414325 -0.039565682 -0.12681068 -0.01678656
0.08329513 0.042674586 -0.11773144 0.0175027 -0.07390107 -0.08201648 0.06986287 0.070087835
0.069017544 -0.04608193 -0.030352896 -0.07211995 -0.10705307 -0.07137221 -0.08720535 0.115523934
0.029660074 0.010208264 0.04876119 0.081302434 -0.019097691 0.02760742 -0.13944173 0.08037864
0.12086445 0.06761735 0.019824728 0.059111316 0.019917512 0.012295997 0.06568651 -0.0051021706
-0.10421403 -0.027491102 0.023617737 -0.15086666 -0.05412124 -0.02908882 0.11926507 0.08160625
0.11272463 0.03775964 -0.12637436 -0.09821353 0.021301836 0.012488853 0.04602398 -0.11943205
-0.09238358 -0.077525735 0.09056221 -0.12323345 -0.06260513 0.08414689 -0.028396452 -0.09439917
-0.13072807 0.016005676 0.10114887 0.07935706 0.055670157 -0.04769751 -0.007691414 -0.08968344
-0.07288118 -0.06383247 0.066326916 -0.04376865 -0.1229586 0.06594274 -0.013865188 0.042995296

layers.1.bias f4 [64]
00000000: 6807 91bc 9375 9ebd 39df 313c 8a4c 5b3d
00000010: 9755 823d 0010 93b9 aeac e4bd 323e 563d
00000020: 3ed2 cc3c 960b d23d 084b b8bd 307d 8a3c
00000030: a646 edbc d64a 9b3d b3a1 61bd 0480 043d
00000040: b550 1bbc 4794 833d 3dde aabc b527 b93d
00000050: 43d4 033d 8f2d 13bd c60c 84bd fc2b 163d
00000060: 38a9 aabd 9b5e d1bd 437c eb3c 6fd1 18bb
00000070: a8d0 e23d 54d1 fa3d a840 30bd da4d 813d
00000080: eb7b 573d a953 c73c d25a 133d a58a 30bd
00000090: 6a5f a2bd 1793 e8bc 49ea 9b3c 9670 6fba
000000a0: f75b d43c 88ab b2bd 36d4 76bb 8763 19bd
000000b0: 547b eebd 9217 ab3d ab59 cf3d d266 99bd
000000c0: 9b6f 6b3c 9308 b2bd d212 9a3d c439 243e
000000d0: f863 91bc 37b6 55bd 2c12 17bd f592 98bd
000000e0: b08a 793c 6627 44bd 8a85 b4bd c858 903d
000000f0: a0ea 163d 2cc6 d2bd 92cd 93bd dfab b13d
-0.017703727 -0.07737269 0.010856443 0.05353979 0.06363981 -0.00028049946 -0.111657485 0.052305408
0.025002595 0.10256116 -0.08998686 0.016905397 -0.028964352 0.07582633 -0.05508585 0.032348648
-0.009479691 0.06424766 -0.020857925 0.09040777 0.03218485 -0.03593212 -0.06447749 0.03666304
-0.08333057 -0.10223123 0.028745776 -0.0023318192 0.11074954 0.122469574 -0.04303041 0.06313677
0.05260841 0.024331884 0.035975285 -0.04310097 -0.07928355 -0.02839045 0.019032614 -0.0009133903
0.025922759 -0.08724123 -0.0037663109 -0.037448432 -0.11644617 0.08354105 0.10124525 -0.074903145
0.014369871 -0.08693042 0.07523121 0.16037661 -0.017747864 -0.052175727 -0.036882564 -0.07449905
0.01523082 -0.047889136 -0.08814533 0.07048184 0.03684485 -0.102917045 -0.07216944 0.0867536

layers.2.weight f4 [45, 64]
00000000: 64cc c33d c000 f63d 5f23 c53b 5380 553d
00000010: 7c1f 10bd 1c9d 9abd 8419 76bd e3ce 3b3d
00000020: 00db b5ba be6b 1fbe 1928 033e 7236 84bd
00000030: 5f4b 98bd 6a28 28bd 4313 633d f6fa efbd
00000040: 6863 bdbc a6bb d23d 8da6 ccbc b4e3 8b3c
00000050: 07e6 61bc 1421 563d 1372 253d ccf2 8d3d
00000060: a684 923d b49a db3d 0d33 0c3d 2347 0cbd
00000070: 9ee7 fe3d fbd2 ec3d 386f 663d c439 8ebd
00000080: bf42 5fbc a81b ac3d 2150 033e bfdf 043e
00000090: 00f6 d03c 006a cf3d 0a1e 603d c4b0 083e
000000a0: 44f7 b83d 2e5a d53b 275f 56bd 0294 143c
000000b0: 8096 b0bd a695 97bd 50ce a03d 73f4 2ebd
000000c0: 9c43 e6bd 1e45 a4bd 10f3 6e3c f8d1 163d
000000d0: cb95 6ebd e07f 243d f608 e7bd bdce 8e3d
000000e0: a034 afbb e985 cf3d f02c 563c 0e81 8bbd
000000f0: e9e7 09bd 9801 95bc 08ff 293d a928 183e
00000100: e257 b3bd a87a c5bd c057 d2bd ea70 9e3d
00000110: f855 2e3d 2c19 503d 58f0 8b3d 8040 e23b
00000120: d21d d03d 3c68 1c3d b01f a3bc 1af2 e03d
00000130: 7245 c9bd 5053 5a3c 1a5d b93d e03a 1b3d
00000140: d47e 9dbd 74f2 f63d 00d1 61ba 108c 6ebc
00000150: 38e9 14bd 3afb cbbd 0023 993b 10dd 11bc
00000160: fc4b 023d dc8c 8cbd 00a9 f73a e4e3 fdbd
00000170: ccd6 c33d b047 ad3c cce7 193d 1c89 cc3d
00000180: b878 0bbd 4cb4 373d da90 a43d bc1c 8dbd
00000190: d0b6 2cbd f826 37bd 6879 60bd 8e36 c73d
000001a0: 6a8f ba3d a0ae c0bb 8271 f6bd a00e 2f3d
000001b0: c0a1 be3b d0f3 d0bd 881d d5bc f4bc 61bd
000001c0: 2079 2e3d 3c73 8c3d 2018 19bc c493 fcbd
000001d0: c6f1 a73d f8f4 f5bc aabd 9a3d c03c 3ebb
000001e0: c813 ba3c 7634 e8bd 5eec d7bd 684e 833c
000001f0: 7040 3dbd d415 073d c09f 39bc 0e7f bcbd
00000200: 665b 79bb 9c15 48bd b429 923d abbd 7c3d
00000210: ba24 71bc 2e3d 9e3d 30f4 2cbc b8ae 0e3e
00000220: 7525 e13d 48c7 393d 9309 843d 1aef 8c3d
00000230: 50f4 d4bd 77b6 d43d 4a1c 553d 7096 6c3c
00000240: c82d 053d 0890 98bc aadd 873c 5575 083a
00000250: f709 14bd e093 8bbb 74f0 bb3d 3968 88bd
00000260: 631b f83d 8a40 e4bd c772 023e c912 44bd
00000270: 26bb 163d 90ea a73d 64df f83d d645 6a3d
00000280: 9a81 8abd 440a 32bd 944a a83d 9127 813d
00000290: 0ce0 d6bd 4a99 953d fef4 8d3d 4741 773c
000002a0: 18b5 a7bd dd7e dfbd 9e0e b2bc fb17 de3d
000002b0: 0465 f73d 3172 49bc a2e9 c5bb 0e06 bfbd
000002c0: c288 b73d 516a bebd 8ded 763c a745 113e
000002d0: 934b e83d a8d1 80bd 90f9 58bc e03b 39bd
000002e0: ae4d ef3d bd5c f73d 9d41 81bd 91f8 d63d
000002f0: 68d6 933d f4b6 f93d 1aac 3cba 8e1f a73d
00000300: d3fa 28bd e489 29bd 85a5 53bd 3f78 bfbd
00000310: 0507 293e d4be c63d 8ed4 acbd 73c9 0b3e
00000320: 5cee 21be 4de8 9e3d c6ad 0b3e 7a6a 9f3d
00000330: 9891 db3c c7c1 1e3e b156 803d 60b2 04bc
00000340: 9459 c63d 1f6e bc3d ff9c 75bd 45bc 693a
00000350: 0004 5fbb 0977 91bc 3ce4 4a3d 7f1b c83d
00000360: ba66 debd b4ce 7ebd 4e00 283d 970b 11bd
00000370: 3b52 d53d b116 83bc dc92 fc3d 4077 99bb
00000380: e274 0d3e 6027 c6bc 5fe9 18bd 2a75 f83d
00000390: 1c33 b63d de42 debd 6f5d 043b 5154 543d
000003a0: 7c88 80bd 8574 193e 27e3 d83d e60e c73c
000003b0: 305e acbc a94b 4b3d 281a c9bd 88d7 e63c
000003c0: 0e04 c73d 57e0 ef3d 1470 003e 3512 9dbc
000003d0: b1e8 2abc 186a 8f3c 3467 a0bd 1a1c b23d
000003e0: a8a6 dcbc 3cac 9d3c ade9 4e3d bfb9 043e
000003f0: baf8 4dbd 08dc e73c c66f afbc 5b2e d03d
0.09560469 0.12011862 0.0060161795 0.052124333 -0.035186276 -0.075494975 -0.060082927 0.0458516
-0.0013874471 -0.15568444 0.12808265 -0.06455697 -0.07436251 -0.041054167 0.05543829 -0.11717789
-0.02311869 0.10289697 -0.024981761 0.01707635 -0.013787753 0.05227764 0.040391993 0.069310755
0.07154207 0.10722867 0.034228373 -0.03424753 0.12446521 0.11563679 0.05625841 -0.06944612
-0.013626753 0.084037125 0.12823536 0.12975977 0.025507927 0.1012764 0.054716147 0.1334868
0.09031537 0.0065109944 -0.052336838 0.009068491 -0.086224556 -0.0740159 0.07851851 -0.042713594
-0.11243364 -0.080209956 0.014584318 0.036821336 -0.058248322 0.040161014 -0.11281006 0.06973026
-0.0053468496 0.10132963 0.013072237 -0.068117246 -0.033668432 -0.018189237 0.041502982 0.1485926
-0.08756997 -0.096425354 -0.10270643 0.077363804 0.042562455 0.050805256 0.06832951 0.0069046617
0.10161938 0.038185343 -0.01991257 0.10983677 -0.09827699 0.013325527 0.09050961 0.037897944
-0.07690206 0.12057963 -0.0008614212 -0.014559761 -0.036355227 -0.09960027 0.004673362 -0.008902803
0.031810746 -0.06862804 0.001889497 -0.12396982 0.09562454 0.021152347 0.037574574 0.09987089
-0.034050673 0.04484968 0.08035441 -0.06890246 -0.04216653 -0.044714898 -0.054803282 0.09727202
0.09109385 -0.005880192 -0.12033369 0.042738557 0.005817622 -0.102027535 -0.026015058 -0.05511184
0.042595983 0.06857917 -0.009344131 -0.123328716 0.082004115 -0.030024037 0.07555707 -0.002902791
0.02271451 -0.11338131 -0.1054313 0.016028598 -0.04620403 0.0329798 -0.011329591 -0.09203921
-0.0038048862 -0.048848733 0.071368605 0.06170432 -0.014718229 0.07726513 -0.010556266 0.13933837
0.109934725 0.045356065 0.06447139 0.068815425 -0.103981614 0.10386365 0.05202893 0.014440164
0.032514364 -0.018623367 0.01658519 0.0005205472 -0.036142316 -0.0042595714 0.09176722 -0.06660504
0.121145986 -0.11145122 0.12739097 -0.047869477 0.036799572 0.08199036 0.121519834 0.057195507
-0.06763001 -0.04346682 0.0821735 0.06306375 -0.10491952 0.07304628 0.06931494 0.015091247
-0.08188838 -0.10912869 -0.021735486 0.10844418 0.12079814 -0.012295292 -0.006039814 -0.09327327
0.08961631 -0.09297622 0.015071285 0.14186727 0.1134254 -0.06289989 -0.013243094 -0.045223117
0.11684738 0.12078235 -0.06311343 0.10496629 0.07218629 0.12193099 -0.0007197276 0.081603155
-0.04125483 -0.04139127 -0.051671524 -0.09349107 0.16506584 0.09704366 -0.08438979 0.13651066
-0.15813583 0.077591516 0.13640508 0.07783981 0.026802823 0.15503608 0.06266535 -0.008099169
0.096850544 0.092006914 -0.059964176 0.0008916299 -0.0034029484 -0.017756956 0.049534068 0.097708695
-0.10859437 -0.062208846 0.041015916 -0.035411444 0.10416075 -0.016002031 0.12332699 -0.004683405
0.13814119 -0.024188697 -0.037331935 0.12131722 0.08896467 -0.10852598 0.0020197292 0.051838223
-0.06276032 0.14985855 0.10590201 0.024299096 -0.021041006 0.049632702 -0.09819442 0.028178945
0.0971757 0.11712711 0.12542754 -0.01917372 -0.0104314545 0.017506644 -0.078321844 0.08696766
-0.026934937 0.019247167 0.05051582 0.12961482 -0.050286032 0.028303161 -0.021415602 0.101650916

layers.2.bias f4 [45]
00000000: cce5 f53c c03a e6bc 8e89 48bd 3a3d 953d
00000010: 9ced eebd 0ba2 28bd a049 b63d 9072 383d
00000020: b8d0 61ba b077 97bc 4adc 88bd c8db 01be
00000030: 4853 e4bd 2b73 e83d 80aa cf3b 1a4b c13d
00000040: e183 bb3d 8241 cf3d acfd 893d 452e f23d
00000050: a59b 153e 0099 5f3b 9299 f03d 1c01 99bd
00000060: 5cf6 283e 387e c1bd e861 c6bd 9063 81bd
00000070: 5322 2cbd f6a4 a13d 60d3 ddbb dc20 fc3d
00000080: 9479 fd3d 383d 7a3d 34de cb3d 565e 82bd
00000090: 9cd3 ce3d b8f3 493d c673 cc3d 80bd e63d
000000a0: 9236 323d 3687 d03d af0b 553d e53f b53d
000000b0: 305f df3d
0.030016802 -0.028104186 -0.048959307 0.07287069 -0.11666414 -0.04117016 0.089007616 0.04503113
-0.00086141704 -0.018489689 -0.06682642 -0.12681496 -0.11148697 0.113500915 0.006337464 0.094381526
0.09156013 0.101199165 0.06737837 0.118252315 0.14610155 0.0034118295 0.11748041 -0.07470915
0.16500229 -0.094479024 -0.09686643 -0.06317818 -0.04202492 0.07892792 -0.0067695826 0.12310955
0.12376705 0.06109354 0.09954491 -0.063656494 0.10098955 0.049304694 0.099830195 0.11266613
0.043509074 0.101820394 0.052013095 0.088500775 0.109068274
