experiments/learn_cdrive/cdrive/2022_01_20_133149959763_0_664e5/2022_01_20_133149959763_0_664e5_best.pth (torch, 32215 bytes, 6 tensors)

layers.0.weight f4 [64, 7]
-0.1439115 -0.31415927 0.14437768 0.14233154 -0.31799737 -0.38325846 0.24872771 0.08426124
0.13373879 -0.023250788 -0.299303 -0.05115599 -0.15702309 -0.12862769 0.16190544 0.19733188
-0.0604217 -0.38366336 -0.03963668 0.2638628 0.05116047 0.1674461 -0.33726567 -0.34900674
-0.2050647 -0.09132862 -0.29745317 0.075494766 -0.07009339 0.0054526627 -0.008729905 0.031246275
-0.114332765 -0.3635965 0.08563489 0.031560674 -0.16554663 -0.25677666 0.08156696 -0.22718097
-0.02621926 0.28794318 0.023786997 0.24548738 0.33898273 -0.053729296 -0.2856062 -0.33867913
0.051606968 -0.13868171 0.326415 -0.07964133 -0.0051070694 0.17845812 0.08265625 -0.1296589
0.2148258 -0.21987912 -0.26180083 0.2787449 -0.062304527 -0.02247753 -0.07786967 -0.12217893
-0.23803836 0.16138083 0.16578533 -0.3171976 0.38990444 -0.2725604 -0.332142 0.07750568
-0.10713759 -0.31319723 -0.28644413 -0.30566317 -0.039370686 -0.31397152 0.09010976 -0.24965769
0.35664156 0.34058833 -0.03393271 0.31071118 0.2648859 0.2832975 -0.3482806 0.20228323
-0.013155539 -0.26714054 -0.009274609 0.2549546 0.3853733 -0.13626489 0.36205915 -0.05519895
0.12505265 -0.23163942 -0.106904395 0.23545721 0.28515428 -0.24912545 -0.22661695 -0.070561364
-0.3144423 0.25761926 -0.013896857 -0.15497525 0.0997445 -0.34333998 0.3751253 -0.34835255
-0.29398188 -0.06808033 -0.3557316 0.08080093 -0.0043193195 0.038709223 -0.01160693 0.25919065
0.118703865 0.10646798 -0.38326025 0.28513512 -0.098974794 -0.32387105 -0.109774165 0.10832335
0.27491674 -0.29218715 -0.08041258 0.29477653 -0.33518514 0.09072648 0.07585831 -0.05708977
-0.3369298 0.12098214 0.23468852 0.3608859 0.32357112 0.15738927 0.12331951 0.24382348
-0.28742602 0.15675285 -0.018388376 0.32904372 -0.21167044 -0.18338458 0.15581802 -0.20795272
0.40821728 0.014651091 -0.013541506 -0.20162302 -0.20833485 -0.12620361 0.2626655 -0.10518478
0.32668555 -0.359177 -0.37152094 0.34168267 0.2067146 -0.3400313 -0.2883076 0.3266549
-0.24393986 0.040166944 0.112777054 -0.020686924 -0.025113791 0.025553197 -0.094221085 0.22573479
-0.020080699 0.3183171 0.31068873 0.039552823 0.16740498 -0.022524847 0.07136082 0.26625916
-0.17095795 0.38127688 0.031820487 -0.32017782 0.16061528 0.20736478 -0.072860174 -0.17324212
-0.38893205 0.27985823 -0.17667672 -0.30596393 -0.15705228 -0.118792 -0.06714144 -0.33262014
-0.1702302 -0.07348889 -0.31998006 0.06163112 -0.07554725 0.05875102 -0.10995821 -0.20673181
0.14386398 0.3286095 0.20799746 -0.15375298 -0.088551365 -0.1637709 0.08137275 -0.2688688
0.21571015 0.0065293866 -0.0031218422 -0.11425698 -0.31395948 -0.3211283 0.26970872 -0.22428365
-0.10098907 -0.27860567 -9.0152025e-05 -0.2730372 0.0065942407 -0.3476047 0.058098942 0.3173062
-0.3355092 0.15418698 -0.23454686 0.18999864 -0.32244733 0.22808367 0.2306788 0.389385
0.11419301 0.07913198 -0.2974301 0.37277186 -0.083637305 0.28944975 0.20242684 -0.36036646
0.33818638 0.022264658 0.09481952 -0.36068705 0.18611264 -0.100698195 -0.081701286 0.014138776
00000000: 895d 13be 7cd9 a0be bed7 133e 5cbf 113e
00000010: 8dd0 a2be 743a c4be 7ab2 7e3e 2891 ac3d
00000020: d2f2 083e 7078 bebc 3e3e 99be f288 51bd
00000030: a9ca 20be fab6 03be 8aca 253e 5e11 4a3e
00000040: bf7c 77bd 866f c4be 125a 22bd 0619 873e
00000050: a48d 513d fe76 2b3e 16ae acbe 03b1 b2be
00000060: 7bfc 51be 800a bbbd c84b 98be 009d 9a3d
00000070: 208d 8fbd 40ac b23b e007 0fbc 30f8 ff3c
00000080: 4c27 eabd 5229 babe 5861 af3d c445 013d
00000090: 0e85 29be 3b78 83be 940c a73d 21a2 68be
000000a0: c6c9 d6bc 4a6d 933e f3dc c23c 0b61 7b3e
000000b0: 258f ad3e 4013 5cbd fa3a 92be 5a67 adbe
000000c0: d461 533d 9402 0ebe de1f a73e fe1a a3bd
000000d0: 3459 a7bb babd 363e ae47 a93d 4dc5 04be
000000e0: 4bfb 5b3e fe27 61be c20a 86be a7b7 8e3e
000000f0: 0833 7fbd cc22 b8bc 227a 9fbd f238 fabd
00000100: 54c0 73be 0441 253e a1c3 293e b967 a2be
00000110: 8ea1 c73e 098d 8bbe 840e aabe 4cbb 9e3d
00000120: f46a dbbd 635b a0be cea8 92be e27f 9cbe
00000130: 2843 21bd e0c0 a0be 778b b83d 44a6 7fbe
00000140: b999 b63e 9861 ae3e 06fd 0abd 8915 9f3e
00000150: 209f 873e 5f0c 913e d651 b2be 5623 4f3e
00000160: 548a 57bc a5c6 88be 88f4 17bc 6989 823e
00000170: a64f c53e 0689 0bbe d15f b93e 4b18 62bd
00000180: cd0d 003e e232 6dbe b1f0 dabd b21b 713e
00000190: beff 913e be1a 7fbe 460e 68be 7a82 90bd
000001a0: 95fe a0be ace6 833e a5af 63bc d5b1 1ebe
000001b0: d846 cc3d 42ca afbe 6c10 c03e 445b b2be
000001c0: cb84 96be b36d 8bbd 7422 b6be f57a a53d
000001d0: 1489 8dbb 908d 1e3d fe2a 3ebc a3b4 843e
000001e0: 031b f33d e20b da3d b03a c4be 3bfd 913e
000001f0: 4cb3 cabd 6dd2 a5be 47d1 e0bd a2d8 dd3d
00000200: e3c1 8c3e 8e99 95be 5aaf a4bd f3ec 963e
00000210: 639d abbe cece b93d 9a5b 9b3d f6d6 69bd
00000220: 1082 acbe 7cc5 f73d 3052 703e 09c6 b83e
00000230: 1dab a53e a72a 213e f08e fc3d ddac 793e
00000240: 8129 93be d283 203e 38a3 96bc 6b78 a83e
00000250: 23c0 58be 2bc9 3bbe c28e 1f3e 8ff1 54be
00000260: db01 d13e 210b 703c 31dd 5dbc 4476 4ebe
00000270: bb55 55be 853b 01be 187c 863e 1e6b d7bd
00000280: 5443 a73e 0ce6 b7be fe37 bebe 08f1 ae3e
00000290: feac 533e 9518 aebe 0e9d 93be 503f a73e
000002a0: 5fcb 79be 1886 243d a8f7 e63d a077 a9bc
000002b0: 70bb cdbc f054 d13c fcf6 c0bd 0527 673e
000002c0: 4780 a4bc 75fa a23e 9812 9f3e 2402 223d
000002d0: 366c 2b3e 0786 b8bc 9f25 923d 1f53 883e
000002e0: 9a0f 2fbe b936 c33e 3356 023d 59ee a3be
000002f0: 5578 243e 6f57 543e b737 95bd 6266 31be
00000300: 1a22 c7be 9449 8f3e beea 34be 4ea7 9cbe
00000310: 50d2 20be 3849 f3bd 7481 89bd 304d aabe
00000320: d350 2ebe 5881 96bd 6dd4 a3be ea70 7c3d
00000330: 84b8 9abd e9a4 703d c531 e1bd 81b1 53be
00000340: 1451 133e 813f a83e 49fd 543e 6c71 1dbe
00000350: 6b5a b5bd 8fb3 27be c2a6 a63d 2ca9 89be
00000360: 1fe3 5c3e 77f4 d53b d297 4cbb 90ff e9bd
00000370: 4cbf a0be ee6a a4be 4317 8a3e 9daa 65be
00000380: 5cd3 cebd 67a5 8ebe 0010 bdb8 88cb 8bbe
00000390: 8014 d83b 3ef9 b1be 28f9 6d3d f575 a23e
000003a0: ddc7 abbe 31e3 1d3e 0d2d 70be 018f 423e
000003b0: d117 a5be c48e 693e 1037 6c3e 795d c73e
000003c0: 06de e93d f30f a23d c248 98be f4db be3e
000003d0: 094a abbd c232 943e fb48 4f3e f481 b8be
000003e0: c426 ad3e 5f64 b63c bd30 c23d f9ab b8be
000003f0: 5094 3e3e db3a cebd 0153 a7bd 53a6 673c

layers.0.bias f4 [64]
-0.30791906 0.06407088 0.0049311053 -0.29664046 -0.36404693 0.19812573 -0.23815165 -0.15744369
0.15552936 0.21384405 0.25994125 -0.161697 -0.2169736 0.28741565 0.3818186 -0.2807495
0.24444994 0.07400289 0.025590884 -0.060871534 -0.06790545 -0.23059432 -0.23885572 -0.25495797
-0.32392424 -0.18553884 0.40609327 -0.018119961 -0.05595392 0.046475217 0.21838912 0.036399864
-0.24557872 -0.17092066 -0.27476883 0.22722055 0.16139044 -0.09624091 -0.2405582 -0.04274993
-0.039778292 -0.2762148 0.21555732 -0.3669458 -0.11455122 -0.37569577 0.3396646 -0.36921722
0.20361416 0.27838305 -0.17880479 0.09298981 -0.049233675 -0.17265597 -0.057847586 -0.038148224
-0.28294384 -0.3381452 -0.32766554 0.33878195 0.13106202 -0.15863368 0.15216938 -0.24711625
00000000: 91a7 9dbe 9837 833d 1c95 a13b 42e1 97be
00000010: 5c64 babe 79e1 4a3e 07de 73be eb38 21be
00000020: 1743 1f3e eff9 5a3e 0517 853e e693 25be
00000030: 542e 5ebe 2528 933e ba7d c33e 66be 8fbe
00000040: 1651 7a3e d48e 973d f9a3 d13c 6e54 79bd
00000050: 0312 8bbd eb20 6cbe 9896 74be da89 82be
00000060: 66d9 a5be e5fd 3dbe 75eb cf3e 5070 94bc
00000070: f02f 65bd cc5c 3e3d 66a1 5f3e 0618 153d
00000080: fd78 7bbe d305 2fbe 80ae 8cbe 81ac 683e
00000090: 8943 253e f419 c5bd e454 76be 8d1a 2fbd
000000a0: 90ee 22bd 076c 8dbe 0fbb 5c3e 52e0 bbbe
000000b0: d499 eabd 325b c0be 85e8 ad3e 0a0a bdbe
000000c0: 3b80 503e 3988 8e3e 9a18 37be 7171 be3d
000000d0: 40a9 49bd bacc 30be 97f1 6cbd 5041 1cbd
000000e0: 04de 90be 5e21 adbe c7c3 a7be d474 ad3e
000000f0: 1f35 063e de70 22be 4ad2 1b3e 0b0c 7dbe

layers.1.weight f4 [64, 64]
-0.085583 -0.061734177 0.010134417 0.04463975 0.06807129 -0.014436404 -0.016916297 0.013306122
0.10630553 0.12737325 0.09005907 0.004906798 0.049188793 0.07830731 -0.025419215 0.14222625
0.08611666 -0.012946584 0.15667616 -0.005096572 0.15749493 0.016379403 -0.055226967 -0.117677055
-0.10537368 0.059992556 0.12088252 -0.052321542 -0.015584901 -0.04422604 0.012787565 0.029313892
0.08215092 0.051712174 -0.017651537 -0.06556393 0.053156015 0.0823722 -0.07602933 0.114607446
0.09747417 -0.033158213 0.053329263 -0.1140205 0.114972085 0.04477611 0.08027139 -0.054404065
0.010796104 0.0986921 -0.04462924 -0.16919419 -0.092525296 -0.010870919 0.015039327 -0.039353788
-0.07312293 0.13761088 0.035369784 -0.064851575 0.031282954 -0.1077101 0.03882447 -0.107318565
-0.043686494 -0.09452492 -0.10538215 -0.035805956 0.05704072 0.09729434 0.06118898 0.0035288315
-0.03478986 0.023873484 0.0009972304 -0.094328 -0.10447607 0.015800048 -0.08832217 -0.103218734
0.07507285 -0.029379666 -0.10692152 -0.046796132 0.094012246 -0.1082716 0.11531454 0.011300683
-0.10604495 -0.0699362 0.007111149 0.07251793 -0.025999993 0.07095449 0.042730317 0.075206324
-0.011624634 -0.029710522 -0.11173321 -0.1316002 -0.093296915 -0.07341571 0.020641401 0.07182176
-0.025749732 -0.03915506 -0.03870782 0.11265935 0.0833002 -0.10849947 0.063424565 -0.02527444
-0.083056696 0.038697172 0.07043965 0.10942738 0.0013865232 0.04498761 0.007587079 0.09510045
-0.08654004 -0.15630221 0.03722398 0.01035727 0.030837253 0.070901915 -0.027242944 -0.09899567
-0.04710353 0.014945742 -0.11984637 0.022129476 0.07915035 -0.13089593 0.024799876 0.047995467
0.13355559 0.02043345 -0.019155309 0.005290457 -0.069334514 0.09490616 0.025244946 -0.037375584
-0.08814413 -0.06442376 0.035989914 -0.057130005 0.07431614 0.13685738 -0.025425797 -0.03176302
0.114073455 -0.016040318 0.062649615 -0.11807917 0.0049643368 0.06244807 -0.15044574 -0.05241299
-0.032608986 -0.11504711 0.12180632 0.0041045262 0.044773143 -0.12676743 -0.083097056 -0.056068137
-0.0068752943 -0.11023714 0.010405431 0.059908554 -0.120860696 -0.09141514 -0.007434497 0.0044304878
-0.08252975 0.07811307 -0.029971048 -0.0020732572 -0.1034789 -0.035521347 -0.1290912 -0.01678656
0.07848404 0.042895854 -0.11773144 0.025200555 -0.07648301 -0.08196462 0.06986287 0.07069044
0.069017544 -0.03186801 -0.022112884 -0.07211995 -0.10705307 -0.06733265 -0.08720048 0.12088854
0.030802265 0.010929865 0.04876119 0.077113435 -0.016359098 0.032478843 -0.12976213 0.08037864
0.11986465 0.07592301 0.03229679 0.061670564 0.022757415 0.014037101 0.0316765 -0.0051021706
-0.10421403 -0.027353643 0.025075268 -0.13438499 -0.05412124 -0.03414584 0.11548813 0.08160625
0.11272463 0.028589955 -0.1186473 -0.09230205 0.024868658 0.019288564 0.04602398 -0.12526596
-0.08446586 -0.077525735 0.09932872 -0.12323345 -0.06260513 0.08414689 -0.021342566 -0.09439917
-0.12667012 0.020349536 0.10114887 0.06846097 0.058875877 -0.051804457 -0.00970863 -0.08968344
-0.07236486 -0.06141347 0.066326916 -0.039705593 -0.1229586 0.06991276 -0.013865188 0.037417375
00000000: 2446 afbd fadc 7cbd d30a 263c 2cd8 363d
00000010: f668 8b3d ab86 6cbc 0c94 8abc ec01 5a3c
00000020: b7b6 d93d 226e 023e e470 b83d 34c9 a03b
00000030: 307a 493d 955f a03d f53b d0bc c2a3 113e
00000040: ee5d b03d e91d 54bc b76f 203e 2501 a7bb
00000050: 5a46 213e 192e 863c ac35 62bd ab00 f1bd
00000060: 28ce d7bd c1ba 753d 4191 f73d 1d4f 56bd
00000070: d057 7fbc 5d26 35bd ef82 513c b023 f03c
00000080: be3e a83d 25d0 533d f599 90bc 6246 86bd
00000090: 1fba 593d c2b2 a83d 44b5 9bbd 4fb7 ea3d
000000a0: 8aa0 c73d e8d0 07bd c96f 5a3d 9483 e9bd
000000b0: 7c76 eb3d 2867 373d 5465 a43d ccd6 5ebd
000000c0: 24e2 303c 151f ca3d 26cd 36bd 3e41 2dbe
000000d0: e77d bdbd f01b 32bc 8267 763c 7031 21bd
000000e0: 7ac1 95bd dee9 0c3e e8df 103d e7d0 84bd
000000f0: 8e22 003d 1d97 dcbd 6806 1f3d d6c9 dbbd
00000100: 9cf0 32bd 4896 c1bd 99d2 d7bd 44a9 12bd
00000110: 88a3 693d 4142 c73d 4ca1 7a3d f843 673b
00000120: d07f 0ebd 5392 c33c 80b5 823a 0a2f c1bd
00000130: 8df7 d5bd 1a6f 813c 41e2 b4bd 5864 d3bd
00000140: cbbf 993d a0ad f0bc abf9 dabd 4dad 3fbd
00000150: 7e89 c03d 80bd ddbd 082a ec3d 8026 393c
00000160: 182e d9bd b63a 8fbd a404 e93b 4884 943d
00000170: f0fd d4bc 9650 913d fc05 2f3d c605 9a3d
00000180: 4075 3ebc 7b63 f3bc 62d4 e4bd 34c2 06be
00000190: 7412 bfbd fa5a 96bd 2818 a93c 4917 933d
000001a0: 1af1 d2bc 0e61 20bd 178c 1ebd f2b9 e63d
000001b0: 4c99 aa3d f834 debd bde4 813d 580c cfbc
000001c0: a119 aabd ed80 1e3d aa42 903d 761b e03d
000001d0: 00bc b53a ee44 383d 089d f83b 06c4 c23d
000001e0: e83b b1bd b00d 20be 2c78 183d 8ab1 293c
000001f0: 689e fc3c 0635 913d 982c dfbc 3ebe cabd
00000200: a2ef 40bd fcde 743c 0372 f5bd e048 b53c
00000210: 9419 a23d 9509 06be 1c29 cb3c e596 443d
00000220: ccc2 083e 0d64 a73c 98eb 9cbc 925b ad3b
00000230: 41ff 8dbd 295e c23d 7dce ce3c 2417 19bd
00000240: e984 b4bd 9bf0 83bd 296a 133d 2701 6abd
00000250: 0f33 983d 5724 0c3e c349 d0bc f119 02bd
00000260: 589f e93d fc66 83bc 714e 803d 7ed3 f1bd
00000270: e0ab a23b 8cc9 7f3d 730e 1abe 01af 56bd
00000280: 0091 05bd d29d ebbd 9875 f93d 437f 863b
00000290: 0b64 373d 52cf 01be ca2e aabd b4a7 65bd
000002a0: 264a e1bb 02c4 e1bd 8a7b 2a3c ac62 753d
000002b0: d085 f7bd dc37 bbbd 159d f3bb a02d 913b
000002c0: 5c05 a9bd bff9 9f3d d885 f5bc 7cdf 07bb
000002d0: bfec d3bd d57e 11bd 7c30 04be f883 89bc
000002e0: 3ebc a03d 90b3 2f3d 2e1d f1bd 6571 ce3c
000002f0: 20a3 9cbd 11dd a7bd 4414 8f3d 26c6 903d
00000300: 1259 8d3d 0888 02bd 1426 b5bc a0b3 93bd
00000310: a43e dbbd b3e5 89bd 2a96 b2bd 6994 f73d
00000320: 0855 fc3c 2d13 333c d0b9 473d a6ed 9d3d
00000330: 8403 86bc 8908 053d 5de0 04be 8e9d a43d
00000340: 997b f53d 867d 9b3d a449 043d 469a 7c3d
00000350: c26d ba3c defb 653c 38bf 013d 1c30 a7bb
00000360: 2a6e d5bd bf14 e0bc a66a cd3c 389c 09be
00000370: 3cae 5dbd 82dc 0bbd 0a85 ec3d 2d21 a73d
00000380: 2cdc e63d 7b35 ea3c 5bfd f2bd db08 bdbd
00000390: 5bb9 cb3c 0d03 9e3c a483 3c3d b845 00be
000003a0: 70fc acbd d0c5 9ebd db6c cb3d d261 fcbd
000003b0: 1e37 80bd 3455 ac3d 9bd6 aebc 5a54 c1bd
000003c0: d0b5 01be 12b4 a63c 2427 cf3d 4435 8c3d
000003d0: d527 713d e930 54bd f210 1fbc f4ab b7bd
000003e0: 0734 94bd b18c 7bbd 68d6 873d 55a2 22bd
000003f0: b8d1 fbbd 6c2e 8f3d d02a 63bc f642 193d

layers.1.bias f4 [64]
-0.023926776 -0.07737269 0.013643303 0.056890983 0.0659509 -0.00028049946 -0.111657485 0.047662605
0.027576694 0.10410641 -0.09520368 0.016905397 -0.028878685 0.07640346 -0.057989504 0.032348648
-0.0092798425 0.06219011 -0.024790836 0.087666094 0.032945678 -0.035570484 -0.06535497 0.03594747
-0.080019385 -0.10223123 0.02570398 -0.0061028795 0.110017985 0.12055752 -0.04303041 0.061244473
0.05260841 0.024331884 0.033640996 -0.044302586 -0.07928355 -0.02839045 0.016226118 0.00089314056
0.028444946 -0.0921151 -0.004344701 -0.04814846 -0.11644617 0.084164135 0.10353554 -0.075363226
0.014217586 -0.08617185 0.06859154 0.16057874 -0.019559933 -0.05146258 -0.036882564 -0.07304661
0.01523082 -0.05482946 -0.08223024 0.07195621 0.038138915 -0.102917045 -0.061454672 0.08882789
00000000: 1602 c4bc 9375 9ebd 2988 5f3c 8506 693d
00000010: 4411 873d 0010 93b9 aeac e4bd dd39 433d
00000020: 85e8 e13c be35 d53d 26fa c2bd 307d 8a3c
00000030: fe92 ecbc 6b79 9c3d 6786 6dbd 0480 043d
00000040: 7b0a 18bc 0fbb 7e3d 2716 cbbc 488a b33d
00000050: 0cf2 063d 5bb2 11bd d4d8 85bd a83d 133d
00000060: 34e1 a3bd 9b5e d1bd 2791 d23c aafa c7bb
00000070: 1c51 e13d dce6 f63d a840 30bd 7cdb 7a3d
00000080: eb7b 573d a953 c73c 24cb 093d a176 35bd
00000090: 6a5f a2bd 1793 e8bc a3ec 843c a621 6a3a
000000a0: 6005 e93c d7a6 bcbd fe5d 8ebb 5237 45bd
000000b0: 547b eebd 3f5e ac3d 710a d43d 0958 9abd
000000c0: e1f0 683c de7a b0bd b979 8c3d c16e 243e
000000d0: 273c a0bc 6dca 52bd 2c12 17bd 7699 95bd
000000e0: b08a 793c db94 60bd 5468 a8bd c75d 933d
000000f0: 8d37 1c3d 2cc6 d2bd e5b7 7bbd 66eb b53d

layers.2.weight f4 [45, 64]
0.08562861 0.12011862 0.0036372475 0.04944385 -0.03916634 -0.075494975 -0.060082927 0.03474397
-0.0013874471 -0.15568444 0.122056305 -0.06455697 -0.07436251 -0.0536527 0.048466418 -0.11717789
-0.02311869 0.10286446 -0.028983986 0.013002313 -0.015402871 0.05227764 0.08393627 0.060452804
0.06247473 0.10722867 0.030588455 -0.038615298 0.12038345 0.10689769 0.05625841 -0.072161786
-0.013626753 0.084037125 0.124290854 0.12394182 0.025507927 0.1012764 0.0501274 0.12941118
0.08702853 0.0026158385 -0.056453023 -0.003976701 -0.086224556 -0.079530045 0.07754303 -0.042713594
-0.11243364 -0.08218534 0.009978846 0.02672115 -0.058248322 0.040161014 -0.11281006 0.060400497
-0.0053468496 0.09609196 0.013072237 -0.068117246 -0.033668432 -0.018189237 0.041502982 0.13980603
-0.08756997 -0.096425354 -0.10270643 0.077363804 0.042562455 0.050805256 0.06832951 0.0069046617
0.10161938 0.038185343 -0.01991257 0.10983677 -0.09827699 0.013325527 0.09050961 0.037897944
-0.07690206 0.12057963 -0.0008614212 -0.014559761 -0.036355227 -0.09960027 0.004673362 -0.008902803
0.031810746 -0.06862804 0.001889497 -0.12396982 0.09562454 0.021152347 0.037574574 0.09987089
-0.034050673 0.04484968 0.08035441 -0.06890246 -0.04216653 -0.044714898 -0.054803282 0.09727202
0.09109385 -0.005880192 -0.12033369 0.042738557 0.005817622 -0.102027535 -0.026015058 -0.05511184
0.042595983 0.06857917 -0.009344131 -0.123328716 0.082004115 -0.030024037 0.07555707 -0.002902791
0.02271451 -0.11338131 -0.1054313 0.016028598 -0.04620403 0.0329798 -0.011329591 -0.09203921
-0.0042202254 -0.048848733 0.07128163 0.06146347 -0.014880213 0.07726513 -0.010556266 0.13869175
0.10554973 0.045356065 0.064039595 0.068815425 -0.103981614 0.10386365 0.05202893 0.014440164
0.032514364 -0.018623367 0.01641778 0.00027188822 -0.036213942 -0.0042595714 0.09176722 -0.068142466
0.12034926 -0.11145122 0.12716289 -0.04819951 0.03637019 0.08149898 0.121519834 0.056976154
-0.06763001 -0.04346682 0.07833409 0.062497318 -0.10491952 0.07304628 0.06894845 0.014816123
-0.08216857 -0.10934378 -0.021856623 0.108443804 0.12079814 -0.012598955 -0.00631885 -0.09327311
0.08961631 -0.09297622 0.014865216 0.14042217 0.11308244 -0.06289989 -0.013243094 -0.04590698
0.11684738 0.120451525 -0.06311343 0.104927875 0.071882196 0.12193099 -0.0007197276 0.081603155
-0.050097506 -0.04139127 -0.051671524 -0.10046956 0.15812695 0.09704366 -0.08438979 0.13057907
-0.15689996 0.077591516 0.13130085 0.07783981 0.026802823 0.14682385 0.0853925 -0.008099169
0.096850544 0.097180255 -0.07077783 -0.007375127 -0.0034029484 -0.03143011 0.039512765 0.089941494
-0.10698545 -0.062208846 0.0360845 -0.04780293 0.10589656 -0.023785243 0.12332699 -0.0021672803
0.13814119 -0.024188697 -0.045214064 0.11248088 0.08896467 -0.10852598 -0.0032000681 0.04555555
-0.06624193 0.14433406 0.09642268 0.01464465 -0.021041006 0.04280571 -0.103853814 0.028178945
0.0971757 0.11219396 0.11839789 -0.026820647 0.006918872 0.017506644 -0.078321844 0.07992142
-0.026934937 0.0093777515 0.06134338 0.12815467 -0.036283538 0.028303161 -0.02062537 0.090023845
00000000: 0d5e af3d c000 f63d e35e 6e3b a285 4a3d
00000010: e26c 20bd 1c9d 9abd 8419 76bd b14f 0e3d
00000020: 00db b5ba be6b 1fbe a8f8 f93d 7236 84bd
00000030: 5f4b 98bd efc2 5bbd b984 463d f6fa efbd
00000040: 6863 bdbc 9aaa d23d d36f edbc a707 553c
00000050: 535c 7cbc 1421 563d c7e6 ab3d 5c9d 773d
00000060: 81e5 7f3d b49a db3d a494 fa3c 132b 1ebd
00000070: 998b f63d 2ded da3d 386f 663d 8fc9 93bd
00000080: bf42 5fbc a81b ac3d 348c fe3d 35d5 fd3d
00000090: 00f6 d03c 006a cf3d 6352 4d3d 5d84 043e
000000a0: 043c b23d 7d6e 2b3b 493b 67bd fc4e 82bb
000000b0: 8096 b0bd a6e0 a2bd e1ce 9e3d 73f4 2ebd
000000c0: 9c43 e6bd ca50 a8bd 507e 233c 50e6 da3c
000000d0: cb95 6ebd e07f 243d f608 e7bd 8366 773d
000000e0: a034 afbb ddcb c43d f02c 563c 0e81 8bbd
000000f0: e9e7 09bd 9801 95bc 08ff 293d 5029 0f3e
00000100: e257 b3bd a87a c5bd c057 d2bd ea70 9e3d
00000110: f855 2e3d 2c19 503d 58f0 8b3d 8040 e23b
00000120: d21d d03d 3c68 1c3d b01f a3bc 1af2 e03d
00000130: 7245 c9bd 5053 5a3c 1a5d b93d e03a 1b3d
00000140: d47e 9dbd 74f2 f63d 00d1 61ba 108c 6ebc
00000150: 38e9 14bd 3afb cbbd 0023 993b 10dd 11bc
00000160: fc4b 023d dc8c 8cbd 00a9 f73a e4e3 fdbd
00000170: ccd6 c33d b047 ad3c cce7 193d 1c89 cc3d
00000180: b878 0bbd 4cb4 373d da90 a43d bc1c 8dbd
00000190: d0b6 2cbd f826 37bd 6879 60bd 8e36 c73d
000001a0: 6a8f ba3d a0ae c0bb 8271 f6bd a00e 2f3d
000001b0: c0a1 be3b d0f3 d0bd 881d d5bc f4bc 61bd
000001c0: 2079 2e3d 3c73 8c3d 2018 19bc c493 fcbd
000001d0: c6f1 a73d f8f4 f5bc aabd 9a3d c03c 3ebb
000001e0: c813 ba3c 7634 e8bd 5eec d7bd 684e 833c
000001f0: 7040 3dbd d415 073d c09f 39bc 0e7f bcbd
00000200: d149 8abb 9c15 48bd 1afc 913d 1fc1 7b3d
00000210: 23cc 73bc 2e3d 9e3d 30f4 2cbc 3605 0e3e
00000220: 752a d83d 48c7 393d 3127 833d 1aef 8c3d
00000230: 50f4 d4bd 77b6 d43d 4a1c 553d 7096 6c3c
00000240: c82d 053d 0890 98bc 957e 863c 388c 8e39
00000250: 1255 14bd e093 8bbb 74f0 bb3d 478e 8bbd
00000260: ac79 f63d 8a40 e4bd fd36 023e d96c 45bd
00000270: e9f8 143d f0e8 a63d 64df f83d d45f 693d
00000280: 9a81 8abd 440a 32bd a06d a03d 30fd 7f3d
00000290: 0ce0 d6bd 4a99 953d d834 8d3d 53bf 723c
000002a0: ff47 a8bd a2ef dfbd a90c b3bc c917 de3d
000002b0: 0465 f73d d96b 4ebc 5b0e cfbb f905 bfbd
000002c0: c288 b73d 516a bebd 3c8d 733c d4ca 0f3e
000002d0: c497 e73d a8d1 80bd 90f9 58bc f508 3cbd
000002e0: ae4d ef3d 4aaf f63d 9d41 81bd 6de4 d63d
000002f0: f936 933d f4b6 f93d 1aac 3cba 8e1f a73d
00000300: 0b33 4dbd e489 29bd 85a5 53bd fcc2 cdbd
00000310: 08ec 213e d4be c63d 8ed4 acbd 85b6 053e
00000320: 62aa 20be 4de8 9e3d bb73 063e 7a6a 9f3d
00000330: 9891 db3c fe58 163e 43e2 ae3d 60b2 04bc
00000340: 9459 c63d 7106 c73d f8f3 90bd 0dab f1bb
00000350: 0004 5fbb dcbc 00bd 23d8 213d 3f33 b83d
00000360: 301b dbbd b4ce 7ebd 57cd 133d 01cd 43bd
00000370: 4ce0 d83d 45d9 c2bc dc92 fc3d ee08 0ebb
00000380: e274 0d3e 6027 c6bc 6232 39bd 605c e63d
00000390: 1c33 b63d de42 debd 3cb8 51bb 7598 3a3d
000003a0: d9a9 87bd 4fcc 133e 4179 c53d 1df0 6f3c
000003b0: 305e acbc 0a55 2f3d 4fb1 d4bd 88d7 e63c
000003c0: 0e04 c73d f2c5 e53d 987a f23d f9b6 dbbc
000003d0: b4b7 e23b 186a 8f3c 3467 a0bd d7ad a33d
000003e0: a8a6 dcbc 24a5 193c 3243 7b3d fa3a 033e
000003f0: 0c9e 14bd 08dc e73c 89f6 a8bc 6c5e b83d

layers.2.bias f4 [45]
0.026679752 -0.028104186 -0.049220517 0.06741255 -0.11666414 -0.039161403 0.08350222 0.04503113
-0.007747742 -0.018489689 -0.06682642 -0.12454605 -0.11148697 0.107436426 0.006337464 0.094381526
0.08929104 0.0953444 0.06737837 0.11899779 0.13996275 0.0034118295 0.11748041 -0.07470915
0.16124122 -0.094479024 -0.09686643 -0.06926298 -0.04905407 0.07892792 -0.0067695826 0.12310955
0.12376705 0.06109354 0.09954491 -0.063656494 0.10098955 0.049304694 0.08980348 0.11266613
0.03864269 0.096893646 0.046587598 0.08178088 0.10134344
00000000: 7f8f da3c c03a e6bc 749b 49bd 970f 8a3d
00000010: 9ced eebd b567 20bd 3603 ab3d 9072 383d
00000020: c5e0 fdbb b077 97bc 4adc 88bd 0012 ffbd
00000030: 4853 e4bd a107 dc3d 80aa cf3b 1a4b c13d
00000040: 39de b63d ed43 c33d acfd 893d 1db5 f33d
00000050: 6552 0f3e 0099 5f3b 9299 f03d 1c01 99bd
00000060: 6b1c 253e 387e c1bd e861 c6bd c0d9 8dbd
00000070: ecec 48bd f6a4 a13d 60d3 ddbb dc20 fc3d
00000080: 9479 fd3d 383d 7a3d 34de cb3d 565e 82bd
00000090: 9cd3 ce3d b8f3 493d e3ea b73d 80bd e63d
000000a0: cc47 1e3d 2d70 c63d a3d2 3e3d bc7c a73d
000000b0: 268d cf3d
