experiments/learn_elevators/elevators/2021_11_03_165704354043_c5bb2/2021_11_03_165704354043_c5bb2_end.pth (torch, 35031 bytes, 6 tensors)

layers.0.weight f4 [64, 22]
0	0x3eb7ca82	0.3589669
1	0x3e28939d	0.1646256
2	0x3eddf805	0.43353286
3	0x3f11b3c7	0.56914943
4	0x3ed42dc7	0.41441175
5	0x3e9838e1	0.29730895
6	0x3ef6a801	0.48175052
7	0x3ec53d0f	0.38523147
8	0x3e0dca7f	0.13846777
9	0x3ec8cceb	0.3921884
10	0x3d9c1e6e	0.076229915
11	0x3df32d96	0.11873929
12	0x3f1a27e1	0.602171
13	0x3e6d3167	0.23163377
14	0x3e9584d0	0.2920289
15	0x3edd00c5	0.4316465
16	0x3eef1e33	0.46702728
17	0x3e89597c	0.26826084
18	0x3f1af17a	0.60524714
19	0x3f0a2e52	0.5397693
20	0x3f155b05	0.5834201
21	0x3f1f100e	0.6213387
22	0x3ebf6855	0.37384287
23	0x3ec39953	0.38202915
24	0x3ec90f0a	0.39269286
25	0x3f16ff22	0.5898305
26	0x3e1b9238	0.15192497
27	0x3e4e8e40	0.20171452
28	0x3f06e28b	0.5268943
29	0x3ef29ac4	0.47383702
30	0xbe007e76	-0.12548241
31	0x3ef51788	0.47869515
32	0x3d74b49e	0.059742562
33	0x3e040c3b	0.1289529
34	0x3f1a8f3d	0.60374814
35	0x3e93a8ca	0.28839713
36	0x3eb1435e	0.3462171
37	0x3f05c139	0.5224796
38	0x3e5fdf28	0.21862471
39	0x3ecfce55	0.40587106
40	0x3ef938ff	0.48676297
41	0x3f067341	0.52519614
42	0x3f0dfe8e	0.55466545
43	0x3f0e9e44	0.55710244
44	0x3edf2847	0.43585417
45	0x3e9ab4b1	0.30215982
46	0x3e630e91	0.22173525
47	0x3ea82c08	0.32846093
48	0x3ec7b9a6	0.39008826
49	0x3efebf25	0.49755207
50	0x3f052940	0.5201607
51	0x3f019f66	0.5063385
52	0xbd8c5d6a	-0.06853755
53	0x3eefd72e	0.46843857
54	0x3ce0097b	0.02734827
55	0x3d163a8e	0.036676936
56	0x3ed273d0	0.41103983
57	0x3e9f3d87	0.3110163
58	0x3f0969e9	0.5367723
59	0x3f0920ee	0.5356587
60	0x3eb1c41a	0.34719926
61	0x3eec90d1	0.46204236
62	0x3f00d4d2	0.5032474
63	0x3f17f4cd	0.5935791
64	0x3f02a092	0.5102626
65	0x3e6dc3d4	0.23219234
66	0x3ef0800c	0.46972692
67	0x3d30e67d	0.04318856
68	0x3edb5a0c	0.42842138
69	0x3f09e453	0.5386402
70	0x3eb7bf80	0.3588829
71	0x3f188fef	0.59594625
72	0x3f1be9d3	0.6090366
73	0x3e35479b	0.17703097
74	0x3dc9b03f	0.098480694
75	0x3ed9bf70	0.42528868
76	0x3d876cc2	0.06612541
77	0xbe0bf679	-0.1366824
78	0x3f1a84af	0.6035871
79	0xbd1ee011	-0.038787905
80	0x3e2cdc59	0.16880931
81	0x3e512c19	0.20426978
82	0x3e916da2	0.28403956
83	0x3ecbe04e	0.39819568
84	0x3f0b5b14	0.5443585
85	0x3ec657e2	0.38738924
86	0x3e98f335	0.29873052
87	0x3f0f59ef	0.559966
88	0x3e38e51f	0.18056153
89	0xbd5e8762	-0.05432833
90	0x3e840c0a	0.25790435
91	0x3eb9fd29	0.36325958
92	0x3dd9dfdc	0.10638401
93	0x3eb290d8	0.34876132
94	0x3eb72490	0.35770082
95	0x3dd2b4a3	0.1028836
96	0x3e1d01ff	0.15332793
97	0x3f04feb6	0.5195116
98	0xbda1499c	-0.07875368
99	0x3f47eb86	0.78093755
100	0x3e575226	0.21027431
101	0xbe87f223	-0.26551923
102	0x3f05b6bb	0.5223195
103	0x3dc36127	0.09540015
104	0x3e5eda25	0.21762903
105	0x3e5a3ff3	0.21313457
106	0x3e7f38a9	0.24923958
107	0x3e3e017b	0.18555252
108	0x3e82b2c1	0.25527003
109	0x3e63f265	0.22260435
110	0x3e104a9b	0.1409096
111	0x3d2dcc5f	0.04243123
112	0xbe61e575	-0.22060187
113	0xbe123da7	-0.14281331
114	0xbcc7373b	-0.024318328
115	0x3d66fb03	0.056391727
116	0x3df793de	0.1208875
117	0x3e3b2f5a	0.18279782
118	0xbe321562	-0.1739097
119	0x3e42381b	0.18966715
120	0x3e1d40dd	0.15356775
121	0xbe6dcf32	-0.2322357
122	0xbe4b0c76	-0.19828972
123	0xbd246182	-0.040132053
124	0xbd6daae3	-0.0580243
125	0xbd72ddaa	-0.059293427
126	0xbe611f3b	-0.2198457
127	0xbd9efdc2	-0.07763244
128	0x3dfbb9f5	0.12291328
129	0xbce13fc1	-0.02749622
130	0xbe51610e	-0.2044718
131	0xbe011d5a	-0.12608853
132	0x3da30278	0.07959455
133	0x3d88a3cc	0.06671867
134	0xbdbd8317	-0.09253519
135	0xbe32c593	-0.17458181
136	0x3db975d4	0.09055677
137	0xbde933f5	-0.11386863
138	0xbe3f3bfa	-0.18675223
139	0x3e482ff4	0.19549543
140	0x3daf8d3c	0.0857186
141	0xbd1426c8	-0.036169797
142	0x3d002e10	0.03129393
143	0x3e315312	0.17316845
144	0xbe420416	-0.18946871
145	0xbd2dbaf4	-0.04241462
146	0xbd9a9d1c	-0.075494975
147	0xbe5410e9	-0.20709576
148	0x3e3925c8	0.18080819
149	0xbe4e5c41	-0.2015238
150	0xbdafad18	-0.08577937
151	0x3dddaa6c	0.10823521
152	0x3e45948c	0.19294947
153	0xbd66a418	-0.056308836
154	0x3f176576	0.5913919
155	0x3e519762	0.20467904
156	0x3e87f104	0.26551068
157	0x3e784c18	0.24247777
158	0x3e3a2273	0.18177204
159	0x3ee539c9	0.4477065
160	0x3f1f6948	0.6227002
161	0x3f204b20	0.6261463
162	0x3e81a3af	0.25320193
163	0x3f15f24a	0.5857283
164	0xbd4127a8	-0.04715696
165	0x3f23e39e	0.6401919
166	0x3eed1a82	0.46309286
167	0xbc4beda7	-0.012446797
168	0x3eb3154f	0.34977195
169	0x3f2a7e50	0.6659899
170	0x3eae93ed	0.34097233
171	0x3ed3759e	0.41300672
172	0x3f074589	0.5284048
173	0x3efd391c	0.49457633
174	0x3ef3e74c	0.47637403
175	0x3ed4458c	0.4145931
176	0xbe79ded3	-0.24401407
177	0x3e0c12f3	0.13679104
178	0xbdcd2c06	-0.100181624
179	0x3d2ca357	0.04214796
180	0x3bf172c0	0.0073684156
181	0x3d2384c7	0.03992155
182	0xbe0ab005	-0.13543709
183	0xbe3ed1c5	-0.18634708
184	0xbe02a564	-0.12758404
185	0x3d643e73	0.05572362
186	0xbbe7fd91	-0.007079788
187	0x3eefbace	0.46822208
188	0x3dda8efe	0.10671805
189	0xbe3d53fb	-0.18489067
190	0x3e83b734	0.2572571
191	0xbe21b7dd	-0.15792795
192	0xbde11f3b	-0.10992285
193	0x3df7a14d	0.120913126
194	0xbe4612ad	-0.19343062
195	0xbdc88b75	-0.09792224
196	0xbdaec6bb	-0.085339986
197	0x3d7961a8	0.060884148
198	0x3f14f494	0.58185697
199	0x3ed9d370	0.42544127
200	0x3eb62b05	0.35579696
201	0x3e84bc74	0.25925028
202	0x3ed1b1af	0.40955874
203	0x3e9096d4	0.28240073
204	0x3eb5132a	0.35366184
205	0x3e4d30b9	0.20038117
206	0x3e5a9073	0.21344166
207	0x3ebafc9e	0.36520857
208	0x3e26967c	0.16268343
209	0xbca60ff1	-0.020271273
210	0x3eeaf6b5	0.45891348
211	0x3d5cd131	0.053910438
212	0x3f17ecdb	0.5934579
213	0x3e762669	0.2403809
214	0x3ecd4afb	0.40096268
215	0x3e948d50	0.29014063
216	0x3e9298c6	0.28632182
217	0x3f0b6278	0.54447126
218	0x3f2657a8	0.649775
219	0x3f0743d2	0.5283786
220	0x3ed46360	0.41482067
221	0x3ea20aa8	0.31648755
222	0x3efdec9a	0.49594575
223	0x3ea22f3d	0.31676665
224	0x3e16a769	0.147123
225	0x3edebe97	0.43504784
226	0x3f00432b	0.5010249
227	0x3f08235a	0.5317894
228	0x3ddd9bb4	0.10820714
229	0x3f05f54c	0.5232742
230	0xbde3f88c	-0.11131391
231	0x3e30e84f	0.17276119
232	0x3f1066bc	0.5640676
233	0x3d9cacd3	0.07650151
234	0x3f090246	0.53519094
235	0x3f10b89d	0.565317
236	0x3e5b933c	0.21442884
237	0x3ef49065	0.47766414
238	0x3ef4212a	0.47681552
239	0x3efab276	0.4896428
240	0x3f0dd1c0	0.5539818
241	0x3f024d22	0.50898945
242	0x3ef5d075	0.48010603
243	0x3ead27d9	0.33819464
244	0x3e6d5cfb	0.2318
245	0x3e591721	0.21200229
246	0x3ed046c4	0.4067899
247	0x3f214f90	0.6301203
248	0x3eb76efa	0.35826856
249	0x3f12b2a0	0.5730381
250	0x3d88235d	0.0664737
251	0x3ef58534	0.47953188
252	0x3dbb4d90	0.09145653
253	0x3e33832b	0.17530505
254	0x3ea90f94	0.33019698
255	0xbd54c34a	-0.051944055

layers.0.bias f4 [64]
0	0x3ebb4248	0.36574006
1	0x3f0a373f	0.5399055
2	0x3e8f2eda	0.27965432
3	0x3ea1243f	0.31472966
4	0x3e86de48	0.26341462
5	0xbd32aa58	-0.043619484
6	0xbe57ee0b	-0.210869
7	0x3f123477	0.57111305
8	0x3db2c5d5	0.0872914
9	0x3e7629be	0.24039361
10	0x3ec2376c	0.3793291
11	0x3e7ab2bc	0.24482244
12	0x3ebfa8b7	0.37433407
13	0x3ebcb6e8	0.36858296
14	0x3f1a85be	0.60360324
15	0x3ef7b792	0.4838224
16	0x3f00c229	0.50296265
17	0x3cfe50da	0.031044412
18	0x3e4530b7	0.19256864
19	0x3eb3b50e	0.3509907
20	0x3f102493	0.5630581
21	0x3eabb051	0.33532956
22	0xbd44cbc8	-0.048045903
23	0x3eabc9c5	0.33552375
24	0x3d880cb3	0.06643047
25	0x3f0ad994	0.5423825
26	0x3ebf8371	0.3740497
27	0xbb07e407	-0.002073528
28	0x3f161c5a	0.5863701
29	0x3efb8ed4	0.49132407
30	0x3f0b48bb	0.5440785
31	0x3e028428	0.12745726
32	0x3ef62af2	0.4807964
33	0x3ef2481e	0.47320646
34	0x3e63311a	0.221867
35	0x3eb3e721	0.35137275
36	0x3eaaadee	0.33335823
37	0x3d43cc58	0.0478023
38	0x3e6c9384	0.23103148
39	0xbe6c0e62	-0.23052362
40	0x3f154b39	0.58317906
41	0x3ea7a854	0.32745612
42	0xbe4f5161	-0.20245887
43	0x3ea57e36	0.32322854
44	0x3e9545d6	0.29154843
45	0xbe0251d0	-0.12726521
46	0x3db3daa9	0.087819405
47	0x3eec0043	0.4609395
48	0x3efc022f	0.49220416
49	0x3e4b3b58	0.19846857
50	0x3e59f0f6	0.21283326
51	0xbdb3f77d	-0.08787439
52	0xbda663f8	-0.08124536
53	0x3e6af061	0.2294326
54	0x3e902ffc	0.2816161
55	0x3f189cc1	0.5961419
56	0x3ecce19b	0.40015873
57	0x3f1da3ff	0.61578363
58	0x3cbf1058	0.023323223
59	0x3e9d585c	0.30731475
60	0x3eb69342	0.35659224
61	0x3f04d271	0.5188361
62	0x3efdeeba	0.49596196
63	0xbd90deb4	-0.07073727

layers.1.weight f4 [64, 64]
0	0xbc7a8580	-0.015290618
1	0xbdd60dca	-0.10451849
2	0xbda305ec	-0.07960114
3	0xbd074be0	-0.033031344
4	0x3d988de2	0.07448937
5	0x3bfcdb00	0.0077165365
6	0x3d8743fc	0.06604764
7	0xbdd5a2d8	-0.104314506
8	0x3cd18760	0.025577247
9	0xbdcee262	-0.10101773
10	0xbd15bc88	-0.03655675
11	0x3dd0f966	0.10203819
12	0x3baaeb20	0.0052160174
13	0xbdbfac38	-0.0935902
14	0xbdfc1b90	-0.12309945
15	0xbd1ac408	-0.037784606
16	0xbd48c5dc	-0.04901682
17	0xbdeda924	-0.11604527
18	0x3d8c16be	0.06840275
19	0x3b2428c0	0.0025048703
20	0xbc9d31b8	-0.019188747
21	0x3dc5bb12	0.096548215
22	0xbdf281e0	-0.11841178
23	0x3d23719c	0.03990327
24	0x3dbd961a	0.09257145
25	0x3cdcff08	0.026977077
26	0x3d8946e0	0.067029715
27	0xbd35b760	-0.044364333
28	0xbdf10d3e	-0.11770104
29	0x3def2cde	0.116784796
30	0xbdfe1c96	-0.12407796
31	0xbd50de54	-0.05099328
32	0x3de7ff5a	0.11328001
33	0xbd7511b4	-0.059831336
34	0xbcca8430	-0.024721235
35	0xbd834ae8	-0.064107716
36	0x3cd0e048	0.02549757
37	0xbd385f5c	-0.045012817
38	0x3d3f2440	0.04666543
39	0x3df9a046	0.12188773
40	0xbdc04d76	-0.093897745
41	0x3da797ca	0.08183248
42	0xbd00d17c	-0.03144978
43	0xbdff23ba	-0.12457986
44	0x3d5e9714	0.054343298
45	0xbdab3c4c	-0.0836111
46	0x3d96a0ba	0.07354875
47	0xbcb25678	-0.021769747
48	0xbd9a8dc0	-0.07546568
49	0xbddeea0a	-0.10884483
50	0x3cdc4d70	0.026892394
51	0xbdf6b568	-0.12046319
52	0x3d8cb346	0.06870131
53	0x3d43b9ac	0.047784492
54	0xbdd939a6	-0.10606699
55	0x3d85d608	0.06534964
56	0xbdc9c90a	-0.09852798
57	0x3c4fdea0	0.012687355
58	0xbd13b3ec	-0.03606026
59	0x3dab2f52	0.08358635
60	0xbdd8754e	-0.10569249
61	0xbd21229c	-0.039339647
62	0xbd359d28	-0.04433933
63	0xbc307cb0	-0.010771915
64	0xb874c588	-5.83581e-05
65	0xbdb5be47	-0.08874183
66	0x3bef6c40	0.0073066056
67	0xbb961529	-0.004580159
68	0xbd92b940	-0.0716424
69	0x3cf30d88	0.029669538
70	0x3dbc0d52	0.09182228
71	0x3d83c7a4	0.06434563
72	0x3d16f3eb	0.036853712
73	0xbd7d6b2e	-0.061869793
74	0xbdcf4231	-0.10120047
75	0x3d82e5e8	0.063915074
76	0x3c1e7b10	0.009672895
77	0x3b15075c	0.0022739982
78	0x3d57d5d6	0.052694164
79	0xbd7650ce	-0.060135655
80	0xbe0981a9	-0.13428368
81	0xbdc40191	-0.09570611
82	0xbdfe9315	-0.124303974
83	0x3d8fed3d	0.070276715
84	0x3d96a196	0.07355039
85	0xbd88d833	-0.06681862
86	0xbce54768	-0.02798815
87	0xbd13a768	-0.036048323
88	0xbd5ab541	-0.053395513
89	0xbdc3e64e	-0.095654115
90	0x3cfc35f2	0.030787442
91	0xbd356028	-0.044281155
92	0xbdbc0d53	-0.09182229
93	0x3ca3d973	0.020001149
94	0xbd8541cb	-0.0650669
95	0x3d01a2cb	0.031649392
96	0xbc8077ae	-0.015682068
97	0x3cf85dca	0.03031816
98	0x3d91a59a	0.07111664
99	0xbdf132e7	-0.11777287
100	0xbd61fb42	-0.05517126
101	0x3dfaff5a	0.12255736
102	0xbb7836a7	-0.0037874372
103	0xbc5fe1fe	-0.013664721
104	0x3dbb65d0	0.091502786
105	0x3dc8a14d	0.09796391
106	0x3d33d45c	0.043903694
107	0xbde21d20	-0.110407114
108	0x3de234c7	0.11045223
109	0xbdef9bf2	-0.11699666
110	0xbdfe250c	-0.1240941
111	0x3c976b27	0.018483711
112	0xbd425b38	-0.047450274
113	0xbdee2748	-0.11628586
114	0x3daee9f2	0.08540715
115	0x3c0e0894	0.008669037
116	0xbd896160	-0.06708026
117	0x3d09a08b	0.03360037
118	0x3db0dced	0.08635888
119	0xbcac929b	-0.021066
120	0x3da6e604	0.08149341
121	0x3d8753a4	0.0660775
122	0x3cade558	0.021227524
123	0xbda1b7ce	-0.07896386
124	0xbdda3974	-0.106554896
125	0xbc820ae4	-0.015874334
126	0xbd3d428e	-0.04620605
127	0xbde68fbc	-0.11257884
128	0xbdf683ba	-0.120368436
129	0xbdacd702	-0.08439447
130	0xbc090171	-0.00836216
131	0xbd557b2d	-0.052119423
132	0xbded43ac	-0.11585173
133	0xbc54c7f1	-0.012987123
134	0xbd61a884	-0.05509235
135	0xbd3743b0	-0.044742286
136	0x3d9c20ea	0.07623465
137	0x3d42c5f7	0.047552075
138	0x3da0aaf5	0.078451075
139	0x3de3fa82	0.11131765
140	0x3b7df54c	0.0038750945
141	0xbd887fba	-0.06664987
142	0xbc6f6832	-0.014612244
143	0x3d02cf7a	0.031936146
144	0xbd47b013	-0.0487519
145	0x3d8bc663	0.06824949
146	0x3d8f2b08	0.069906294
147	0xbde264de	-0.11054395
148	0x3c968ca5	0.018377611
149	0x3bf6d835	0.007533098
150	0x3d1ed9fc	0.038782105
151	0xbdc13678	-0.09434217
152	0x3df7d0a8	0.12100345
153	0xbd2e8510	-0.042607367
154	0x3d3698b3	0.04457922
155	0xbd9dc351	-0.07703269
156	0x3cfdb025	0.030967781
157	0xbd28996e	-0.041161947
158	0xbd8ad318	-0.06778544
159	0xbdfe3491	-0.1241237
160	0x3d298e0a	0.041395225
161	0x3c4ca507	0.012490517
162	0x3d1ab67f	0.037771698
163	0xbd49c40d	-0.049259234
164	0x3ca60ebd	0.0202707
165	0xbd516288	-0.051119357
166	0x3d0192d9	0.031634185
167	0x3da34a96	0.079732105
168	0xbdd06a3e	-0.10176514
169	0x3d301dbe	0.042997114
170	0xbda51be2	-0.08061959
171	0x3d0931c7	0.033494737
172	0xbd4f2693	-0.050573897
173	0x3d2d1dca	0.042264737
174	0xbe01bc81	-0.12669565
175	0x3da63fe1	0.08117653
176	0x3d868d64	0.06569937
177	0xbdb0012c	-0.085939735
178	0xbdd475b3	-0.10374012
179	0x3d79b5e8	0.060964495
180	0xbdc8eb2e	-0.09810482
181	0x3d2800c6	0.041016363
182	0xbd5ec256	-0.054384552
183	0xbdeaf891	-0.114731915
184	0x3cea229a	0.028580952
185	0xbd825ebf	-0.06365728
186	0xbda6e428	-0.08148986
187	0x3d70cde7	0.058790114
188	0x3d766b1c	0.06016074
189	0x3dc6e6fe	0.09712027
190	0x3df5fb85	0.12010864
191	0x3d31342c	0.043262646
192	0x3de4c127	0.111696534
193	0x3de0d997	0.10979002
194	0x3e795332	0.24348143
195	0x3d9bc656	0.07606189
196	0x3efa5196	0.4889037
197	0x3ddda7a1	0.10822988
198	0x3d44b344	0.048022524
199	0x3e3d44d4	0.18483287
200	0xbf3c566f	-0.7356939
201	0x3e15e408	0.14637768
202	0x3e0d1f07	0.13781367
203	0x3e0e9b17	0.1392635
204	0x3d9a9c89	0.07549388
205	0x3eda4077	0.42627308
206	0x3e0bb7a6	0.13644275
207	0x3e8817e0	0.26580715
208	0x3d02e601	0.03195763
209	0xbe967ad1	-0.29390576
210	0xbcb38c3b	-0.021917453
211	0x3e4046ea	0.18777052
212	0x3e51ab63	0.20475535
213	0x3e30f018	0.17279088
214	0xbdf7db36	-0.12102358
215	0x3d5cc724	0.053900853
216	0xbf52fa4e	-0.82413185
217	0x3dbe71ec	0.092990726
218	0x3da85ab2	0.08220424
219	0x3d9800ef	0.07422053
220	0x3d820440	0.06348467
221	0x3e9e0721	0.30864814
222	0x3e8d0d2c	0.27549112
223	0x3c8af324	0.016961642
224	0x3e8552c5	0.2603971
225	0x3dfa5000	0.1222229
226	0x3e66a4ea	0.22523847
227	0x3e108f88	0.14117253
228	0x3d5e7142	0.05430723
229	0xbccd2328	-0.025041178
230	0x3ea2f48e	0.31827205
231	0x3dfffbf9	0.12499232
232	0x3d775b51	0.06038982
233	0x3db7e0d7	0.08978432
234	0xbd7f92c8	-0.06239584
235	0x3e19d542	0.15022758
236	0x3ef6141c	0.48062217
237	0x3cf1f130	0.029533952
238	0x3eb88715	0.3604056
239	0x3cb95c1f	0.022626935
240	0x3e754aa4	0.23954254
241	0xbd432d4c	-0.04765062
242	0x3da940a4	0.08264282
243	0x3dc9a729	0.098463364
244	0x3bd34ba0	0.006448224
245	0x3eb98ae3	0.36238775
246	0x3f141b7e	0.5785445
247	0x3d41ebd8	0.04734406
248	0x3e6e4c3f	0.23271273
249	0x3e6af068	0.2294327
250	0x3ded1c7e	0.115777
251	0x3e2b7ac6	0.16746053
252	0x3e5d320a	0.2160112
253	0x3e4bfcd7	0.1992067
254	0x3e518b48	0.20463288
255	0xbdbd1200	-0.09231949

layers.1.bias f4 [64]
0	0x3d81850c	0.06324205
1	0x3d0b24b4	0.03397055
2	0xbdcd8c1a	-0.10036488
3	0x3d93693a	0.07197805
4	0x3dbef1e8	0.09323484
5	0x3da08194	0.07837215
6	0x3ebf13fc	0.37319934
7	0xbd92188c	-0.07133588
8	0xbdb9f58d	-0.09080038
9	0xbdc65b73	-0.09685411
10	0xbd7fa64f	-0.062414464
11	0x3e6e8ff7	0.23297106
12	0xbb8b1f18	-0.00424565
13	0x3e6ff70b	0.23434083
14	0x3ed41431	0.41421655
15	0x3ed90cfc	0.4239272
16	0x3dbfe568	0.09369928
17	0x3ec38cf9	0.3819349
18	0x3ed66591	0.41874364
19	0x3e937bc5	0.28805366
20	0x3e7da08b	0.24768274
21	0x3d3d20c9	0.046173844
22	0xbd238bfd	-0.039928425
23	0xbe09ad80	-0.13445091
24	0x3eb0e44f	0.34549186
25	0x3d905e33	0.07049217
26	0x3e93c184	0.28858578
27	0x3ea5b8b4	0.3236748
28	0x3eaa4bd7	0.33260986
29	0x3ee7079e	0.45123
30	0x3f0a14be	0.539379
31	0xbe13bbc9	-0.14427103
32	0x3ecfad14	0.40561736
33	0x3db61892	0.08891405
34	0x3ec2221e	0.37916654
35	0x3eebe884	0.46075833
36	0xbdd99b0e	-0.106252775
37	0x3ed42dcb	0.41441187
38	0xbdab6bb4	-0.08370152
39	0xbdc1e58f	-0.09467613
40	0x3ea180de	0.3154363
41	0xbdbb1474	-0.091347605
42	0x3cc87e1c	0.024474196
43	0x3da06d3d	0.078333355
44	0x3ea3ff6e	0.32030815
45	0x3ec87343	0.39150438
46	0xbdc8ca9e	-0.09804271
47	0x3d7aefcf	0.061263856
48	0xbd2891f0	-0.0411548
49	0x39f9944d	0.00047603474
50	0xbdd80387	-0.10547548
51	0x3ee4c7c3	0.44683656
52	0x3ed9a781	0.42510608
53	0xbd34d9ac	-0.0441529
54	0x3e8e1f45	0.27758232
55	0x3da6bdb4	0.08141652
56	0x3db62ea4	0.08895615
57	0x3eaa6e14	0.33287108
58	0x3eb2f2fd	0.3495101
59	0xbdab0f79	-0.083525605
60	0x3e93f622	0.28898722
61	0xbb93ed68	-0.004514385
62	0x3e8e05c2	0.27738768
63	0xbd8de68b	-0.06928738

layers.2.weight f4 [41, 64]
0	0xbc196350	-0.009362057
1	0xbda3bcf4	-0.07995024
2	0x3d890e76	0.06692211
3	0x3d6c16db	0.057638984
4	0xbdc80116	-0.09765832
5	0x3caca748	0.02107586
6	0x3db33c4b	0.08751734
7	0xbd08dd0c	-0.03341393
8	0xbdc17a82	-0.09447195
9	0x3d63da68	0.05562821
10	0xbd17ae13	-0.037031244
11	0x3ccbb4e5	0.02486653
12	0x3dbf898b	0.09352406
13	0x3ce127e3	0.02748484
14	0x3e0eb055	0.13934453
15	0x3d9be882	0.07612707
16	0xbcddb408	-0.027063385
17	0xbc50cbc6	-0.012743896
18	0x3e47f2a8	0.1952616
19	0x3de21e45	0.1104093
20	0x3de5fec4	0.11230233
21	0xbda511fd	-0.080600716
22	0x3db57a8c	0.088612646
23	0x3b1d0f94	0.0023965584
24	0x3df55fac	0.119811386
25	0x3e31428c	0.17310542
26	0x3dba235b	0.09088775
27	0x3e0fdfac	0.14050168
28	0x3bf04771	0.007332735
29	0x3de2c277	0.110722475
30	0x3dfe07ec	0.12403855
31	0x3d67b2f9	0.056567166
32	0x3d08d8f0	0.033410013
33	0x3d8f4a4a	0.069965914
34	0x3e764a3d	0.24051757
35	0x3b28c041	0.0025749358
36	0xbc5761c0	-0.013145864
37	0x3d76a383	0.06021453
38	0x3d4a50d1	0.04939348
39	0xbc6036fa	-0.013684982
40	0x3dc25460	0.094887495
41	0xbd434948	-0.04767731
42	0x3d23b31a	0.039965726
43	0x3d97613a	0.07391591
44	0x3dbca46c	0.092110485
45	0x3e35b0b0	0.17743182
46	0x3dd30874	0.10304347
47	0xbdb5f4fc	-0.08884618
48	0xbad1626b	-0.0015974765
49	0xbdcc6e3a	-0.099819615
50	0xbcd31fc0	-0.025771976
51	0x3e10558f	0.14095138
52	0x3cd04ffc	0.025428765
53	0xbcfab980	-0.030606031
54	0x3ce298fb	0.027660837
55	0x3d03c812	0.032173224
56	0x3cd3a0d8	0.025833532
57	0xbd03718a	-0.0320907
58	0x3c59b189	0.013286957
59	0x3dd88739	0.10572667
60	0x3e365659	0.17806377
61	0xbdb36aa1	-0.08760572
62	0xbd3522e6	-0.044222735
63	0x3d74c806	0.05976107
64	0x3d24626c	0.040132925
65	0xbc34fc00	-0.01104641
66	0xbdb6719a	-0.089083865
67	0xbe5a2876	-0.21304497
68	0x3db11e3e	0.08648346
69	0x3dee8524	0.11646488
70	0x3dde5679	0.10856337
71	0x3dffac32	0.124840155
72	0x3dcafc88	0.09911448
73	0xbc106500	-0.008813143
74	0xbd91cdcc	-0.07119331
75	0xbd0c93e4	-0.034320727
76	0xbc3bff2b	-0.011474411
77	0xbe0436d8	-0.12911546
78	0x3e53efdb	0.20696966
79	0x3db34e9c	0.08755228
80	0xbdf5405a	-0.11975165
81	0x3cc648a9	0.024204569
82	0x3d36fdc7	0.044675615
83	0xbe180f60	-0.14849615
84	0xbe37a3c0	-0.1793356
85	0xbd7458f4	-0.059655145
86	0xbd104c07	-0.035228755
87	0xbdbf0732	-0.09327544
88	0x3da4dc40	0.08049822
89	0xbdddfb12	-0.108389035
90	0x3e0b981a	0.13632241
91	0x3dea207f	0.114319794
92	0x3d556a75	0.05210348
93	0x3e26b04e	0.16278192
94	0x3e180e84	0.14849287
95	0xbcbf0b9d	-0.023320967
96	0x3dbc377e	0.09190272
97	0x3d4acb90	0.04951054
98	0xbe218f3c	-0.15777296
99	0x3de3fe4e	0.11132489
100	0x3c25be40	0.01011616
101	0x3d93c88c	0.07215986
102	0xbd094790	-0.033515513
103	0xbd7dac24	-0.061931744
104	0x3e032bed	0.12809725
105	0xbdafb0b4	-0.08578625
106	0x3d4637b4	0.048392966
107	0xbdd2b366	-0.10288124
108	0x3df4f7e2	0.119613424
109	0x3d98638a	0.074408606
110	0xbd7588f4	-0.05994506
111	0xbd4b2c1b	-0.04960261
112	0xbd62dd1f	-0.05538666
113	0xbd6dd674	-0.058065847
114	0xbd0c4fa0	-0.034255624
115	0x3d61bc49	0.055111203
116	0x3e3d3cef	0.18480276
117	0x3b932c80	0.004491389
118	0x3e47bd82	0.19505885
119	0xbc132d9f	-0.008983045
120	0xbdc7dc50	-0.09758818
121	0x3d70a8b3	0.058754634
122	0x3e222641	0.15834905
123	0xbe32f081	-0.17474557
124	0x3e3e04e2	0.1855655
125	0xbdaf1937	-0.08549731
126	0x3e3d6f25	0.1849943
127	0xbd02cc20	-0.03193295
128	0xbde17dd2	-0.110103264
129	0xbd89e289	-0.06732661
130	0x3cd29946	0.025707852
131	0x3d75d945	0.060021657
132	0x3de035ca	0.109477594
133	0x3dd6034a	0.10449846
134	0x3dec5c64	0.115410596
135	0x3dbd9d0c	0.0925847
136	0x3d192778	0.037391156
137	0xbc30d1a0	-0.010792166
138	0xbde4fb69	-0.11180765
139	0xbdd5e9c4	-0.10444978
140	0xbd9185aa	-0.071055725
141	0x3e0b3c0d	0.13597126
142	0x3e82ed65	0.25571743
143	0x3e469753	0.19393663
144	0xbca674b0	-0.020319313
145	0x3e85b438	0.26114058
146	0x3e65f38b	0.22456186
147	0x3cb9814d	0.022644663
148	0x3db5bc14	0.08873764
149	0x3c9f3329	0.019433575
150	0x3d3e0413	0.046390604
151	0x3bc41447	0.0059838626
152	0x3df03c23	0.1173022
153	0xbd56907f	-0.052383896
154	0x3e76ee37	0.24114309
155	0x3e4a714a	0.19769779
156	0x3e83f4e9	0.2577279
157	0x3e8021ce	0.2502579
158	0x3e5bc506	0.21461877
159	0xbda4a9d8	-0.080402076
160	0x3e3bbbc4	0.18333346
161	0x3da0d1a3	0.07852485
162	0x3f1759b1	0.59121233
163	0x3e83ce4f	0.25743338
164	0xbd715278	-0.05891654
165	0xbc489541	-0.012242616
166	0x3da4e772	0.08051957
167	0x3d959bcf	0.07305109
168	0x3e850137	0.2597749
169	0x3d9d63ca	0.07685049
170	0xbdd03f8d	-0.10168371
171	0x3d1d5544	0.038411394
172	0x3e8cb0aa	0.27478534
173	0x3dbbaec7	0.091641955
174	0x3d0837cd	0.03325634
175	0x3d329dae	0.043607406
176	0xbe58d22b	-0.21173923
177	0x3c4efa80	0.012632966
178	0x3d0e5976	0.034753285
179	0x3e1eacf2	0.15495661
180	0x3cce6d14	0.025198497
181	0x3d8270f2	0.06369199
182	0x3d4555a3	0.048177373
183	0x3d39bac1	0.045344118
184	0x3bb72a80	0.005589783
185	0x3e34db7e	0.17661855
186	0x3d001e96	0.03127917
187	0xbdc7a3c9	-0.097480364
188	0x3df0c65b	0.11756583
189	0x3d5c1346	0.053729318
190	0x3de05af6	0.109548494
191	0x3c95ea5c	0.018300228
192	0x3df5ddfa	0.12005229
193	0xbd493ba9	-0.049129162
194	0xbda6dc2c	-0.08147463
195	0x3de84354	0.11340967
196	0x3deadf23	0.11468341
197	0xbdfbc0b8	-0.122926176
198	0x3e9b1a13	0.3029333
199	0x3db8e30c	0.09027681
200	0x3c92d680	0.017924547
201	0x3dac845f	0.08423685
202	0xbd82ad0e	-0.06380664
203	0x3d274b25	0.040843148
204	0x3e0fd239	0.14045037
205	0x3dcbfad4	0.09959951
206	0x3e064a7d	0.13114353
207	0x3e0cf282	0.13764384
208	0x3d0911bc	0.03346418
209	0x3e949d5a	0.290263
210	0x3eb4a692	0.35283333
211	0x3e2a2f57	0.16619621
212	0x3e2cf962	0.16892007
213	0x3d8a4a02	0.06752397
214	0x3d3a0d4e	0.045422845
215	0xbd4737a2	-0.04863704
216	0x3e1fb2fc	0.15595621
217	0x3d6b0228	0.057375103
218	0x3e6a931c	0.2290768
219	0x3dfca553	0.123362206
220	0x3e6c3c1f	0.2306981
221	0x3e40fa80	0.18845558
222	0x3e80b3c0	0.25137138
223	0xbda2b5f0	-0.07944858
224	0x3ebca948	0.368479
225	0xbdcdce8d	-0.10049162
226	0x3d89340c	0.0669938
227	0x3e324d47	0.17412291
228	0xbdb5387a	-0.08848663
229	0x3e8e9523	0.27848157
230	0xbca90ace	-0.020635035
231	0xbd250567	-0.040288355
232	0x3e59c287	0.21265613
233	0xbd36e060	-0.044647574
234	0x3e01450d	0.12623997
235	0xbdf11d54	-0.11773172
236	0x3e4b24ef	0.19838308
237	0x3e858ef2	0.2608562
238	0xbcbfe2ca	-0.023423571
239	0xbd69de14	-0.057096556
240	0xb98f6254	-0.00027348346
241	0x3ba9ac58	0.0051780157
242	0x3da2a67a	0.07941909
243	0x3e93f2d0	0.2889619
244	0x3e62f77d	0.22164722
245	0xbdb4d030	-0.08828771
246	0x3eabea84	0.3357736
247	0xbd30093d	-0.04297756
248	0xbad0e800	-0.0015938282
249	0x3e8dc256	0.2768733
250	0x3e77ff60	0.24218512
251	0xbca5f53d	-0.02025854
252	0x3e8af2e2	0.2713843
253	0xbe850580	-0.2598076
254	0x3e1d8ea9	0.15386452
255	0x3daa180e	0.08305369

layers.2.bias f4 [41]
0	0x3d1c48e8	0.038155466
1	0x3d5a38bb	0.05327676
2	0x3caaafb5	0.020835737
3	0x3e0a8bb7	0.1352986
4	0x3e883f1a	0.26610643
5	0x3e065f6a	0.13122335
6	0x3e32cf4f	0.17461894
7	0x3e2d93b1	0.16950871
8	0x3e8d2708	0.2756884
9	0x3e1bc70e	0.15212652
10	0x3e3caa78	0.18424404
11	0x3e8b2d8b	0.27183184
12	0x3d34c15e	0.04412972
13	0x3e6c982e	0.23104927
14	0x3cf1bde5	0.029509494
15	0xbbce848e	-0.006302423
16	0x3e0ff824	0.14059502
17	0xbd6a21ee	-0.057161264
18	0x3daa35be	0.08311032
19	0x3d104827	0.03522506
20	0x3df738cf	0.12071382
21	0x3d5ea198	0.054353327
22	0x3d549554	0.051900223
23	0x3c97436a	0.018464763
24	0x3dc43e49	0.095821925
25	0x3ce2e914	0.027699031
26	0x39c7af50	0.00038086856
27	0x3c96440a	0.01834299
28	0x3d7e1c37	0.062038627
29	0x3e37f63c	0.17965025
30	0x3cf83e36	0.030303102
31	0xbd02f2f2	-0.031969972
32	0x3c06d79f	0.008230119
33	0xbd378dfc	-0.04481314
34	0x3db2acf1	0.08724392
35	0x3b8fe398	0.004391145
36	0x3d2a2de1	0.04154766
37	0x3d423386	0.047412418
38	0x3e0bb69e	0.13643882
39	0xbcb10921	-0.021610798
40	0xbd29cd05	-0.041455287
