experiments/learn_racetrack/racetrack2/2022_01_20_202157182885_1_fbdf8/2022_01_20_202157182885_1_fbdf8_10999.pth (torch, 24919 bytes, 6 tensors)

layers.0.weight f4 [64, 15]
0.043899536 0.13092184 -0.111245945 0.19106483 0.09243992 -0.121116176 -0.19906846 -0.22790784
-0.01871936 0.030610561 -0.1405928 -0.16476595 -0.16148967 -0.22224592 0.18860874 -0.065807715
-0.25719517 -0.15110496 -0.24139053 -0.07062508 0.021298617 0.12618658 -0.09056987 -0.012413949
0.19898635 0.22658247 -0.22535925 -0.2375305 0.08572838 -0.10258812 -0.38839874 -0.2648702
0.19568898 0.018279498 0.24862495 0.15647951 0.014217548 -0.13591164 0.063408114 -0.012097739
-0.10849245 -0.1052429 -0.16135259 -0.27292198 0.008815959 -0.096821964 -0.05791223 -0.13403481
-0.1651823 -0.21291597 0.071184516 -0.093027875 0.037555456 0.07982314 0.22877502 0.14606935
-0.063112676 0.12032366 -0.12329492 0.14682665 -0.5310205 -0.015644925 0.063900955 -0.24575561
-0.07808128 -0.115344524 -0.25523272 -0.12217384 0.06000091 0.09939915 -0.012365998 0.15031382
0.17375955 -0.012938485 0.26619875 -0.022255179 0.16585945 -0.07383527 0.05523004 0.03930727
-0.18679015 -0.12796232 0.008237825 -0.041554604 -0.2884545 0.020965036 0.12321507 -0.2521729
0.0062828357 -0.08600911 -0.13988468 0.19566286 -0.2503263 -0.21183905 -0.092507705 -0.025108665
-0.25648406 0.21860632 0.0101928115 -0.20980829 -0.22729376 -0.2303163 -0.15393402 -0.13864362
-0.096212715 0.71354383 -0.5246551 -0.12487865 0.10331863 -0.21377936 -0.060095895 0.15016513
0.038803026 -0.10619927 0.028026156 0.07558531 0.1715479 -0.14113663 0.020620503 0.20996368
0.19513583 0.6543927 0.06829024 -0.03182156 -0.22039574 0.007938595 -0.040769488 0.13875073
-0.3017386 -0.031840976 0.01857919 -0.23520197 0.054555435 0.057938553 -0.10912065 -0.88751435
0.034865994 0.13759777 -0.267139 -0.13046265 -0.11986819 -0.035700563 -0.22023027 -0.24504925
0.17063816 -0.08266206 -0.5204926 0.13198453 0.04089475 -0.16994649 0.019000152 0.7074584
0.13769636 -0.26811874 -0.045130696 0.31433162 0.123496406 0.11215485 -0.17028266 0.10550021
0.11266044 -0.04113011 0.011089867 0.0953709 -0.016457405 -0.14496973 -0.12766486 0.10690273
-0.25426847 0.10475046 -0.024419356 0.30091718 0.011128411 -0.14709727 0.36199096 -0.0016118145
-0.23753835 -0.19964568 -0.014324009 0.212063 -0.63057786 0.39453095 0.03025928 0.20206846
0.18438776 -0.2381162 0.024827214 0.07435196 0.090589665 -0.03625041 0.07480351 -0.091265075
0.17453001 0.13467835 0.20743941 0.032847725 -0.119064465 -0.18123926 -0.0816695 0.20785385
-0.1759294 -0.21179686 -0.009506808 -0.059656575 -0.019918034 -0.10063892 0.13119821 0.044878908
-0.0872142 -0.23567663 -0.25086337 -0.08818419 0.034707546 0.007707089 -0.088939905 -0.07740384
0.030251652 -0.20118797 -0.20730206 -0.1547783 -0.023416027 0.08231002 -0.25344592 0.23360664
0.06336579 -0.9376159 0.38378814 0.18659262 -0.19877787 0.25033003 -0.048099466 -0.0686179
0.13485567 0.073304 -0.041051283 -0.23175299 -0.028038694 -0.01428323 -0.026447918 0.18230005
-0.41198963 -0.3293088 0.082868524 -0.16922861 -0.02747922 -0.16492139 0.1250438 -0.17764358
0.08481335 -0.26509082 0.09289712 0.13140467 0.007241932 0.22932278 0.13597368 0.06830625
00000000: 00d0 333d 6010 063e ead4 e3bd 80a6 433e
00000010: 2451 bd3d c20b f8bd 9ad8 4bbe ac60 69be
00000020: 5859 99bc 00c3 fa3c 8ff7 0fbe 68b8 28be
00000030: 8c5d 25be 6f94 63be a622 413e 32c6 86bd
00000040: 16af 83be 42bb 1abe 142f 77be e2a3 90bd
00000050: 707a ae3c 0e37 013e b27c b9bd e063 4bbc
00000060: 14c3 4b3e 3c05 683e 93c4 66be 323b 73be
00000070: 5c92 af3d b819 d2bd 33dc c6be 119d 87be
00000080: b162 483e e3be 953c 8a97 7e3e 2a3c 203e
00000090: b8f0 683c 6c2c 0bbe 1ddc 813d 9835 46bc
000000a0: 4a31 debd 9789 d7bd 9d39 25be 6ebc 8bbe
000000b0: d070 103c 984a c6bd 6035 6dbd 6c40 09be
000000c0: 8d25 29be a506 5abe 30c9 913d 6685 bebd
000000d0: c0d3 193d 507a a33d 0044 6a3e 3493 153e
000000e0: 3841 81bd 406c f63d 0c82 fcbd ba59 163e
000000f0: f6f0 07bf c929 80bc 81de 823d 5ca7 7bbe
00000100: 14e9 9fbd c039 ecbd ddad 82be 4736 fabd
00000110: 84c3 753d c891 cb3d c19a 4abc deeb 193e
00000120: 06ee 313e f0fb 53bc 344b 883e 7e50 b6bc
00000130: 0fd7 293e f236 97bd e538 623d a900 213d
00000140: eb45 3fbe 8e08 03be f1f7 063c 2935 2abd
00000150: 4fb0 93be debe ab3c 2f58 fc3d ce1c 81be
00000160: 3fe0 cd3b 8b25 b0bd ee3d 0fbe d85b 483e
00000170: c52a 80be 56ec 58be ae74 bdbd b0b0 cdbc
00000180: e151 83be 56da 5f3e c0ff 263c fcd7 56be
00000190: b2bf 68be 09d8 6bbe e1a0 1dbe 98f8 0dbe
000001a0: 2c0b c5bd cfaa 363f cc4f 06bf 61c0 ffbd
000001b0: b898 d33d fae8 5abe 1d27 76bd e3c4 193e
000001c0: ecef 1e3d 017f d9bd 1c97 e53c 79cc 9a3d
000001d0: 41aa 2f3e 1f86 10be 54ec a83c b800 573e
000001e0: b0d1 473e 4886 273f c1db 8b3d 5357 02bd
000001f0: 6caf 61be e110 023c e8fd 26bd ac14 0e3e
00000200: 7b7d 9abe af6b 02bd 6333 983c c9d8 70be
00000210: 8575 5f3d fa50 6d3d a67a dfbd 2434 63bf
00000220: a5cf 0e3d 6ee6 0c3e 71c6 88be 0098 05be
00000230: 747d f5bd c13a 12bd 0b84 61be 31ee 7abe
00000240: c5bb 2e3e ba4a a9bd 013f 05bf f426 073e
00000250: 4181 273d 7406 2ebe 35a6 9b3c fe1b 353f
00000260: 4600 0d3e dc46 89be f7da 38bd 13f0 a03e
00000270: afeb fc3d 71b1 e53d 945e 2ebe 7e10 d83d
00000280: 84ba e63d 0c78 28bd 46b2 353c d251 c33d
00000290: aed1 86bc f272 14be 94ba 02be d2ef da3d
000002a0: 7a2f 82be 6987 d63d 1a0b c8bc d111 9a3e
000002b0: f053 363c aba0 16be e156 b93e 8543 d3ba
000002c0: 413d 73be eb6f 4cbe 40af 6abc 0b27 593e
000002d0: 8d6d 21bf f6ff c93e 4fe2 f73c 09eb 4e3e
000002e0: 25d0 3c3e bcd4 73be 7162 cb3c d745 983d
000002f0: 1387 b93d 4f7b 14bd 9532 993d 2fe9 babd
00000300: ffb7 323e 1fe9 093e ff6a 543e 568b 063d
00000310: 12d8 f3bd c996 39be 5742 a7bd a4d7 543e
00000320: d626 34be 47e1 58be 71c2 1bbc 745a 74bd
00000330: 252b a3bc c71b cebd d358 063e f2d2 373d
00000340: 5c9d b2bd 3755 71be 2a71 80be ea99 b4bd
00000350: 8029 0e3d c08b fc3b 2026 b6bd e885 9ebd
00000360: 50d2 f73c 3804 4ebe fe46 54be 347e 1ebe
00000370: f8d2 bfbc 2892 a83d aac3 81be 9436 6f3e
00000380: ecc5 813d 9807 70bf e17f c43e 2312 3f3e
00000390: 6d8c 4bbe 422b 803e f203 45bd 8b87 8cbd
000003a0: 9b17 0a3e 6820 963d 6425 28bd a850 6dbe
000003b0: 67b1 e5bc 3504 6abc 4ea9 d8bc ddac 3a3e
000003c0: 4ef0 d2be 2a9b a8be f9b6 a93d 444a 2dbe
000003d0: 1a1c e1bc 27e1 28be 7b0b 003e 33e8 35be
000003e0: 9fb2 ad3d fcb9 87be d840 be3d f28e 063e
000003f0: bb4d ed3b 97d3 6a3e af3c 0b3e 26e4 8b3d

layers.0.bias f4 [64]
-0.2303159 -0.018759683 0.097107165 0.066839844 0.1277943 -0.018463768 -0.17498189 -0.024283612
0.18829097 0.04441427 -0.010786137 -0.19917744 -0.2882369 -0.17193775 -0.049595863 -0.040744834
-0.18244739 0.06067433 -0.09614802 -0.14459306 -0.18868227 0.098734155 0.08528227 -0.0029752788
0.0030174851 -0.2792862 -0.14502704 -0.07098084 0.081922896 0.1630064 0.18968695 0.1040253
-0.26533344 -0.11473263 -0.01113787 0.15678546 0.2171664 -0.14823762 0.16235901 -0.1832327
-0.18116556 0.045410525 -0.07867785 -0.22560887 -0.10732896 -0.27062452 0.10558522 -0.18932042
-0.064475685 0.21775343 -0.270462 0.15011941 0.18057851 0.20964803 -0.13188387 -0.23377559
0.18213777 -0.031186253 -0.2495362 -0.0331067 -0.02170694 -0.07895216 -0.25459793 0.09876804
00000000: eed7 6bbe e8ad 99bc 1fe0 c63d 54e3 883d
00000010: 82dc 023e 5441 97bc 742e 33be 6dee c6bc
00000020: 59cf 403e bdeb 353d 56b8 30bc 2cf5 4bbe
00000030: c993 93be 7310 30be 0825 4bbd 0ee4 26bd
00000040: 7dd3 3abe a585 783d 41e9 c4bd 3410 14be
00000050: ed35 41be 2235 ca3d 79a8 ae3d e5fc 42bb
00000060: 00c1 453b 9afe 8ebe f881 14be 675e 91bd
00000070: 31c7 a73d 26eb 263e 4c3d 423e 370b d53d
00000080: c9d9 87be f1f8 eabd 9d7b 36bc 5e8c 203e
00000090: de60 5e3e 9acb 17be 7141 263e 5aa1 3bbe
000000a0: 7783 39be 6300 3a3d da21 a1bd 0306 67be
000000b0: 49cf dbbd 4c8f 8abe 103d d83d 36dd 41be
000000c0: d40b 84bd c1fa 5e3e ff79 8abe e7b8 193e
000000d0: 93e9 383e f9ad 563e 910c 07be de62 6fbe
000000e0: 5382 3a3e 507a ffbc 6b86 7fbe e49a 07bd
000000f0: c1d2 b1bc acb1 a1bd a95a 82be e646 ca3d

layers.1.weight f4 [64, 64]
-0.08792853 0.07862839 -0.027634393 -0.07883364 -0.011580139 -0.017130008 -0.102870986 0.090347916
-0.08239008 0.086898856 -0.0371217 0.026801357 -0.10922084 0.0050379583 0.10637541 -0.021222528
0.057272974 -0.08382224 -0.09074204 -0.11749327 0.08536248 -0.0060969256 0.12030378 0.07424137
-0.048699036 -0.00659063 0.030451097 -0.029361589 0.05965779 0.037430167 0.024401955 0.0756036
0.045025524 -0.1691218 0.08970925 0.059873663 -0.04465027 0.05639557 -0.06891045 -0.14331023
-0.12390949 -0.085952505 -0.0281179 -0.10704003 -0.026444273 0.0012026 -0.032955915 0.17125103
-0.0035447904 -0.033656806 -0.20695971 -0.12961681 -0.36218297 0.009148844 0.09782773 -0.16483678
0.03336531 0.09224255 0.05914462 -0.076490805 0.12509866 -0.016712338 -0.09724306 -0.11559305
0.08419329 -0.09647153 -0.004384568 0.07929905 0.037706 0.109668426 -0.12302931 0.007734437
-0.09520398 -0.061420716 0.035144344 -0.04808791 0.012994663 0.015961539 0.049627215 0.0127979815
0.024674976 0.03214841 -0.11156619 0.101359084 0.0050005126 -0.36504185 -0.06418658 -0.16284412
0.05885887 0.07939304 0.031014238 0.062070966 0.07511755 -0.037713155 -0.019371776 0.084284104
0.009049814 -0.12847307 0.055764485 -0.047870897 -0.01955137 -0.2822325 -0.07122684 0.053401034
-0.0127453655 -0.41603512 0.06829189 0.08123517 -0.029881245 -0.0067972546 -0.0982468 0.024774816
-0.007650801 0.026648844 0.10787051 0.07504474 0.09365892 0.017421901 -0.18365589 -0.055368986
-0.05575556 -0.018692296 0.010760784 -0.08922909 0.06731927 -0.19826287 0.09909512 0.052865583
0.00032806396 0.10793735 -0.1147289 0.11270864 0.012255216 -0.06449181 -0.0043321103 -0.031941354
0.16758087 -0.124575205 -0.08027009 0.03197697 -0.074922875 -0.14925727 -0.043071702 -0.13543947
-0.041864846 -0.05586787 0.021504521 -0.054829523 0.16618131 0.06418826 -0.062931985 -0.09811605
0.028438509 -0.036650784 0.08258571 0.065552086 -0.10006269 0.124035195 -0.052645136 -0.11453701
0.03727316 -0.09090142 0.04669462 0.12502891 -0.13348985 0.11375024 -0.17839488 0.045145728
-0.0136154 0.017048413 0.009378903 -0.061057836 0.07902195 0.078414835 -0.091377005 0.13784245
0.0180449 0.06048292 0.03219842 0.28149053 0.13465264 0.0127833355 0.10892799 -0.0809791
-0.13616054 -0.07106901 0.028223583 0.016589105 -0.13188453 -0.01278659 0.011881223 -0.003028047
-0.0017976165 -0.108808905 -0.04233471 -0.062340304 0.088972 -0.08573973 0.08952916 -0.103489466
-0.28781244 -0.023871934 0.03174914 -0.10023824 0.017104294 -0.0741464 0.07382713 0.0035613836
0.091903605 -0.054797404 -0.009970986 -0.057500362 -0.033615552 -0.12941203 -0.1255846 -0.110708125
0.022642687 -0.0055750585 0.030577356 0.008639709 -0.057572775 0.024758652 -0.020578556 0.11880489
-0.09125274 -0.06496151 0.026064368 -0.12089527 0.12270479 0.014317726 0.015773902 -0.07458548
-0.08841756 -0.3176284 0.07322743 0.048998654 0.040279116 -0.0027126307 0.08541854 -0.25414896
-0.05128311 0.069542855 0.10514822 -0.08306092 -0.09089248 0.04634093 -0.054084096 0.076220274
-0.19950072 0.0013771419 -0.0580113 -0.21045785 0.014384349 0.055523332 -0.076430455 -0.12894756
00000000: e013 b4bd ec07 a13d 8661 e2bc 8873 a1bd
00000010: a0ba 3dbc 3b54 8cbc 06ae d2bd 5408 b93d
00000020: 21bc a8bd 07f8 b13d ec0c 18bd 858e db3c
00000030: 2daf dfbd 7515 a53b 5adb d93d deda adbc
00000040: 1197 6a3d ffaa abbd f6d6 b9bd 50a0 f0bd
00000050: 86d2 ae3d b8c8 c7bb d461 f63d dc0b 983d
00000060: a478 47bd 36f6 d7bb 9474 f93c b787 f0bc
00000070: ba5b 743d 6050 193d 9ce6 c73c 0fd6 9a3d
00000080: af6c 383d 442e 2dbe 7cb9 b73d 163e 753d
00000090: 34e3 36bd 0bff 663d ec20 8dbd ebbf 12be
000000a0: 42c4 fdbd de07 b0bd 8357 e6bc ce37 dbbd
000000b0: a9a1 d8bc 8fa0 9d3a c8fc 06bd 6e5c 2f3e
000000c0: b74f 68bb b8db 09bd 3fed 53be 45ba 04be
000000d0: 0c70 b9be 08e5 153c e859 c83d f9ca 28be
000000e0: 10aa 083d a9e9 bc3d a141 723d 36a7 9cbd
000000f0: dd19 003e 50e8 88bc 5f27 c7bd 0dbc ecbd
00000100: 886d ac3d de92 c5bd 6cac 8fbb 8a67 a23d
00000110: 9b71 1a3d d799 e03d caf6 fbbd 2971 fd3b
00000120: 4efa c2bd 4a94 7bbd 84f3 0f3d d4f7 44bd
00000130: 91e7 543c c6c1 823c e845 4b3d a0ae 513c
00000140: 2d23 ca3c 0dae 033d d17c e4bd 5a95 cf3d
00000150: 57db a33b c4e6 babe 4174 83bd 9cc0 26be
00000160: 0016 713d d198 a23d 9211 fe3c 203e 7e3d
00000170: 3bd7 993d 1c79 1abd 8fb1 9ebc 259d ac3d
00000180: ac45 143c 728e 03be 4d69 643d 4614 44bd
00000190: 322a a0bc c780 90be 61df 91bd 0bbb 5a3d
000001a0: f0d1 50bc 8e02 d5be 9edc 8b3d a05e a63d
000001b0: 83c9 f4bc 81bb debb 9e35 c9bd 8ef4 ca3c
000001c0: 92b3 fabb ad4e da3c 37eb dc3d 0fb1 993d
000001d0: 3fd0 bf3d 60b8 8e3c 4a10 3cbe 97ca 62bd
000001e0: f15f 64bd 9620 99bc 004e 303c bebd b6bd
000001f0: afde 893d 6c05 4bbe 62f2 ca3d 9589 583d
00000200: 0000 ac39 420e dd3d fcf6 eabd cad3 e63d
00000210: 1aca 483c 4814 84bd 60f4 8dbb f0d4 02bd
00000220: 529a 2b3e 4921 ffbd a564 a4bd 49fa 023d
00000230: 2a71 99bd e6d6 18be f46b 30bd a5b0 0abe
00000240: 797a 2bbd b5d5 64bd 402a b03c ec94 60bd
00000250: 6f2b 2a3e 2275 833d 7ce2 80bd 11f1 c8bd
00000260: e0f7 e83c 221f 16bd b222 a93d 2c40 863d
00000270: abed ccbd 2a06 fe3d 6da2 57bd 6192 eabd
00000280: beab 183d 862a babd dc42 3f3d 9407 003e
00000290: 90b1 08be e3f5 e83d 26ad 36be baea 383d
000002a0: 2013 5fbc 1da9 8b3c f8a9 193c c817 7abd
000002b0: 43d6 a13d f597 a03d de23 bbbd 9226 0d3e
000002c0: e6d2 933c f0bc 773d 7ee2 033d 871f 903e
000002d0: 62e2 093e 3271 513c a315 df3d 5fd8 a5bd
000002e0: ab6d 0bbe a18c 91bd 2535 e73c e0e5 873c
000002f0: bd0c 07be d87e 51bc 76a9 423c 3372 46bb
00000300: 009e ebba 34d7 debd 2967 2dbd 8c58 7fbd
00000310: f436 b63d 5098 afbd 105b b73d 49f2 d3bd
00000320: 275c 93be 138f c3bc 630b 023d b549 cdbd
00000330: 4e1e 8c3c 11da 97bd ae32 973d 1a66 693b
00000340: f537 bc3d 3e73 60bd 595d 23bc 8085 6bbd
00000350: 76b0 09bd 9684 04be 4099 00be f1ba e2bd
00000360: 287d b93c fbae b6bb 5d7d fa3c 918d 0d3c
00000370: 6ed1 6bbd a8d2 ca3c 5c94 a8bc fa4f f33d
00000380: b7e2 babd 8a0a 85bd f184 d53c f097 f7bd
00000390: a64c fb3d e594 6a3c 4538 813c 46c0 98bd
000003a0: 4414 b5bd 31a0 a2be 43f8 953d d0b2 483d
000003b0: b7fb 243d 64c6 31bb eaef ae3d d01f 82be
000003c0: 3d0e 52bd 7c6c 8e3d f357 d73d d81b aabd
000003d0: d625 babd fdcf 3d3d 4987 5dbd 6019 9c3d
000003e0: eb49 4cbe 3781 b43a 429d 6dbd 4382 57be
000003f0: 55ac 6b3c 6f6c 633d 9287 9cbd d40a 04be

layers.1.bias f4 [64]
0.05484295 0.0223079 -0.11164792 -0.12250015 -0.04502675 0.01001142 0.15920396 0.08064439
-0.052799027 0.039470445 -0.14190434 -0.05855141 0.06795566 0.015869364 -0.03864772 -0.0010783889
-0.021414295 0.06118766 0.08861532 0.05676713 0.027916256 0.09561716 0.049498722 -0.035643123
-0.13192047 -0.07058633 -0.009547253 -0.12142931 0.00047049543 0.026959052 -0.1299271 0.06690966
-0.002229188 -0.09282047 0.010411924 0.08904214 -0.036796287 0.044726864 0.03382448 0.05703973
-0.061875332 0.07600384 -0.0024172822 0.06537178 -0.17684263 0.03704569 0.09484389 -0.116715364
0.066418156 0.046324085 -0.07058141 0.18538004 -0.099489935 0.0047601564 -0.15704669 -0.04457472
-0.11569377 0.09609927 -0.12873563 0.09675556 0.014017642 -0.018526819 -0.09479528 0.010955322
00000000: 00a3 603d 0fbf b63c aaa7 e4bd 5ce1 fabd
00000010: f86d 38bd f006 243c 5d06 233e e328 a53d
00000020: cb43 58bd c3ab 213d 5f4f 11be 9ad3 6fbd
00000030: 562c 8b3d 7800 823c 124d 1ebd ba58 8dba
00000040: 086d afbc e99f 7a3d f37b b53d a684 683d
00000050: a2b0 e43c eed2 c33d 2cbf 4a3d 86fe 11bd
00000060: 2916 07be 918f 90bd 156c 1cbc eeaf f8bd
00000070: d4ac f639 3bd9 dc3c 9c0b 05be ef07 893d
00000080: 9217 12bb a918 bebd c696 2a3c ba5b b63d
00000090: b4b7 16bd 8433 373d 8a8b 0a3d 7ea2 693d
000000a0: fd70 7dbd e7a7 9b3d 446b 1ebb a4e1 853d
000000b0: 3c16 35be 39bd 173d 833d c23d 7708 efbd
000000c0: 3e06 883d 53be 3d3d fc8c 90bd 44d4 3d3e
000000d0: 61c1 cbbd 16fb 9b3b d9d0 20be fb93 36bd
000000e0: dbf0 ecbd b2cf c43d 46d3 03be c727 c63d
000000f0: 40aa 653c 8ec5 97bc 0724 c2bd f37d 333c

layers.2.weight f4 [9, 64]
0.05999573 -0.13340233 -0.2604693 0.040589355 0.037803728 0.094754115 0.07119216 -0.052240636
-0.3990003 0.05707077 0.06315309 0.023408456 -0.010198004 0.013173029 -0.029433414 0.0101128
-0.0894506 0.12284784 -0.093930796 0.0479592 -0.39046937 0.10756166 0.092863396 -0.2728229
0.11188522 -0.024361052 0.023621347 -0.18958443 -0.00022774507 0.019421369 -0.046618503 0.016804194
0.049073786 0.12000588 0.022407297 0.019160395 0.060789492 0.12306524 -0.104491524 0.10433273
-0.42675367 -0.107765906 0.053598374 -0.65114313 -0.050384644 0.09195015 -0.09327409 0.0622211
-0.11037594 -0.010979864 -0.13376693 0.076929025 -0.07130916 -0.04926797 0.01696007 0.025668703
0.049693376 0.03380497 0.0059780986 0.09659895 -0.063317664 0.036353763 -0.025070528 -0.15101124
0.08285707 0.0058822706 0.022530988 0.06743828 0.0896359 0.050853483 0.054935683 0.10641834
-0.34161523 -0.007191176 -0.10825521 0.10413912 0.0010469075 0.05840823 0.0880937 0.033085406
0.011217496 0.11309736 0.040270224 0.026278425 -0.29837987 0.12530033 0.05562221 -0.31248382
0.12185119 -0.08719921 -0.008289775 -0.05259295 0.006871645 0.017611241 0.06145886 0.038189456
0.008325057 0.08510439 -0.003232296 0.04095896 0.035696447 0.10067069 0.03553844 0.028775383
-0.44897154 -0.17121156 0.123331204 -0.36123934 0.09643132 0.13406728 -0.07585524 0.08049418
-0.0020254764 -0.0064129527 0.11197037 0.1371402 0.004721995 -0.13476923 0.12243819 0.05686917
0.046306666 0.014667289 -0.026650693 0.05042395 0.036009297 -0.00072189973 -0.10296559 -0.22524968
0.06783235 0.053085007 -0.09722445 0.046656325 0.012795398 0.00543922 0.07479597 0.08560188
-0.31710002 -0.05825454 -0.014354482 0.07300635 0.040638037 0.031150565 0.091342434 0.026833083
-0.09847894 -0.055660237 0.07571973 -0.09648118 -0.14617752 0.0076498515 -0.051816657 -0.059504565
-0.02886939 -0.15961947 0.0983475 0.0348523 -0.010473225 0.011514359 0.08637093 -0.00035115983
-0.112743296 0.10183172 -0.045789354 0.07352709 -0.043321937 0.023703743 0.075391315 0.10882711
-0.27695775 -0.22266215 -0.00051510334 -0.16635373 -0.004081368 0.0709166 0.036482334 -0.061698347
-0.037527177 -0.19339363 0.094716854 0.121093884 -0.025652412 -0.06679623 -0.015775427 0.022524983
-0.014524387 -0.34488526 0.05134711 0.061454423 -0.0969401 -0.042424675 0.11921245 -0.17601742
0.18088569 0.053892944 -0.09551267 -0.07522144 0.06816238 0.08585486 0.034025915 0.036356375
-0.0073562474 -0.06586831 -0.076597996 -0.054213077 -0.09210709 0.09478992 0.06492108 0.10696449
-0.049685884 0.06413386 -0.07480772 0.06583916 -0.16200928 0.06198308 -0.122390375 0.08133798
-0.01561816 0.048019867 0.06645679 0.0067916377 0.006215954 -0.010576307 -0.009700228 -0.006125612
0.10048716 0.100621484 0.0016680079 0.0310398 -0.07872628 -0.025590893 0.036251847 0.055539887
-0.22266081 -0.2824035 0.03317146 -0.4151758 0.04542835 0.11350633 -0.045566335 -0.061549615
0.04584357 0.1443581 -0.13612185 0.046996694 -0.25526074 0.04708254 0.047751576 -0.029846836
-0.102243364 0.0083136875 -0.08063565 -0.008641946 -0.043358386 0.030931806 0.033643108 -0.09900649
00000000: 15be 753d 9f9a 08be 3b5c 85be 0641 263d
00000010: 15d8 1a3d 720e c23d 32cd 913d 47fa 55bd
00000020: c449 ccbe 0ac3 693d 6856 813d 17c3 bf3c
00000030: 8715 27bc b0d3 573c 581e f1bc 28b0 253c
00000040: e031 b7bd a697 fb3d ca5e c0bd de70 443d
00000050: 9aeb c7be 4a49 dc3d 2a2f be3d 71af 8bbe
00000060: 1424 e53d d490 c7bc 8e81 c13c 6c22 42be
00000070: dace 6eb9 9019 9f3c 0bf3 3ebd f3a8 893c
00000080: 9801 493d a5c5 f53d 828f b73c 43f6 9c3c
00000090: 67fe 783d a109 fc3d a7ff d5bd 66ac d53d
000000a0: 757f dabe 5fb4 dcbd f889 5b3d 51b1 26bf
000000b0: 2160 4ebd 5c50 bc3d 7c06 bfbd 8ddb 7e3d
000000c0: c80c e2bd e3e4 33bc 33fa 08be f78c 9d3d
000000d0: 890a 92bd 36cd 49bd d8ef 8a3c 2c47 d23c
000000e0: 488b 4b3d 1577 0a3d ede3 c33b acd5 c53d
000000f0: b1ac 81bd afe7 143d b560 cdbc b1a2 1abe
00000100: f8b0 a93d 10c0 c03b e892 b83c 151d 8a3d
00000110: 0793 b73d be4b 503d 3d04 613d dcf1 d93d
00000120: 31e8 aebe f5a3 ebbb e8b4 ddbd e446 d53d
00000130: 6338 893a 783d 6f3d 786a b43d 9084 073d
00000140: 97c9 373c 979f e73d 64f2 243d da45 d73c
00000150: 3fc5 98be bb4e 003e 1dd4 633d e1fd 9fbe
00000160: 1e8d f93d 8095 b2bd d6d1 07bc b56b 57bd
00000170: 892b e13b 7345 903c 49bc 7b3d 8c6c 1c3d
00000180: d265 083c 364b ae3d eed4 53bb 95c4 273d
00000190: 7036 123d 6f2c ce3d c190 113d 5aba eb3c
000001a0: 99df e5be 1552 2fbe 1295 fc3d 5df4 b8be
000001b0: c97d c53d ef48 093e fe59 9bbd 22da a43d
000001c0: dbbd 04bb bf23 d2bb b950 e53d 7b6e 0c3e
000001d0: f7ba 9a3b f200 0abe e0c0 fa3d a6ef 683d
000001e0: 0fac 3d3d 124f 703c 8e52 dabc 5889 4e3d
000001f0: 7c7e 133d df3d 3dba a0df d2bd daa7 66be
00000200: b0eb 8a3d aa6f 593d 9d1d c7bd b41a 3f3d
00000210: caa3 513c 7c3b b23b a12e 993d 0a50 af3d
00000220: ef5a a2be 509c 6ebd 102f 6bbc 5a84 953d
00000230: 1274 263d 782f ff3c be11 bb3d 0ed1 db3c
00000240: 54af c9bd fdfb 63bd f212 9b3d ed97 c5bd
00000250: 8faf 15be 9bab fa3b b43d 54bd 0fbb 73bd
00000260: 807f ecbc 4973 23be 6a6a c93d 49c1 0e3d
00000270: e497 2bbc b9a6 3c3c 3ee3 b03d e01b b8b9
00000280: f5e5 e6bd 268d d03d 9e8d 3bbd 5f95 963d
00000290: 5872 31bd 5a2e c23c c366 9a3d bfe0 de3d
000002a0: 68cd 8dbe 8c01 64be 0008 07ba a258 2abe
000002b0: ffbc 85bb b93c 913d 806e 153d 68b7 7cbd
000002c0: 19b6 19bd fb08 46be e9fa c13d 1200 f83d
000002d0: 0225 d2bc 76cc 88bd 783b 81bc 5086 b83c
000002e0: b2f7 6dbc cd94 b0be 5951 523d a2b7 7b3d
000002f0: 8888 c6bd 7fc5 2dbd a825 f43d e93d 34be
00000300: 193a 393e d9be 5c3d 269c c3bd b30d 9abd
00000310: b898 8b3d acd4 af3d c25e 0b3d 6cea 143d
00000320: ad0c f1bb f7e5 86bd 69df 9cbd 880e 5ebd
00000330: a4a2 bcbd 3821 c23d 58f5 843d 3310 db3d
00000340: 6d83 4bbd 9d58 833d ca34 99bd aed6 863d
00000350: c3e5 25be f8e1 7d3d cea7 fabd 8794 a63d
00000360: 50e3 7fbc 7bb0 443d 7f1a 883d 638c de3b
00000370: 34af cb3b 3f48 2dbc b5ed 1ebc 5cb9 c8bb
00000380: 36cc cd3d a312 ce3d 0fa1 da3a 2e47 fe3c
00000390: 3e3b a1bd fea3 d1bc d17c 143d cb7d 633d
000003a0: 3201 64be 3197 90be ccde 073d ec91 d4be
000003b0: 1413 3a3d 0276 e83d c4a3 3abd 731b 7cbd
000003c0: 78c6 3b3d 9cd2 133e 8763 0bbe 9b7f 403d
000003d0: 89b1 82be 9fd9 403d 2897 433d 5a81 f4bc
000003e0: f864 d1bd 2236 083c 4e24 a5bd f396 0dbc
000003f0: 9098 31bd b364 fd3c 5bcd 093d eac3 cabd

layers.2.bias f4 [9]
0.12748654 0.008350097 0.1291045 0.14755216 0.01662395 0.10393396 -0.04915708 0.17891023
-0.012919222
00000000: d58b 023e d8ce 083c f833 043e ea17 173e
00000010: f32e 883c 54db d43d ef58 49bd 3e34 373e
00000020: 25ab 53bc
