experiments/learn_racetrack/racetrack2/2022_01_20_202157182885_1_fbdf8/2022_01_20_202157182885_1_fbdf8_1999.pth (torch, 24919 bytes, 6 tensors)

layers.0.weight f4 [64, 15]
00000000: 00d0 333d 6010 063e ead4 e3bd 80a6 433e
00000010: 2451 bd3d c20b f8bd 9ad8 4bbe ac60 69be
00000020: 5859 99bc 00c3 fa3c 8ff7 0fbe 68b8 28be
00000030: 8c5d 25be 6f94 63be a622 413e 32c6 86bd
00000040: 16af 83be 42bb 1abe 142f 77be e2a3 90bd
00000050: 707a ae3c 0e37 013e b27c b9bd e063 4bbc
00000060: 14c3 4b3e 3c05 683e 93c4 66be 323b 73be
00000070: 5c92 af3d b819 d2bd 8ba6 ccbc 640f 92be
00000080: b174 663e 7fc3 0a3d 5268 713e 4e25 053e
00000090: e004 253d af9b 2abd b1d7 ab3d 6acb 19bd
000000a0: 7ea4 6dbd 994b 9fbd 8ec6 05be cd3f 2abe
000000b0: fc3e debb 984a c6bd 6035 6dbd 6c40 09be
000000c0: 8d25 29be a506 5abe 30c9 913d 6685 bebd
000000d0: c0d3 193d 507a a33d 0044 6a3e 3493 153e
000000e0: 3841 81bd 406c f63d 0c82 fcbd ba59 163e
000000f0: 160f 87be 87d4 77bc 2841 523d 634f 5dbe
00000100: c993 b4bd a04b debd 8f86 70be fe2e bfbd
00000110: f1fb 263c 2380 f03d c1bb 183c 65d4 543e
00000120: f0a7 583e 3e07 aa3c 813e 723e 60ec 4bbd
00000130: a1b3 083e 06aa 8bbd d3fd 863d 2080 833d
00000140: d412 3cbe 58fb bbbd f3aa ab3b 99ca 1abd
00000150: 8b13 86be 1c94 ca3c c5fe 033e 96c1 76be
00000160: 9d51 4f3c f106 c6bd ee3d 0fbe d85b 483e
00000170: c52a 80be 56ec 58be ae74 bdbd b0b0 cdbc
00000180: e151 83be 56da 5f3e c0ff 263c fcd7 56be
00000190: b2bf 68be 09d8 6bbe e1a0 1dbe 98f8 0dbe
000001a0: 2c0b c5bd b269 943e 2741 abbe 5379 c8bd
000001b0: 26bb 8f3d 1f79 50be 7229 44bd 9dd2 cf3c
000001c0: 7be4 83bd a083 cbbc adcc 883d 40b5 203e
000001d0: cb4c 493e cf7c 35be d72a 123d 6fef 783e
000001e0: a8f8 acbd 477f 313e 1352 0a3e be15 6abc
000001f0: 285f 5bbe 07b4 d43d aaa7 3bbd 27e3 043e
00000200: 3164 65be b63b 133e 2d86 663d eb1f 4fbe
00000210: 478f 663d 3e01 333d c4b1 01be 6f49 96be
00000220: b823 a4bc ecad 2c3e 0ffb 82be 7bbc 1abe
00000230: 521d f1bd c245 16be d4ae 653d d3f6 5dbe
00000240: 5fa1 8d3d 8a38 c1bd 6a08 6dbe 435e 253e
00000250: a7cc a83d ed9c 39be 56be 0cbe 460a c63e
00000260: 0afc 3c3e 766c 81be 97b0 69bd 8ead 703e
00000270: 8f72 2b3e ecbf 333e 4c1f f1bd 0768 2b3e
00000280: a590 233e ecc8 c5bc aafc fa3b 41d1 a63d
00000290: 653a 02bd 122d 38bd 782b 7dbd f649 023e
000002a0: c772 96be abe4 cbbc 39d1 4ebd 87b2 163e
000002b0: 4a70 013e b70e f7bd 35ed 6d3e eb6b d13c
000002c0: 3c35 e4bd 98f6 74be 40af 6abc dad6 803e
000002d0: f9cf 7bbe e7e5 7a3e df0e 413d ba83 4a3e
000002e0: fffc 733e bc2b 67be 82b7 293d b176 1a3e
000002f0: 28bf 1b3e 805f c9bd a2cc fd3d b669 22be
00000300: 9dc4 6c3e b83b 6a3e 4ed2 583e 142e fb3d
00000310: fdac 20bd b9c5 38be 7cc4 c0bd ae2a 443e
00000320: 6674 45be 7e13 6abe cdd4 cabc 828e 85bd
00000330: 714d debb d1b2 02be bc36 013e c9d1 e53c
00000340: 7570 d9bd 6994 64be 2a71 80be ea99 b4bd
00000350: 8029 0e3d c08b fc3b 2026 b6bd e885 9ebd
00000360: 50d2 f73c 3804 4ebe fe46 54be 347e 1ebe
00000370: f8d2 bfbc 2892 a83d aac3 81be 9436 6f3e
00000380: ecc5 813d 63af e8be 5fa0 ce3e 2d7c 4d3e
00000390: f614 5ebe 53ba 843e 4091 dcbd 5f2d 30be
000003a0: 3cbc 643e 7c01 f33d 80f4 19be 548e 39be
000003b0: fd77 c9bd 389e 583c 6124 e23c 6635 4d3e
000003c0: 9eb7 6dbe a47c a7be 9e64 c53d ff84 33be
000003d0: 953e 1abd 2742 20be f2e2 023e df78 50be
000003e0: 1a2e da3d 9883 69be c4fa 2c3e cfa3 1f3e
000003f0: e626 103c f849 763e 6977 113e 784e a73d
0.043899536 0.13092184 -0.111245945 0.19106483 0.09243992 -0.121116176 -0.19906846 -0.22790784
-0.01871936 0.030610561 -0.1405928 -0.16476595 -0.16148967 -0.22224592 0.18860874 -0.065807715
-0.25719517 -0.15110496 -0.24139053 -0.07062508 0.021298617 0.12618658 -0.09056987 -0.012413949
0.19898635 0.22658247 -0.22535925 -0.2375305 0.08572838 -0.10258812 -0.024981758 -0.28527367
0.22505452 0.033877846 0.23574951 0.13002512 0.040287852 -0.041652378 0.08390749 -0.037547506
-0.0580182 -0.07778091 -0.13064024 -0.166259 -0.0067824107 -0.096821964 -0.05791223 -0.13403481
-0.1651823 -0.21291597 0.071184516 -0.093027875 0.037555456 0.07982314 0.22877502 0.14606935
-0.063112676 0.12032366 -0.12329492 0.14682665 -0.26378697 -0.015126354 0.05133167 -0.21612315
-0.0881725 -0.10854268 -0.2348883 -0.09335135 0.010191903 0.1174319 0.009322108 0.20784147
0.21157813 0.020755406 0.23656656 -0.04978597 0.13349773 -0.06819539 0.06591382 0.06420922
-0.18366557 -0.091787994 0.0052388846 -0.03779087 -0.26186785 0.024728827 0.12890156 -0.24097285
0.0126537355 -0.09669293 -0.13988468 0.19566286 -0.2503263 -0.21183905 -0.092507705 -0.025108665
-0.25648406 0.21860632 0.0101928115 -0.20980829 -0.22729376 -0.2303163 -0.15393402 -0.13864362
-0.096212715 0.2898689 -0.33448145 -0.09788766 0.070181176 -0.20358704 -0.047891088 0.025368983
-0.064400636 -0.024843037 0.06679664 0.15694141 0.196582 -0.17723392 0.035685387 0.24310087
-0.08445865 0.17333709 0.13507871 -0.01428741 -0.21423018 0.103859 -0.045814194 0.12977277
-0.22401501 0.14378247 0.056280304 -0.2022702 0.056288984 0.043702357 -0.12665468 -0.293529
-0.020036563 0.16863221 -0.25582168 -0.15110962 -0.117731705 -0.14675048 0.056074932 -0.21676187
0.06915545 -0.09434612 -0.23147741 0.16149239 0.08242159 -0.18126269 -0.13744482 0.38679713
0.1845552 -0.25278062 -0.057053175 0.23503706 0.1674292 0.17553681 -0.117735475 0.16738902
0.15973146 -0.024143659 0.0076595144 0.08145381 -0.03179397 -0.044964857 -0.061809033 0.12723526
-0.29384443 -0.02488931 -0.0504925 0.1471654 0.12640491 -0.120633535 0.23235019 0.025564155
-0.11142966 -0.23922193 -0.014324009 0.2516392 -0.24591054 0.24501763 0.047133323 0.19776812
0.23826979 -0.22575277 0.041434772 0.1508434 0.15209639 -0.09832668 0.12392546 -0.15860638
0.23121877 0.22874343 0.21173975 0.12264648 -0.039227474 -0.18044175 -0.094124764 0.19156906
-0.19282684 -0.22858998 -0.024759674 -0.06521322 -0.006784134 -0.12763526 0.12618536 0.028054135
-0.106171526 -0.22322239 -0.25086337 -0.08818419 0.034707546 0.007707089 -0.088939905 -0.07740384
0.030251652 -0.20118797 -0.20730206 -0.1547783 -0.023416027 0.08231002 -0.25344592 0.23360664
0.06336579 -0.4544631 0.40356728 0.200669 -0.21687683 0.25923404 -0.10769892 -0.17204808
0.2233743 0.118655175 -0.15034676 -0.181207 -0.09837339 0.013221316 0.027605237 0.20039901
-0.23214576 -0.3271228 0.09638332 -0.17531203 -0.03765734 -0.15650235 0.12781885 -0.20358609
0.106533244 -0.22804105 0.16892534 0.15589832 0.008798337 0.24051654 0.14205708 0.081692636

layers.0.bias f4 [64]
00000000: eed7 6bbe e8ad 99bc c535 f23d 54e3 883d
00000010: 33a2 f13d a7ad 37bc 742e 33be b8e2 11ba
00000020: a5f6 7b3e 4454 8a3d 966a b13c 9971 3fbe
00000030: a53d 81be 7f62 35be 0825 4bbd 71ea cdbc
00000040: 8db4 30be beb3 963d 3657 75bd 3410 14be
00000050: 688c 3abe 1ce6 d73d f508 ec3d 2338 b33c
00000060: 00c1 453b 2cf4 80be f881 14be e5f9 59bd
00000070: dc60 ec3d 26eb 263e c8cc 6a3e ef84 cb3d
00000080: 6a60 7fbe 6dc5 e2bd 4697 f53c 30a4 5b3e
00000090: 4cde 513e b4bb cdbd ed29 283e 8192 0abe
000000a0: 7783 39be a442 0d3d 0e73 933b 0306 67be
000000b0: 2c6b b8bd f9ac 76be 103d d83d e438 55be
000000c0: 4af3 afbc a298 683e 40ea 5dbe 12fa 1c3e
000000d0: 038e 453e 442a 683e d5c7 91bd 48d5 81be
000000e0: 2f0d 543e f15f 2fbd 7c43 80be 1181 e83c
000000f0: 4e65 a3bb aafe 00bd 91c3 5abe a016 303e
-0.2303159 -0.018759683 0.11826662 0.066839844 0.11798515 -0.011210836 -0.17498189 -0.0005565095
0.24605806 0.06754354 0.02165727 -0.18695678 -0.25242344 -0.17713355 -0.049595863 -0.025136204
-0.17256375 0.07358502 -0.059897624 -0.14459306 -0.18217623 0.10541937 0.11525146 0.021877354
0.0030174851 -0.25186288 -0.14502704 -0.053216834 0.11541912 0.1630064 0.2292968 0.099374644
-0.24939123 -0.11072812 0.02997936 0.21449351 0.20494956 -0.10045567 0.16422243 -0.1353245
-0.18116556 0.03448738 0.0044997996 -0.22560887 -0.090048164 -0.24089421 0.10558522 -0.20822483
-0.021478314 0.22714475 -0.2167139 0.15329769 0.19292454 0.22672373 -0.07118193 -0.25358033
0.20708154 -0.042816106 -0.25051486 0.028381856 -0.0049864417 -0.031492867 -0.21363665 0.17196131

layers.1.weight f4 [64, 64]
00000000: e013 b4bd ec07 a13d 681a 34bd 8873 a1bd
00000010: 6d46 943c 032b ddbb 06ae d2bd f930 6ebd
00000020: 73b2 e23b 4db2 b53d c2ea 73bd 9ae6 e03d
00000030: 684f b1bd 6b81 c6bd 5adb d93d 0d64 b43c
00000040: da18 713d ffaa abbd f6d6 b9bd 50a0 f0bd
00000050: af8b db3d 20eb 323d bc51 b83d ddba fa3d
00000060: a478 47bd 1645 34bd 9474 f93c 076e da3c
00000070: 8a31 6c3d 6050 193d 9ce6 c73c 4356 f33c
00000080: 703c 8e3c b6ff 8cbd 7cb9 b73d 40c5 b93d
00000090: b420 973c e705 6b3c ab19 d8bd 0a80 c5bd
000000a0: 42c4 fdbd e375 a33d ae46 dfbc ce37 dbbd
000000b0: 9631 d83d a2ee ccbc c8fc 06bd 5ae3 723d
000000c0: d110 d73b e423 c0bd 0d2b 09be b40c a5bc
000000d0: 4c0d 07be d0b7 23b8 a842 fd3c 482d 02be
000000e0: 10aa 083d 9549 ad3d a141 723d b76d 49bd
000000f0: 2055 263e e4cc 57bd de16 65bd e70e 9dbd
00000100: 886d ac3d de92 c5bd f696 56bd 8a67 a23d
00000110: e367 273d f974 db3d caf6 fbbd 528a 273d
00000120: 4e3f d7bc 2204 8f3c 0175 603d d4f7 44bd
00000130: 2776 243c 36bf 893d e845 4b3d 0edc a53c
00000140: bf78 833c 044e 043d 18ba 11be 5a95 cf3d
00000150: 2d62 723b d839 1cbe 4174 83bd 8165 fcbd
00000160: 0016 713d 63cd bb3d 9211 fe3c 475f bc3c
00000170: cb55 983d 1c79 1abd 4307 eabb 1101 e13c
00000180: 9269 16bd dc5c c1bd 0af5 b23d 6fed acbd
00000190: a172 3f3d 80b4 acbd 665f 69bd 0eb6 293d
000001a0: f0d1 50bc 234a 39be 20a6 b33d a05e a63d
000001b0: 279e 343c e2a5 1a3d 9e35 c9bd 8d47 f2bc
000001c0: 0190 ca3c ed94 893c 9058 b43d 066d c93c
000001d0: bfe7 b73d 6583 433c 7421 d5bd ec41 d8bd
000001e0: c595 99bc 2ff4 d5bc 78a7 c43c 7b65 e8bb
000001f0: 6f9d 133e cc9e 01be fada de3d 0eec 393d
00000200: 0000 ac39 420e dd3d a899 d1bd cad3 e63d
00000210: 1eb2 a33d 8625 82bd 60f4 8dbb faea 6abd
00000220: 8b45 cc3c f47d 8ebd 895d 61bd 60f0 863c
00000230: eb02 ce3c cc5f 6dbd f46b 30bd 0003 a1bd
00000240: e2fe 5fbc c985 2cbd 6e08 883d ec94 60bd
00000250: 6a50 c93d 8158 8b3d d97a babd efa2 e6bd
00000260: e0f7 e83c 81a6 193b b222 a93d 3db3 3e3d
00000270: c372 72bd 2a06 fe3d 4b30 0fbd 8bb1 f83c
00000280: 5eba fa3c 136c 8f3d 74b2 8d3d 5356 963d
00000290: af1e 16be cce8 dd3d d82c 82bd 746a 0c3d
000002a0: 2013 5fbc 0424 c83c 3b2e 3e3d c817 7abd
000002b0: 856d bc3d b1b8 cc3d de23 bbbd 9c50 af3d
000002c0: accb 17bd f48a ca3d 99d1 12bd dd99 d23d
000002d0: 7281 313d d29b fc3c f695 f53d 9015 56bd
000002e0: 7884 98bd 0adf 99bc 23f5 b33d 6d2f 213d
000002f0: 428a 10be 7d76 9dbd 63e3 783c da0e b3bc
00000300: 009e ebba 34d7 debd 11c0 debc 8c58 7fbd
00000310: e613 e23d 7b2f cbbd 105b b73d 4c81 b5bd
00000320: 30e7 d7bd 7daa 4b3d d058 7c3d b549 cdbd
00000330: 91f2 863d 82c4 ccbd ae32 973d c469 093d
00000340: 326b c13d 71d7 30bd 9d14 99bc 8085 6bbd
00000350: 0a36 a8bc f1e0 febd 4099 00be 341f 89bd
00000360: 287d b93c 0e36 793c 5d7d fa3c 0696 e13c
00000370: 0098 75bd a8d2 ca3c 1cbe 87bc 0521 443c
00000380: 9062 03bd f455 d13b d774 b73c 9e61 aabd
00000390: 926a fa3d 18b4 a23d d2cd dd3c f94c 9cbd
000003a0: 4414 b5bd 7030 1dbe f7c4 e33d d0b2 483d
000003b0: 3805 453d 18e6 9e3d eaef ae3d 23d3 b2bd
000003c0: 4662 853c 9145 d03d 2b00 f93d 8163 aebd
000003d0: 8645 b3bd 8238 4e3d 095b 0e3d dbf0 b73d
000003e0: 8934 e6bd 4fa7 b43a 5e33 213d 3373 82bd
000003f0: fc43 3c3d cb80 a03d 1c38 d1bd 858a 00be
-0.08792853 0.07862839 -0.043970495 -0.07883364 0.018099988 -0.006749512 -0.102870986 -0.058152173
0.0069182455 0.08871899 -0.059550054 0.10981484 -0.08657724 -0.09692653 0.10637541 0.022020364
0.05886159 -0.08382224 -0.09074204 -0.11749327 0.10720002 0.043681264 0.089999646 0.122426726
-0.048699036 -0.044011198 0.030451097 0.026663793 0.05766443 0.037430167 0.024401955 0.029704219
0.017362803 -0.068847105 0.08970925 0.090708256 0.018448211 0.014344669 -0.10551771 -0.09643562
-0.12390949 0.079814695 -0.027255382 -0.10704003 0.10556333 -0.025016133 -0.032955915 0.05929885
0.006563284 -0.093818456 -0.13395329 -0.020147659 -0.13188666 -3.9033417e-05 0.030915573 -0.12712586
0.03336531 0.084613 0.05914462 -0.049176898 0.1624341 -0.052685633 -0.05593001 -0.07668858
0.08419329 -0.09647153 -0.05239006 0.07929905 0.04087056 0.1071567 -0.12302931 0.040903397
-0.026275303 0.017458025 0.054799084 -0.04808791 0.010037935 0.06725924 0.049627215 0.020246532
0.016048787 0.032300964 -0.14231145 0.101359084 0.0036984787 -0.1525644 -0.06418658 -0.12324048
0.05885887 0.09170034 0.031014238 0.02299465 0.07438239 -0.037713155 -0.007141979 0.027466329
-0.036721773 -0.0944154 0.08738144 -0.08443724 0.046740178 -0.08432865 -0.056975745 0.041433387
-0.0127453655 -0.18094687 0.0877192 0.08123517 0.011024035 0.037755854 -0.0982468 -0.029575134
0.02472687 0.016794646 0.088059545 0.02458812 0.08979749 0.011933182 -0.10406771 -0.105594486
-0.018748173 -0.026117412 0.024005637 -0.0070921755 0.14415525 -0.12658232 0.1088161 0.045391135
0.00032806396 0.10793735 -0.10234386 0.11270864 0.079929575 -0.06354813 -0.0043321103 -0.057352997
0.024935504 -0.069576174 -0.055020843 0.016472042 0.025147876 -0.057952687 -0.043071702 -0.078619
-0.013671609 -0.042119775 0.06642233 -0.054829523 0.09829791 0.0680399 -0.091054626 -0.11261546
0.028438509 0.0023445191 0.08258571 0.046557654 -0.059191477 0.124035195 -0.034958165 0.030358097
0.030606445 0.070030354 0.06918803 0.07340684 -0.14660142 0.10835418 -0.063562095 0.03428121
-0.0136154 0.024431236 0.046430808 -0.061057836 0.09200577 0.099961646 -0.091377005 0.08560297
-0.03705947 0.098897845 -0.03584442 0.10283253 0.04333634 0.03083602 0.119914934 -0.052266657
-0.074471414 -0.018783111 0.087869905 0.03935187 -0.14115241 -0.076886155 0.015190932 -0.021857668
-0.0017976165 -0.108808905 -0.027191194 -0.062340304 0.110389516 -0.099211656 0.08952916 -0.08862552
-0.105421424 0.049723137 0.061608136 -0.10023824 0.065892346 -0.099984184 0.07382713 0.03354813
0.09444274 -0.04317421 -0.018686587 -0.057500362 -0.02053358 -0.12445248 -0.1255846 -0.06695405
0.022642687 0.015210642 0.030577356 0.027537357 -0.05995941 0.024758652 -0.016570143 0.011970763
-0.03207642 0.0063884202 0.02239458 -0.083194 0.12227358 0.079445064 0.027075682 -0.07631869
-0.08841756 -0.15350509 0.111215524 0.048998654 0.04810068 0.07758731 0.08541854 -0.087316774
0.016282212 0.10169519 0.12158235 -0.085150726 -0.08753495 0.05034686 0.034754787 0.089814864
-0.11240489 0.0013782772 0.03935563 -0.06369629 0.045963272 0.07837065 -0.1021578 -0.12552841

layers.1.bias f4 [64]
00000000: 4f8c e03c 34fb b93b 3982 9cbd 72cb ddbd
00000010: d4d1 66bc 84a2 7fbc 84eb f53d eb9f c43d
00000020: 7153 b9bc 51ca 763d 09f6 01be 03c5 1ebd
00000030: 16c2 513d 7800 823c 30de e1bc 17a1 41bd
00000040: 1065 bebb a520 a33d 4842 d53d f891 e83c
00000050: dbcb 983d 30d3 393d 0cea 833d 16db 913c
00000060: 2916 07be 4644 a3bd 1f50 82bd d41a e6bd
00000070: b148 a13c e3d8 463c 1209 ccbd 5288 c33d
00000080: 8671 d83a dd03 f1bd ce4c 2c3c 9bf7 8a3d
00000090: a05d abbc 305c 073d 7dc4 483d 82d0 073c
000000a0: d8e5 18bc a579 b33d f0e9 2f3c 0f02 a43d
000000b0: 3d25 01be f4cc 983a f8bc e23d aed1 a3bd
000000c0: 6441 d43d 4c2c d03d d531 8fbd 57f2 f13d
000000d0: 2a19 95bd 1668 c83c cb65 03be 2e70 85bd
000000e0: 9883 cebd 2228 8b3d cd18 c6bd a415 e03d
000000f0: 00e2 f43c 3b95 01bd bd77 9bbd c04c 093d
0.027410654 0.0056756977 -0.076420255 -0.1082982 -0.014088113 -0.015602712 0.12007812 0.096008144
-0.022622796 0.060251538 -0.12691511 -0.038762104 0.051210485 0.015869364 -0.027571768 -0.047272768
-0.0058103874 0.07965211 0.10413033 0.028389916 0.07460757 0.04536742 0.06441125 0.017804664
-0.13192047 -0.079720065 -0.06362938 -0.11235586 0.019687982 0.012136671 -0.099626675 0.095474854
0.0016513325 -0.11768315 0.010516359 0.06785508 -0.020918667 0.0330469 0.04901551 0.008289458
-0.009332143 0.08763436 0.010736927 0.08008205 -0.12611862 0.001165776 0.11071199 -0.079989776
0.10364035 0.10164699 -0.069919266 0.11813801 -0.0728019 0.024463695 -0.128318 -0.06515537
-0.10083693 0.06794764 -0.09672699 0.109416276 0.029892921 -0.031636458 -0.07591198 0.03352046

layers.2.weight f4 [9, 64]
00000000: 3fd2 49bc b616 5ebd 3940 5cbd c6df b13d
00000010: 9bde 393d dbd6 013e 499e 473c 3286 87bd
00000020: f987 42bc 0ac3 693d 6856 813d f494 443d
00000030: 8d01 8cbc b0d3 573c 581e f1bc f06f f3bc
00000040: e031 b7bd 9be6 d83d ca5e c0bd 73f9 74bd
00000050: 7927 38bd 2338 bd3d 2a2f be3d b8e5 8abd
00000060: 1424 e53d 6af1 bdbd c6f1 333d 26d7 d3bd
00000070: 8d7d 023d 12e2 973c d1ce 3fbd 6753 f9bc
00000080: 9801 493d 6114 083e 828f b73c 1ab1 7ebd
00000090: c202 9d3d ed43 ae3d 41cc c2bd 015e c53d
000000a0: c02e bfbd 0242 013d f889 5b3d bf0a 2bbe
000000b0: b242 45bd 4f5e 42bc 5e6e dfbd 3422 d63d
000000c0: 8c52 f1bd c070 7ebd 0483 803c 9db1 bb3d
000000d0: c771 683d 2135 29bd d8ef 8a3c 1350 903d
000000e0: 488b 4b3d d66d 8e3d b507 ca3c 6fdb c53d
000000f0: 0839 a1bd 75b2 0e3d b560 cdbc baf8 053d
00000100: 15d3 a23d 965e b73c fdb6 463d 5e0a 903d
00000110: 4b97 fe3d d517 a1ba 86e3 1a3d dcf1 d93d
00000120: 3b48 74bc 8a94 e8bb e8b4 ddbd 633e a63d
00000130: 3f82 163d 783d 6f3d 786a b43d 00de 6cbd
00000140: 97c9 373c cca8 e63d 64f2 243d 8273 5c3d
00000150: 69cf 87bd 334e e53d 1dd4 633d 157e b8bd
00000160: 1e8d f93d bab5 e2bd 40ac b4bd d9e0 1bbe
00000170: a368 1dbd fd1a bf3d 49bc 7b3d 21c3 db3c
00000180: d265 083c ccf0 123d eed4 53bb e91e 4d3d
00000190: 7036 123d 7c07 ba3d 97a2 0e3d 739d d6bc
000001a0: 298a 44bd 2cbf d5bc 1295 fc3d 2f2b 1ebe
000001b0: 28f4 c73d c458 0c3e fe59 9bbd bc44 753d
000001c0: 4d18 143d 8afa 05bd 5c8a f73c f096 2b3e
000001d0: b3b9 1f3d 1e2b c3bd e0c0 fa3d 955c a43d
000001e0: 0fac 3d3d e006 48bc c04d 28bd 5889 4e3d
000001f0: 7c7e 133d 3a78 a7bd 453c e2bd af54 2abd
00000200: 13f0 813d 1a31 853d b474 32bc ecc8 d93d
00000210: 98f2 c73c 3aef 8fbd 21af fe3c 0a50 af3d
00000220: 70a7 f03c 303c 73bd 0013 c43a 79f9 b53d
00000230: d79e eabc 782f ff3c be11 bb3d c390 acbd
00000240: 54af c9bd 22a2 8dbd f212 9b3d 6054 f6bc
00000250: c95f 943d 4556 b5bd b43d 54bd 1648 2e3d
00000260: 807f ecbc d9c5 dabd 42bc dc3c cf4f d73d
00000270: b53d 443d 30b1 3a3c 3ee3 b03d 26df a4b9
00000280: f5e5 e6bd 52a1 9f3d 9e8d 3bbd 48ab 823d
00000290: 5872 31bd 151d 913c 0955 ba3d df85 023e
000002a0: 330c c2bd 3328 cdbd 0008 07ba b76c 29be
000002b0: cf09 f13b 67d7 ae3d 806e 153d 5c45 84bd
000002c0: 1705 5f3d a642 a6bd 7850 013e 1fc7 9e3d
000002d0: 470f b9bd 6075 68bd 783b 81bc 6596 7fbd
000002e0: b0ee 6cbc 2e93 bebd b33e c63d 2dd8 223d
000002f0: 8888 c6bd f329 c3bd ed18 0f3e 4510 2fbc
00000300: cddc 113e 2d62 003e 4acf dbbd f439 0ebd
00000310: 6c71 d23d 7b9e 1a3e f44f be3b 6cea 143d
00000320: 7558 05be de4d 6abd 69df 9cbd 629e c7bd
00000330: 7d8f 61bd 3821 c23d 6c0b 493d c541 f53d
00000340: 6d83 4bbd e98b 453d ca34 99bd fd06 fc3d
00000350: 1089 9bbd f670 8cbd cea7 fabd 7ff0 b23c
00000360: 50e3 7fbc 146b ef3d 4ca4 a53d 5136 d3bc
00000370: 84d5 04bd c72d abbd bfb2 5cbc cd3e 21bd
00000380: 36cc cd3d 722d 103e fbbc ec3a c127 b23c
00000390: 3e3b a1bd f250 933d 715b 083d 9458 413d
000003a0: ffd2 e1bd 321c 62bc ccde 073d 8a34 57be
000003b0: 7173 9d3d 0e59 d73c c4a3 3abd 3558 b3bd
000003c0: 6335 303d 4046 be3d 0e70 953d 2655 dbbc
000003d0: a701 bdbd 177f 963d 2897 433d 5085 91bd
000003e0: f864 d1bd 60d2 6ebd 0220 b7bd e58f 34bc
000003f0: 9098 31bd b57e 3e3d ad3a 073d e542 cbbd
-0.012318193 -0.054220878 -0.053772185 0.086852595 0.04537831 0.12679617 0.012183734 -0.066173926
-0.011873239 0.05707077 0.06315309 0.047993615 -0.017090583 0.013173029 -0.029433414 -0.029716462
-0.0894506 0.105908595 -0.093930796 -0.059808206 -0.04495952 0.09239223 0.092863396 -0.067820966
0.11188522 -0.09274562 0.043931745 -0.10343771 0.031858016 0.018540416 -0.046828095 -0.030435277
0.049073786 0.13289024 0.022407297 -0.062180616 0.07666542 0.085090496 -0.095116146 0.096370704
-0.09335089 0.03155709 0.053598374 -0.16703318 -0.04815931 -0.011863305 -0.10909723 0.104557425
-0.11783323 -0.062119246 0.015687473 0.091647364 0.05674913 -0.041310433 0.01696007 0.07046523
0.049693376 0.06954543 0.024661878 0.09660994 -0.07872206 0.03483816 -0.025070528 0.032707907
0.07950417 0.02238397 0.048514355 0.070332274 0.124312006 -0.0012290428 0.03781464 0.10641834
-0.014909799 -0.0070977854 -0.10825521 0.08117368 0.036745306 0.05840823 0.0880937 -0.057828903
0.011217496 0.11262664 0.040270224 0.053821094 -0.06631357 0.11196556 0.05562221 -0.09008423
0.12185119 -0.11069818 -0.088219166 -0.15222491 -0.038429867 0.093313195 0.06145886 0.026826443
0.008325057 0.035874173 -0.003232296 0.050078306 0.035696447 0.09083459 0.034823027 -0.026198125
-0.047983322 -0.026092134 0.123331204 -0.1544616 0.09763366 0.13705736 -0.07585524 0.059880003
0.036155988 -0.032709636 0.030217342 0.16756797 0.038995456 -0.09529708 0.12243819 0.08025471
0.046306666 -0.01220867 -0.041089773 0.05042395 0.036009297 -0.08177228 -0.11046652 -0.041584667
0.06344619 0.06503506 -0.010892082 0.10634026 0.02440767 -0.07028051 0.031089367 0.08560188
0.029376715 -0.05938357 0.0014959276 0.08885474 -0.028640194 0.031150565 0.091342434 -0.084260486
-0.09847894 -0.0691569 0.07571973 -0.03006953 0.07244832 -0.08854345 -0.051816657 0.042549215
-0.02886939 -0.10682268 0.026945237 0.10513269 0.04791041 0.011394784 0.08637093 -0.00031446776
-0.112743296 0.07794441 -0.045789354 0.063803256 -0.043321937 0.017714063 0.090982504 0.1274638
-0.09474983 -0.10017433 -0.00051510334 -0.16545378 0.0073559056 0.085371785 0.036482334 -0.06458542
0.054448213 -0.08118181 0.12628353 0.07752823 -0.09036117 -0.056752563 -0.015775427 -0.062399287
-0.014461204 -0.09305416 0.09679928 0.039756943 -0.0969401 -0.095294856 0.13974352 -0.010685031
0.14244385 0.12537451 -0.107328966 -0.034723237 0.1027554 0.15099518 0.005807871 0.036356375
-0.13022025 -0.057203166 -0.076597996 -0.09747006 -0.05506848 0.09478992 0.04908316 0.11975435
-0.049685884 0.04822913 -0.07480772 0.123060204 -0.07594502 -0.06857483 -0.122390375 0.021843193
-0.01561816 0.116903454 0.08087978 -0.025782736 -0.032430187 -0.08358341 -0.013470351 -0.039366532
0.10048716 0.14079836 0.0018061692 0.021747472 -0.07872628 0.071931735 0.03329033 0.047203615
-0.110265724 -0.013800668 0.03317146 -0.21016136 0.07688034 0.026287582 -0.045566335 -0.087570585
0.043019664 0.09290743 0.07296763 -0.026774 -0.09228831 0.07348459 0.047751576 -0.071055055
-0.102243364 -0.058306098 -0.08941652 -0.011020635 -0.043358386 0.046507556 0.033014942 -0.099248685

layers.2.bias f4 [9]
00000000: 379f bc3d ec55 2dbd 4179 b83d 5b70 963d
00000010: 1512 00bd e13c 483d 1f63 efbd 8952 e33d
00000020: 8fc8 b0bd
0.09210055 -0.04231827 0.09007502 0.07345649 -0.031267244 0.048886184 -0.11688828 0.11099727
-0.086320035
