experiments/learn_racetrack/racetrack2/2022_01_20_202157182885_1_fbdf8/2022_01_20_202157182885_1_fbdf8_best.pth (torch, 24919 bytes, 6 tensors)

layers.0.weight f4 [64, 15]
00000000: 00d0 333d 6010 063e ead4 e3bd 80a6 433e
00000010: 2451 bd3d c20b f8bd 9ad8 4bbe ac60 69be
00000020: 5859 99bc 00c3 fa3c 8ff7 0fbe 68b8 28be
00000030: 8c5d 25be 6f94 63be a622 413e 32c6 86bd
00000040: 16af 83be 42bb 1abe 142f 77be e2a3 90bd
00000050: 707a ae3c 0e37 013e b27c b9bd e063 4bbc
00000060: 14c3 4b3e 3c05 683e 93c4 66be 323b 73be
00000070: 5c92 af3d b819 d2bd 108a b7be a157 8ebe
00000080: 8b8c 493e b3bc 1f3c 2be1 703e a953 213e
00000090: 4c2c aa3c ade4 05be d541 8f3d 1da9 8cbb
000000a0: 8afc d8bd 40c8 d2bd bc81 27be e03d 7ebe
000000b0: d118 8e3c 984a c6bd 6035 6dbd 6c40 09be
000000c0: 8d25 29be a506 5abe 30c9 913d 6685 bebd
000000d0: c0d3 193d 507a a33d 0044 6a3e 3493 153e
000000e0: 3841 81bd 406c f63d 0c82 fcbd ba59 163e
000000f0: 96ce fdbe 1c63 55bc 89e3 783d 1ead 71be
00000100: 4b9c b5bd 7d44 d9bd e8c6 69be 1043 d4bd
00000110: 2f39 263d 8262 d03d 5464 e7bc c455 273e
00000120: 1907 3c3e 9fb6 dcbb 124e 833e 7e50 b6bc
00000130: 0fd7 293e f236 97bd e538 623d a900 213d
00000140: eb45 3fbe 8e08 03be f1f7 063c 2935 2abd
00000150: 4fb0 93be debe ab3c 2f58 fc3d ce1c 81be
00000160: 3fe0 cd3b 8b25 b0bd ee3d 0fbe d85b 483e
00000170: c52a 80be 56ec 58be ae74 bdbd b0b0 cdbc
00000180: e151 83be 56da 5f3e c0ff 263c fcd7 56be
00000190: b2bf 68be 09d8 6bbe e1a0 1dbe 98f8 0dbe
000001a0: 2c0b c5bd 892c 283f 6430 fabe 9866 f3bd
000001b0: 1f3c be3d 3c12 72be 1963 adbd b0f3 e03d
000001c0: d8ed f53b f282 b7bd 5538 013d 88c8 bc3d
000001d0: f32d 353e 7b14 28be bdeb 1dbd f8ae 613e
000001e0: 4a63 423e 9f89 0b3f fb3d b03d 096e d5bc
000001f0: af07 5dbe f3bf f83c 81c2 53bd 25b1 123e
00000200: 859d 91be 2a71 0fba 1857 213d db8f 66be
00000210: a751 7b3d f424 823d b04a ebbd 071c 5abf
00000220: 3b57 993d aa0d 0f3e 702e 8ebe 2e43 0ebe
00000230: 1a81 05be 7ffe 84bd 263e 19be 6e97 76be
00000240: bad5 0d3e cb5e f2bd 71e7 e3be 71d8 0a3e
00000250: 9232 693d 1436 23be e3fe 4a3c 9fb6 2c3f
00000260: d874 0d3e 816d 8ebe 3491 52bd 0b6e 943e
00000270: fb68 ea3d 9157 d43d 3ff8 25be e91a da3d
00000280: 108b 0a3e 1ae6 42bd 4365 843b 846c bc3d
00000290: 0c93 d1bb 031b e2bd 87ad 04be da60 e23d
000002a0: 86e3 89be 68d8 873d 6525 10bd 31a5 843e
000002b0: b65c 113d 34e4 10be 0dab a53e d758 37bd
000002c0: b2a5 4cbe 29d8 5bbe 40af 6abc 498f 683e
000002d0: 6c6f 12bf 58a0 ce3e 276d b63c 7257 4c3e
000002e0: 8922 503e 1fb7 83be 7a66 023d 54af ae3d
000002f0: e078 ac3d 1b30 1ebd 6123 7e3d c578 a0bd
00000300: 85ae 443e 556f 2c3e 96fe 563e 3483 733a
00000310: 5e52 fdbd a979 2dbe 91ea adbd affb 503e
00000320: 7f2a 42be 97c9 66be de72 a2bc 57f7 25bd
00000330: 4f51 1ebb 7412 a9bd 87e7 0c3e 65cf 233d
00000340: 9303 bfbd 4601 6ebe 2a71 80be ea99 b4bd
00000350: 8029 0e3d c08b fc3b 2026 b6bd e885 9ebd
00000360: 50d2 f73c 3804 4ebe fe46 54be 347e 1ebe
00000370: f8d2 bfbc 2892 a83d aac3 81be 9436 6f3e
00000380: ecc5 813d d579 69bf 163d cd3e 82c4 403e
00000390: 2b40 57be 0a65 7a3e 4bb5 63bd a0ad d5bd
000003a0: a77a 1c3e 8552 ac3d e6be a6bd 137a 6bbe
000003b0: 8063 08bd a4a5 44bc 0e5f 7dbc 9b60 463e
000003c0: 07b6 bdbe 5a97 bbbe 577a b23d b7a6 27be
000003d0: 24ae d2bc c4d7 0dbe b5cc 193e d8ed 29be
000003e0: 3dd3 aa3d 0021 86be 6619 c23d 5d69 0f3e
000003f0: ac54 7a3c 74c6 753e 2199 053e 26e4 8b3d
0.043899536 0.13092184 -0.111245945 0.19106483 0.09243992 -0.121116176 -0.19906846 -0.22790784
-0.01871936 0.030610561 -0.1405928 -0.16476595 -0.16148967 -0.22224592 0.18860874 -0.065807715
-0.25719517 -0.15110496 -0.24139053 -0.07062508 0.021298617 0.12618658 -0.09056987 -0.012413949
0.19898635 0.22658247 -0.22535925 -0.2375305 0.08572838 -0.10258812 -0.3584752 -0.2780123
0.19682519 0.009749579 0.23523395 0.1575457 0.020773076 -0.13075514 0.06994978 -0.004292621
-0.10595043 -0.10292101 -0.16358083 -0.24828291 0.017345818 -0.096821964 -0.05791223 -0.13403481
-0.1651823 -0.21291597 0.071184516 -0.093027875 0.037555456 0.07982314 0.22877502 0.14606935
-0.063112676 0.12032366 -0.12329492 0.14682665 -0.49571675 -0.013024118 0.06076387 -0.23601195
-0.08867701 -0.10608766 -0.22829783 -0.10364354 0.04058188 0.10175039 -0.028246082 0.1634131
0.18362083 -0.0067356373 0.256455 -0.022255179 0.16585945 -0.07383527 0.05523004 0.03930727
-0.18679015 -0.12796232 0.008237825 -0.041554604 -0.2884545 0.020965036 0.12321507 -0.2521729
0.0062828357 -0.08600911 -0.13988468 0.19566286 -0.2503263 -0.21183905 -0.092507705 -0.025108665
-0.25648406 0.21860632 0.0101928115 -0.20980829 -0.22729376 -0.2303163 -0.15393402 -0.13864362
-0.096212715 0.65692955 -0.48865044 -0.118848026 0.09288811 -0.23639768 -0.08466167 0.1098398
0.00750516 -0.08960523 0.031547863 0.09217936 0.1769331 -0.16414063 -0.038554896 0.22039402
0.18983188 0.5450687 0.08605572 -0.026053445 -0.21584962 0.030364966 -0.051699165 0.14325388
-0.2844049 -0.000547188 0.0393897 -0.22515814 0.061357167 0.063547045 -0.11488855 -0.85199016
0.07487341 0.13970056 -0.27769804 -0.13892815 -0.1303753 -0.06493854 -0.14965114 -0.24081203
0.13851061 -0.118344866 -0.44512513 0.13559128 0.056932993 -0.15938598 0.012389871 0.6746616
0.13814104 -0.2781792 -0.051408008 0.28990206 0.11445805 0.103682645 -0.1620798 0.10649664
0.1352961 -0.047582723 0.0040403917 0.09200385 -0.006395703 -0.11040308 -0.1295682 0.11053629
-0.269314 0.06633073 -0.035191912 0.2590728 0.035488807 -0.14149553 0.32357064 -0.04476246
-0.19985083 -0.21469177 -0.014324009 0.22710909 -0.57201266 0.40356708 0.022268845 0.19955233
0.20325674 -0.25725648 0.03183601 0.08529535 0.084214926 -0.038620096 0.06204546 -0.07835535
0.19207199 0.16839345 0.20995554 0.0009289265 -0.12369226 -0.16940941 -0.084920056 0.2040851
-0.18961523 -0.22537838 -0.019830164 -0.040519085 -0.002415735 -0.08255473 0.13760196 0.03999271
-0.093268536 -0.23242673 -0.25086337 -0.08818419 0.034707546 0.007707089 -0.088939905 -0.07740384
0.030251652 -0.20118797 -0.20730206 -0.1547783 -0.023416027 0.08231002 -0.25344592 0.23360664
0.06336579 -0.91201526 0.40085667 0.18824962 -0.21020572 0.24452606 -0.055592816 -0.10433507
0.15281163 0.08414177 -0.0814188 -0.22995786 -0.033298016 -0.012002382 -0.015464557 0.1937279
-0.37052938 -0.3663891 0.08714741 -0.1637219 -0.025717802 -0.1385184 0.15019496 -0.16594636
0.08341072 -0.26197052 0.094775006 0.14005037 0.015278976 0.24001485 0.13046695 0.06830625

layers.0.bias f4 [64]
00000000: eed7 6bbe e8ad 99bc 5073 c63d 54e3 883d
00000010: 7a27 fd3d 5441 97bc 742e 33be d460 b2bc
00000020: 1b62 513e 0815 3b3d c37c 47bc 72b9 4abe
00000030: 1aef 93be d212 2abe 0825 4bbd cedd 26bd
00000040: b8c1 36be a585 783d 41e9 c4bd 3410 14be
00000050: ee34 45be 3ad6 d53d f761 933d 2b66 d13b
00000060: 00c1 453b 8ca4 90be f881 14be e1bb 8dbd
00000070: 79b2 ab3d 26eb 263e df7f 443e 4fd9 c93d
00000080: 5b59 86be 3821 d9bd 9d7b 36bc 5bcc 293e
00000090: b794 593e 49f2 10be c434 273e 7098 29be
000000a0: 7783 39be 600d 323d 0bed 6abd 0306 67be
000000b0: 5af9 cbbd 56bc 87be 103d d83d 72dc 47be
000000c0: 1f8b 6dbd 3ee8 5e3e 20fb 8abe 0e6a 133e
000000d0: d6ce 473e 1f38 593e face fabd 164e 6ebe
000000e0: c898 443e eca9 34bd d61c 86be c357 febc
000000f0: c1d2 b1bc 669d 90bd ebcd 7cbe eba1 e53d
-0.2303159 -0.018759683 0.09689963 0.066839844 0.12361045 -0.018463768 -0.17498189 -0.021774687
0.2044758 0.045674354 -0.012175742 -0.19797304 -0.28893358 -0.16608742 -0.049595863 -0.040738873
-0.17847335 0.06067433 -0.09614802 -0.14459306 -0.19258472 0.10441251 0.0719642 0.006390353
0.0030174851 -0.2825054 -0.14502704 -0.06920601 0.0838365 0.1630064 0.19189404 0.098559014
-0.26240048 -0.10602039 -0.01113787 0.16581862 0.21248136 -0.14154924 0.16328722 -0.16562057
-0.18116556 0.043469787 -0.057354968 -0.22560887 -0.099596694 -0.26510876 0.10558522 -0.19517687
-0.057994004 0.21768281 -0.27144718 0.14395925 0.19512495 0.21212815 -0.12246509 -0.23271975
0.19198906 -0.044107363 -0.26193875 -0.031047707 -0.02170694 -0.07061271 -0.24687926 0.11212524

layers.1.weight f4 [64, 64]
00000000: e013 b4bd ec07 a13d 89a4 f9bc 8873 a1bd
00000010: 18d0 fa3b 3b54 8cbc 06ae d2bd 7353 ec3d
00000020: 112e a9bc 6cd9 a93d 2195 66bd f5e4 ba3d
00000030: f018 01be e560 2cbe 5adb d93d 3d9d ffbc
00000040: e3bb 823d ffaa abbd f6d6 b9bd 50a0 f0bd
00000050: 7756 8c3d 0461 993c 8179 0c3e 5599 c63d
00000060: a478 47bd 7f5e 7b3b 9474 f93c aa1f 30bc
00000070: 5fbe 763d 6050 193d 9ce6 c73c 2aa5 933c
00000080: db50 243d d2b3 3fbe 7cb9 b73d 4258 d03d
00000090: 77a6 10bd 7fcb 5a3d 5035 92bd 75b3 50be
000000a0: 42c4 fdbd 0acf a6bc 8357 e6bc ce37 dbbd
000000b0: b850 f6bc 62a0 42bc c8fc 06bd 85c3 2a3e
000000c0: 8a65 50bd 8c60 07be 333f 32be 8cf1 15be
000000d0: 8f23 b5be 2148 cf3a ef3f 933d 6f15 33be
000000e0: 10aa 083d 5014 ad3d a141 723d cd5a f7bd
000000f0: dd19 003e c14e ccbc 2066 8dbd f091 f5bd
00000100: 886d ac3d de92 c5bd 6dca eebc 8a67 a23d
00000110: 6636 143d d799 e03d caf6 fbbd b060 d33c
00000120: ba79 b7bd a126 63bd 4fdb f83c d4f7 44bd
00000130: 461b 563c 6a99 ca3c e845 4b3d 8a42 8c3a
00000140: 1515 9e3c 0dae 033d d17c e4bd 5a95 cf3d
00000150: 136c 103b b014 a1be 4174 83bd 6839 fcbd
00000160: 0016 713d 8a2d a43d 9211 fe3c f143 863d
00000170: a03e 953d 1c79 1abd 012e ecbc b46d a53d
00000180: 9736 5ebc b915 d1bd 4d69 643d a466 a8bd
00000190: b592 51bc ea50 72be e6bb b3bd 0bbb 5a3d
000001a0: f0d1 50bc 9621 a4be e4ae 953d a05e a63d
000001b0: 1e6c 1ebc 8c01 e3bb 9e35 c9bd c215 d8bc
000001c0: fd2f 2fbc 33df ad3c fcd0 9d3d 8dd9 373d
000001d0: d888 a73d af18 9b3c 8eb1 30be 8cf8 76bd
000001e0: c8fd 82bd fdbb a5bc 189b 65bd fdff f8bc
000001f0: afde 893d 6c05 4bbe 033c d73d 0586 433d
00000200: 0000 ac39 420e dd3d 9005 debd cad3 e63d
00000210: 0cbb ba3c 4814 84bd 60f4 8dbb f42a 43bc
00000220: 0054 283e 4921 ffbd 05f0 86bd 8370 c53c
00000230: d9e6 05bd 02f2 e1bd f46b 30bd f137 d0bd
00000240: 3bd5 01bd b5d5 64bd 402a b03c ec94 60bd
00000250: 3daa 243e 41b8 47bb d7e6 8c3c 3574 c7bd
00000260: e0f7 e83c e8b4 04bd b222 a93d 7627 473d
00000270: f95f b6bd 2a06 fe3d ea2d 46bd a2d3 39bd
00000280: 3571 0e3d 528c f1bd dc42 3f3d e7e3 af3d
00000290: bf26 12be ca85 da3d 0885 2bbe 7462 2d3d
000002a0: 2013 5fbc db19 3f3c d5aa 193c c817 7abd
000002b0: d175 343d b57c d83d de23 bbbd 6cd1 073e
000002c0: 17e6 31bc 692a bc3d 5954 93bc cdd5 813e
000002d0: 38b7 a13d 7e01 e73c f386 f23d e127 babd
000002e0: ab6d 0bbe c3a5 39bd 2535 e73c 3d1e 943d
000002f0: bd0c 07be fc0b 19bd f598 15bc 7b1d 81bc
00000300: 009e ebba 34d7 debd 07c8 a5bc 8c58 7fbd
00000310: 38d2 d63d 5098 afbd 105b b73d ef2e 13be
00000320: bef4 89be 5476 fdbc cd12 263d b549 cdbd
00000330: 6939 143d 56da 8dbd ae32 973d d864 7c3c
00000340: fad0 be3d 3e73 60bd 595d 23bc 8085 6bbd
00000350: 9dac f2bc ec1b 06be 4099 00be 9cec 88bd
00000360: 287d b93c 7164 75ba 5d7d fa3c 97fa 2e3c
00000370: ab60 84bd a8d2 ca3c 1d54 49bc 9e86 073e
00000380: 0cc8 a3bd 5dab 36bd f184 d53c a305 e2bd
00000390: fc69 0b3e 1f50 8b3d a5fc 1e3d 46c0 98bd
000003a0: 4414 b5bd 1417 afbe b108 be3d d0b2 483d
000003b0: dc35 143d f4ec 963c eaef ae3d 4ef8 24be
000003c0: cc46 733c 37e3 b63d 4f0a ba3d 156a 64bd
000003d0: dc7c c5bd cd32 2f3d d38d 28bc c537 a13d
000003e0: 03dc 3ebe 413f 05bb 5b5d 0ebd cab7 fcbd
000003f0: 55ac 6b3c 6f6c 633d bab8 abbd d69b e3bd
-0.08792853 0.07862839 -0.030473964 -0.07883364 0.0076542012 -0.017130008 -0.102870986 0.11539354
-0.020651849 0.08293423 -0.056294564 0.09125701 -0.12607169 -0.16833837 0.10637541 -0.031202907
0.06383493 -0.08382224 -0.09074204 -0.11749327 0.06852429 0.018723018 0.13718225 0.096972145
-0.048699036 0.0038355885 0.030451097 -0.010749737 0.060240146 0.037430167 0.024401955 0.018023092
0.040116172 -0.1872094 0.08970925 0.10173084 -0.035315003 0.053416725 -0.07139075 -0.20380957
-0.12390949 -0.020362396 -0.0281179 -0.10704003 -0.030067787 -0.011879059 -0.032955915 0.16676147
-0.050878085 -0.13220423 -0.17406921 -0.14642924 -0.35378692 0.0015814343 0.07189929 -0.17488645
0.03336531 0.0845114 0.05914462 -0.12077866 0.12509866 -0.024939897 -0.069042444 -0.11990726
0.08419329 -0.09647153 -0.029149259 0.07929905 0.03618469 0.109668426 -0.12302931 0.02580294
-0.089587644 -0.05545676 0.030378012 -0.04808791 0.013068026 0.024731357 0.049627215 0.0010700983
0.019297162 0.03214841 -0.11156619 0.101359084 0.0022037074 -0.31461096 -0.06418658 -0.12315637
0.05885887 0.080164984 0.031014238 0.065559275 0.072873354 -0.037713155 -0.02883053 0.08077565
-0.01356282 -0.102092214 0.055764485 -0.08222702 -0.012791325 -0.23663679 -0.08776073 0.053401034
-0.0127453655 -0.32056874 0.07308748 0.08123517 -0.009669332 -0.0069276746 -0.0982468 -0.026377562
-0.010692594 0.021224594 0.07705876 0.044885207 0.08180398 0.018932668 -0.17255232 -0.060295627
-0.06396061 -0.020231241 -0.056056112 -0.030395502 0.06731927 -0.19826287 0.10509493 0.047735233
0.00032806396 0.10793735 -0.10840905 0.11270864 0.022794269 -0.06449181 -0.0043321103 -0.011912096
0.16438293 -0.124575205 -0.06588749 0.024101501 -0.032690857 -0.110324875 -0.043071702 -0.1016692
-0.031697493 -0.05586787 0.021504521 -0.054829523 0.16080566 -0.0030474814 0.017199917 -0.097389616
0.028438509 -0.03239909 0.08258571 0.048621617 -0.08905024 0.124035195 -0.04838363 -0.045367844
0.03477593 -0.11794342 0.04669462 0.08588391 -0.14272593 0.106700495 -0.16749966 0.04233022
-0.0136154 0.011663879 0.009379108 -0.061057836 0.04405767 0.10570661 -0.091377005 0.13263482
-0.01085808 0.091877766 -0.017984556 0.2535843 0.07896274 0.028198954 0.11842146 -0.090896375
-0.13616054 -0.0453241 0.028223583 0.0723233 -0.13188453 -0.037364945 -0.009130706 -0.015761128
-0.0017976165 -0.108808905 -0.020236982 -0.062340304 0.10489315 -0.08573973 0.08952916 -0.14373372
-0.26944536 -0.030940212 0.040545274 -0.10023824 0.036187563 -0.0692641 0.07382713 0.015404902
0.09317203 -0.054797404 -0.009970986 -0.057500362 -0.029623324 -0.13096589 -0.1255846 -0.06685755
0.022642687 -0.0009360975 0.030577356 0.010679862 -0.064637505 0.024758652 -0.012288121 0.13234946
-0.0799714 -0.04459702 0.026064368 -0.11036231 0.13614649 0.06802391 0.03881516 -0.07458548
-0.08841756 -0.34197295 0.092790015 0.048998654 0.036184177 0.018423535 0.08541854 -0.16110346
0.014848422 0.089300565 0.090839975 -0.05576523 -0.09642956 0.042773057 -0.01028772 0.07871965
-0.18638615 -0.0020331892 -0.034757 -0.123397425 0.014384349 0.055523332 -0.08384843 -0.11113708

layers.1.bias f4 [64]
00000000: 928f 1c3d 6c32 5c3c 9cd9 cbbd 7305 f5bd
00000010: aad4 19bd b8e5 a93b e3cb 0c3e eb9f c43d
00000020: 8839 46bd c3ab 213d 5f4f 11be 9ad3 6fbd
00000030: e645 6a3d 7800 823c 124d 1ebd b3ec cdbc
00000040: 086d afbc e99f 7a3d f37b b53d 5ad2 273d
00000050: 4eb7 c73c f3b1 9d3d 2cbf 4a3d 40f6 90bc
00000060: 2916 07be 9d22 8fbd 7c3e f6bc b660 febd
00000070: a104 823c efcf 263c 7497 eabd ef07 893d
00000080: 9217 12bb f608 b9bd c696 2a3c deb8 8f3d
00000090: b4b7 16bd f7b3 233d 40d4 143d 52ad 033d
000000a0: f848 51bd 7054 a23d 446b 1ebb f182 853d
000000b0: 2ca4 2dbe afd5 9f3c 833d c23d 46ef cbbd
000000c0: 9563 923d 0812 5d3d 4830 89bd c400 203e
000000d0: 253f c2bd 0ee2 6abc d9d0 20be 7ab8 88bd
000000e0: dbf0 ecbd 96dd 963d 2926 f8bd c727 c63d
000000f0: 40aa 653c eed2 adbc 0724 c2bd fdbc a73a
0.038222857 0.013439756 -0.09953615 -0.1196393 -0.037556328 0.0051848553 0.13749652 0.096008144
-0.04839471 0.039470445 -0.14190434 -0.05855141 0.057195567 0.015869364 -0.03864772 -0.025137281
-0.021414295 0.06118766 0.08861532 0.04097209 0.024379399 0.07699957 0.049498722 -0.017695546
-0.13192047 -0.06989024 -0.030059092 -0.1242079 0.015871348 0.010181411 -0.11454669 0.06690966
-0.002229188 -0.09034912 0.010411924 0.070176825 -0.036796287 0.03996655 0.03633523 0.032147713
-0.05109498 0.079262614 -0.0024172822 0.06519116 -0.16957158 0.019511072 0.09484389 -0.09957747
0.071479 0.053972274 -0.06698662 0.15625292 -0.094847 -0.014336122 -0.15704669 -0.06675811
-0.11569377 0.07366483 -0.121166535 0.09675556 0.014017642 -0.021218743 -0.09479528 0.0012797412

layers.2.weight f4 [9, 64]
00000000: 4f1b 853d c5b8 cbbd a440 51be 6ba5 673d
00000010: 15d8 1a3d 64dc ea3d 1b90 6e3d 3286 87bd
00000020: 4ba3 8abe 0ac3 693d 6856 813d 17c3 bf3c
00000030: 3ec2 e0bb b0d3 573c 581e f1bc 74ca 50bc
00000040: e031 b7bd a697 fb3d ca5e c0bd 058e 173d
00000050: 5c07 afbe 9506 da3d 2a2f be3d c2be 34be
00000060: 1424 e53d b0fb 0fbd d39a ca3c 90f5 03be
00000070: 0241 713c 84b2 8c3c d1ce 3fbd f3a8 893c
00000080: 9801 493d 5d2c f83d 828f b73c 407d 543c
00000090: 67fe 783d e5cc d83d a7ff d5bd fe0b b73d
000000a0: 6e0f b9be f947 b6bd f889 5b3d 0b3d f1be
000000b0: 2160 4ebd cc1d b13d 7c06 bfbd 44b6 693d
000000c0: 60a4 b7bd 2283 e43a ab24 d1bd a04a 983d
000000d0: 895d 68bc 1acb dbbb d8ef 8a3c 1089 af3c
000000e0: 488b 4b3d b400 943d 5323 8e3c acd5 c53d
000000f0: b1ac 81bd 3bf9 483d b560 cdbc 266c c0bd
00000100: 06a8 a93d 2cc9 b63c cae6 193c a81c 4e3d
00000110: 6b5b ca3d aba4 7c3d e1f3 703d dcf1 d93d
00000120: 8940 44be f5a3 ebbb e8b4 ddbd e446 d53d
00000130: 1140 70bc 783d 6f3d 786a b43d 8e8d 9f3c
00000140: 97c9 373c 979f e73d 64f2 243d 15b0 db3c
00000150: 0df1 87be 435f f23d 1dd4 633d 8750 65be
00000160: 1e8d f93d 1620 aebd 32d3 00bd 8567 3cbd
00000170: 82ed a73c f92f 613d 49bc 7b3d 8c6c 1c3d
00000180: d265 083c 1150 bc3d eed4 53bb 1ae7 053d
00000190: 7036 123d 3f6e 7b3d c190 113d ca16 673c
000001a0: a897 d4be d249 3abe 1295 fc3d f604 a5be
000001b0: c97d c53d 964f 073e fe59 9bbd 10dd bb3d
000001c0: d7f1 1b3c 7cfe 4cbc 7e4e 953d f7a1 0e3e
000001d0: 0ec4 683c 450b dbbd e0c0 fa3d f87a 853d
000001e0: 0fac 3d3d 7c5b bdbc c8a8 24bd 5889 4e3d
000001f0: 7c7e 133d 89eb 95bc a0df d2bd cc93 1bbe
00000200: fb30 b33d 1efa 8f3d 0f60 c3bd 22ee 39bc
00000210: caa3 513c 23f5 62bc 3a1e 953d 0a50 af3d
00000220: 50b4 53be 509c 6ebd 102f 6bbc 5a84 953d
00000230: 047f 593d 782f ff3c be11 bb3d da9e 3c3c
00000240: 54af c9bd fdfb 63bd f212 9b3d ed4b ddbd
00000250: 4bda 70bd 4bda 1fbc b43d 54bd ce56 7abc
00000260: 807f ecbc 4bbd 12be b8c1 db3d 3c50 8a3d
00000270: a646 55bd 4f58 ca3c 3ee3 b03d e01b b8b9
00000280: f5e5 e6bd 6186 d93d 9e8d 3bbd 2a58 983d
00000290: 5872 31bd 99cd 0d3d c366 9a3d ca64 dd3d
000002a0: 635d 3ebe 74a8 5cbe 0008 07ba 7ba9 64be
000002b0: ffbc 85bb 7782 9a3d 806e 153d 280c cdbd
000002c0: 9ed3 023d 7f7d 14be 2795 c03d fc52 ef3d
000002d0: ae23 28bd 0daf 26bd 783b 81bc 10f1 34bc
000002e0: b2f7 6dbc b420 8abe 571f a73d a2b7 7b3d
000002f0: 8888 c6bd bd26 54bc a825 f43d 9d0f 05be
00000300: 1abc 483e a940 983d f9eb e5bd 51f0 84bd
00000310: b898 8b3d 7f46 dd3d 308b 2f3d 6cea 143d
00000320: 7e42 5abe f7e5 86bd 69df 9cbd 880e 5ebd
00000330: 03dd 13be 3821 c23d 58f5 843d 8e6b be3d
00000340: 6d83 4bbd 9d58 833d ca34 99bd 9152 a43d
00000350: 0aa6 69be 4c73 373d cea7 fabd 920e c83c
00000360: 50e3 7fbc 613d 843d c583 923d 2870 3ebb
00000370: 183e 1b3a 42fe 85bc b5ed 1ebc 5cb9 c8bb
00000380: 36cc cd3d 4808 fd3d 0fa1 da3a d7e7 9d3c
00000390: 3e3b a1bd d16f 48bd d17c 143d abe2 8a3d
000003a0: 2804 94be e7a5 95be ccde 073d d984 adbe
000003b0: 6020 7b3d fbcb ea3d c4a3 3abd f0b0 84bd
000003c0: ad2c d93c 2c6e fb3d ac4b bebd 99d9 433d
000003d0: 6b4b 5ebe a231 3a3d 2897 433d 9cc3 18bd
000003e0: f864 d1bd 3c83 a3bd b74e aebd f396 0dbc
000003f0: 9098 31bd 5409 6d3d 5bcd 093d 115b f8bd
0.06499349 -0.09947351 -0.20434815 0.05655424 0.037803728 0.114678174 0.0582429 -0.066173926
-0.27077708 0.05707077 0.06315309 0.023408456 -0.006859093 0.013173029 -0.029433414 -0.012743581
-0.0894506 0.12284784 -0.093930796 0.037000675 -0.34185302 0.10645787 0.092863396 -0.17650893
0.11188522 -0.035152137 0.024732029 -0.12886643 0.014724972 0.017174967 -0.046828095 0.016804194
0.049073786 0.121178366 0.022407297 0.012969315 0.060789492 0.105859555 -0.104491524 0.08937834
-0.36144584 -0.089004464 0.053598374 -0.47116885 -0.050384644 0.086482614 -0.09327409 0.057058588
-0.08966899 0.00174341 -0.10212072 0.074361086 -0.014182457 -0.006707561 0.01696007 0.021427661
0.049693376 0.072266966 0.017350828 0.09659895 -0.063317664 0.04906581 -0.025070528 -0.09395628
0.08284001 0.022312723 0.009393403 0.050320297 0.09880718 0.061680477 0.05882633 0.10641834
-0.19165243 -0.007191176 -0.10825521 0.10413912 -0.014663712 0.05840823 0.0880937 0.019476678
0.011217496 0.11309736 0.040270224 0.02681736 -0.26551095 0.11834576 0.05562221 -0.22394
0.12185119 -0.08502214 -0.03145141 -0.04599716 0.020498995 0.05497739 0.06145886 0.038189456
0.008325057 0.09194959 -0.003232296 0.0326911 0.035696447 0.061384436 0.03553844 0.014104554
-0.41521955 -0.18192223 0.123331204 -0.32230347 0.09643132 0.13213953 -0.07585524 0.09173024
0.009518108 -0.012511846 0.07290362 0.13928972 0.014206899 -0.10695509 0.12243819 0.06517595
0.046306666 -0.023114912 -0.040200025 0.05042395 0.036009297 -0.018300788 -0.10296559 -0.15193099
0.08749577 0.07030128 -0.09539806 -0.011348279 0.012795398 -0.01385239 0.07281156 0.08560188
-0.20674253 -0.05825454 -0.014354482 0.07300635 0.053099647 0.031150565 0.091342434 0.011512483
-0.09847894 -0.055660237 0.07571973 -0.10805497 -0.05880193 -0.009756635 -0.051816657 -0.015279485
-0.02886939 -0.14330022 0.10730308 0.06753585 -0.05206933 0.024700312 0.08637093 -0.00035115983
-0.112743296 0.10621334 -0.045789354 0.07438691 -0.043321937 0.0346199 0.075391315 0.108102396
-0.18590312 -0.21548635 -0.00051510334 -0.22330277 -0.004081368 0.075444154 0.036482334 -0.10012084
0.031940095 -0.14500998 0.094034486 0.1168575 -0.04104965 -0.040694285 -0.015775427 -0.011043802
-0.014524387 -0.26978076 0.081602745 0.061454423 -0.0969401 -0.012948689 0.11921245 -0.12994237
0.19603005 0.07434208 -0.11226649 -0.06491149 0.06816238 0.10804462 0.04285735 0.036356375
-0.21314427 -0.06586831 -0.076597996 -0.054213077 -0.14439778 0.09478992 0.06492108 0.09297858
-0.049685884 0.06413386 -0.07480772 0.08023561 -0.22817245 0.04478769 -0.122390375 0.02442101
-0.01561816 0.064570196 0.07154039 -0.002905855 0.00059220335 -0.016356591 -0.009700228 -0.006125612
0.10048716 0.12355095 0.0016680079 0.019275589 -0.07872628 -0.04893476 0.036251847 0.06781515
-0.2890942 -0.29228136 0.03317146 -0.33890417 0.061310172 0.114646874 -0.045566335 -0.06479061
0.02651056 0.12276873 -0.09291777 0.04781494 -0.21708457 0.04545749 0.047751576 -0.037295923
-0.102243364 -0.07984015 -0.085111074 -0.008641946 -0.043358386 0.057870224 0.033643108 -0.121267445

layers.2.bias f4 [9]
00000000: 23e0 ec3d fba6 6bbb 3bf9 fc3d 0d49 013e
00000010: 5a73 c3b8 c9ba c23d 7c52 8dbd 6cab 173e
00000020: 8193 0fbd
0.11566188 -0.0035957682 0.123522244 0.12625523 -9.3198105e-05 0.09508283 -0.06900498 0.14811486
-0.03505278
