experiments/learn_racetrack/racetrack2/2022_01_20_202157182885_1_fbdf8/2022_01_20_202157182885_1_fbdf8_2999.pth (torch, 24919 bytes, 6 tensors)

layers.0.weight f4 [64, 15]
00000000: 00d0 333d 6010 063e ead4 e3bd 80a6 433e
00000010: 2451 bd3d c20b f8bd 9ad8 4bbe ac60 69be
00000020: 5859 99bc 00c3 fa3c 8ff7 0fbe 68b8 28be
00000030: 8c5d 25be 6f94 63be a622 413e 32c6 86bd
00000040: 16af 83be 42bb 1abe 142f 77be e2a3 90bd
00000050: 707a ae3c 0e37 013e b27c b9bd e063 4bbc
00000060: 14c3 4b3e 3c05 683e 93c4 66be 323b 73be
00000070: 5c92 af3d b819 d2bd 4600 1dbe dc3d 5ebe
00000080: b883 483e 3b52 fa3b 5e22 7a3e b98b 023e
00000090: 4517 d03a 37f3 a8bd c466 8a3d 2f36 34bd
000000a0: 128e 9ebd f4ee b3bd 7ab3 14be 1091 27be
000000b0: ba62 9f3c 984a c6bd 6035 6dbd 6c40 09be
000000c0: 8d25 29be a506 5abe 30c9 913d 6685 bebd
000000d0: c0d3 193d 507a a33d 0044 6a3e 3493 153e
000000e0: 3841 81bd 406c f63d 0c82 fcbd ba59 163e
000000f0: 4821 b1be d7d9 473b 3190 4d3d c293 66be
00000100: cdf7 c4bd 96e0 c8bd 9fb0 66be 3cdc acbd
00000110: e44b 133c 88f4 b33d b34d 99bc 93d7 2e3e
00000120: e985 483e 014c a13b e082 7b3e 3374 a4bc
00000130: e54a 2c3e 3362 90bd d03b 6d3d 74d8 253d
00000140: 6c03 3cbe ff92 01be 2def 413c f04e 1bbd
00000150: b20f 93be 7a8b c93c a195 013e b2a6 7fbe
00000160: 3fe0 cd3b 07a7 b5bd ee3d 0fbe d85b 483e
00000170: c52a 80be 56ec 58be ae74 bdbd b0b0 cdbc
00000180: e151 83be 56da 5f3e c0ff 263c fcd7 56be
00000190: b2bf 68be 09d8 6bbe e1a0 1dbe 98f8 0dbe
000001a0: 2c0b c5bd 2347 013f eea0 a3be c1fc eebd
000001b0: ae26 763d e29c 3dbe 12f1 d2bd 0b98 513d
000001c0: c223 82bd 795f 2bbd 5b16 533d c64d 0f3e
000001d0: e51a 363e c282 21be 4b2f ea3d a6a1 813e
000001e0: e302 233c 2a22 d33e a0da cf3d e6d2 bebc
000001f0: 0ab5 5ebe 2355 6d3d 0a0f 46bd acc3 023e
00000200: b1ff 87be 890b 7f3d 0cb8 4aba 83a8 5dbe
00000210: 8568 623d dd43 453d 66f1 f0bd 8b53 e7be
00000220: 2195 8f3d 3749 063e 3407 8cbe 2d77 23be
00000230: c5ff 0cbe 9c95 05be 99c0 803c bce5 83be
00000240: fd82 463d 3e59 17be 3722 89be 386c 183e
00000250: 70ea 953d f284 27be 0f1d 943c 381a 033f
00000260: de0d 213e 5a6e 8bbe 7e9e 5cbd 7e19 673e
00000270: 0b17 113e 9576 1c3e 5f62 0ebe 4f1a 153e
00000280: 32df 043e 775e 62bd f500 783b 803d b13d
00000290: 86ad 48bc f41c 2ebd ade1 bebd 50ab f93d
000002a0: ba8e 8ebe 962a 2c3c 1699 22bd 4782 413e
000002b0: 6859 df3d 94a9 04be 3916 893e d227 113d
000002c0: fc6b 11be 942e 65be 40af 6abc b4e5 713e
000002d0: a1b5 aabe e6fe c13e 6369 363d 5045 4e3e
000002e0: 36a6 523e 97af 5ebe 56b7 413d 3805 2c3e
000002f0: 1bea e43d 6ea9 f8bd fa9e 9c3d b6fc 18be
00000300: 767b 553e 5882 453e b810 553e 4942 c73d
00000310: 2b91 0bbc 6317 3bbe dcdd b6bd 196f 403e
00000320: 262b 37be 3eca 5bbe 17cd d9bb 7ea2 a4bd
00000330: ce76 debc f6bd 0abe 0366 f03d f8ce d83c
00000340: 12de e0bd af87 69be 2a71 80be ea99 b4bd
00000350: 8029 0e3d c08b fc3b 2026 b6bd e885 9ebd
00000360: 50d2 f73c 3804 4ebe fe46 54be 347e 1ebe
00000370: f8d2 bfbc 2892 a83d aac3 81be 9436 6f3e
00000380: ecc5 813d 3ef0 1abf f0ec cc3e 0019 433e
00000390: 840a 61be 5942 813e 91bb 9fbd d491 14be
000003a0: 9bca 5d3e 59fd cb3d f3e4 0ebe 84f7 4bbe
000003b0: 1f63 b7bd cde1 843b eb19 853c f42a 503e
000003c0: fabd 8fbe 7618 a2be 99d7 b63d 3c16 2fbe
000003d0: eea9 13bd 3cc5 08be 2c57 003e 518a 40be
000003e0: bd99 b73d f108 7dbe 1900 1c3e 8c6e 0f3e
000003f0: 59ac 123c 9461 723e a608 0d3e 26e4 8b3d
0.043899536 0.13092184 -0.111245945 0.19106483 0.09243992 -0.121116176 -0.19906846 -0.22790784
-0.01871936 0.030610561 -0.1405928 -0.16476595 -0.16148967 -0.22224592 0.18860874 -0.065807715
-0.25719517 -0.15110496 -0.24139053 -0.07062508 0.021298617 0.12618658 -0.09056987 -0.012413949
0.19898635 0.22658247 -0.22535925 -0.2375305 0.08572838 -0.10258812 -0.15332136 -0.21703285
0.19581497 0.007639197 0.24427173 0.12748612 0.0015876075 -0.082495145 0.06757882 -0.043996986
-0.077419415 -0.08785811 -0.1452159 -0.1636393 0.019456256 -0.096821964 -0.05791223 -0.13403481
-0.1651823 -0.21291597 0.071184516 -0.093027875 0.037555456 0.07982314 0.22877502 0.14606935
-0.063112676 0.12032366 -0.12329492 0.14682665 -0.34595704 0.0030494833 0.05018634 -0.22517303
-0.09617577 -0.09808461 -0.22528313 -0.08440444 0.008990262 0.08786875 -0.018713808 0.17074423
0.19582333 0.0049223904 0.24561644 -0.02007494 0.16825445 -0.0704998 0.05791837 0.04048963
-0.1836068 -0.12653731 0.011836809 -0.037917078 -0.28722912 0.02460264 0.12654735 -0.24965933
0.0062828357 -0.088697486 -0.13988468 0.19566286 -0.2503263 -0.21183905 -0.092507705 -0.025108665
-0.25648406 0.21860632 0.0101928115 -0.20980829 -0.22729376 -0.2303163 -0.15393402 -0.13864362
-0.096212715 0.5049917 -0.31958717 -0.11669303 0.06009548 -0.18516877 -0.10299887 0.05117039
-0.063544765 -0.041839097 0.05153499 0.13994512 0.17783697 -0.15772536 0.11434802 0.2531864
0.009949419 0.41237003 0.10149121 -0.023293924 -0.21748748 0.05794252 -0.048354186 0.12769955
-0.26562265 0.06226686 -0.00077331136 -0.21646313 0.05527546 0.048160423 -0.11764793 -0.45180926
0.07010866 0.13113867 -0.27349246 -0.1596343 -0.13769443 -0.13045353 0.015716838 -0.2576121
0.048464764 -0.14780137 -0.26783916 0.14885032 0.07320106 -0.16359308 0.018080262 0.5121188
0.15727946 -0.2723263 -0.053862087 0.22568318 0.14168946 0.1527961 -0.13904713 0.14560817
0.12975767 -0.05526587 0.0037842367 0.08654308 -0.012248402 -0.04250808 -0.09320388 0.121908784
-0.27843267 0.0105082 -0.039696775 0.18897353 0.10905725 -0.12955314 0.26774767 0.035438366
-0.14201349 -0.2238105 -0.014324009 0.23622781 -0.33341697 0.37889785 0.0445341 0.20143628
0.20571217 -0.2174667 0.047293983 0.16798866 0.111774646 -0.12141691 0.0764751 -0.14940152
0.20847878 0.19288003 0.20807159 0.0972944 -0.008518497 -0.1827064 -0.08929035 0.1879238
-0.17887554 -0.21463868 -0.006646763 -0.080388054 -0.02715626 -0.13549027 0.11738207 0.026465878
-0.109798566 -0.22805665 -0.25086337 -0.08818419 0.034707546 0.007707089 -0.088939905 -0.07740384
0.030251652 -0.20118797 -0.20730206 -0.1547783 -0.023416027 0.08231002 -0.25344592 0.23360664
0.06336579 -0.6052283 0.4002452 0.19052505 -0.21976668 0.25245932 -0.07799447 -0.14508754
0.21659319 0.099604316 -0.13954525 -0.19918638 -0.08954453 0.004055238 0.01624771 0.20328885
-0.28074628 -0.31659287 0.08927841 -0.17098325 -0.03605073 -0.13356489 0.12533253 -0.18802764
0.0896487 -0.24710442 0.15234412 0.14007014 0.008952224 0.23670036 0.1377283 0.06830625

layers.0.bias f4 [64]
00000000: eed7 6bbe e8ad 99bc 1990 c53d 54e3 883d
00000010: 445c e73d 04fc 79bc 742e 33be 34aa 6abc
00000020: de0a 5e3e b3fa 093d 04ac 573b 0ac7 42be
00000030: 90da 89be 650f 39be 0825 4bbd 781b 17bd
00000040: a372 36be a585 783d 56fb a8bd 3410 14be
00000050: ba6a 3ebe e2bc bf3d 83ee cb3d f97b 3b3c
00000060: 00c1 453b fa24 8dbe f881 14be 35f9 70bd
00000070: ca1c be3d 26eb 263e 4d0a 5a3e 1d54 ce3d
00000080: 3206 86be 1235 0cbe 720a 3f3c 76eb 423e
00000090: 6739 553e 4e32 f7bd ba61 1b3e d039 15be
000000a0: 7783 39be 7e6f 223d 9bae c6bc 0306 67be
000000b0: 3966 cebd d36e 84be 103d d83d 0397 52be
000000c0: f16f 23bd 1675 693e 56ff 7abe 4869 173e
000000d0: 58ce 493e 677b 593e 8026 eebd c6d6 80be
000000e0: 02f1 583e aa3d 81bd 62e9 80be 84f5 073c
000000f0: 120b 7dbc 59e6 54bd 3ca3 67be be42 083e
-0.2303159 -0.018759683 0.09646625 0.066839844 0.11296895 -0.015257839 -0.17498189 -0.014322806
0.21683833 0.03368635 0.0032908926 -0.1902124 -0.26924562 -0.18072279 -0.049595863 -0.03689143
-0.17817168 0.06067433 -0.082510635 -0.14459306 -0.185954 0.093621984 0.09957602 0.011443132
0.0030174851 -0.27567273 -0.14502704 -0.058831412 0.09282835 0.1630064 0.21292992 0.10074637
-0.26176602 -0.1369212 0.011660205 0.19035134 0.20822679 -0.12070142 0.15173998 -0.14572835
-0.18116556 0.03965711 -0.02425318 -0.22560887 -0.10078091 -0.25865802 0.10558522 -0.20565419
-0.039901678 0.22798571 -0.24511465 0.14786255 0.1970762 0.2123848 -0.11628437 -0.2516386
0.21185687 -0.063105896 -0.25178057 0.008298282 -0.015444534 -0.05197749 -0.22620863 0.1330671

layers.1.weight f4 [64, 64]
00000000: e013 b4bd ec07 a13d 59a2 2fbd 8873 a1bd
00000010: 8f5c 523c 246f 73bc 06ae d2bd bb95 0d3d
00000020: 0f7c 4b3b 5cde bc3d 5081 69bd efff f23d
00000030: 4591 bfbd 3d9e c3bd 5adb d93d c29c 1f3a
00000040: 08c6 703d ffaa abbd f6d6 b9bd 50a0 f0bd
00000050: dc95 8c3d 1fda 673d d44e cb3d d976 fe3d
00000060: a478 47bd b3da 24bd 9474 f93c 67a0 203b
00000070: 137e 723d 6050 193d 9ce6 c73c f76c bd3b
00000080: 3a28 b53c eade 92bd 7cb9 b73d 0879 c03d
00000090: cd88 e7bb 4880 a73d 662f cbbd 2d62 d8bd
000000a0: 42c4 fdbd 89e0 8c3d 8357 e6bc ce37 dbbd
000000b0: 1fcc eb3d b875 e3bb c8fc 06bd 26c7 ec3d
000000c0: 87b6 fd3b 101e e4bd 3e1b fabd bf2d ffbd
000000d0: a8ea 32be 3360 76bc 630a e83c c012 01be
000000e0: 10aa 083d d366 873d a141 723d a70d 16bd
000000f0: 6e7d 043e 0991 4d3c 54e9 83bd ce36 8dbd
00000100: 886d ac3d de92 c5bd a88d 28bd 8a67 a23d
00000110: 50a2 343d b59d e03d caf6 fbbd bc6c 123d
00000120: a4fe 45bd 37ee d6bc 460b 443d d4f7 44bd
00000130: 2e2d 103c 1ac8 d53c e845 4b3d baad a93c
00000140: 8c40 d63c 0dae 033d 2977 0dbe 5a95 cf3d
00000150: 39dc d43b 9312 48be 4174 83bd 8165 fcbd
00000160: 0016 713d 785c b83d 9211 fe3c 589f 383d
00000170: 23e1 9e3d 1c79 1abd 08b0 00bd 015a c0bc
00000180: 4543 fcbc dc45 debd e9af 383d aaa1 a9bd
00000190: 1704 313c 1b84 eebd 04c0 3abd 8e63 473d
000001a0: f0d1 50bc 6d68 7dbe 65d9 843d a05e a63d
000001b0: eaac dbbb fb0d f63c 9e35 c9bd 88f0 99bc
000001c0: ae77 773c bd08 2f3c b170 a33d c99f 163d
000001d0: b076 c73d 27e2 8e3c 28ef e2bd 00d9 9fbd
000001e0: f19f 9fbd 1f30 c2bc ccfe e73b 2a02 27bb
000001f0: c452 853d 48c0 12be 8b6d e83d 87f8 4d3d
00000200: 0000 ac39 420e dd3d bc60 a9bd cad3 e63d
00000210: 1c0a 753d f7c1 7ebd 60f4 8dbb 4ed3 e2bc
00000220: 60e3 dc3d 16bc 80bd c095 47bd abba 703d
00000230: 2729 a03c aaae 87bd f46b 30bd 74d1 a1bd
00000240: 0817 2fbc b5d5 64bd 8cd0 253d ec94 60bd
00000250: bd4f f43d 92df 833d 3171 7bbd ecab 9dbd
00000260: e0f7 e83c 9f49 1c3b b222 a93d e17a 4e3d
00000270: fb70 67bd 2a06 fe3d 5733 03bd d9a0 a93c
00000280: 25ff c43c 4dbb 903d 736e 903d 12e2 8e3d
00000290: e818 b5bd fc89 da3d 245b 4bbd 817d 1e3d
000002a0: 2013 5fbc 3029 493d df71 133d c817 7abd
000002b0: 3041 a43d 903a c73d de23 bbbd de69 ac3d
000002c0: 44eb 4abd 2582 ba3d 63b7 2abd 92ed 503e
000002d0: 8866 1a3d 041e 253d e68e f23d dab1 61bd
000002e0: d728 82bd c81a 82bc 42fe 833d bb54 883d
000002f0: aaf7 00be d63c 81bd ad71 793c f319 e6bc
00000300: 009e ebba 34d7 debd 178b bbbc 8c58 7fbd
00000310: 01db c23d e28a acbd 105b b73d 99e1 f8bd
00000320: e6dd 28be 5448 3c3d 6c22 833d b549 cdbd
00000330: f98e 383d e7c3 c6bd ae32 973d a87d a03c
00000340: c2f6 953d 3e73 60bd ceaa 25bc 8085 6bbd
00000350: 1d9c 5abb b7d1 fdbd 4099 00be 341f 89bd
00000360: 287d b93c 26e3 0f3c 5d7d fa3c 6b25 f93b
00000370: 7606 8abd a8d2 ca3c 64d1 c5bc ed2e 86bb
00000380: fdba 59bc 14fd 0f3c dc54 303d be1f adbd
00000390: d945 d43d 877c 6e3d 0068 b83d f74e 93bd
000003a0: 4414 b5bd 73a2 52be 7535 b73d d0b2 483d
000003b0: 0b07 163d 8d22 873d eaef ae3d 508a 04be
000003c0: a9e3 033d 6ae0 ac3d ec94 e53d e8aa dfbd
000003d0: 1280 c1bd eee8 373d ed77 413d c055 953d
000003e0: a86b fbbd da64 6cba 0c0c dc3c 3fe4 76bd
000003f0: d69f 313b c079 df3c edd3 ccbd 66d1 04be
-0.08792853 0.07862839 -0.042879436 -0.07883364 0.0128394505 -0.014858041 -0.102870986 0.034566622
0.0031049286 0.09222099 -0.057008088 0.11865222 -0.0935388 -0.09551666 0.10637541 0.00060887274
0.058782607 -0.08382224 -0.09074204 -0.11749327 0.06864521 0.0566045 0.09927145 0.12425012
-0.048699036 -0.04024763 0.030451097 0.002450967 0.059202265 0.037430167 0.024401955 0.005780812
0.022113908 -0.07171424 0.08970925 0.09398085 -0.0070658685 0.081787646 -0.0992115 -0.105656005
-0.12390949 0.06878764 -0.0281179 -0.10704003 0.115135424 -0.0069415234 -0.032955915 0.11561422
0.007742706 -0.111385465 -0.12212227 -0.12459897 -0.17472327 -0.015037584 0.028325265 -0.12604809
0.03336531 0.06611409 0.05914462 -0.036634114 0.12938473 0.012546786 -0.06440988 -0.06895219
0.08419329 -0.09647153 -0.04115072 0.07929905 0.044100106 0.1096758 -0.12302931 0.03574823
-0.048338547 -0.026236637 0.047862314 -0.04808791 0.008799834 0.026096392 0.049627215 0.020712722
0.026153825 0.03214841 -0.13814987 0.101359084 0.006495979 -0.19538336 -0.06418658 -0.12324048
0.05885887 0.09002012 0.031014238 0.045073837 0.07757785 -0.037713155 -0.031417876 -0.023480417
-0.030793795 -0.10853168 0.045089636 -0.08282788 0.010804198 -0.11646291 -0.045593277 0.048678927
-0.0127453655 -0.24746867 0.06486777 0.08123517 -0.0067039626 0.030035963 -0.0982468 -0.018791452
0.015104217 0.010683236 0.079804786 0.036773477 0.09739435 0.017441822 -0.11080772 -0.07805061
-0.07794178 -0.023704587 0.0070799347 -0.0025483468 0.06509927 -0.14331162 0.11349019 0.050285842
0.00032806396 0.10793735 -0.08270404 0.11270864 0.059824094 -0.062196698 -0.0043321103 -0.027688649
0.10785556 -0.062858745 -0.048726797 0.05877177 0.019550873 -0.066251114 -0.043071702 -0.07901278
-0.010686643 -0.05586787 0.04048209 -0.054829523 0.11929271 0.06439127 -0.061387245 -0.07698807
0.028438509 0.0023847593 0.08258571 0.050410155 -0.05650423 0.124035195 -0.032031383 0.020706581
0.024047444 0.07066975 0.070523165 0.06976713 -0.08842641 0.1067085 -0.049647465 0.03869391
-0.0136154 0.049111545 0.035997268 -0.061057836 0.08020246 0.09727967 -0.091377005 0.0841863
-0.049540773 0.09106854 -0.041678797 0.20403126 0.037695438 0.04031183 0.11843662 -0.055101253
-0.06355446 -0.01588191 0.0644498 0.06656786 -0.12594476 -0.06310432 0.015224856 -0.028088545
-0.0017976165 -0.108808905 -0.022893472 -0.062340304 0.09514428 -0.08424927 0.08952916 -0.12152404
-0.16490898 0.045967415 0.0640305 -0.10023824 0.045058224 -0.09705334 0.07382713 0.019591168
0.07322456 -0.054797404 -0.010111524 -0.057500362 -0.003335721 -0.123935156 -0.1255846 -0.06695405
0.022642687 0.008782184 0.030577356 0.0076033375 -0.067395136 0.024758652 -0.024147697 -0.0040949495
-0.01328921 0.008788366 0.04304968 -0.0845332 0.10364885 0.058224227 0.090042114 -0.07192796
-0.08841756 -0.20569782 0.08945743 0.048998654 0.03662781 0.06598387 0.08541854 -0.12943387
0.032199536 0.08441241 0.11210045 -0.1092127 -0.094482556 0.044899873 0.04723351 0.07291746
-0.12276393 -0.00090177136 0.026861213 -0.060276266 0.0027103326 0.027279735 -0.10001359 -0.12970504

layers.1.bias f4 [64]
00000000: 2a54 c63c a3da e53b 487f 9abd c1d5 e1bd
00000010: 4df5 f6bc 94b5 57bb ddc7 f33d eb9f c43d
00000020: 8c9e efbc 7cd9 3f3d 5f4f 11be e5d1 32bd
00000030: 5ca9 3b3d 7800 823c 30de e1bc d46d 4abd
00000040: 1065 bebb d971 8b3d 4842 d53d 9353 8e3c
00000050: 7ad0 603d 1d82 473d 0cea 833d 376d dd3b
00000060: 2916 07be 6400 9fbd 2ff3 69bd 7e55 e6bd
00000070: 6dd6 583c 3925 1f3c ec15 cbbd b6ce 9f3d
00000080: 9217 12bb c578 e3bd c696 2a3c 8b9b 813d
00000090: b4b7 16bd b1c2 093d 024f 373d d12f 7e3c
000000a0: 04fd 8abc 4226 aa3d 446b 1ebb ee66 893d
000000b0: ee16 17be 81cd 273a f8bc e23d a4e3 bcbd
000000c0: a715 bd3d 3920 a83d a86c 8cbd fa08 073e
000000d0: 0f5f abbd f944 b2bb ce69 0ebe 17ff 91bd
000000e0: dbf0 ecbd 0014 913d 5efe d5bd c727 c63d
000000f0: 00e2 f43c 8b21 2bbd 4b21 c2bd 45ab 5a3c
0.024210054 0.007014589 -0.07543808 -0.110270984 -0.030146265 -0.0032914625 0.11903355 0.096008144
-0.029250406 0.04683827 -0.14190434 -0.043657202 0.04581581 0.015869364 -0.027571768 -0.049421147
-0.0058103874 0.06808824 0.10413033 0.017373836 0.05488632 0.04870807 0.06441125 0.006757404
-0.13192047 -0.077637464 -0.057116684 -0.11246775 0.013234717 0.009713464 -0.09916291 0.07803099
-0.002229188 -0.11107019 0.010411924 0.063284956 -0.036796287 0.033632938 0.044753082 0.01551433
-0.01696635 0.08308078 -0.0024172822 0.067090854 -0.1475484 0.0006401167 0.11071199 -0.092231065
0.092326455 0.08209271 -0.06856662 0.13187018 -0.0836774 -0.005440351 -0.13907549 -0.07128733
-0.11569377 0.07083893 -0.10448907 0.09675556 0.029892921 -0.041780036 -0.094790064 0.013346498

layers.2.weight f4 [9, 64]
00000000: de09 403c 21c9 83bd 26a4 9fbd 843f a43d
00000010: ecd9 1a3d 4084 113e 386a d53c 3286 87bd
00000020: 850f 0cbe 0ac3 693d 6856 813d f494 443d
00000030: a879 39bd b0d3 573c 581e f1bc 4417 c9bc
00000040: e031 b7bd a697 fb3d ca5e c0bd 438c 4ebc
00000050: aff4 1abe 94f0 e73d 2a2f be3d cbf9 bcbd
00000060: 1424 e53d d14a a1bd 16e1 f53c 0cb7 cfbd
00000070: ab16 183d 85ce 323c d1ce 3fbd 7d9f 813c
00000080: 9801 493d 4a3e 103e 828f b73c be6e 03bd
00000090: 67fe 783d b9ca d83d 0db2 f1bd 390c bc3d
000000a0: a1a1 0dbe cc1f 4dbc f889 5b3d dc65 a1be
000000b0: 2160 4ebd ef39 093d 5e6e dfbd f09e c53d
000000c0: b154 b2bd c270 82bd 26c0 183d ff49 a03d
000000d0: 9fba fb3c 8125 49bc d8ef 8a3c f465 533d
000000e0: 488b 4b3d 84ee 5b3d 40a6 8e3c acd5 c53d
000000f0: 0839 a1bd 97f9 1c3d b560 cdbc 23b7 03bd
00000100: 2db5 1b3d 5b6f bd3c fa33 5c3d 58dd 5e3d
00000110: f24f e83d 34b2 873c 53bc 333d dcf1 d93d
00000120: b9d1 14bd f5a3 ebbb e8b4 ddbd 633e a63d
00000130: 0b4c 81bc 783d 6f3d 786a b43d c67b c8bc
00000140: 97c9 373c 8995 e73d 64f2 243d f238 1f3d
00000150: 00b9 ddbd 9c52 d23d 1dd4 633d 1e46 ddbd
00000160: 1e8d f93d a0ba c7bd 009a 9ebd 9c4d c7bd
00000170: 9c40 8ebc 0d1d a13d 49bc 7b3d 3d38 103d
00000180: d265 083c 98de 5d3d eed4 53bb 5958 123d
00000190: 7036 123d 1789 633d 97a2 0e3d fbc8 92bc
000001a0: a8c5 1fbe 6544 c8bd 1295 fc3d bab7 09be
000001b0: 75a0 c53d ae1e dd3d fe59 9bbd 15d5 ab3d
000001c0: 1797 d73c 1597 ebbc 5880 db3c 1e11 203e
000001d0: aaaf f53c fece 0abe e0c0 fa3d 7891 a23d
000001e0: 0fac 3d3d e006 48bc 50d6 0dbd 5889 4e3d
000001f0: 7c7e 133d a93b 61bd 67e0 d2bd 10db 3cbd
00000200: 1ead b13d 13ff 3d3d d6bf 72bc eff2 903d
00000210: d347 323c 6d90 81bd 63d3 093d 0a50 af3d
00000220: 2de3 08bd 509c 6ebd 102f 6bbc 79f9 b53d
00000230: 8eae d03c 782f ff3c be11 bb3d 6327 3fbd
00000240: 54af c9bd fdfb 63bd f212 9b3d f2cd 26bc
00000250: 5b66 1e3c 9200 86bd b43d 54bd 7c6b 0c39
00000260: 807f ecbc 6f70 abbd e97f 6a3d 46ab a73d
00000270: 0a6c bc3c 353d 253c 3ee3 b03d e01b b8b9
00000280: f5e5 e6bd 6bfb 833d 9e8d 3bbd 1e41 493d
00000290: 5872 31bd 3f3a 0f3d c366 9a3d d59c c73d
000002a0: 67df 00be 6209 33be 0008 07ba fe62 0abe
000002b0: ffbc 85bb 90a7 913d 806e 153d fbf4 87bd
000002c0: 3856 233d 8eef 45bd 9e1c d73d b7f0 963d
000002d0: 102b 81bd 0daf 26bd 783b 81bc 4d4d 41bd
000002e0: b2f7 6dbc 2e93 bebd ee8f a23d a2b7 7b3d
000002f0: 8888 c6bd ce28 71bd 4926 f43d 7a8f 97bc
00000300: f212 ef3d 6af7 ca3d d520 afbd b81a 86bc
00000310: 2c21 933d 78f7 fa3d 727e 953c 6cea 143d
00000320: 9947 32be f166 69bd 69df 9cbd e05a a7bd
00000330: 72e9 7fbd 3821 c23d 6c0b 493d 4704 c53d
00000340: 6d83 4bbd 3228 893d ca34 99bd 24ee c53d
00000350: 3a73 c0bd ffbc a4bc cea7 fabd d39c 6c3c
00000360: 50e3 7fbc 0717 d63d 8ef2 cb3d 1696 dbbb
00000370: f65c a7bc d523 34bd 1499 66bc 7be5 3abc
00000380: 36cc cd3d 5232 013e 0fa1 da3a e641 1c3c
00000390: 3e3b a1bd 7137 b13c 188b 733d 31c2 613d
000003a0: 9f90 02be d260 0abd ccde 073d 481e 96be
000003b0: 2124 7b3d 10ed 513d c4a3 3abd 97c5 60bd
000003c0: b490 123d 870b 9a3d 8610 f63c 7311 4d3c
000003d0: 2fe5 acbd b096 5a3d 2897 433d 1bde 35bd
000003e0: f864 d1bd 15a1 34bd 18e6 afbd f396 0dbc
000003f0: 9098 31bd 3079 3d3d 5bcd 093d e4ec bebd
0.0117211025 -0.06434847 -0.07794981 0.08019927 0.037805483 0.14210606 0.026051626 -0.066173926
-0.13677795 0.05707077 0.06315309 0.047993615 -0.045282036 0.013173029 -0.029433414 -0.024547227
-0.0894506 0.12284784 -0.093930796 -0.012606683 -0.15132402 0.113251835 0.092863396 -0.09227332
0.11188522 -0.07875598 0.030014556 -0.10142335 0.037130993 0.010913496 -0.046828095 0.01582312
0.049073786 0.14086261 0.022407297 -0.032088034 0.060789492 0.10585541 -0.118015386 0.09182019
-0.13831188 -0.012519788 0.053598374 -0.31523025 -0.050384644 0.033502515 -0.10909723 0.096494555
-0.0870756 -0.06369163 0.037292622 0.07826614 0.030728636 -0.012277008 0.01696007 0.051610902
0.049693376 0.053694263 0.017413259 0.09659895 -0.07872206 0.038323965 -0.025070528 -0.032157075
0.03801458 0.023124387 0.053760506 0.05441031 0.11343373 0.016564466 0.04388077 0.10641834
-0.03633282 -0.007191176 -0.10825521 0.08117368 -0.01578333 0.05840823 0.0880937 -0.024473082
0.011217496 0.113078184 0.040270224 0.038872667 -0.108263016 0.10269663 0.05562221 -0.108043894
0.12185119 -0.09752393 -0.07744217 -0.097316 -0.017364793 0.07866869 0.06145886 0.035209883
0.008325057 0.05416736 -0.003232296 0.035728786 0.035696447 0.05555066 0.034823027 -0.0179181
-0.15602744 -0.0977867 0.123331204 -0.13448992 0.096497454 0.10796867 -0.07585524 0.083902515
0.026317162 -0.028758565 0.026794598 0.1563153 0.02999099 -0.13555524 0.12243819 0.07937902
0.046306666 -0.01220867 -0.034628212 0.05042395 0.036009297 -0.054988537 -0.102967076 -0.04610735
0.086755976 0.046385836 -0.014816245 0.07077586 0.010881382 -0.06326375 0.03364886 0.08560188
-0.033419777 -0.05825454 -0.014354482 0.08885474 0.02547386 0.031150565 0.091342434 -0.04666842
-0.09847894 -0.055660237 0.07571973 -0.010180937 0.009667958 -0.065430775 -0.051816657 0.00013391481
-0.02886939 -0.083710544 0.05725089 0.08186965 0.023000736 0.010085394 0.08637093 -0.00035115983
-0.112743296 0.064444385 -0.045789354 0.049134366 -0.043321937 0.034967657 0.075391315 0.0974671
-0.12585221 -0.17484048 -0.00051510334 -0.13514325 -0.004081368 0.07112038 0.036482334 -0.06638523
0.039877146 -0.04832416 0.10503505 0.073701315 -0.06307042 -0.040694285 -0.015775427 -0.04719286
-0.014524387 -0.09305416 0.07937609 0.061454423 -0.0969401 -0.058876805 0.11921365 -0.018501032
0.116735354 0.09910472 -0.08551184 -0.016370162 0.071840614 0.12254232 0.01824877 0.036356375
-0.17410125 -0.05698294 -0.076597996 -0.0817163 -0.06247849 0.09478992 0.04908316 0.096199565
-0.049685884 0.0669712 -0.07480772 0.09664562 -0.09396978 -0.020109652 -0.122390375 0.014441687
-0.01561816 0.10453611 0.09958373 -0.0067012412 -0.02043007 -0.043979485 -0.014074583 -0.0114072515
0.10048716 0.12616852 0.0016680079 0.009537196 -0.07872628 0.021632882 0.059458822 0.055116836
-0.12750481 -0.03378374 0.03317146 -0.29319978 0.061313752 0.05125147 -0.045566335 -0.054875936
0.03578253 0.0752173 0.030037176 0.012516367 -0.08442151 0.053366363 0.047751576 -0.04440127
-0.102243364 -0.044098932 -0.08588809 -0.008641946 -0.043358386 0.04625815 0.033643108 -0.09322527

layers.2.bias f4 [9]
00000000: d228 c43d 6b94 fdbc 2469 bd3d 388f bc3d
00000010: 4d3c fabc ead1 8d3d 806c dbbd e9e0 f73d
00000020: ecf0 71bd
0.09578098 -0.03095456 0.092485696 0.09207004 -0.030546332 0.069248036 -0.10714054 0.12103445
-0.05906765
