experiments/learn_racetrack/racetrack2/2022_01_20_205032833342_3_fbdf8/2022_01_20_205032833342_3_fbdf8_3999.pth (torch, 24919 bytes, 6 tensors)

layers.0.weight f4 [64, 15]
0.056248397 0.69889283 -0.11264318 0.10907399 -0.1722661 -0.010728371 0.26264077 0.12801398
-0.3583144 -0.36309725 -0.26953623 -0.12328196 0.06038586 0.069834776 -0.09326607 0.35984033
0.06541867 -0.4930323 0.2169552 0.13046117 0.032352056 -0.09258712 -0.30866858 -0.24026234
-0.075405136 -0.047644787 -0.26395515 -0.15874484 0.08241211 -0.108054586 -0.017352402 -0.16419187
-0.07154262 -0.15817305 -0.027840465 -0.2389243 0.18121532 0.031950742 -0.00039300323 -0.013559997
0.09908664 0.019056618 -0.205162 0.20142826 0.1221728 0.35398746 0.34057942 -0.08248603
0.15538993 0.1716835 0.24659435 -0.028479023 -0.12218351 -0.2129518 -0.138669 0.055249162
0.07859908 0.14764199 -0.25114134 -0.08171536 -0.33982128 0.6340076 0.025214583 -0.1148748
-0.24530283 0.10777688 0.0948577 0.10870145 0.10135219 -0.11070857 0.08883909 -0.26786888
0.14734463 0.10931411 -0.07550887 -0.21168518 -0.61188793 -0.02089777 0.006462385 0.11809484
-0.17903906 -0.0970761 0.22138199 0.19067115 -0.031503953 -0.12091044 0.11702358 -0.25540847
0.032702357 0.18557985 -0.120581225 -0.0023941696 -0.24831969 -0.10110755 -0.046476185 -0.14617816
0.08869803 0.23743355 0.18026942 -0.25778565 0.09222388 0.17139095 -0.106352076 -0.23056318
0.0630019 -0.11161636 0.084524214 -0.15229912 -0.17154084 -0.10935709 -0.056589037 0.13166565
0.15629154 -0.09281266 -0.12678681 0.22091356 0.112971604 -0.14476764 0.16794443 0.21073467
-0.47761256 0.17533797 0.15043935 0.19600506 -0.1420489 -0.06635506 0.22827676 -0.26936665
0.1988781 0.080896884 -0.27330777 -0.058266614 -0.278136 -0.1782641 0.102587 -0.20515789
-0.014096895 0.05955379 0.09374176 0.0066094575 -0.005988843 0.089568414 -0.36520207 -0.15642829
0.29175407 0.20573014 -0.33171377 -0.07787315 -0.038647283 -0.2093676 -0.01030166 -0.08256078
-0.006428968 0.12190976 -0.32328534 0.0011768165 -0.33293936 -0.113499135 -0.27228293 -0.334249
-0.26005906 0.117809065 -0.15669815 -0.34181118 -0.016373638 0.8190578 0.21318269 0.1173341
0.14834577 -0.281523 -0.1961058 -0.2325938 0.161593 0.023511535 -0.19239096 -0.20167258
-0.03545252 0.059697356 -0.20421803 0.23593947 0.14618386 -0.84894645 -0.22220409 -0.28644317
0.0888986 0.12702276 -0.2611393 0.07960153 0.0011867828 0.13478583 -0.13161555 0.16832747
0.13057409 -0.1154285 0.09198118 -0.373592 0.6920555 -0.13927619 -0.2434591 0.124731235
0.12984663 0.124072514 0.17630155 0.14521939 -0.19824405 -0.11654149 0.071231164 0.09912991
-0.09701302 -0.18421859 -0.06974395 -1.0099723 -0.08709706 -0.11493868 -0.07926166 -0.11047829
-0.20690967 -0.32973215 0.2727011 -0.079429165 -0.0015807126 0.14045073 -0.024858287 0.16156971
-0.09100528 0.31556037 -0.05196611 -0.0045878403 -0.24582143 -0.042841274 0.19127631 -0.067811176
0.090954155 0.19819076 -0.13898852 -0.08418298 0.11283717 -0.18705714 -0.13409682 0.10047898
0.32137272 0.4405121 -0.03766629 -0.24172674 0.016232079 -0.24090147 -0.006172857 -0.2146773
-0.2526162 0.19769889 -0.23940244 0.10119599 0.13555817 -0.04617955 -0.20929421 -0.9494852
00000000: b864 663d a4ea 323f 78b1 e6bd 2f62 df3d
00000010: 8666 30be 0dc6 2fbc da78 863e 1916 033e
00000020: fc74 b7be e2e7 b9be a700 8abe 417b fcbd
00000030: 2a57 773d 8905 8f3d 4802 bfbd fe3c b83e
00000040: 39fa 853d bb6e fcbe 8129 5e3e 9d97 053e
00000050: 9783 043d 519e bdbd cf09 9ebe 5507 76be
00000060: 026e 9abd 2e27 43bd 2125 87be 028e 22be
00000070: aec7 a83d b94b ddbd a026 8ebc ea21 28be
00000080: f084 92bd 1ef8 21be b011 e4bc 92a8 74be
00000090: 8290 393e c8de 023d 000c ceb9 c02a 5ebc
000000a0: f0ed ca3d a01c 9c3c fd15 52be 3643 4e3e
000000b0: bc35 fa3d d83d b53e 6d60 ae3e 70ee a8bd
000000c0: 8a1e 1f3e cdcd 2f3e 3b83 7c3e d74c e9bc
000000d0: 593b fabd 0910 5abe 3fff 0dbe f24c 623d
000000e0: 8ef8 a03d 762f 173e 9995 80be 625a a7bd
000000f0: 0efd adbe 524e 223f d08e ce3c 7b43 ebbd
00000100: aa30 7bbe 20ba dc3d c144 c23d de9e de3d
00000110: bd91 cf3d 2dbb e2bd 45f1 b53d 1c26 89be
00000120: 83e1 163e 13e0 df3d 65a4 9abd 00c4 58be
00000130: b0a4 1cbf cd31 abbc 6ac2 d33b b5db f13d
00000140: 0456 37be d6cf c6bd f6b1 623e 4c3f 433e
00000150: 4a0a 01bd e59f f7bd 0faa ef3d e6c4 82be
00000160: e8f2 053d a508 3e3e 4af3 f6bd 80e7 1cbb
00000170: 8447 7ebe 7a11 cfbd d05d 3ebd baaf 15be
00000180: 50a7 b53d c821 733e 8c98 383e 7bfc 83be
00000190: e0df bc3d 1c81 2f3e 1ecf d9bd c118 6cbe
000001a0: 2407 813d 1e97 e4bd 081b ad3d 4df4 1bbe
000001b0: 67a8 2fbe 9cf6 dfbd e8c9 67bd 5cd3 063e
000001c0: e40a 203e 9014 bebd 67d4 01be 2a37 623e
000001d0: a85d e73d f83d 14be a0f9 2b3e d4ca 573e
000001e0: a289 f4be cc8b 333e c60c 1a3e 8db5 483e
000001f0: 4475 11be 29e5 87bd 62c1 693e 6dea 89be
00000200: b3a6 4b3e 44ad a53d ffee 8bbe f9a8 6ebd
00000210: d767 8ebe dd8a 36be 2219 d23d e914 52be
00000220: aaf6 66bc adee 733d aefb bf3d 2694 d83b
00000230: 0e3e c4bb a56f b73d c4fb babe bd2e 20be
00000240: ca60 953e ecaa 523e 63d6 a9be f57b 9fbd
00000250: 9d4c 1ebd 7664 56be 4bc8 28bc a015 a9bd
00000260: 18aa d2bb d3ab f93d a885 a5be 693f 9a3a
00000270: 0777 aabe 3c72 e8bd ab68 8bbe af22 abbe
00000280: 7626 85be e145 f13d 7b75 20be e001 afbe
00000290: 0222 86bc c6ad 513f 904c 5a3e dc4c f03d
000002a0: f4e7 173e c823 90be f5cf 48be 122d 6ebe
000002b0: a378 253e 439b c03c 2302 45be 4283 4ebe
000002c0: a936 11bd 3785 743d 881e 51be 1e9a 713e
000002d0: 39b1 153e 8e54 59bf 7889 63be aea8 92be
000002e0: 7810 b63d 4112 023e 0db4 85be 2106 a33d
000002f0: d38d 9b3a 4c05 0a3e 3ac6 06be 095e 2c3e
00000300: 37b5 053e c765 ecbd a160 bc3d 7347 bfbe
00000310: 8d2a 313f 6b9e 0ebe 584d 79be 1773 ff3d
00000320: 84f6 043e bb19 fe3d 6588 343e 64b4 143e
00000330: 7d00 4bbe 4ead eebd a5e1 913d 9f04 cb3d
00000340: c3ae c6bd cca3 3cbe ebd5 8ebd c646 81bf
00000350: f25f b2bd f864 ebbd f053 a2bd 7142 e2bd
00000360: 21e0 53be a7d2 a8be 7b9f 8b3e c2ab a2bd
00000370: ea2f cfba 51d2 0f3e 9ba3 cbbc 8872 253e
00000380: fa60 babd 2191 a13e 6ada 54bd 9855 96bb
00000390: 9db8 7bbe 557a 2fbd f0dd 433e 96e0 8abd
000003a0: 2c46 ba3d 85f2 4a3e 0253 0ebe 2068 acbd
000003b0: 2d17 e73d e88b 3fbe ad50 09be ecc7 cd3d
000003c0: f78a a43e cd8a e13e f847 1abd 3787 77be
000003d0: 23f9 843c e0ae 76be ad45 cabb 5ed4 5bbe
000003e0: e956 81be 9471 4a3e ea25 75be d83f cf3d
000003f0: c3cf 0a3e c526 3dbd 3951 56be 7611 73bf

layers.0.bias f4 [64]
-0.006369385 -0.26066852 -0.2493426 -0.23931774 0.186666 0.18016882 -0.13958141 0.18406516
0.163779 -0.1827595 -0.22020565 0.17083628 -0.02411061 0.20758587 -0.19564615 0.12709165
0.17619272 -0.04671842 -0.14734 0.06375668 -0.1378411 -0.027572826 -0.17083576 0.20831867
-0.043045413 0.19318452 -0.0851035 0.004624608 0.25410372 0.11705172 -0.01570209 -0.21747486
-0.20724055 -0.21025544 0.070883445 0.12535521 0.13115771 0.23664291 0.15672597 0.19847634
0.15795112 0.092280686 -0.29185382 -0.21038863 -0.3106592 -0.2881151 0.061372712 0.054489225
-0.21918875 -0.027977942 0.061073866 -0.25829992 -0.26035652 -0.18017966 0.18756965 0.12591085
0.100578144 -0.06444536 -0.07292032 -0.029269328 -0.13596083 -0.00067542214 -0.25540388 -0.23748025
00000000: 46b6 d0bb 5876 85be ab53 7fbe b60f 75be
00000010: 5f25 3f3e 2d7e 383e 6eee 0ebe 947b 3c3e
00000020: afb5 273e 4e25 3bbe 977d 61be b5ef 2e3e
00000030: 9d83 c5bc 6491 543e 7757 48be 5024 023e
00000040: dd6b 343e d05b 3fbd 4ce0 16be dd92 823d
00000050: 3826 0dbe 68e0 e1bc 92ef 2ebe 7d51 553e
00000060: 6350 30bd 2ad2 453e be4a aebd 068a 973b
00000070: e219 823e d0b8 ef3d aba1 80bc bbb1 5ebe
00000080: de36 54be 344d 57be 572b 913d 1e5d 003e
00000090: 354e 063e 8552 723e c67c 203e 623d 4b3e
000000a0: f0bd 213e a8fd bc3d dd6d 95be 1e70 57be
000000b0: b90e 9fbe d383 93be f461 7b3d 1830 5f3d
000000c0: 0473 60be ff31 e5bc 9728 7a3d e33f 84be
000000d0: 734d 85be 0481 38be 4212 403e c6ee 003e
000000e0: eafb cd3d eefb 83bd 4057 95bd 3bc6 efbc
000000f0: 5139 0bbe d00e 31ba 4cc4 82be 062e 73be

layers.1.weight f4 [64, 64]
-0.00072612474 -0.087336466 -0.034937277 -0.20085666 0.16332586 0.02120216 -0.087298885 -0.00811097
0.06710069 0.060697123 0.07410228 0.042375986 -0.040621467 -0.022090146 0.11045488 0.058239553
-0.037852135 0.09174563 0.039451927 0.10743163 0.06268311 -0.02416572 -0.20534837 0.094508
-0.028301092 0.07998259 -0.121647604 -0.01797936 -0.016500361 0.06938009 -0.07936141 0.083246626
0.03527157 -0.047403917 -0.034022294 0.095130876 0.17327867 -0.0126971 -0.087864906 0.07745333
-0.034787364 0.059594244 0.11685988 0.04538053 -0.11502579 0.034778822 -0.08356621 -0.08038935
0.051626053 0.060620308 -0.09170243 -0.040380344 0.056164745 -0.10361558 -0.05457628 -0.032326907
0.011559335 -0.07244411 0.025701672 -0.06681384 -0.051311716 0.03984198 -0.041580036 0.009732345
0.102606654 0.06269036 0.09646347 0.09109405 -0.1273312 0.041187957 0.008335814 0.037174597
-0.038267344 0.12174785 0.06581421 0.115468025 0.060787767 0.08163531 -0.10560634 -0.11559045
0.07899334 0.031861987 0.013257191 0.020663634 0.016231837 0.03260599 -0.07501665 -0.011619136
-0.032395035 -0.12701297 -0.08104489 -0.007818924 -0.04598637 0.10313603 -0.12221851 -0.076308966
-0.038054124 0.09847358 0.05698309 -0.11846019 -0.06201616 0.08328368 0.0065710694 -0.094190024
0.09341841 -0.04368785 0.09622002 0.082758404 -0.08809229 0.024317581 -0.064283684 -0.04730341
-0.0014641434 -0.01864146 -0.01543715 -0.040199827 -0.0021624896 -0.055754483 0.04197148 -0.015832245
0.022979453 -0.09914542 -0.10840361 -0.10456312 0.020480197 0.08692798 -0.032574788 -0.07510806
0.06599345 0.091126785 0.0021612495 -0.05941655 0.045485966 -0.029267088 -0.056258515 0.0025556684
-0.052115317 -0.16900799 -0.122454 0.053601008 -0.03576137 -0.04641733 -0.08224795 0.022865355
-0.11753643 -0.09090983 -0.021933988 0.08778405 0.068184406 0.12378974 -0.06904902 0.093238845
0.05150978 -0.0024357252 -0.10866056 0.020215178 -0.09267438 0.03422913 0.08017892 0.071600676
0.052152827 -0.02770835 -0.023626314 0.0027038753 0.042237572 -0.012527397 0.062519684 0.03307417
0.029995373 0.014329985 0.0004006055 0.10845118 0.07081619 -0.15687282 -0.14335085 -0.048814714
0.044257358 0.04663834 0.017385496 -0.0028098924 -0.14066727 0.06416097 -0.044909805 0.04638557
0.047441702 -0.07050807 0.06473804 -0.00402709 -0.036619727 -0.13788499 -0.095780715 -0.0035373368
0.050662294 0.0012270957 -0.028262675 -0.02628079 -0.11009374 0.11083588 0.065869555 -0.055963427
-0.10719855 0.10639845 -0.018450081 0.019340888 0.0014894456 -0.06577206 -0.12307556 -0.032125875
-0.018809602 -0.115370765 -0.11240739 -0.04993935 -0.044858858 0.08358225 -0.027353346 -0.094616205
-0.01876679 -0.002790317 0.0473371 -0.10461016 -0.12229402 0.045632854 0.12084983 0.009014279
0.039644197 0.035779566 -0.009916484 -0.061696604 0.039390042 -0.0482236 -0.019857079 0.04642102
-0.01227802 0.011617616 0.11300525 -0.10303672 -0.03391449 0.0055076033 -0.011271104 -0.04963593
-0.094772026 -0.062233806 0.070061296 -0.06164418 -0.09792587 0.04467 0.074645296 0.028195694
0.048252866 -0.008736625 0.028092727 -0.10402182 0.039851785 -0.04348801 -0.017682001 -0.005383715
00000000: 6859 3eba 76dd b2bd 641a 0fbd 5ead 4dbe
00000010: e53e 273e 27b0 ad3c c2c9 b2bd e0e3 04bc
00000020: 166c 893d 8c9d 783d f0c2 973d 7192 2d3d
00000030: b262 26bd 65f6 b4bc 2b36 e23d 998c 6e3d
00000040: d70a 1bbd 22e5 bb3d 5898 213d 1d05 dc3d
00000050: 0160 803d 30f7 c5bc d846 52be 698d c13d
00000060: b1d7 e7bc eacd a33d 6122 f9bd 7349 93bc
00000070: c42b 87bc 2617 8e3d 3c88 a2bd 357d aa3d
00000080: ec78 103d 9c2a 42bd f65a 0bbd fad3 c23d
00000090: f76f 313e 7f07 50bc 84f2 b3bd da9f 9e3d
000000a0: 327d 0ebd 1819 743d 3c54 ef3d efe0 393d
000000b0: a492 ebbd 3d74 0e3d c324 abbd 2ca3 a4bd
000000c0: d775 533d 004d 783d 7cce bbbd dc65 25bd
000000d0: 010d 663d 6834 d4bd 618b 5fbd 3869 04bd
000000e0: 5d63 3d3c 945d 94bd 508c d23c b2d5 88bd
000000f0: 3c2c 52bd 5831 233d d44f 2abd 6a74 1f3c
00000100: 7023 d23d ce63 803d a48e c53d 848f ba3d
00000110: 1c63 02be b4b4 283d f092 083c 6444 183d
00000120: 38be 1cbd f056 f93d 9ac9 863d 807a ec3d
00000130: 98fc 783d 6a30 a73d 2348 d8bd b0ba ecbd
00000140: 43c7 a13d b781 023d b034 593c c846 a93c
00000150: a1f8 843c dc8d 053d 54a2 99bd 305e 3ebc
00000160: a8b0 04bd b00f 02be ddfa a5bd f21a 00bc
00000170: 345c 3cbd fc38 d33d b34d fabd e047 9cbd
00000180: a4de 1bbd 84ac c93d 1a67 693d 429b f2bd
00000190: a804 7ebd a290 aa3d 2052 d73b b3e6 c0bd
000001a0: 2752 bf3d 08f2 32bd 000f c53d 3d7d a93d
000001b0: bb69 b4bd aa35 c73c 2aa7 83bd 38c1 41bd
000001c0: 80e8 bfba fab5 98bc 1aec 7cbc 93a8 24bd
000001d0: 8eb8 0dbb d05e 64bd 49ea 2b3d a0b2 81bc
000001e0: 683f bc3c c10c cbbd b602 debd 3025 d6bd
000001f0: 16c6 a73c 4c07 b23d 246d 05bd 41d2 99bd
00000200: 9327 873d aea0 ba3d c0a3 0d3b c55e 73bd
00000210: 7e4f 3a3d 88c1 efbc 546f 66bd 007d 273b
00000220: df76 55bd 6e10 2dbe 2ac9 fabd bb8c 5b3d
00000230: 847a 12bd 1920 3ebd 9d71 a8bd 2050 bb3c
00000240: f1b6 f0bd ef2e babd e8ae b3bc 20c8 b33d
00000250: 44a4 8b3d 7a85 fd3d 9369 8dbd 02f4 be3d
00000260: ebfb 523d b0a0 1fbb 6d89 debd 4d9a a53c
00000270: 11cc bdbd d833 0c3d d834 a43d 60a3 923d
00000280: 349e 553d 9ffc e2bc f98b c1bc 8033 313b
00000290: 4e01 2d3d b63f 4dbc 520a 803d c878 073d
000002a0: dbb8 f53c 50c8 6a3c 5c08 d239 a71b de3d
000002b0: 1408 913d 45a3 20be 91ca 12be f0f1 47bd
000002c0: 3447 353d d807 3f3d 076c 8e3c 2c26 38bb
000002d0: 150b 10be d466 833d 58f3 37bd ccfe 3d3d
000002e0: 3b52 423d 8966 90bd 6195 843d aef5 83bb
000002f0: 91fe 15bd b931 0dbe ae28 c4bd aad2 67bb
00000300: 4483 4f3d 80d6 a03a 2087 e7bc d04a d7bc
00000310: d478 e1bd ecfd e23d 9ee6 863d e839 65bd
00000320: ea8a dbbd 6ee7 d93d a024 97bc c870 9e3c
00000330: 8039 c33a 80b3 86bd 0a0f fcbd 6c96 03bd
00000340: 9816 9abc 8247 ecbd d835 e6bd 348d 4cbd
00000350: ecbd 37bd 2c2d ab3d 2014 e0bc 24c6 c1bd
00000360: d0bc 99bc c0dd 36bb 8ce4 413d da3d d6bd
00000370: 4a75 fabd 84e9 3a3d 1e80 f73d a0b0 133c
00000380: f461 223d 988d 123d c078 22bc 94b5 7cbd
00000390: 7457 213d 1c86 45bd 50ab a2bc f823 3e3d
000003a0: c029 49bc d057 3e3c 4c6f e73d ea04 d3bd
000003b0: ece9 0abd 2079 b43b 70aa 38bc 0c4f 4bbd
000003c0: d617 c2bd e0e8 7ebd 4c7c 8f3d 9c7e 7cbd
000003d0: 5c8d c8bd e4f7 363d a2df 983d a8fa e63c
000003e0: cca4 453d 1024 0fbc b822 e63c 6409 d5bd
000003f0: a03b 233d 7c20 32bd d8d9 90bc e069 b0bb

layers.1.bias f4 [64]
0.09711748 0.085495636 -0.14736412 0.020315602 -0.047201186 0.039746534 0.0067174435 -0.15842023
0.110312186 0.012918318 0.06653522 0.087360285 -0.0023924692 -0.10962556 -0.023803541 0.024604782
-0.008241122 -0.069032185 0.07576685 -0.12635796 -0.13465624 -0.061365318 -0.11863009 -0.08779832
-0.108226396 -0.07609956 -0.09159895 -0.0060794605 0.031051168 0.08346285 -0.055864617 -0.05318549
-0.13415025 0.06956075 0.05381994 0.008003216 0.090921246 -0.017183112 -0.085336134 -0.07039582
-0.041456934 0.080023326 -0.13064368 -0.023193952 -0.12261554 -0.11685442 -0.029384095 -0.10338589
0.08440156 -0.15261592 0.03802821 -0.14202318 0.05470337 -0.0860943 -0.081484355 -0.07389836
-0.028731879 -0.13365522 0.052318092 0.00874017 -0.08747222 0.025018318 -0.16137888 -0.10544631
00000000: 88e5 c63d 5618 af3d 9fe6 16be e86c a63c
00000010: 0856 41bd 43cd 223d 001e dc3b ea38 22be
00000020: 5beb e13d 5aa7 533c 9e43 883d f3e9 b23d
00000030: f9ca 1cbb 5e83 e0bd a5ff c2bc f88f c93c
00000040: c505 07bc bf60 8dbd a62b 9b3d fb63 01be
00000050: 53e3 09be 335a 7bbd 55f4 f2bd 9bcf b3bd
00000060: cda5 ddbd 16da 9bbd 3b98 bbbd 3636 c7bb
00000070: 055f fe3c 92ee aa3d 4cd2 64bd 07d9 59bd
00000080: af5e 09be de75 8e3d 4c72 5c3d ec1f 033c
00000090: eb34 ba3d 99c3 8cbc b6c4 aebd af2b 90bd
000000a0: bfce 29bd 45e3 a33d 75c7 05be 3e01 bebc
000000b0: db1d fbbd 5f51 efbd eab6 f0bc fbbb d3bd
000000c0: bada ac3d 5947 1cbe 78c3 1b3d 866e 11be
000000d0: a410 603d 3552 b0bd 45e1 a6bd 0658 97bd
000000e0: 1e5f ebbc eadc 08be 7f4b 563d ee32 0f3c
000000f0: a324 b3bd 37f3 cc3c 8140 25be 3cf4 d7bd

layers.2.weight f4 [9, 64]
0.111047156 0.009696989 0.07023303 0.014413521 0.08859 0.11186143 -0.06329259 -0.011422546
0.05472929 -0.11122698 -0.10051425 0.046290737 -0.0388007 0.0040836963 0.24413422 -0.0021499551
-0.06086928 -0.04492428 -0.009374604 0.15174796 -0.012913938 -0.24912845 -0.004053869 0.06805997
0.012498491 -0.043624405 -0.012698317 -0.13190503 -0.25068668 -0.059271727 -0.025077468 0.044720683
-0.1468983 -0.13138247 0.1587041 0.13021573 0.014939129 -0.04387674 -0.11442846 -0.10107625
-0.048064638 0.0698507 -0.042284045 -0.08884309 -0.04693874 0.07976333 0.0126229925 -0.09122196
-0.026236026 0.037832905 -0.04969412 -0.1672639 0.10730914 -0.0038002664 -0.08010225 -0.1356976
-0.11461201 -0.030051813 0.046143252 -0.1374931 0.031129079 0.07450686 -0.040826302 0.041692123
0.026483512 -0.057452112 -0.022091163 -0.053343356 -0.072329044 0.09368106 0.106585935 -0.073263064
0.03209638 -0.123504736 0.008826762 -0.016704459 -0.08865463 -0.0069685895 0.062183097 0.066684246
0.079487786 0.031971455 -0.01562351 -0.21510479 -0.060280506 -0.001939811 -0.0887902 0.030336693
0.042510267 -0.120850086 0.0036229847 -0.02386069 0.013835831 0.094344035 -0.03123766 -0.027335165
-0.07427744 -0.13426644 -0.19978905 0.10071562 0.07022801 0.023838248 -0.009049945 -0.100491196
0.0021978437 0.05229342 -0.13158362 0.08732356 0.038756426 0.041808315 0.08173905 -0.088811606
-0.29195464 -0.08309027 0.0386234 0.05466161 -0.028957915 -0.04559997 -0.081290945 0.04261685
-0.04505306 -0.104288206 0.06453303 -0.053774577 -0.011030385 0.072791666 -0.092567965 0.05654028
-0.070330806 0.098049834 -0.01846029 0.11392443 -0.006457284 0.020241302 -0.097698644 0.013555388
0.089743055 -0.21184412 -0.04027714 0.115331635 -0.13427529 -0.0023445827 -0.09152532 0.056101076
-0.01696691 0.12081195 -0.036758248 -0.20953177 -0.34301594 0.014626947 -0.08269397 0.07284204
0.007444854 -0.1014606 -0.0865349 -0.077290244 0.0046534864 0.05887132 0.04942698 0.0067364536
-0.04332326 0.082562126 -0.10341713 0.05462491 -0.080570966 -0.015306497 -0.032239284 -0.05443336
0.00021564202 -0.005884841 -0.16640645 -0.024951784 -0.10570865 -0.055487733 0.10041873 -0.046990395
-0.1758274 -0.03292391 0.027271971 0.03911135 0.062537044 -0.06590275 -0.118270665 -0.014758256
0.01776919 0.011638309 -0.032733127 0.0046420232 0.03687051 -0.024653027 -0.0641109 0.012481779
0.04260204 -0.06571776 -0.024514178 0.08734256 -0.10272418 0.035777636 0.07209243 -0.18257043
-0.0044691633 0.07006072 0.104961455 0.015048753 -0.030726912 0.009839739 -0.08114647 0.052884117
-0.09740556 -0.08615552 -0.0902489 -0.012418816 -0.023150869 -0.26720786 -0.08794792 0.047225386
0.053556655 0.06949756 0.026313737 -0.014782696 -0.14813857 -0.018477008 0.028425945 0.06172922
-0.24121183 -0.17348376 0.022056425 0.05519969 0.09344615 0.042785943 0.09215915 0.021153266
-0.087547496 -0.11771272 -0.034252312 -0.027442446 0.06848469 0.04918037 0.007483846 0.027337462
-0.15978104 -0.1504555 -0.09173178 -0.058690526 0.12650457 -0.07333376 -0.054520413 -0.1413084
-0.0023686336 0.018416967 0.05713576 -0.10889899 -0.007369447 0.04214435 0.0067544137 -0.12359542
00000000: b16c e33d 1fe0 1e3c 56d6 8f3d b026 6c3c
00000010: ad6e b53d 9b17 e53d 8c9f 81bd a125 3bbc
00000020: d22b 603d f9ca e3bd 6ada cdbd 5b9b 3d3d
00000030: 7ced 1ebd 87d0 853b 52fe 793e 43e6 0cbb
00000040: 1152 79bd 8602 38bd f097 19bc d163 1b3e
00000050: fb94 53bc 871b 7fbe 51d6 84bb 0763 8b3d
00000060: 79c6 4c3c 81af 32bd 9a0c 50bc 1d12 07be
00000070: 015a 80be e9c6 72bd 436f cdbc 092d 373d
00000080: 826c 16be 2089 06be 5483 223e 4657 053e
00000090: 40c3 743c 19b8 33bd 7859 eabd 1101 cfbd
000000a0: 6ddf 44bd e20d 8f3d 0932 2dbd 5ef3 b5bd
000000b0: d642 40bd f55a a33d abd0 4e3c 94d2 babd
000000c0: efec d6bc adf6 1a3d 108c 4bbd 3a47 2bbe
000000d0: e5c4 db3d e40d 79bb a60c a4bd 50f4 0abe
000000e0: b4b9 eabd 382f f6bc b500 3d3d feca 0cbe
000000f0: 6902 ff3c 0d97 983d 7b39 27bd 5cc5 2a3d
00000100: f3f3 d83c e852 6bbd 87f8 b4bc 907e 5abd
00000110: 4021 94bd dbdb bf3d ba49 da3d f20a 96bd
00000120: 7e77 033d 0df0 fcbd 209e 103c cad7 88bc
00000130: 8f90 b5bd c458 e4bb b4b3 7e3d c091 883d
00000140: 7eca a23d 80f4 023d c0f9 7fbc 6e44 5cbe
00000150: b1e8 76bd 4241 feba a3d7 b5bd a884 f83c
00000160: 3f1f 2e3d 4080 f7bd 996f 6d3b 7e77 c3bc
00000170: aeaf 623c 7237 c13d 1fe6 ffbc ffed dfbc
00000180: c51e 98bd 247d 09be 8095 4cbe fe43 ce3d
00000190: b4d3 8f3d 6e48 c33c 3846 14bc 54ce cdbd
000001a0: b309 103b a031 563d dbbd 06be b2d6 b23d
000001b0: 0fbf 1e3d 323f 2b3d ce66 a73d dce2 b5bd
000001c0: 147b 95be 3b2b aabd 9233 1e3d dae4 5f3d
000001d0: 2639 edbc 09c7 3abd de7b a6bd 028f 2e3d
000001e0: 8f89 38bd 0e95 d5bd e529 843d bb42 5cbd
000001f0: cab8 34bc cc13 953d 4694 bdbd c896 673d
00000200: 9909 90bd 5ace c83d 093a 97bc 3651 e93d
00000210: a097 d3bb 16d1 a53c 3a16 c8bd 6b17 5e3c
00000220: 35cb b73d aaed 58be a4f9 24bd fe32 ec3d
00000230: 767f 09be 92a7 19bb a171 bbbd 3eca 653d
00000240: 30fe 8abc 416c f73d d18f 16bd 7f8f 56be
00000250: c99f afbe dda5 6f3c 755b a9bd 352e 953d
00000260: f6f3 f33b 93ca cfbd 3639 b1bd 594a 9ebd
00000270: 467c 983b 0e23 713d f273 4a3d 78bd dc3b
00000280: bb73 31bd 5516 a93d 5ccc d3bd 5fbe 5f3d
00000290: 6402 a5bd 1ac8 7abc 570d 04bd 84f5 5ebd
000002a0: f71d 6239 a0d5 c0bb 7466 2abe af67 ccbc
000002b0: c77d d8bd 1b47 63bd 56a8 cd3d 0079 40bd
000002c0: 190c 34be 39db 06bd 7869 df3c 3933 203d
000002d0: 6c13 803d 05f8 86bd e437 f2bd 9dcc 71bc
000002e0: b190 913c 9bae 3e3c 2c13 06bd 1d1c 983b
000002f0: 8805 173d 25f5 c9bc 934c 83bd 6080 4c3c
00000300: 7a7f 2e3d 0897 86bd f5d1 c8bc a8e0 b23d
00000310: 0e61 d2bd 928b 123d 32a5 933d bef3 3abe
00000320: 0f72 92bb ff7b 8f3d 08f6 d63d 0b8f 763c
00000330: 01b7 fbbc db36 213c 1f30 a6bd 049d 583d
00000340: 917c c7bd 4e72 b0bd 6ad4 b8bd 4a78 4bbc
00000350: e4a6 bdbc 78cf 88be 0a1e b4bd 686f 413d
00000360: 395e 5b3d bd54 8e3d e88f d73c 1f33 72bc
00000370: a3b1 17be 185d 97bc 87dd e83c c7d7 7c3d
00000380: 3c00 77be baa5 31be adaf b43c 1219 623d
00000390: b260 bf3d 5040 2f3d f0bd bc3d 9d49 ad3c
000003a0: 1a4c b3bd 5e13 f1bd 274c 0cbd fbce e0bc
000003b0: b341 8c3d 5b71 493d 0d3b f53b d0f2 df3c
000003c0: a49d 23be 0211 1abe dfdd bbbd 7a65 70bd
000003d0: 6a8a 013e 0330 96bd cc50 5fbd 26b3 10be
000003e0: 143b 1bbb 2edf 963c 3007 6a3d 6f06 dfbd
000003f0: 677b f1bb 8e9f 2c3d 2154 dd3b 981f fdbd

layers.2.bias f4 [9]
0.04816503 0.103871346 0.114701435 0.12887888 0.0303313 -0.023875546 0.08533391 0.18227322
0.13746862
00000000: b248 453d 80ba d43d 96e8 ea3d d3f8 033e
00000010: 5979 f83c a696 c3bc 8cc3 ae3d d5a5 3a3e
00000020: 93c4 0c3e
