experiments/learn_racetrack/racetrack2/2022_01_20_205032833342_3_fbdf8/2022_01_20_205032833342_3_fbdf8_8999.pth (torch, 24919 bytes, 6 tensors)

layers.0.weight f4 [64, 15]
0.0009433726 0.885764 -0.096863575 0.12858345 -0.17033216 0.019121343 0.2973285 0.17052917
-0.5219866 -0.46522087 -0.38340843 -0.08070456 0.066135265 0.071329236 -0.11277547 0.6143091
0.16543117 -1.125402 0.21863425 0.13961472 0.035279334 -0.08965965 -0.4578678 -0.22546773
-0.092746444 -0.18237354 -0.43001837 -0.15053743 0.092112444 -0.10973413 -0.017352402 -0.16419187
-0.07154262 -0.15817305 -0.027840465 -0.2389243 0.18121532 0.031950742 -0.00039300323 -0.013559997
0.09908664 0.019056618 -0.205162 0.20142826 0.1221728 0.38200378 0.62602776 -0.06669478
0.13554543 0.13746701 0.27259976 -0.046070352 -0.14135456 -0.23608978 -0.22718203 0.033207197
0.08875426 0.11888063 -0.2814558 -0.0618705 -0.46398267 0.62006235 0.013731254 -0.11781339
-0.23428687 0.109572135 0.10637243 0.08247325 0.09314179 -0.16056389 0.08079924 -0.38057262
0.1579697 0.122812755 -0.072570436 -0.28165752 -0.6121989 -0.07686655 -0.036114953 0.082388155
-0.21235543 -0.07896242 0.12561744 0.13539624 -0.056988522 -0.17074928 0.09253857 -0.31207842
-0.023927035 0.22815713 -0.120581225 -0.0023941696 -0.24831969 -0.10110755 -0.046476185 -0.14617816
0.08869803 0.23743355 0.18026942 -0.25778565 0.09222388 0.17139095 -0.106352076 -0.23056318
0.0630019 -0.11161636 0.084524214 -0.15229912 -0.17154084 -0.10935709 -0.056589037 0.13166565
0.15629154 -0.09281266 -0.12678681 0.22091356 0.112971604 -0.14476764 0.16794443 0.21073467
-0.5023291 0.1341269 0.17122996 0.26063415 -0.117672354 0.0144060785 0.320409 -0.2583419
0.19672303 0.12068372 -0.2763616 0.006112652 -0.24474773 -0.3562557 0.03795814 -0.4515885
0.03739578 0.050765425 0.09944933 -0.008832123 -0.0041747103 0.09293349 -0.36400205 -0.17115939
0.27692607 0.2456394 -0.33026543 -0.072254 -0.054524854 -0.21507575 -0.026166897 -0.06598329
-0.02284291 0.10555643 -0.33941764 -0.015182908 -0.34907165 -0.12978777 -0.28871506 -0.3503834
-0.2764912 0.101331055 -0.1730515 -0.34181118 -2.0252093e-05 1.1434767 0.092931226 0.09091691
0.13626634 -0.28274056 -0.20559077 -0.18610115 0.15136582 -0.0030907313 -0.25645223 -0.173364
-0.03296783 0.06993527 -0.06632145 0.24801889 0.3436715 -0.99322784 -0.1975755 -0.30319417
0.07617653 0.059292547 -0.31767303 0.040909924 0.015584439 0.15767764 -0.10724239 0.19048628
0.11605021 -0.12973736 0.10873258 -0.50809884 0.868305 -0.109769925 -0.2521629 0.10243813
0.1425347 0.09472746 0.14268222 0.16798066 -0.14300504 -0.117367 0.1299473 0.0757503
-0.12617578 -0.17551497 -0.059261966 -1.0278811 -0.11729224 -0.11662533 -0.072822034 -0.29174596
-0.2789288 -0.42985693 0.23035765 -0.021174824 0.010801365 0.14401692 -0.023787081 0.16359057
-0.089318536 0.29681772 -0.011709548 -0.050131526 -0.27220294 -0.060905077 0.15839694 -0.084918074
0.049065273 0.15092722 -0.15731676 -0.13803364 0.08079495 -0.21213229 -0.13880739 0.12686089
0.5627772 0.5827741 -0.09636363 -0.24013266 -0.0018790764 -0.20998907 0.02567426 -0.18020123
-0.40373313 0.07170206 -0.37338173 0.06305324 0.12169337 -0.06370321 -0.21088794 -1.0466812
00000000: aa4c 773a 6ec1 623f 6960 c6bd 61ab 033e
00000010: 8e6b 2ebe 5da4 9c3c 713b 983e 339f 2e3e
00000020: eaa0 05bf 6e31 eebe 1c4e c4be 6f48 a5bd
00000030: ed71 873d 1015 923d d3f6 e6bd 5c43 1d3f
00000040: ca66 293e 2c0d 90bf a8e1 5f3e 29f7 0e3e
00000050: 1081 103d 7b9f b7bd a66d eabe 03e1 66be
00000060: d9f1 bdbd 21c0 3abe 5e2b dcbe 7c26 1abe
00000070: 73a5 bc3d 4abc e0bd a026 8ebc ea21 28be
00000080: f084 92bd 1ef8 21be b011 e4bc 92a8 74be
00000090: 8290 393e c8de 023d 000c ceb9 c02a 5ebc
000000a0: f0ed ca3d a01c 9c3c fd15 52be 3643 4e3e
000000b0: bc35 fa3d 0096 c33e 5b43 203f 4697 88bd
000000c0: 6ccc 0a3e 27c4 0c3e 3292 8b3e 44b4 3cbd
000000d0: 40bf 10be 85c1 71be 68a2 68be 4504 083d
000000e0: cbc4 b53d b077 f33d fa1a 90be ec6b 7dbd
000000f0: 238f edbe 68bc 1e3f 0ef9 603c 2648 f1bd
00000100: e6e8 6fbe 5b67 e03d cad9 d93d bce7 a83d
00000110: 1fc1 be3d dc6a 24be 127a a53d 6ada c2be
00000120: cfc2 213e 4185 fb3d cf9f 94bd 6a35 90be
00000130: 11b9 1cbf 366c 9dbd 46ed 13bd 1fbb a83d
00000140: b473 59be 0db7 a1bd dca1 003e 50a5 0a3e
00000150: cc6c 69bd e6d8 2ebe dd84 bd3d bec8 9fbe
00000160: a102 c4bc 06a2 693e 4af3 f6bd 80e7 1cbb
00000170: 8447 7ebe 7a11 cfbd d05d 3ebd baaf 15be
00000180: 50a7 b53d c821 733e 8c98 383e 7bfc 83be
00000190: e0df bc3d 1c81 2f3e 1ecf d9bd c118 6cbe
000001a0: 2407 813d 1e97 e4bd 081b ad3d 4df4 1bbe
000001b0: 67a8 2fbe 9cf6 dfbd e8c9 67bd 5cd3 063e
000001c0: e40a 203e 9014 bebd 67d4 01be 2a37 623e
000001d0: a85d e73d f83d 14be a0f9 2b3e d4ca 573e
000001e0: a498 00bf 9058 093e e856 2f3e d771 853e
000001f0: 34fe f0bd 7907 6c3c a60c a43e 6445 84be
00000200: c371 493e 0729 f73d 457f 8dbe a44c c83b
00000210: 269f 7abe 2667 b6be ff79 1b3d 9c36 e7be
00000220: 512c 193d 68ef 4f3d 17ac cb3d 9cb4 10bc
00000230: 02cc 88bb ea53 be3d 7a5e babe 6844 2fbe
00000240: 41c9 8d3e e588 7b3e 8d18 a9be e8f9 93bd
00000250: 7455 5fbd d13c 5cbe f65b d6bc 3f22 87bd
00000260: 0e21 bbbc f82d d83d 26c8 adbe bbc1 78bc
00000270: 85b9 b2be 16e7 04be 76d2 93be 7465 b3be
00000280: 4190 8dbe a886 cf3d 6a34 31be e001 afbe
00000290: 0ae3 a9b7 725d 923f ba52 be3d a532 ba3d
000002a0: 6789 0b3e 5fc3 90be 6386 52be 4d91 3ebe
000002b0: a4ff 1a3e de8d 4abb b54d 83be 5586 31be
000002c0: 4609 07bd 393a 8f3d 8ad3 87bd aaf8 7d3e
000002d0: b6f5 af3e 2e44 7ebf 3b51 4abe 443c 9bbe
000002e0: 7102 9c3d bedc 723d 0aa6 a2be 2a91 273d
000002f0: e055 7f3c 3f76 213e e6a1 dbbd d60e 433e
00000300: bcab ed3d dfd9 04be 30af de3d c412 02bf
00000310: 3d49 5e3f 0ecf e0bd 7f1b 81be 15cb d13d
00000320: 9ef4 113e 7800 c23d 4a1b 123e 1f03 2c3e
00000330: ea6f 12be 1c5e f0bd e810 053e f922 9b3d
00000340: 3934 01be 32ba 33be adbc 72bd 9c91 83bf
00000350: ea36 f0bd 43d9 eebd b823 95bd ba5f 95be
00000360: c1cf 8ebe 3516 dcbe e0e2 6b3e d376 adbc
00000370: 35f8 303c 2c79 133e 20dd c2bc 4984 273e
00000380: a3ec b6bd 7ef8 973e 67d9 3fbc b756 4dbd
00000390: 2f5e 8bbe 9a77 79bd cf32 223e 87e9 adbd
000003a0: abf8 483d aa8c 1a3e a517 21be b158 0dbe
000003b0: d377 a53d 3539 59be 8623 0ebe d2e7 013e
000003c0: 2b12 103f af30 153f 4b5a c5bd 56e5 75be
000003d0: 574b f6ba 6007 57be d352 d23c ac86 38be
000003e0: 1cb6 cebe 88d8 923d e42b bfbe 0f22 813d
000003f0: 603a f93d d476 82bd 02f3 57be a6f9 85bf

layers.0.bias f4 [64]
-0.0011058726 -0.2573113 -0.2493426 -0.25717762 0.1791031 0.12258845 -0.13958141 0.18406516
0.18448637 -0.1921921 -0.23658575 0.14606442 -0.026322192 0.19820793 -0.21119964 0.08275294
0.15287763 -0.05209774 -0.17434855 0.0647161 -0.12917559 -0.027572826 -0.18933149 0.19454627
-0.06772934 0.1480237 -0.0816381 -0.020842377 0.25373068 0.11705172 -0.02599691 -0.247839
-0.20724055 -0.20611268 0.045907136 0.12535521 0.101201855 0.20518641 0.15672597 0.18348469
0.18241967 0.092280686 -0.29170403 -0.2387669 -0.3082475 -0.28941488 0.030913372 0.054489225
-0.22797044 -0.033690646 0.054328218 -0.26737952 -0.26173273 -0.18017966 0.19079815 0.16064118
0.09312318 -0.07869405 -0.11742663 -0.051912673 -0.13916256 0.019711336 -0.25540388 -0.22873795
00000000: edf2 90ba 4fbe 83be ab53 7fbe c9ac 83be
00000010: ce66 373e a70f fb3d 6eee 0ebe 947b 3c3e
00000020: ffe9 3c3e 02ce 44be 8943 72be e991 153e
00000030: a3a1 d7bc 05f7 4a3e b844 58be 607a a93d
00000040: f48b 1c3e 7164 55bd 6d88 32be e089 843d
00000050: 9b46 04be 68e0 e1bc 1de0 41be 2337 473e
00000060: aeb5 8abd 8693 173e e031 a7bd a2bd aabc
00000070: fde8 813e d0b8 ef3d 79f7 d4bc 82c9 7dbe
00000080: de36 54be 340f 53be 1f09 3c3d 1e5d 003e
00000090: eb42 cf3d 631c 523e c67c 203e 69e3 3b3e
000000a0: 39cc 3a3e a8fd bc3d 3b5a 95be 4f7f 74be
000000b0: 9ed2 9dbe 302e 94be 0a3e fd3c 1830 5f3d
000000c0: 1571 69be 34ff 09bd 4487 5e3d f8e5 88be
000000d0: d501 86be 0481 38be 9760 433e 1f7f 243e
000000e0: 5eb7 be3d 592a a1bd 5f7d f0bd 62a2 54bd
000000f0: a180 0ebe ab79 a13c 4cc4 82be 483a 6abe

layers.1.weight f4 [64, 64]
-0.00072612474 -0.087336466 -0.034937277 -0.11225353 0.0755457 0.007174441 -0.087298885 -0.00811097
0.091526 -0.040395346 0.07410228 0.05529447 -0.09130895 -0.061246697 0.06526828 0.040535655
-0.037852135 0.09174563 0.05648229 0.041446924 -0.010410513 -0.02416572 -0.17983899 0.0005555606
0.018089164 0.083304435 -0.14975008 -0.051256526 -0.0397616 0.06938009 -0.21697666 0.08359217
0.03527157 -0.028289143 -0.034022294 0.095130876 0.14680776 -0.0520818 -0.087864906 0.05823025
-0.012670195 0.059594244 0.11685988 0.039798867 -0.11502579 -0.1416312 -0.0755004 -0.08038935
-0.043798875 0.02397323 0.05589749 -0.07039581 0.048830386 -0.10361558 -0.0416094 -0.053722966
0.011559335 -0.0894966 0.010748265 -0.07328266 -0.089350335 0.016164446 -0.041580036 0.0048475633
0.08673243 0.06269036 0.09646347 0.059367888 -0.1273312 0.041187957 0.008335814 0.037174597
-0.069693916 0.12174785 0.06581421 0.08375958 0.060787767 0.049962256 -0.10560634 -0.11559045
0.07899334 0.031861987 0.013257191 0.020663634 0.016231837 0.03260599 -0.07501665 -0.011619136
-0.032395035 -0.12701297 -0.09692178 -0.039521564 -0.077289626 0.10313603 -0.13719192 -0.076308966
-0.038054124 0.0667639 0.05698309 -0.11846019 -0.06201616 0.08328368 0.0065710694 -0.118081786
0.06170062 -0.04368785 0.09622002 0.082758404 -0.08809229 0.024317581 -0.09598227 -0.04730341
-0.017153325 -0.01864146 -0.01543715 -0.071897015 -0.033737555 -0.055754483 0.026092224 -0.047393985
0.022979453 -0.11496465 -0.13989136 -0.10456312 -0.011244246 0.055210426 -0.032574788 -0.10681087
0.06599345 0.091126785 0.0021612495 -0.05941655 0.029666929 -0.045136616 -0.056258515 0.0025556684
-0.06798483 -0.16900799 -0.122454 0.037722602 -0.03576137 -0.04641733 -0.08224795 0.0070112823
-0.11753643 -0.09090983 -0.021933988 0.07190718 0.052343044 0.12378974 -0.06904902 0.077367
0.05150978 -0.01797236 -0.12436172 0.0044405656 -0.09267438 0.03422913 0.067048214 0.071600676
0.052152827 -0.02770835 -0.023626314 0.0027038753 0.042237572 -0.028402826 0.062519684 0.03307417
0.029995373 0.014329985 0.0004006055 0.10845118 0.07081619 -0.15687282 -0.1578652 -0.048814714
0.044257358 0.04663834 0.017385496 -0.018639619 -0.15652661 0.06416097 -0.044909805 0.030509224
0.047441702 -0.08637664 0.04916581 -0.00402709 -0.036619727 -0.13788499 -0.095780715 -0.019397631
0.014506563 0.0012270957 -0.028262675 -0.038958933 -0.14223582 0.11083588 0.065869555 -0.055963427
-0.10719855 0.10639845 -0.018450081 0.019340888 -0.014273824 -0.07553493 -0.13057566 -0.032125875
-0.015824044 -0.11565782 -0.14573257 -0.04993935 -0.07675387 0.08358225 -0.042255398 -0.094616205
-0.01876679 -0.040682767 0.0473371 -0.110686295 -0.12229402 0.045632854 0.10659244 0.0058529344
0.039644197 0.057079084 -0.009916484 -0.061696604 0.039390042 -0.0482236 -0.019857079 0.059364054
-0.01227802 0.011617616 0.10186236 -0.10303672 -0.05025788 -0.010266178 -0.02317263 -0.04963593
-0.12252439 -0.062233806 0.070061296 -0.050104197 -0.11833754 0.04467 0.089070536 0.028195694
0.048252866 -0.024521112 0.009339139 -0.10402182 0.026970586 -0.04348801 -0.017682001 -0.020616043
00000000: 6859 3eba 76dd b2bd 641a 0fbd 2ee5 e5bd
00000010: b4b7 9a3d 9317 eb3b c2c9 b2bd e0e3 04bc
00000020: fc71 bb3d 9775 25bd f0c2 973d 747c 623d
00000030: 3000 bbbd d1dd 7abd 60ab 853d b708 263d
00000040: d70a 1bbd 22e5 bb3d f959 673d 40c4 293d
00000050: db90 2abc 30f7 c5bc b627 38be 0aa3 113a
00000060: ba2f 943c 849b aa3d 1658 19be 5df2 51bd
00000070: 0fdd 22bd 2617 8e3d 212f 5ebe 5f32 ab3d
00000080: ec78 103d a2be e7bc f65a 0bbd fad3 c23d
00000090: c654 163e ba53 55bd 84f2 b3bd d882 6e3d
000000a0: a696 4fbc 1819 743d 3c54 ef3d 2304 233d
000000b0: a492 ebbd c507 11be f49f 9abd 2ca3 a4bd
000000c0: 7366 33bd 8263 c43c c4f4 643d ae2b 90bd
000000d0: 5f02 483d 6834 d4bd 9e6e 2abd 9d0c 5cbd
000000e0: 5d63 3d3c fe49 b7bd 7e19 303c 3815 96bd
000000f0: 4ffd b6bd 4d6b 843c d44f 2abd 4fd8 9e3b
00000100: c6a0 b13d ce63 803d a48e c53d be2b 733d
00000110: 1c63 02be b4b4 283d f092 083c 6444 183d
00000120: afbb 8ebd f056 f93d 9ac9 863d 258a ab3d
00000130: 98fc 783d 39a5 4c3d 2348 d8bd b0ba ecbd
00000140: 43c7 a13d b781 023d b034 593c c846 a93c
00000150: a1f8 843c dc8d 053d 54a2 99bd 305e 3ebc
00000160: a8b0 04bd b00f 02be ed7e c6bd 5de1 21bd
00000170: 064a 9ebd fc38 d33d 0a7c 0cbe e047 9cbd
00000180: a4de 1bbd 83bb 883d 1a67 693d 429b f2bd
00000190: a804 7ebd a290 aa3d 2052 d73b ddd4 f1bd
000001a0: cab9 7c3d 08f2 32bd 000f c53d 3d7d a93d
000001b0: bb69 b4bd aa35 c73c 5a92 c4bd 38c1 41bd
000001c0: 2185 8cbc fab5 98bc 1aec 7cbc be3e 93bd
000001d0: 6430 0abd d05e 64bd 5cbf d53c 3220 42bd
000001e0: 683f bc3c 9672 ebbd ae3f 0fbe 3025 d6bd
000001f0: c939 38bc 5424 623d 246d 05bd a8bf dabd
00000200: 9327 873d aea0 ba3d c0a3 0d3b c55e 73bd
00000210: 0f08 f33c 2ce1 38bd 546f 66bd 007d 273b
00000220: a13b 8bbd 6e10 2dbe 2ac9 fabd 0483 1a3d
00000230: 847a 12bd 1920 3ebd 9d71 a8bd e6be e53b
00000240: f1b6 f0bd ef2e babd e8ae b3bc 1244 933d
00000250: a965 563d 7a85 fd3d 9369 8dbd 9772 9e3d
00000260: ebfb 523d c53a 93bc 5cb1 febd 2a82 913b
00000270: 11cc bdbd d833 0c3d 9350 893d 60a3 923d
00000280: 349e 553d 9ffc e2bc f98b c1bc 8033 313b
00000290: 4e01 2d3d 0bad e8bc 520a 803d c878 073d
000002a0: dbb8 f53c 50c8 6a3c 5c08 d239 a71b de3d
000002b0: 1408 913d 45a3 20be 6aa7 21be f0f1 47bd
000002c0: 3447 353d d807 3f3d 076c 8e3c 1db2 98bc
000002d0: 8348 20be d466 833d 58f3 37bd 7bee f93c
000002e0: 3b52 423d 3ce6 b0bd 1762 493d aef5 83bb
000002f0: 91fe 15bd b931 0dbe ae28 c4bd c8e7 9ebc
00000300: efac 6d3c 80d6 a03a 2087 e7bc 6793 1fbd
00000310: 44a6 11be ecfd e23d 9ee6 863d e839 65bd
00000320: ea8a dbbd 6ee7 d93d a024 97bc c870 9e3c
00000330: c2dc 69bc 0fb2 9abd a0b5 05be 6c96 03bd
00000340: 6da1 81bc 02de ecbd eb3a 15be 348d 4cbd
00000350: 2231 9dbd 2c2d ab3d ff13 2dbd 24c6 c1bd
00000360: d0bc 99bc f9a2 26bd 8ce4 413d 7faf e2bd
00000370: 4a75 fabd 84e9 3a3d 234d da3d f9c9 bf3b
00000380: f461 223d c2cb 693d c078 22bc 94b5 7cbd
00000390: 7457 213d 1c86 45bd 50ab a2bc b927 733d
000003a0: c029 49bc d057 3e3c 379d d03d ea04 d3bd
000003b0: 35db 4dbd 7933 28bc 87d4 bdbc 0c4f 4bbd
000003c0: 11ee fabd e0e8 7ebd 4c7c 8f3d 0f3a 4dbd
000003d0: f45a f2bd e4f7 363d 9d6a b63d a8fa e63c
000003e0: cca4 453d 80e0 c8bc 3003 193c 6409 d5bd
000003f0: 6bf1 dc3c 7c20 32bd d8d9 90bc fae2 a8bc

layers.1.bias f4 [64]
0.10283566 0.053864628 -0.1632308 0.004788634 -0.06283708 0.054639533 -0.01090105 -0.18920006
0.13504702 -0.046938032 0.055803604 0.09594584 -0.08503838 -0.14811578 0.008569973 0.03068105
-0.022020526 -0.09908271 0.09413029 -0.14154454 -0.15953057 -0.053572945 -0.11971456 -0.055173453
-0.108226396 -0.11483263 -0.08528073 -0.03625295 -0.0020591097 0.0699899 -0.0401223 -0.020774053
-0.18005233 0.027792905 0.009495791 0.05446818 0.07509951 -0.035362232 -0.08619106 -0.07131317
-0.07017548 0.08098897 -0.16031797 -0.04564792 -0.15470558 -0.12710552 0.0041665123 -0.12649994
0.055167317 -0.18639417 0.00015618179 -0.16008015 0.0942149 -0.08768487 -0.081484355 -0.10370322
-0.0011164226 -0.14120273 0.07881619 -0.03591875 -0.07454419 0.046808265 -0.22050048 -0.12109185
00000000: 819b d23d 28a1 5c3d fa25 27be f9e9 9c3b
00000010: bab0 80bd b4cd 5f3d 519a 32bc a9bd 41be
00000020: c449 0a3e 1842 40bd 5292 643d 417f c43d
00000030: 9a28 aebd aaab 17be 1269 0c3c d356 fb3c
00000040: 6464 b4bc e0eb cabd 62c7 c03d 0df1 10be
00000050: fb5b 23be 4e6f 5bbd e82c f5bd 8ffd 61bd
00000060: cda5 ddbd 5f2d ebbd aaa7 aebd f97d 14bd
00000070: 21f2 06bb dd56 8f3d 4857 24bd 592e aabc
00000080: a35f 38be f2ad e33c 3c94 1b3c 071a 5f3d
00000090: c6cd 993d fdd7 10bd f084 b0bd a40c 92bd
000000a0: 29b8 8fbd 8cdd a53d 652a 24be 50f9 3abd
000000b0: 246b 1ebe f327 02be 3d87 883b 3389 01be
000000c0: 20f7 613d 1dde 3ebe bbc4 2339 0dec 23be
000000d0: bef3 c03d 2094 b3bd 45e1 a6bd 5b62 d4bd
000000e0: ed54 92ba 7397 10be 626a a13d 8a1f 13bd
000000f0: a0aa 98bd 06ba 3f3d e1ca 61be 01ff f7bd

layers.2.weight f4 [9, 64]
0.053218246 -0.0061833216 0.07023303 0.015167267 0.08859 0.11824947 -0.06329259 -0.2642333
0.03775303 -0.1307323 -0.28052518 0.027675092 -0.19298777 -0.082309246 0.2046528 0.10244586
-0.03804333 -0.018870499 -0.025345277 0.2019234 -0.019543126 -0.32176495 -0.019620564 0.08608331
0.012498491 -0.07904441 0.047209043 -0.18740004 -0.25068668 -0.04550205 -0.08275995 0.056683127
-0.2377136 -0.2018535 0.3465315 0.13524775 0.014939129 -0.03847269 -0.101894855 -0.120983794
-0.0076887202 0.087828256 -0.09557917 -0.15169023 0.009517232 0.10724206 0.042381797 -0.14495805
0.102778725 0.09517144 0.024244253 -0.19326892 0.09730857 -0.06552279 -0.08010225 -0.1356976
-0.15382512 -0.030051813 0.037093643 -0.12013033 0.06535353 0.036394868 -0.29184186 0.041692123
0.05778662 -0.057452112 -0.022091163 -0.04221476 -0.061632074 0.046875227 0.106585935 -0.15705667
0.009682761 0.008859843 -0.044021863 0.007858011 -0.20433632 0.0004461918 0.11416598 0.20680133
0.0642231 0.030924566 0.00791122 -0.2824854 -0.036083892 -0.055875976 -0.0887902 0.032222647
0.042510267 -0.18575053 0.026290987 -0.14469655 0.013835831 0.094344035 -0.03786986 0.015540239
-0.11824489 -0.13478522 -0.28595227 0.11571539 0.07022801 0.021087436 0.005571429 -0.18600146
0.0021978437 0.057052426 -0.20993759 0.035337128 0.13359113 0.22844769 0.0817154 -0.17903286
-0.21572885 -0.025574062 0.050516106 -0.01203709 0.10061967 -0.05013409 -0.081290945 0.04261685
-0.056209575 -0.104288206 0.06753869 -0.33110604 0.061950017 0.025485367 -0.13218938 0.041116584
0.031273596 0.098049834 -0.01846029 0.11392443 -0.006457284 0.043644663 -0.07889278 0.044666238
0.0753981 -0.3575321 -0.1333714 0.13716874 -0.22000511 0.10504708 0.033682402 0.10358754
-0.04659242 0.14517836 -0.062229533 -0.119981095 -0.3776229 0.009098692 -0.08269397 0.08049261
0.007444854 -0.12645064 -0.020034602 -0.25775814 0.0046534864 0.05887132 -0.058131665 0.023568826
-0.03215628 0.09683844 -0.05298562 0.07379854 -0.080570966 -0.017487355 -0.19365227 -0.10867224
0.00021564202 0.034286488 -0.22912201 -0.037488718 -0.105011776 0.06902157 0.09616197 -0.07859584
-0.30733985 0.0054909466 0.033623233 -0.026266368 0.19731858 -0.07415469 -0.118270665 -0.014758256
-0.0007760643 0.011638309 -0.0127907265 0.116891205 0.050356664 0.040782694 -0.14062817 0.012481779
0.040944822 -0.049926057 -0.024514178 0.086299144 -0.10272418 0.0008829961 0.07209243 -0.28748605
0.0049757995 0.12394322 0.084599786 0.026987039 -0.0103023425 0.043652724 0.017985545 0.09796219
-0.06819392 -0.0703364 -0.07631528 0.15237258 -0.023470111 -0.34668177 -0.08794792 0.09464652
0.053556655 0.08682511 0.08900069 0.041638434 -0.132607 -0.018477008 -0.08619326 0.109344125
-0.2421456 -0.22597674 0.16539428 0.042312816 0.09344615 0.044433307 0.15788756 0.078910545
-0.087547496 -0.10251887 -0.006510642 -0.079962835 0.04278708 0.07714224 0.09408327 -0.11201578
-0.012763125 -0.17385288 -0.01789355 -0.07959159 0.0991025 -0.20172022 -0.054520413 -0.1413084
0.008987457 0.018416967 0.08186469 -0.08487547 0.077401675 -0.012276099 -0.007426301 -0.12359542
00000000: 60fb 593d 769d cabb 56d6 8f3d 2180 783c
00000010: ad6e b53d c72c f23d 8c9f 81bd 9649 87be
00000020: eca2 1a3d b0de 05be ffa0 8fbe e0b6 e23c
00000030: 969e 45be c091 a8bd 8190 513e 23cf d13d
00000040: 53d3 1bbd 4e96 9abc e6a0 cfbc 02c5 4e3e
00000050: e818 a0bc 60be a4be 4ebb a0bc 724c b03d
00000060: 79c6 4c3c 09e2 a1bd 455e 413d cce5 3fbe
00000070: 015a 80be 5c60 3abd 0c7e a9bd 912c 683d
00000080: 326b 73be afb2 4ebe 946c b13e 637e 0a3e
00000090: 40c3 743c 8a95 1dbd 40ae d0bd 5ac6 f7bd
000000a0: a9f1 fbbb 4ddf b33d 03bf c3bd af54 1bbe
000000b0: 2aee 1b3c baa1 db3d 8998 2d3d e26f 14be
000000c0: a77d d23d 3ee9 c23d e29b c63c 4ae8 45be
000000d0: b749 c73d d030 86bd a60c a4bd 50f4 0abe
000000e0: 5584 1dbe 382f f6bc 81ef 173d e406 f6bd
000000f0: 12d8 853d c912 153d 4c6c 95be 5cc5 2a3d
00000100: aab1 6c3d e852 6bbd 87f8 b4bc 62e9 2cbd
00000110: ea71 7cbd 3d00 403d ba49 da3d 77d3 20be
00000120: 71a4 1e3c e028 113c 4550 34bd e3be 003c
00000130: 8a3d 51be daee e939 dacf e93d bac3 533e
00000140: 6787 833d 8455 fd3c 109e 013c eda1 90be
00000150: b4cc 13bd 35de 64bd a3d7 b5bd e5fb 033d
00000160: 3f1f 2e3d 6335 3ebe 3260 d73c 552b 14be
00000170: aeaf 623c 7237 c13d 6d1d 1bbd 7d9c 7e3c
00000180: 602a f2bd 2305 0abe 5668 92be 31fc ec3d
00000190: b4d3 8f3d 8fbf ac3c 8990 b63b 2b77 3ebe
000001a0: b309 103b ceaf 693d e1f9 56be aabd 103d
000001b0: 1dcc 083e 31ee 693e 675a a73d 6454 37be
000001c0: 06e8 5cbe b280 d1bc fae9 4e3d 3737 45bc
000001d0: af11 ce3d 6759 4dbd de7b a6bd 028f 2e3d
000001e0: 033c 66bd 0e95 d5bd ba51 8a3d bb86 a9be
000001f0: 4dbf 7d3d b0c6 d03c a75c 07be dd69 283d
00000200: be18 003d 5ace c83d 093a 97bc 3651 e93d
00000210: a097 d3bb bfc4 323d 8a92 a1bd f2f3 363d
00000220: 526a 9a3d 730e b7be 8392 08be f675 0c3e
00000230: 0549 61be ec22 d73d 8ff6 093d b425 d43d
00000240: b2d7 3ebd a3a9 143e 65e4 7ebd a6b8 f5bd
00000250: ca57 c1be ae12 153c 755b a9bd 4fd9 a43d
00000260: f6f3 f33b 477c 01be 9b1f a4bc e0f8 83be
00000270: 467c 983b 0e23 713d 781b 6ebd 6913 c13c
00000280: 4eb6 03bd 3b53 c63d 7307 59bd b023 973d
00000290: 6402 a5bd a441 8fbc c84c 46be 8d8f debd
000002a0: f71d 6239 fd6f 0c3d f69e 6abe c58d 19bd
000002b0: 6a10 d7bd 2e5b 8d3d 91f0 c43d dbf6 a0bd
000002c0: a65b 9dbe 66ed b33b 84b8 093d 912c d7bc
000002d0: e20d 4a3e 6ade 97bd e437 f2bd 9dcc 71bc
000002e0: cb70 4bba 9bae 3e3c 3290 51bc a864 ef3d
000002f0: ca42 4e3d c10b 273d d500 10be 6080 4c3c
00000300: c2b5 273d 447f 4cbd f5d1 c8bc 9bbd b03d
00000310: 0e61 d2bd dd78 673a 32a5 933d 5f31 93be
00000320: 080c a33b f1d5 fd3d a742 ad3d ec13 dd3c
00000330: 28cb 28bc 33cd 323d 6c56 933c 67a0 c83d
00000340: 41a9 8bbd 880c 90bd 2f4b 9cbd 8f07 1c3e
00000350: 6444 c0bc 4680 b1be 0a1e b4bd 09d6 c13d
00000360: 395e 5b3d 5dd1 b13d fe45 b63d 108d 2a3d
00000370: 21ca 07be 185d 97bc 1886 b0bd d0ef df3d
00000380: 04f5 77be 7266 67be 1e5d 293e 3450 2d3d
00000390: b260 bf3d b3ff 353d 47ad 213e da9b a13d
000003a0: 1a4c b3bd 6af5 d1bd 3957 d5bb 8ec3 a3bd
000003b0: 8141 2f3d c0fc 9d3d bbae c03d 8768 e5bd
000003c0: 6d1c 51bc 7d06 32be 7f95 92bc ea00 a3bd
000003d0: 40f6 ca3d bf8f 4ebe cc50 5fbd 26b3 10be
000003e0: 2040 133c 2edf 963c ada8 a73d 31d3 adbd
000003f0: c584 9e3d b121 49bc 5458 f3bb 981f fdbd

layers.2.bias f4 [9]
0.093141906 0.12856981 0.13922589 0.17264338 0.09583272 0.041023497 0.1509595 0.18788652
0.16874264
00000000: 2fc1 be3d cea7 033e 3b91 0e3e 6dc9 303e
00000010: f243 c43d 4108 283d 2195 1a3e 5365 403e
00000020: dfca 2c3e
