experiments/learn_racetrack/racetrack2/2022_01_20_205032833342_3_fbdf8/2022_01_20_205032833342_3_fbdf8_18999.pth (torch, 24919 bytes, 6 tensors)

layers.0.weight f4 [64, 15]
-0.05491678 1.0760571 -0.036641352 0.16450037 -0.23947547 0.06686439 0.23785393 0.2127473
-0.6010382 -0.5764368 -0.46285734 -0.026251666 0.046715263 -0.009622821 -0.14869215 0.4773438
0.099781916 -1.3823973 0.19806206 0.12152855 0.016272975 -0.10866626 -0.5250066 -0.2400791
-0.110788144 -0.23959135 -0.50362206 -0.16898395 0.07419166 -0.089161314 -0.017352402 -0.16419187
-0.07154262 -0.15817305 -0.027840465 -0.2389243 0.18121532 0.031950742 -0.00039300323 -0.013559997
0.09908664 0.019056618 -0.205162 0.20142826 0.1221728 0.39193106 0.6201784 -0.06698339
0.123789296 0.18069538 0.2558243 -0.010923631 -0.19237216 -0.1841242 -0.19194737 0.08068157
0.097570844 0.14665253 -0.23145251 -0.050114773 -0.74947923 0.45931798 0.035317846 -0.11602777
-0.24076283 0.124868274 0.14865747 0.05263387 0.111389466 -0.11667189 0.033719018 -0.4060396
0.14605759 0.104140356 -0.07435642 -0.3057167 -0.6031137 -0.089885935 -0.04624422 0.08354265
-0.22368266 -0.09119627 0.09425543 0.123326436 -0.055799503 -0.19089486 0.08474873 -0.3220267
-0.023927035 0.238286 -0.120581225 -0.0023941696 -0.24831969 -0.10110755 -0.046476185 -0.14617816
0.08869803 0.23743355 0.18026942 -0.25778565 0.09222388 0.17139095 -0.106352076 -0.23056318
0.0630019 -0.11161636 0.084524214 -0.15229912 -0.17154084 -0.10935709 -0.056589037 0.13166565
0.15629154 -0.09281266 -0.12678681 0.22091356 0.112971604 -0.14476764 0.16794443 0.21073467
-0.4795994 -0.02538092 0.15209371 0.26257452 -0.08996832 0.009636195 0.39296946 -0.27697375
0.16833885 0.08111117 -0.31691894 -0.01797924 -0.25022745 -0.3990508 0.036017857 -0.41377136
0.019532716 0.050174512 0.07734289 0.045794126 -0.014293039 0.16607244 -0.47917062 -0.16318603
0.36417937 0.22886145 -0.4425156 -0.11271267 -0.10305395 -0.1929695 -0.026166897 -0.06598329
-0.02284291 0.10555643 -0.33941764 -0.015182908 -0.34907165 -0.12978777 -0.28871506 -0.3503834
-0.2764912 0.101331055 -0.1730515 -0.34181118 -2.0252093e-05 1.2059375 0.091150045 0.08524003
0.12076481 -0.38132575 -0.15050553 -0.25729796 0.15574221 -0.020139597 -0.3855969 -0.16431893
-0.0021292218 0.07085833 -0.008088975 0.26352155 0.46414998 -1.1172088 -0.20183021 -0.27535254
0.11334138 -0.049857687 -0.39909577 0.084848955 0.012091371 0.192607 -0.10703196 0.18615195
0.1527115 -0.09168395 0.080891624 -0.50776994 0.9580145 -0.11249131 -0.24123381 0.07288047
0.12708819 0.14132597 0.14379317 0.1135535 -0.15532732 -0.16085997 0.13126184 0.061487798
-0.15825394 -0.18644296 -0.19702373 -0.92014384 -0.122069165 -0.14212462 -0.0600129 -0.58096415
-0.35546115 -0.5854552 0.23737314 0.008625079 0.02398397 0.1437642 -0.024849711 0.17233512
-0.06381954 0.2809352 0.004172475 -0.06601441 -0.28808543 -0.076787524 0.14251424 -0.10080052
0.03318282 0.13504449 -0.17319922 -0.15391637 0.06491205 -0.22801496 -0.13880739 0.14274356
0.57128155 0.59848267 -0.08175337 -0.26161557 -0.022102917 -0.25172362 0.090415224 -0.22193813
-0.3629729 0.11079814 -0.34136108 0.08624407 0.09004552 -0.08604712 -0.18940514 -1.0763761
00000000: 6bf0 60bd 3dbc 893f 3e15 16bd c972 283e
00000010: 0f39 75be 33f0 883d fb8f 733e 6eda 593e
00000020: a4dd 19bf 5d91 13bf a3fb ecbe bc0d d7bc
00000030: 8158 3f3d 09a9 1dbc c142 18be 6866 f43e
00000040: 765a cc3d 65f2 b0bf c8d0 4a3e f6e3 f83d
00000050: e74e 853c 6b8c debd d566 06bf 4cd7 75be
00000060: e5e4 e2bd 6f57 75be 60ed 00bf 210a 2dbe
00000070: ccf1 973d 359a b6bd a026 8ebc ea21 28be
00000080: f084 92bd 1ef8 21be b011 e4bc 92a8 74be
00000090: 8290 393e c8de 023d 000c ceb9 c02a 5ebc
000000a0: f0ed ca3d a01c 9c3c fd15 52be 3643 4e3e
000000b0: bc35 fa3d 30ab c83e 03c4 1e3f 962e 89bd
000000c0: 3e85 fd3d 3608 393e 67fb 823e 07f9 32bc
000000d0: 35fd 44be 0e8b 3cbe da8d 44be 613c a53d
000000e0: 39d3 c73d 152c 163e e301 6dbe 2645 4dbd
000000f0: dfdd 3fbf ba2b eb3e 72a9 103d f89f edbd
00000100: 888a 76be f0ba ff3d aa39 183e 9d96 573d
00000110: 2920 e43d acf1 eebd f41c 0a3d 6ce4 cfbe
00000120: 1f90 153e 8a47 d53d 2e48 98bd e686 9cbe
00000130: a965 1abf 1e16 b8bd 946a 3dbd 6918 ab3d
00000140: 110d 65be 1cc5 babd fe08 c13d 9292 fc3d
00000150: 058e 64bd f179 43be be90 ad3d afe0 a4be
00000160: a102 c4bc 3f01 743e 4af3 f6bd 80e7 1cbb
00000170: 8447 7ebe 7a11 cfbd d05d 3ebd baaf 15be
00000180: 50a7 b53d c821 733e 8c98 383e 7bfc 83be
00000190: e0df bc3d 1c81 2f3e 1ecf d9bd c118 6cbe
000001a0: 2407 813d 1e97 e4bd 081b ad3d 4df4 1bbe
000001b0: 67a8 2fbe 9cf6 dfbd e8c9 67bd 5cd3 063e
000001c0: e40a 203e 9014 bebd 67d4 01be 2a37 623e
000001d0: a85d e73d f83d 14be a0f9 2b3e d4ca 573e
000001e0: 0d8e f5be a6eb cfbc 74be 1b3e 2b70 863e
000001f0: 5041 b8bd 22e1 1d3c 4b33 c93e 81cf 8dbe
00000200: 0561 2c3e 9d1d a63d 3343 a2be 3349 93bc
00000210: d01d 80be 6350 ccbe 7687 133d d7d9 d3be
00000220: 1303 a03c ca83 4d3d f365 9e3d 9f92 3b3d
00000230: 5a2d 6abc e50e 2a3e da55 f5be 3d1a 27be
00000240: b875 ba3e a85a 6a3e 6891 e2be e6d5 e6bd
00000250: f30d d3bd cc99 45be f65b d6bc 3f22 87bd
00000260: 0e21 bbbc f82d d83d 26c8 adbe bbc1 78bc
00000270: 85b9 b2be 16e7 04be 76d2 93be 7465 b3be
00000280: 4190 8dbe a886 cf3d 6a34 31be e001 afbe
00000290: 0ae3 a9b7 295c 9a3f e0ac ba3d 5392 ae3d
000002a0: 8a53 f73d 213d c3be 1f1e 1abe 8fbc 83be
000002b0: e37a 1f3e ccfb a4bc f56c c5be 3943 28be
000002c0: 6a8a 0bbb 2c1e 913d 9f87 04bc 4cec 863e
000002d0: 11a5 ed3e b300 8fbf 94ac 4ebe 02fb 8cbe
000002e0: 871f e83d 9337 4cbd 4856 ccbe 4ac5 ad3d
000002f0: e31a 463c c53a 453e 9233 dbbd 9e9e 3e3e
00000300: 6760 1c3e cbc4 bbbd 82aa a53d 36fd 01bf
00000310: 7040 753f d861 e6bd ff05 77be 5b42 953d
00000320: 6823 023e c1b7 103e 843e 133e bd8e e83d
00000330: 200e 1fbe 7ab8 24be 8169 063e a1da 7b3d
00000340: 520d 22be e7ea 3ebe 97c0 49be 8c8e 6bbf
00000350: 66ff f9bd 1e89 11be 16d0 75bd 11ba 14bf
00000360: 01ff b5be 64e0 15bf f211 733e 3450 0d3c
00000370: 087a c43c ec36 133e 9f91 cbbc 9e78 303e
00000380: d2b3 82bd bdd6 8f3e 42b9 883b 9032 87bd
00000390: ef7f 93be c742 9dbd 41ef 113e 8170 cebd
000003a0: b5ea 073d 1a49 0a3e 235b 31be 419c 1dbe
000003b0: 9cf0 843d c17c 69be 8623 0ebe 5e2b 123e
000003c0: 823f 123f 2936 193f 506e a7bd 7af2 85be
000003d0: 2d11 b5bc ebe1 80be 9e2b b93d c043 63be
000003e0: 95d7 b9be 23ea e23d e1c6 aebe bba0 b03d
000003f0: c969 b83d 7939 b0bd 6cf3 41be b1c6 89bf

layers.0.bias f4 [64]
0.021649742 -0.27715793 -0.2493426 -0.24125841 0.18986516 0.11060059 -0.13958141 0.18406516
0.16869427 -0.18976256 -0.23658575 0.13135943 -0.011070425 0.18461746 -0.20919752 0.0668709
0.14701368 -0.0568943 -0.1641823 0.03180947 -0.12176255 -0.027572826 -0.18167432 0.198008
-0.0683374 0.1534877 -0.10067408 -0.01610806 0.24536507 0.11705172 -0.008988285 -0.25092325
-0.20724055 -0.21389464 0.045907136 0.12535521 0.101201855 0.1620682 0.15672597 0.1861817
0.17020045 0.092280686 -0.2844962 -0.24925819 -0.3375641 -0.31087697 0.009169217 0.054489225
-0.21849594 -0.048819516 0.03627108 -0.28149348 -0.27612358 -0.18017966 0.17984287 0.13964112
0.09312318 -0.07582367 -0.105407685 -0.051912673 -0.15579396 0.019082643 -0.25540388 -0.21278326
00000000: cd5a b13c a5e7 8dbe ab53 7fbe 720c 77be
00000010: 036c 423e 9082 e23d 6eee 0ebe 947b 3c3e
00000020: 31be 2c3e 1e51 42be 8943 72be 1683 063e
00000030: ba60 35bc 5c0c 3d3e e037 56be 9cf3 883d
00000040: c18a 163e ff09 69bd 681f 28be a64a 023d
00000050: a55e f9bd 68e0 e1bc d508 3abe 9cc2 4a3e
00000060: 7bf4 8bbd e12b 1d3e 362e cebd 0df5 83bc
00000070: fb40 7b3e d0b8 ef3d 9a43 13bc 0379 80be
00000080: de36 54be 3207 5bbe 1f09 3c3d 1e5d 003e
00000090: eb42 cf3d 35f5 253e c67c 203e 6aa6 3e3e
000000a0: 0749 2e3e a8fd bc3d 7ca9 91be 8a3d 7fbe
000000b0: 34d5 acbe 442b 9fbe 7c3a 163c 1830 5f3d
000000c0: 66bd 5fbe f9f6 47bd fc90 143d ea1f 90be
000000d0: 1260 8dbe 0481 38be bb28 383e 15fe 0e3e
000000e0: 5eb7 be3d 7149 9bbd fcdf d7bd 62a2 54bd
000000f0: 7488 1fbe 3453 9c3c 4cc4 82be dbe3 59be

layers.1.weight f4 [64, 64]
-0.00072612474 -0.087336466 -0.034937277 -0.20502755 0.16056505 0.0071423515 -0.087298885 -0.00811097
0.120969504 0.0020657666 0.07410228 0.011285505 -0.08342438 -0.20393412 0.120228395 0.040535655
-0.037852135 0.09174563 0.063959084 0.059075728 0.000419305 -0.02416572 -0.01576988 -0.042286396
-0.024032477 0.06602049 -0.1467838 -0.15046343 -0.06571225 0.06938009 -0.16624033 0.15312964
0.03527157 -0.0748912 -0.034022294 0.095130876 0.14680776 -0.076808415 -0.087864906 -0.15948254
-0.0865648 0.059594244 0.11685988 0.039798867 -0.11502579 -0.086713836 -0.109237194 -0.08038935
0.025056493 0.02397323 0.12996657 0.0141163515 0.06363713 -0.10361558 0.10349781 -0.10319421
0.011559335 -0.07372634 -0.05096421 -0.07328266 -0.11852813 -0.03289609 -0.041580036 -0.013224691
0.08673243 0.06269036 0.09646347 0.059367888 -0.1273312 0.041187957 0.008335814 0.037174597
-0.069693916 0.12174785 0.06581421 0.08375958 0.060787767 0.049962256 -0.10560634 -0.11559045
0.07899334 0.031861987 0.013257191 0.020663634 0.016231837 0.03260599 -0.07501665 -0.011619136
-0.032395035 -0.12701297 -0.09692178 -0.039521564 -0.077289626 0.10313603 -0.13719192 -0.076308966
-0.038054124 0.0667639 0.05698309 -0.11846019 -0.06201616 0.08328368 0.0065710694 -0.118081786
0.06170062 -0.04368785 0.09622002 0.082758404 -0.08809229 0.024317581 -0.09598227 -0.04730341
-0.017153325 -0.01864146 -0.01543715 -0.071897015 -0.033737555 -0.055754483 0.026092224 -0.047393985
0.022979453 -0.11496465 -0.13989136 -0.10456312 -0.011244246 0.055210426 -0.032574788 -0.10681087
0.06599345 0.091126785 0.0021612495 -0.05941655 0.029666929 -0.045136616 -0.056258515 0.0025556684
-0.06798483 -0.16900799 -0.122454 0.037722602 -0.03576137 -0.04641733 -0.08224795 0.0070112823
-0.11753643 -0.09090983 -0.021933988 0.07190718 0.052343044 0.12378974 -0.06904902 0.077367
0.05150978 -0.01797236 -0.12436172 0.0044405656 -0.09267438 0.03422913 0.067048214 0.071600676
0.052152827 -0.02770835 -0.023626314 0.0027038753 0.042237572 -0.028402826 0.062519684 0.03307417
0.029995373 0.014329985 0.0004006055 0.10845118 0.07081619 -0.15687282 -0.1578652 -0.048814714
0.044257358 0.04663834 0.017385496 -0.018639619 -0.15652661 0.06416097 -0.044909805 0.030509224
0.047441702 -0.08637664 0.04916581 -0.00402709 -0.036619727 -0.13788499 -0.095780715 -0.019397631
0.045067877 -0.012236668 -0.028262675 -0.04062963 -0.1364705 0.11083588 0.065869555 -0.055963427
-0.12254937 0.10639845 -0.018450081 0.019340888 -0.0416423 -0.08019137 -0.14316876 -0.032125875
-0.021781337 -0.14807248 -0.19648069 -0.04993935 -0.09616609 0.08358225 -0.04343493 -0.094616205
-0.01876679 -0.040682767 0.0036208576 -0.11590389 -0.12229402 0.045632854 0.10018673 -0.023790086
0.039644197 0.04274264 -0.009916484 -0.061696604 0.039390042 -0.0482236 -0.019857079 0.048175238
0.006124569 0.011617616 0.09316585 -0.10303672 -0.05025788 -0.06006621 -0.053517014 -0.04963593
-0.115086496 -0.0854046 0.0404398 -0.034944132 -0.12080116 0.04467 0.109104484 0.018623058
0.048252866 -0.044441927 -0.0024661617 -0.10402182 0.03593589 -0.05476482 -0.017682001 -0.029595502
00000000: 6859 3eba 76dd b2bd 641a 0fbd bef2 51be
00000010: 2a6b 243e 630a ea3b c2c9 b2bd e0e3 04bc
00000020: dcbe f73d d061 073b f0c2 973d d7e6 383c
00000030: 67da aabd 1bd4 50be 4e3a f63d b708 263d
00000040: d70a 1bbd 22e5 bb3d fbfc 823d 64f9 713d
00000050: 2ad6 db39 30f7 c5bc d62f 81bc 8034 2dbd
00000060: c2df c4bc c035 873d 7e4e 16be 1613 1abe
00000070: 2594 86bd 2617 8e3d e83a 2abe 04ce 1c3e
00000080: ec78 103d 8f60 99bd f65a 0bbd fad3 c23d
00000090: c654 163e bb4d 9dbd 84f2 b3bd 644f 23be
000000a0: e348 b1bd 1819 743d 3c54 ef3d 2304 233d
000000b0: a492 ebbd 0697 b1bd c0b7 dfbd 2ca3 a4bd
000000c0: 4643 cd3c 8263 c43c f515 053e 4548 673c
000000d0: 2f54 823d 6834 d4bd a9f6 d33d 7c57 d3bd
000000e0: 5d63 3d3c d6fd 96bd d9bf 50bd 3815 96bd
000000f0: e0be f2bd 0dbe 06bd d44f 2abd 60ac 58bc
00000100: c6a0 b13d ce63 803d a48e c53d be2b 733d
00000110: 1c63 02be b4b4 283d f092 083c 6444 183d
00000120: afbb 8ebd f056 f93d 9ac9 863d 258a ab3d
00000130: 98fc 783d 39a5 4c3d 2348 d8bd b0ba ecbd
00000140: 43c7 a13d b781 023d b034 593c c846 a93c
00000150: a1f8 843c dc8d 053d 54a2 99bd 305e 3ebc
00000160: a8b0 04bd b00f 02be ed7e c6bd 5de1 21bd
00000170: 064a 9ebd fc38 d33d 0a7c 0cbe e047 9cbd
00000180: a4de 1bbd 83bb 883d 1a67 693d 429b f2bd
00000190: a804 7ebd a290 aa3d 2052 d73b ddd4 f1bd
000001a0: cab9 7c3d 08f2 32bd 000f c53d 3d7d a93d
000001b0: bb69 b4bd aa35 c73c 5a92 c4bd 38c1 41bd
000001c0: 2185 8cbc fab5 98bc 1aec 7cbc be3e 93bd
000001d0: 6430 0abd d05e 64bd 5cbf d53c 3220 42bd
000001e0: 683f bc3c 9672 ebbd ae3f 0fbe 3025 d6bd
000001f0: c939 38bc 5424 623d 246d 05bd a8bf dabd
00000200: 9327 873d aea0 ba3d c0a3 0d3b c55e 73bd
00000210: 0f08 f33c 2ce1 38bd 546f 66bd 007d 273b
00000220: a13b 8bbd 6e10 2dbe 2ac9 fabd 0483 1a3d
00000230: 847a 12bd 1920 3ebd 9d71 a8bd e6be e53b
00000240: f1b6 f0bd ef2e babd e8ae b3bc 1244 933d
00000250: a965 563d 7a85 fd3d 9369 8dbd 9772 9e3d
00000260: ebfb 523d c53a 93bc 5cb1 febd 2a82 913b
00000270: 11cc bdbd d833 0c3d 9350 893d 60a3 923d
00000280: 349e 553d 9ffc e2bc f98b c1bc 8033 313b
00000290: 4e01 2d3d 0bad e8bc 520a 803d c878 073d
000002a0: dbb8 f53c 50c8 6a3c 5c08 d239 a71b de3d
000002b0: 1408 913d 45a3 20be 6aa7 21be f0f1 47bd
000002c0: 3447 353d d807 3f3d 076c 8e3c 1db2 98bc
000002d0: 8348 20be d466 833d 58f3 37bd 7bee f93c
000002e0: 3b52 423d 3ce6 b0bd 1762 493d aef5 83bb
000002f0: 91fe 15bd b931 0dbe ae28 c4bd c8e7 9ebc
00000300: 1899 383d 4e7c 48bc 2087 e7bc 416b 26bd
00000310: ecbe 0bbe ecfd e23d 9ee6 863d e839 65bd
00000320: 2afb fabd 6ee7 d93d a024 97bc c870 9e3c
00000330: 1e91 2abd 5f3b a4bd d59a 12be 6c96 03bd
00000340: c66e b2bc 50a0 17be 3c32 49be 348d 4cbd
00000350: baf2 c4bd 2c2d ab3d d3e8 31bd 24c6 c1bd
00000360: d0bc 99bc f9a2 26bd e94b 6d3b 055f edbd
00000370: 4a75 fabd 84e9 3a3d b32e cd3d 6de3 c2bc
00000380: f461 223d e812 2f3d c078 22bc 94b5 7cbd
00000390: 7457 213d 1c86 45bd 50ab a2bc 6653 453d
000003a0: 9cb0 c83b d057 3e3c bdcd be3d ea04 d3bd
000003b0: 35db 4dbd fc07 76bd a834 5bbd 0c4f 4bbd
000003c0: 78b2 ebbd 9be8 aebd 34a4 253d 9421 0fbd
000003d0: 9966 f7bd e4f7 363d 2c72 df3d 628f 983c
000003e0: cca4 453d bd08 36bd 549f 21bb 6409 d5bd
000003f0: 8331 133d 1351 60bd d8d9 90bc 4472 f2bc

layers.1.bias f4 [64]
0.09906555 0.053864628 -0.1632308 -0.005926156 -0.06283708 0.0008657265 -0.026188476 -0.20185196
0.12454403 -0.06540377 0.025433313 0.10382488 -0.11552083 -0.1249037 0.008830759 0.013973354
-0.028918862 -0.11368649 0.083966136 -0.18595162 -0.15990204 -0.08174201 -0.13527651 -0.024093071
-0.108226396 -0.10868545 -0.11857734 -0.03839069 -0.0010489719 0.0699899 0.01220096 0.02163246
-0.18613556 -0.021041647 -0.007873284 0.0920854 0.07754243 -0.035362232 -0.11740066 -0.10353166
-0.07017548 0.084292814 -0.1662135 -0.07083601 -0.17619763 -0.11587523 0.034023125 -0.1499115
0.04264078 -0.19293404 -0.0062217033 -0.18723813 0.08924026 -0.06979317 -0.081484355 -0.10370322
0.028458618 -0.14120273 0.14099188 -0.070352 -0.07550752 0.087574124 -0.23841374 -0.12109185
00000000: e1e2 ca3d 28a1 5c3d fa25 27be 3330 c2bb
00000010: bab0 80bd ecf1 623a 3789 d6bc 48b2 4ebe
00000020: f110 ff3d 69f2 85bd 8659 d03c 24a2 d43d
00000030: 2f96 ecbd 83cd ffbd e3ae 103c 7ff0 643c
00000040: 40e7 ecbc 76d4 e8bd 70f6 ab3d 1a6a 3ebe
00000050: 5cbd 23be 5b68 a7bd ed85 0abe d55e c5bc
00000060: cda5 ddbd 7a96 debd add8 f2bd 8e3f 1dbd
00000070: a87d 89ba dd56 8f3d 89e6 473c 8f36 b13c
00000080: 529a 3ebe 885f acbc f2fe 00bc 4597 bc3d
00000090: 91ce 9e3d fdd7 10bd c26f f0bd 6808 d4bd
000000a0: 29b8 8fbd b6a1 ac3d df33 2abe 7812 91bd
000000b0: 276d 34be fe4f edbd d55b 0b3d 6682 19be
000000c0: 19a8 2e3d 8090 45be 6edf cbbb 5abb 3fbe
000000d0: 99c3 b63d b9ef 8ebd 45e1 a6bd 5b62 d4bd
000000e0: 0c22 e93c 7397 10be 2d60 103e b614 90bd
000000f0: b0a3 9abd 105a b33d bb22 74be 01ff f7bd

layers.2.weight f4 [9, 64]
0.051633887 -0.0061833216 0.07023303 0.04415503 0.08859 0.05242244 -0.06329259 -0.40603605
0.046584155 -0.13396119 -0.35732183 0.015937 -0.2623175 -0.0010937147 0.14014646 0.07387187
-0.03804333 -0.0093921395 -0.0787217 0.15876383 -0.019594233 -0.35721782 -0.019620564 0.092703074
0.012498491 -0.07082171 0.049217395 -0.2736811 -0.21803491 -0.04550205 -0.0278876 0.07367179
-0.17180759 -0.14775614 0.28112724 0.16096215 0.009945422 -0.03847269 -0.19342132 -0.021244505
-0.0076887202 0.087828256 0.013141468 -0.09509959 0.009520386 0.049309995 0.04416854 -0.12296235
0.16191411 0.07928878 0.024244253 -0.21926445 0.14204209 -0.05385146 -0.08010225 -0.1356976
-0.09763808 -0.030051813 0.06029215 -0.058293764 -0.027507924 0.07267249 -0.36510533 0.041692123
-0.060961008 -0.057452112 -0.022091163 -0.04013 -0.061632074 0.053469885 0.106585935 -0.06456577
0.042376425 0.06992903 -0.075679645 0.047210213 -0.20981307 -0.025877297 0.11311681 0.066653214
0.0642231 0.030924566 0.03793899 -0.29448357 -0.004755969 -0.053235944 -0.0887902 0.018198712
0.042510267 -0.18091638 0.07583992 -0.43459174 -0.01867314 0.094344035 -0.045543063 0.04511429
-0.09331092 -0.06984189 -0.410825 0.1150436 0.07375287 0.021087436 -0.16363062 -0.30840912
0.0021978437 0.025848929 -0.21563171 0.08484998 0.13360472 0.2029675 0.13041894 -0.22963534
-0.13193539 -0.025574062 0.03834643 -0.10029928 0.026834112 -0.029362032 -0.081290945 0.04261685
-0.046060696 -0.104288206 0.10471843 -0.32258922 0.054837152 0.07687321 -0.18148075 0.041116584
0.044342004 0.098049834 -0.01846029 0.116740055 -0.006457284 0.05062591 -0.07889278 0.115086414
0.043212842 -0.40767214 -0.2857028 0.11162706 -0.29961675 0.22203264 0.047421273 0.028422894
-0.04659242 0.14517836 0.022461789 -0.03287884 -0.5089459 -0.0060925027 -0.08269397 0.095254086
0.007444854 -0.117714114 -0.0094674975 -0.24969682 0.023870867 0.05887132 -0.031990647 0.07218747
-0.15022293 0.119630635 -0.041129075 0.08981248 -0.064930595 -0.017487355 -0.30706003 -0.031023307
0.00021564202 0.034286488 -0.2541377 -0.09004614 -0.105011776 0.122552544 0.09514311 -0.20236729
-0.26155937 -0.020467667 0.046638217 -0.027114965 0.109107755 -0.03438214 -0.118270665 -0.014758256
0.01947582 0.011638309 0.025652206 0.17238246 -0.013437647 0.037235234 -0.22205636 0.012481779
-0.000617033 -0.049926057 -0.024514178 0.065639704 -0.10272418 -0.027423259 0.07209243 -0.32541516
0.049297173 0.16731802 -0.02586351 -0.02962543 -0.03209747 -0.009253465 0.048493713 0.17734893
-0.06819392 -0.0703364 -0.0701165 0.16521676 0.0016042263 -0.4892345 -0.08794792 0.078075215
0.053556655 0.09494723 -0.07280524 0.06312739 -0.17423199 -0.018477008 -0.11843088 0.10294605
-0.2514589 -0.30895266 0.34140527 0.02869371 0.04917532 0.044433307 0.07525182 -0.0026464267
-0.087547496 -0.10251887 0.032082647 0.013613396 0.0412631 -0.02465258 0.13189158 -0.08826717
-0.13551588 -0.17385288 -0.01789355 0.010204455 0.039524667 -0.17913726 -0.054520413 -0.1413084
0.07915283 0.018416967 0.116066836 -0.10386701 0.024729086 0.031848907 -0.008833767 -0.12359542
00000000: 0e7e 533d 769d cabb 56d6 8f3d e8db 343d
00000010: ad6e b53d eab8 563d 8c9f 81bd f5e3 cfbe
00000020: 07cf 3e3d 1f2d 09be e3f2 b6be 508e 823c
00000030: 7b4e 86be fa5a 8fba 8e82 0f3e 234a 973d
00000040: 53d3 1bbd 7de1 19bc d838 a1bd fc92 223e
00000050: 1684 a0bc 41e5 b6be 4ebb a0bc 1cdb bd3d
00000060: 79c6 4c3c f90a 91bd 2e98 493d ee1f 8cbe
00000070: 8b44 5fbe 5c60 3abd 8974 e4bc 3ce1 963d
00000080: 54ee 2fbe 634d 17be e9ef 8f3e 43d3 243e
00000090: 20f2 223c 8a95 1dbd 3d10 46be f508 aebc
000000a0: a9f1 fbbb 4ddf b33d 504f 573c 93c3 c2bd
000000b0: 65fb 1b3c 47f9 493d 12ea 343d afd3 fbbd
000000c0: d0cc 253e 2862 a23d e29b c63c dc86 60be
000000d0: 7b73 113e 5993 5cbd a60c a4bd 50f4 0abe
000000e0: 79f6 c7bd 382f f6bc e7f4 763d 71c5 6ebd
000000f0: 4c58 e1bc 50d5 943d 16ef babe 5cc5 2a3d
00000100: 40b2 79bd e852 6bbd 87f8 b4bc 5b5f 24bd
00000110: ea71 7cbd 3d03 5b3d ba49 da3d 0f3b 84bd
00000120: e792 2d3d f436 8f3d eefd 9abd 7f5f 413d
00000130: 3dd9 56be a0fc d3bc c9a9 e73d 7b81 883d
00000140: 6787 833d 8455 fd3c ea65 1b3d 8dc6 96be
00000150: f6d7 9bbb ef0d 5abd a3d7 b5bd 7715 953c
00000160: 3f1f 2e3d 2542 39be f651 9b3d cf82 debe
00000170: 6af8 98bc 7237 c13d 5d8b 3abd c3c9 383d
00000180: cc19 bfbd 4409 8fbd a857 d2be fb9b eb3d
00000190: bf0b 973d 8fbf ac3c c98e 27be cde7 9dbe
000001a0: b309 103b 22c1 d33c 8fce 5cbe d4c5 ad3d
000001b0: adcf 083e b6d6 4f3e 8b8c 053e 8725 6bbe
000001c0: 121a 07be b280 d1bc 2511 1d3d b569 cdbd
000001d0: 36d3 db3c a588 f0bc de7b a6bd 028f 2e3d
000001e0: 24aa 3cbd 0e95 d5bd 9e76 d63d 6a2a a5be
000001f0: ec9c 603d b46f 9d3d 17d6 39be dd69 283d
00000200: f69f 353d 5ace c83d 093a 97bc 6915 ef3d
00000210: a097 d3bb 1d5d 4f3d 8a92 a1bd 6db2 eb3d
00000220: f3ff 303d 67ba d0be a347 92be ba9c e43d
00000230: 5e67 99be 865c 633e cf3c 423d 21d7 e83c
00000240: b2d7 3ebd a3a9 143e c901 b83c f6ab 06bd
00000250: 474a 02bf 9ea3 c7bb 755b a9bd 9314 c33d
00000260: f6f3 f33b 1914 f1bd 901d 1bbc 86b0 7fbe
00000270: d68c c33c 0e23 713d a008 03bd 06d7 933d
00000280: 0ad4 19be e800 f53d f676 28bd 9bef b73d
00000290: 55fa 84bd a441 8fbc f936 9dbe 9724 febc
000002a0: f71d 6239 fd6f 0c3d 561e 82be 1c6a b8bd
000002b0: 6a10 d7bd d4fc fa3d 64da c23d 5f39 4fbe
000002c0: 1ceb 85be cfab a7bc b707 3f3d 3420 debc
000002d0: e373 df3d 49d4 0cbd e437 f2bd 9dcc 71bc
000002e0: c18b 9f3c 9bae 3e3c 9324 d23c 0785 303e
000002f0: 9429 5cbc f983 183d be62 63be 6080 4c3c
00000300: 62c0 21ba 447f 4cbd f5d1 c8bc 1c6e 863d
00000310: 0e61 d2bd bea6 e0bc 32a5 933d d19c a6be
00000320: d5eb 493d 6a55 2b3e b6df d3bc 08b1 f2bc
00000330: a378 03bd d89b 17bc 58a1 463d f59a 353e
00000340: 41a9 8bbd 880c 90bd 3d99 8fbd 952e 293e
00000350: e744 d23a f27c fabe 0a1e b4bd e6e5 9f3d
00000360: 395e 5b3d b173 c23d ea1a 95bd ef48 813d
00000370: df69 32be 185d 97bc e48b f2bd 61d5 d23d
00000380: 39bf 80be 0b2f 9ebe accc ae3e 120f eb3c
00000390: 0f6c 493d b3ff 353d a01d 9a3d ac6f 2dbb
000003a0: 1a4c b3bd 6af5 d1bd 1869 033d b90a 5f3c
000003b0: 7f03 293d 35f4 c9bc 960e 073e 6bc5 b4bd
000003c0: adc4 0abe 7d06 32be 7f95 92bc 9630 273c
000003d0: 9ee4 213d c26f 37be cc50 5fbd 26b3 10be
000003e0: e11a a23d 2edf 963c 73b4 ed3d 3ab8 d4bd
000003f0: a794 ca3c 0074 023d 81bb 10bc 981f fdbd

layers.2.bias f4 [9]
0.13456199 0.14551692 0.18993162 0.19104202 0.1550194 0.09388003 0.20524262 0.2327534
0.18078019
00000000: 9eca 093e 6302 153e 6f7d 423e 85a0 433e
00000010: 68bd 1e3e 2c44 c03d 1f2b 523e e856 6e3e
00000020: 711e 393e
