experiments/learn_cdrive/cdrive/2022_01_20_133423528288_3_664e5/2022_01_20_133423528288_3_664e5_5999.pth (torch, 32215 bytes, 6 tensors)

layers.0.weight f4 [64, 7]
00000000: ffd8 a0be 1808 30be f44d a6be 2d85 c23e
00000010: 9f57 e3bd 99b8 c93e 07bc 633e e878 3f3e
00000020: 599b 8cbe 351b d13e 473b 1b3e 5bd8 7d3d
00000030: ef4e 97bd 6099 38bd f45d 9dbe 5c72 69be
00000040: 4c35 81be 0004 75bd 66f6 57be 28f7 1c3d
00000050: 6e00 78be 96fe 9abe 56a3 4d3e b87d 3c3e
00000060: 32ad 1c3d 8990 9b3e 6051 a63e bf2e 3dbe
00000070: 401e 563e 38cb f63d 0520 ee3b 7057 27be
00000080: 79df b73e 1441 9a3e 6efc 003d 7e10 1ebe
00000090: 2f05 1dbe 48fd 323e f78c 67be d54d 793e
000000a0: 4df4 b9bd 673e 393e f70a 96be ea52 5b3e
000000b0: 5a05 eabd aab7 873e 39bb 5a3e 8e57 7e3e
000000c0: d920 fa3e 1541 61bd 5724 e5bd 013a 083e
000000d0: 3cf7 94be 22be 163e 0fac 25be 0630 adbd
000000e0: 4185 7e3d 3b64 51be cc3b 8dbe 1907 553d
000000f0: ebc7 483e db1c 413d 2e6c 083e 3a38 163e
00000100: 9ff2 743e 8385 1abe 2863 d53e 36aa 543e
00000110: 19ad 573e 7d5f 04be 6f70 81bd a8b1 ad3e
00000120: deda 863e ed71 6b3e bcb2 51be dc0c d93e
00000130: 3d73 ad3e 8c02 af3d 1954 afbc 4f45 04be
00000140: 816c 86be 3b87 b33d 2e69 cabe 8493 153e
00000150: 0e70 963e 0c2a 87be 53b3 6a3e 281f adbe
00000160: 1c68 853e 9c60 993e bd3e 0fbe e25a 7c3e
00000170: e078 3a3d b8e6 f6bd a44b 61be fc95 8cbd
00000180: b4db aebd 5888 b9bd 8985 03be 611e 33be
00000190: 9fc3 6d3e f6f8 37be a292 fcbe 9d66 26be
000001a0: 9c9e ac3e 7f37 05be 03bd 62be 50be 023d
000001b0: 831e e0bb 2096 ffbd fe40 bd3d 368d ad3e
000001c0: b4fa 6b3e 9407 4ebe 7e51 7abd 4dbe 6b3e
000001d0: acba 2a3e 46e6 55be a49a 9c3d 2ac7 1dbc
000001e0: 3bfc d43e ca72 58be 1139 603e 8f7f 253e
000001f0: a7da 0ebe 9e27 963e 44c2 5ebe 905c 863e
00000200: 22d2 ba3e cf63 ae3e 2ffd bc3e 0646 7e3e
00000210: c533 fa3d c015 943b 1831 cf3d 3256 1d3e
00000220: 08ab 71be d5fc 95be 2f0d 85be 5857 333d
00000230: 31dd 853c 19a3 dcbd 7e00 3f3e 00ca 89bd
00000240: 2bfb b53e 21a2 41be 5068 e03e 08f9 853e
00000250: 6618 9dbe 7cdc cbbc 60ca 29be ad62 823e
00000260: 9d91 9cbe 6b15 91be c05d 5cbb b1f0 3cbe
00000270: 67f4 09bd 5126 553e 5941 d9bd 44ab 38be
00000280: e2c7 83be 4184 b13e 4166 1fbe 65a9 e6bd
00000290: 1ad8 1cbe e3e5 a63e 95c2 463d dfa4 cdbe
000002a0: bd45 a2be 22fb 55be 623a 4bbe 9142 b6be
000002b0: a20b 5a3e 2a3f 01be 3a2c 453e 8e36 ba3e
000002c0: 5d9f 4f3c 9bde b83e d70a 433d d999 8abe
000002d0: 1bfd 8d3d e7e4 f63d 6078 77bc e788 14be
000002e0: 8529 8dbe 03e5 6cbe 3b3e 0cbe 784c 11bd
000002f0: 5df6 833e b6b0 a6bd 5ae7 103e d961 463e
00000300: 9655 dabd d678 b2bd 063f 183e b242 0fbe
00000310: 3468 4abe 255c 8e3e b488 583e cadb 4dbd
00000320: 46b2 b9bd 5e5c 90be 6a2b 8c3e b7dd 08bd
00000330: 29d1 2cbc cc6e 76be 39bd e63d d7b2 32bd
00000340: a416 773d 32d4 dfbe 3d2f 603d 7e9b acbe
00000350: 11e4 99be 1f53 acbd 7a8e a73e 0685 a8bc
00000360: 03df b73e 7730 4d3d 1c9c 203e 1a97 903e
00000370: 32c2 6a3d 7594 80be 45c8 fbbd 35c5 c23e
00000380: 1797 593e 2db9 9fbe b2ea 97be 93bf 86bd
00000390: 712f c33e eeb8 433e 772d 723e 0c65 61be
000003a0: 97a5 73bd d9f9 4e3d 2117 6fbe 9d4c 2abe
000003b0: 5461 ca3e 8c5c 2ebe d2f5 bf3e 2844 b6be
000003c0: 858a 833d 1878 743e b404 9abe 7efd 22bd
000003d0: ca13 7e3e 281a 85be ca40 7dbe 9873 51bd
000003e0: f0a0 3f3d fe88 9dbe af8a 913e 02e7 c0be
000003f0: 864c 7b3e 53cb b03d b5c5 debe e316 be3d
-0.31415555 -0.17190588 -0.3248135 0.3799223 -0.11100697 0.3939865 0.22239695 0.18698466
-0.2746227 0.4084107 0.15159331 0.06197391 -0.07388102 -0.045068145 -0.30735743 -0.22797531
-0.25235975 -0.059818268 -0.21090087 0.038321644 -0.24218914 -0.3027236 0.20081839 0.18407333
0.03825111 0.3038371 0.3248396 -0.18474863 0.20909977 0.1205048 0.0072670006 -0.16341949
0.35912684 0.30127776 0.031490736 -0.15435979 -0.15334009 0.17479432 -0.22612368 0.24346097
-0.090798 0.18090211 -0.2930524 0.21418348 -0.11426802 0.26507312 0.21360482 0.24838087
0.48853186 -0.054993708 -0.11188572 0.13303377 -0.29094875 0.14720967 -0.16178916 -0.08456425
0.0621388 -0.20448391 -0.27584684 0.052008722 0.19607513 0.04714666 0.13322517 0.14669886
0.23920678 -0.15089993 0.41677213 0.20768055 0.21062125 -0.12927051 -0.06320273 0.33924603
0.26338857 0.22992678 -0.20478338 0.42392623 0.33876982 0.08545408 -0.021402406 -0.12917064
-0.26254657 0.087660275 -0.3953337 0.14607054 0.29382366 -0.26399267 0.2291997 -0.33812833
0.26055992 0.2995652 -0.13988777 0.24644044 0.04552543 -0.12055725 -0.22001511 -0.06864545
-0.08537999 -0.09059209 -0.12843908 -0.17492057 0.23219155 -0.17966065 -0.49330622 -0.16250081
0.3371476 -0.13009451 -0.22142415 0.031919777 -0.006839575 -0.12479806 0.09240912 0.33896798
0.23044854 -0.20120078 -0.061112873 0.23021813 0.16672772 -0.20888624 0.07646683 -0.009630004
0.41598687 -0.21137539 0.21896769 0.16161941 -0.13950597 0.293271 -0.21753794 0.26242495
0.36488444 0.34060523 0.36911914 0.248314 0.122169055 0.0045191944 0.10116786 0.15364912
-0.236004 -0.29294458 -0.2598662 0.04378447 0.016340824 -0.10773296 0.18652532 -0.067279816
0.35543188 -0.18909504 0.43829584 0.26166558 -0.30682677 -0.024885409 -0.16581106 0.2546591
-0.30579844 -0.28336653 -0.0033625215 -0.18451191 -0.033680346 0.20815398 -0.10608167 -0.18034083
-0.25738436 0.34671214 -0.1556635 -0.11262778 -0.15316811 0.32597265 0.04852541 -0.4016485
-0.3169383 -0.20896581 -0.1984649 -0.3559766 0.212935 -0.12621751 0.19255152 0.36369747
0.0126722725 0.36107334 0.04761776 -0.270705 0.06933042 0.120553784 -0.015104383 -0.14505349
-0.2757074 -0.23134236 -0.13695614 -0.035473317 0.25773898 -0.08139174 0.14150754 0.19373263
-0.106608555 -0.08714454 0.14867792 -0.13990286 -0.19766313 0.27804676 0.21145898 -0.050258435
-0.09067206 -0.2819547 0.27376872 -0.03341457 -0.010547915 -0.24065703 0.1126656 -0.043627586
0.060324326 -0.4371658 0.05473255 -0.3371238 -0.30056813 -0.084142916 0.32725888 -0.020571243
0.35912332 0.050095048 0.15684551 0.2824028 0.057314105 -0.25113264 -0.12294058 0.38041082
0.21249042 -0.31195965 -0.29671246 -0.06579509 0.38122132 0.19113514 0.23650156 -0.22011203
-0.05948409 0.050531242 -0.23348667 -0.16630788 0.3952738 -0.17027491 0.37492234 -0.35598874
0.06422905 0.23873937 -0.30081713 -0.03979253 0.24812236 -0.25996518 -0.24731746 -0.05113563
0.04678434 -0.3076858 0.2842612 -0.37676245 0.2454091 0.08632531 -0.43510213 0.09281709

layers.0.bias f4 [64]
00000000: be36 1bbe 81fd 9d3e a0c4 bd3c 8dc2 2abd
00000010: 0424 ddbd 84a1 abbe e1e5 cabd 54fa 47be
00000020: 67f8 c63d 247e 58be a244 8dbe 4645 00be
00000030: 3f33 923e cb5a b1be 2780 903e 25e9 9a3e
00000040: 166e 87be 5a14 5abe f469 70be 1e8c a9be
00000050: 4037 a23d f125 8b3d 5878 b83b eace 043e
00000060: 92b7 34be 39ae aa3e 6c34 95be 839e a8bd
00000070: 6e6f cc3e 3f70 973d c0a0 babe d1b9 993e
00000080: 1566 013e bded a83e ca9e 723d 1244 89be
00000090: b2c0 693d 980d 093d e83a 68be d20e aebe
000000a0: e0db 87be 0cda 213e beb3 25be 836b 88be
000000b0: 1705 3f3e ec40 a73e 4755 4bbe 917a 2f3e
000000c0: 6648 5cbb 3e69 c3bd 15bf 8cbe 7a1c 81be
000000d0: 7270 f7bd 79a1 a8be 8d15 67bb ffea 9a3e
000000e0: 6d10 b0be c3a3 93be 0cf3 79be a462 c4be
000000f0: ff2f 00bc d019 10be 5d39 a4be a646 a43e
-0.15157601 0.3085747 0.023165047 -0.041689444 -0.10797885 -0.33521664 -0.09907127 -0.19529086
0.09715348 -0.21141869 -0.27591425 -0.12526426 0.28554723 -0.34639582 0.28222772 0.30256
-0.26451176 -0.21296826 -0.23477918 -0.33114713 0.07920694 0.06794346 0.0056295805 0.12969556
-0.17648152 0.33336046 -0.29141557 -0.08233359 0.39928764 0.07394456 -0.36450768 0.3002458
0.12636597 0.3299388 0.059233464 -0.26809746 0.057068534 0.03346023 -0.22678721 -0.33995682
-0.2653494 0.15805835 -0.16181847 -0.26644525 0.18654285 0.3266672 -0.1985675 0.17136599
-0.0033612489 -0.09541558 -0.27489534 -0.25217038 -0.12081994 -0.32935694 -0.0035260648 0.30257413
-0.34387532 -0.28835878 -0.24409121 -0.38356507 -0.007823943 -0.14072347 -0.32075015 0.3208515

layers.1.weight f4 [64, 64]
00000000: 6319 183e 3291 983b f07b ef3d ab27 943d
00000010: 134e a0bd ee52 593c 2f76 a8ba 5aeb d53d
00000020: 1c4f 003e 9a06 203d fd9d d83d 4529 5ebc
00000030: 1dad b3bc a080 81bd 684a 0d3e af72 c73c
00000040: a095 91bd d289 adbd 4b05 453d 1ac6 b0bd
00000050: 8226 21bc 28ab 12be 05a9 a4bd 187e 4ebe
00000060: ce57 d73d faae 9f3d b071 77bd 87cf 553c
00000070: c4d7 2cbc 80a0 263d 01f7 be3d 6450 80bd
00000080: 2bb6 0cbe b2a9 cc3c 954e cdbc 0c8f 49bd
00000090: 6d89 8a3b 15c4 813b 0ee2 b0bd 7684 0ebd
000000a0: 507f 69bd cdd3 e9bc eb0b c53d ab3f 953d
000000b0: ae1c 9f3d 40dd 393d b4de 153e e643 4b3d
000000c0: 0583 413e ffad c73d eaa8 d6bd 1b1b cfbd
000000d0: 65f0 403c 37d9 cabd e949 813d aa87 2dbd
000000e0: ccda 17bd 48e9 c03d 5805 23bd 36bf 97bc
000000f0: 7cc3 963d 4bd7 f2bd d7f0 a33d d594 0cbe
00000100: 44ff 4b3d 6ff6 5e3d e0e9 76bd 87fe 9dbd
00000110: 4d16 c13d 8348 883d 9167 423e b692 4e3c
00000120: 5ac9 0d3e 549a 043e f711 0d3e e138 643d
00000130: ce86 68bd a41f 68bd 437f f53d 1e03 3c3d
00000140: 8cc4 65be 13de e23d 0397 773d ac58 79bd
00000150: 1986 083e 094a 21be 0551 623d a5cc 9fbd
00000160: 1822 f4bc c54f c33d b03d bc3c 6206 003e
00000170: 292e 9f3d 41be babd 91d9 a03d c104 523c
00000180: e309 393e c994 053d 3f83 75be b4a8 823d
00000190: db70 e9bb b6cc 72bd 2e4a e3bc c2da d33c
000001a0: 0032 b23b fd6c 003d 6964 383e f050 fd3c
000001b0: d34d d23d b1a2 dc3c 43b1 1ebd 389a dc3d
000001c0: 7ce5 2cbb 14c6 77bd a42d 313d de08 3bbe
000001d0: 5e87 ea3d a517 8ebd 215d 1b3d 8f0d 0dbe
000001e0: 079b d13d 1c23 9a3b 0897 f6bc 83d2 7f3d
000001f0: 2476 7dbd 904f af3d ce9c 01be 46f0 423d
00000200: 2490 12be 90bf e33d 8ac6 85bd cd82 7d3d
00000210: 8845 94bd f4a2 c1bc d283 8dbd 44d5 cbbc
00000220: 4d93 84bc 6754 1bbd 4c30 c23d 366f 223d
00000230: abf9 6abd b480 5fbd 1c99 d5bd 701f f63c
00000240: 882d 71be 2438 68bd 3efc 1a3e c0f3 523c
00000250: 7efb 13bd 64a3 a63d 094d ae3b 3c89 8ebd
00000260: 5a4a 9fbd f7c2 e0bd 7e93 b3bd bc07 b13d
00000270: e49d 06bc f600 243d 6ac4 16be 2fe7 ff3d
00000280: e8df 443d 5c66 a5bd 6936 c33c bebd cdbd
00000290: b356 633d 005e a9bd 96d0 023e 1303 cc3c
000002a0: c0db 78bd 5661 af3d 9c49 e3bd fc06 79bc
000002b0: 572e c73d 202f 163c 5a0d b2bc ab02 0cbc
000002c0: cc3d fbbd 4f28 273e 4851 853d 0761 9e3d
000002d0: 1139 28bd 481a a03d 90e2 bebd 7090 81bd
000002e0: 0fd5 163d 74a7 773d 7446 883d 5745 c83d
000002f0: 6566 f03d 76b9 7b3c 9646 c53c 6018 9d3d
00000300: d730 cabc 0229 543d 7cb0 f2bd 6f62 87bd
00000310: 5683 eeb9 c01d abbd 71d9 56bc c19f 923c
00000320: 9290 9d3c 0f1e e73c 4c16 413d 64c8 1b3e
00000330: 1011 19be 0892 ea3d f583 6f3d fede 2e3e
00000340: ae94 2e3d 73cf 483e 1e41 243d b424 d33d
00000350: 8801 4abd 384b 5bbd 4978 db3d 54f3 a2bd
00000360: 505f cfbc 24ca cc3d 3c4e 413d c9ac 873d
00000370: 897d 513d 3c3a a73c 7b0f 9fbd ed84 253d
00000380: f9a4 abbd 1ff6 24bd 5a4f 883d 349f 25bd
00000390: a3b6 1dbd a0da 183e af87 2f3d e803 08bd
000003a0: 66f8 d93d d709 073d d8d8 b33c 74b4 ea3d
000003b0: 680a 013e 89bb bcbd e7c0 5abc 396e 04bd
000003c0: a99a aabc 4d0f 17bd b8ce b4bc 8f53 33bd
000003d0: 19e5 ea3d eebc 16bc 7ea2 ed3d b00e b5bd
000003e0: ec89 9fbd 3d2c 68bc 10ea 233d 829c 00be
000003f0: 4567 b2bc f5cc c1bc 2b84 a5bd f144 07be
0.14853434 0.0046559805 0.11693561 0.072341286 -0.078273915 0.013264401 -0.0012852604 0.104452804
0.12530178 0.039068796 0.10577009 -0.013559644 -0.021933133 -0.063233614 0.13797915 0.024346678
-0.07108617 -0.08473553 0.04810075 -0.08631535 -0.009835841 -0.14323103 -0.080400504 -0.20165288
0.10514794 0.07797046 -0.060411155 0.013049967 -0.010549489 0.04068041 0.09324456 -0.06265333
-0.13741367 0.02498326 -0.025061885 -0.049208686 0.004227808 0.0039601424 -0.086368665 -0.034794293
-0.05700618 -0.028543377 0.09621414 0.07287534 0.07769142 0.045377016 0.14635736 0.0496253
0.18897636 0.09749984 -0.104814366 -0.10112592 0.0117760645 -0.09904712 0.06312925 -0.042365707
-0.037073895 0.09419495 -0.039800018 -0.018523794 0.073615044 -0.1185747 0.08004921 -0.1372865
0.049803987 0.054434236 -0.060281634 -0.07714563 0.09428082 0.066544555 0.1898482 0.012608221
0.13846341 0.12949497 0.13776384 0.055718306 -0.056769185 -0.0566708 0.11987164 0.04590141
-0.22438258 0.110775135 0.06044675 -0.06087558 0.13332404 -0.15750898 0.055253047 -0.07802705
-0.029801413 0.09536699 0.022978634 0.12502435 0.07772476 -0.09118319 0.078539975 0.012818516
0.18070178 0.032612596 -0.23975848 0.06379834 -0.007124049 -0.05927726 -0.027745333 0.025861148
0.0054380894 0.03135394 0.18007053 0.030922383 0.1026875 0.026933046 -0.03874327 0.107716024
-0.00263819 -0.060491636 0.043256417 -0.18265101 0.114516005 -0.069381036 0.03793061 -0.13774703
0.10234647 0.0047038924 -0.030101314 0.06245662 -0.061880246 0.08560097 -0.12657472 0.047592424
-0.14312798 0.11120522 -0.06532009 0.06189232 -0.072398245 -0.023637272 -0.06909908 -0.024881966
-0.01618352 -0.03792229 0.09481868 0.03965684 -0.05736701 -0.0545661 -0.10429594 0.030044287
-0.23552525 -0.056694165 0.15135285 0.012875497 -0.036128514 0.08136633 0.005319242 -0.06959769
-0.07777853 -0.109746866 -0.08768366 0.08644053 -0.008216355 0.04003998 -0.14723364 0.12495267
0.048065096 -0.08076164 0.023829656 -0.10045956 0.055502605 -0.08269882 0.12774882 0.02490381
-0.060756445 0.08563487 -0.11098024 -0.015199419 0.097256355 0.009166509 -0.021734882 -0.008545558
-0.12267646 0.1632397 0.06509644 0.0773335 -0.041070048 0.07817513 -0.09320557 -0.063263774
0.036824282 0.06046243 0.06654063 0.097788505 0.1173828 0.015364042 0.02408151 0.07670665
-0.024681492 0.05179692 -0.11850068 -0.066105716 -0.0004549275 -0.08355284 -0.0131133655 0.017898442
0.019233976 0.028212575 0.047140405 0.15213162 -0.14947915 0.114536345 0.058475453 0.17077252
0.04262226 0.19610386 0.040101163 0.10309735 -0.049317867 -0.05353853 0.10716302 -0.079565674
-0.025314003 0.09999493 0.04719375 0.06624753 0.05114511 0.02041351 -0.077666245 0.04040997
-0.083810754 -0.040273782 0.0665576 -0.04043503 -0.038504254 0.14927149 0.042854007 -0.03320685
0.10643081 0.03296837 0.021953985 0.114602 0.12601626 -0.09215457 -0.013351656 -0.03233168
-0.0208257 -0.036879826 -0.022071227 -0.04378086 0.11469478 -0.009200318 0.116032586 -0.08840692
-0.077899784 -0.0141707035 0.04001814 -0.12559703 -0.021777758 -0.023657301 -0.0808185 -0.13209893

layers.1.bias f4 [64]
00000000: 44ca 343d c2dc 893d 3fac 993c eb3b 033e
00000010: 1bfa ab3d 55e5 04be 91dd e73c 3ffa a2bd
00000020: c4f1 dabd cea4 7d3d 4547 693c 6daf 9abd
00000030: 6709 32bd b2fe 00be c0b4 bbbb 5fda 703a
00000040: 5b42 b33d fb63 bdbd 8f25 e6bc c2d7 0b3e
00000050: 3c26 61bd 829a 86bc 3e8b cc3d 0b29 223d
00000060: 956b d7bd 5fd8 193e dd53 bfbc d83c 77bd
00000070: 299d 193e 0cff e63c 107b d73c 76c1 45bc
00000080: 3cfc 60bd 2c3a 9f3d 75a1 d5bd 9333 00bd
00000090: 9ff6 893d e5d5 f43c 7421 b53c d074 573c
000000a0: 945b e6bd 1b16 0cbe 2729 153e 5a38 b53b
000000b0: 101a 1c3e 3d2a 67bc fd88 98bd b3f4 8d3d
000000c0: 2cfa fabd 023c 2a3e 1856 bf3c e2e1 87bb
000000d0: 0d02 d1bd f7e7 973d 533e d13d 8669 df3d
000000e0: 191f ff3d bade 123e f701 9e3d b2b3 293d
000000f0: ce6d c0bd 0382 3c3d 186c 4b3e c807 bebd
0.044138208 0.06731559 0.018758891 0.12815826 0.08397313 -0.12978108 0.028303893 -0.07957887
-0.106906444 0.061924748 0.014238183 -0.07552991 -0.043465998 -0.12597159 -0.005728334 0.0009187813
0.08752891 -0.092475854 -0.028094081 0.13656524 -0.054968104 -0.016431097 0.09987496 0.039589923
-0.105185665 0.15023945 -0.023355419 -0.06036076 0.15001358 0.028197788 0.026303798 -0.01207005
-0.05492805 0.07774767 -0.10431186 -0.031299185 0.06736492 0.02988715 0.022110678 0.013150409
-0.11247936 -0.13680308 0.1456648 0.0055303993 0.15244317 -0.0141091915 -0.074480034 0.06931438
-0.12254748 0.16624454 0.023356482 -0.0041468004 -0.10205469 0.07417291 0.102169655 0.10908799
0.12457103 0.14342776 0.077152185 0.041431136 -0.093959436 0.046022426 0.19865453 -0.09278828

layers.2.weight f4 [45, 64]
00000000: aa9a 4e3d d548 97bd 878e 8abb 1ffc 9d3c
00000010: 8f27 c13d 8003 8cbb 51fd 2ebd 2aba ebbd
00000020: 907b 783d 2b1d a3bc c66a 5b3b f037 7b3d
00000030: fc03 40bd 5f10 97bd 0086 db3c fa6e 833d
00000040: 1bf3 04bd 0d09 953b a43e babd fbf5 df3d
00000050: fed9 efbd dab3 bf3d c05c 063e 9894 743d
00000060: 9886 913c d589 4dba ab94 5ebc ac78 74bd
00000070: 5082 1a3e 3c20 143e b645 b8bd 5470 f53d
00000080: 6ca2 f03d fbca fdbb 62dc 8e3d d51f bb3d
00000090: 84b3 043d 50a5 673c 31a0 133d ee56 bbbd
000000a0: 5a37 9e3d d57c 36bc 6770 203e 5d35 f1bc
000000b0: ec40 033e 0883 fdbd 86bb b73d d0a6 823d
000000c0: 900b 323c b69e af3d 6953 ca3c 1ef7 c93d
000000d0: 08c8 febd 281e a23d 7296 9cbd 1c17 0dbc
000000e0: 3e87 0a3d 2d09 ff3d 98e4 e33c 7426 f3bc
000000f0: fcc5 00bd c423 543d f5d1 1e3e 0043 dabc
00000100: 3c52 0d3d 1a55 fbbd d8e4 acbc 121b b9bd
00000110: 887f c0bd 8c9c 553d 4c8c 533d 6068 79bd
00000120: 00b0 81bb 70b4 f2bd 6ca4 24bd 006d dd3c
00000130: 9cdd c5bd 18e6 403d f6f9 8dbd e21d 89bd
00000140: b8c0 e73c 7812 9bbd 384f 03bd 6658 a6bd
00000150: 00fe d73c aa78 b63d 9085 7f3d d0d5 ae3d
00000160: 1add 8ebd b01d 1fbd bae0 e7bd 503a 60bd
00000170: 5afa 8dbd 28c1 033d 9ccd a1bd 7c66 ac3d
00000180: 30a6 723c 3038 57bc 606d d6bd d037 9dbd
00000190: 9e84 c63d f053 1a3d 0001 b43a 562e f3bd
000001a0: c8a6 be3d 3cb3 4bbd d61a c23d a89e 993d
000001b0: 1cdf a0bd 28b0 4e3d e26f e0bd e02e 573c
000001c0: 448b acbd da7d da3d b070 9a3c 1030 8a3d
000001d0: d034 f93c 6e4a cf3d c22f c83d ce78 9bbd
000001e0: fc01 06bd f081 823c 8075 023c d228 c6bd
000001f0: b210 833d 7c21 d83d 5046 e2bd f09e 873d
00000200: 7f2e c9bd 8919 1abd a90d c2bd 2685 293e
00000210: fe3e 403e 34a9 03bd 94e9 c73b ef77 513b
00000220: 88e7 edbc 4f89 7a3d 10e1 bebc c020 2ebd
00000230: 5e05 b2bd b4f8 e7bd 00bc cfba 004c 953d
00000240: 0851 013e 3c68 773d af3a 2c3e b653 d23d
00000250: 009c ffbb 647d 3b3d e2d8 e03d 24b2 f8bc
00000260: 8ec5 bcbd ed97 40bd bfd1 d7bc 76cb 8abd
00000270: 9860 f4bb 3be7 f43d 58c2 1fbd 3435 f1bd
00000280: c4e2 f03d 1062 d4bc babd 99bd a77c 403e
00000290: cc70 f43d 581f b6bc 1e5b c53c d820 cdbd
000002a0: 8644 893d 30cf 51bd cd5e 393e f084 debb
000002b0: 6ce6 453c 2840 14bd 7a3e a9bd f845 c03d
000002c0: 703a 3ebd c18c 463e 549b 16bd f32c ef3d
000002d0: 48de 2d3d 9b43 58bd e853 e93d 0a63 013e
000002e0: 37f7 373d 2341 da3d 9c11 21bd 804e 513c
000002f0: b8e4 8e3d cc0c 893d 011f 583d cc9a da3d
00000300: 11cb a4bd cff6 133e 288a 9e3c d2e6 e13c
00000310: 4ba4 dc3d f0cd afbc 98a9 243e b7ac d0bd
00000320: 48a3 bc3c fb6e 013e 2bc9 c4bc 6ad9 82bd
00000330: 3a85 debd bd44 d83d 3655 fb3d be5e a8bd
00000340: 5e64 093e 0c4a b63c cfde 173e 5149 2f3e
00000350: d07f c33c f2d0 913d de3b 063e 75fb e0bc
00000360: 288b b13c ab1d 433d 1e45 af3d c8c0 f23c
00000370: b494 033e a9f1 0abd 1020 13bd 1ee2 3c3d
00000380: c082 a63b f140 dd3d 4860 fe3d e850 0cbd
00000390: cbc9 e33d 6c9b f8bd 4918 6cbd ac5b 2ebd
000003a0: 7ccf 883d fe8c 68bd 8bcc 363d 2ad7 c6bb
000003b0: cc3f c03d ee32 a93d 2076 db3d b162 f7bd
000003c0: b8b7 e13c 9a87 1fbd 592d 76bd a6a0 4d3b
000003d0: 059c c73d 10d5 873e c3fb e33d 9fab a73d
000003e0: 652a 573d 2d02 a13d 8201 533d bb49 c53c
000003f0: 2f28 273d 34a2 2d3e 5d43 c4bc 406a 573c
0.050440468 -0.073869385 -0.0042284164 0.01928526 0.09431373 -0.004272878 -0.04272205 -0.11510117
0.060664713 -0.01991137 0.003348039 0.061332643 -0.0468788 -0.073761694 0.026797295 0.064176515
-0.032458406 0.004548198 -0.09093979 0.10935589 -0.117115006 0.09360476 0.13121319 0.059712023
0.017764375 -0.0007840668 -0.01358525 -0.059685394 0.15088773 0.14465421 -0.08997671 0.119843155
0.117497295 -0.0077451444 0.069756284 0.09136931 0.032397762 0.014138535 0.036041442 -0.0914744
0.07725401 -0.011138161 0.15667878 -0.02944439 0.12817734 -0.12378508 0.08971314 0.06379473
0.0108670145 0.085751936 0.024697976 0.09861587 -0.12440497 0.07915908 -0.07645883 -0.008611467
0.033820383 0.12452922 0.027818963 -0.029681422 -0.031438813 0.05179192 0.1550978 -0.026643276
0.034502253 -0.12272091 -0.021105215 -0.090383664 -0.09399325 0.052151248 0.05164747 -0.060890555
-0.0039577484 -0.11850822 -0.040195867 0.027029514 -0.09661409 0.047094434 -0.06932442 -0.06695153
0.028290138 -0.07571882 -0.03205797 -0.081223294 0.026366234 0.089097336 0.062383235 0.08536875
-0.069757655 -0.03884667 -0.1132216 -0.05474311 -0.069325164 0.03216663 -0.07900545 0.08417985
0.01481013 -0.013135955 -0.104700804 -0.07676661 0.096932635 0.037677705 0.0013733208 -0.11874072
0.09309155 -0.049731478 0.09477775 0.075009644 -0.07855055 0.050460964 -0.1095884 0.013133734
-0.08425 0.106685355 0.018852562 0.067474484 0.03042069 0.10121618 0.09774734 -0.07591401
-0.032716736 0.0159311 0.0079625845 -0.096757546 0.06399669 0.10553262 -0.11048567 0.06622112
-0.098233216 -0.03762201 -0.09475262 0.16554698 0.1877403 -0.032143787 0.0061008427 0.0031962355
-0.029041067 0.061166104 -0.023300678 -0.0425117 -0.0869243 -0.11326733 -0.0015848875 0.072898865
0.12628567 0.06040214 0.16819261 0.10269873 -0.007800579 0.04577388 0.10978867 -0.030358382
-0.09217368 -0.047019888 -0.026345132 -0.06777088 -0.007457804 0.11958166 -0.0390037 -0.11777726
0.11762002 -0.025925666 -0.075068906 0.18797551 0.11935577 -0.022231743 0.0240913 -0.1001603
0.06702523 -0.05122298 0.1810257 -0.0067907497 0.012078863 -0.036193997 -0.082638696 0.093883455
-0.04644245 0.19389631 -0.036769226 0.11678495 0.042448312 -0.05279885 0.11392957 0.12635437
0.044913497 0.10656955 -0.039323434 0.0127750635 0.069772184 0.06691894 0.052763943 0.106740564
-0.08046544 0.14449619 0.019352987 0.027575884 0.10773524 -0.021460503 0.1608032 -0.10189193
0.023027077 0.12639992 -0.024021706 -0.06389125 -0.10865255 0.10559986 0.12272112 -0.08221196
0.13417193 0.022252105 0.14831088 0.17117812 0.023864657 0.07119931 0.13108775 -0.027463654
0.0216728 0.047635715 0.08558105 0.02963294 0.12849694 -0.03392187 -0.03591925 0.04611408
0.0050815046 0.10803402 0.12420708 -0.034256846 0.11122473 -0.12139019 -0.057640348 -0.042567894
0.066801995 -0.056775086 0.04462866 -0.00606813 0.09387168 0.08261667 0.1071589 -0.12079371
0.027553424 -0.03894768 -0.06010184 0.0031376272 0.09746555 0.2652974 0.11132004 0.08187031
0.052530665 0.07861743 0.05151511 0.024083009 0.040809806 0.16956407 -0.023957903 0.013147891

layers.2.bias f4 [45]
00000000: ca59 fd3d 7c20 1c3d 10f2 a2bc 36fd c33d
00000010: f0d5 f13d b752 d8bd 4293 343e 622c 823d
00000020: 1d4e 433e c233 d13d a0d6 2f3c b34c 6d3d
00000030: 101d 82bd b4be 2d3e 7083 48bc a893 623d
00000040: 8494 943c e364 343e 541a 8abd 96ed 533d
00000050: 880f 373e 5002 283d 0199 e13d 785d f93c
00000060: 9b6f 3ebc 249a e83d 2e29 a4bd d4b6 123e
00000070: 0a35 b73d d05e b6bd 9061 3dbc ba47 3bba
00000080: e4bb 33bd b8d3 fa3d 8437 8fbd 2069 d4bc
00000090: c425 833d ba7f fb3d 5aad 5b3e 28ef 96bd
000000a0: 2d3b 0d3e 3852 efbc 3639 e03d ba38 2ebc
000000b0: 88ea 8fbc
0.123706415 0.038116917 -0.019890815 0.095697805 0.118083835 -0.105626516 0.176343 0.063561216
0.19072767 0.1021495 0.010732323 0.057934474 -0.063531995 0.16967279 -0.012238368 0.055316597
0.018137224 0.1761661 -0.06743303 0.05174025 0.17877018 0.04101783 0.11015511 0.030440077
-0.0116232885 0.11357525 -0.08015667 0.14327556 0.08945663 -0.08904803 -0.011558905 -0.0007144172
-0.04388036 0.122474134 -0.06993011 -0.025929034 0.064036876 0.12280221 0.21452847 -0.07369834
0.13792105 -0.02921401 0.10948412 -0.010633642 -0.017567888
