experiments/learn_racetrack/racetrack2/2022_01_20_210439836184_5_fbdf8/2022_01_20_210439836184_5_fbdf8_10999.pth (torch, 24919 bytes, 6 tensors)

layers.0.weight f4 [64, 15]
-0.4334168 0.34457937 -0.06978453 -0.11132975 0.12289857 0.083709724 -0.0030844389 -0.20544256
-0.31466097 -0.32780388 -0.27714285 -0.45396778 -0.03718015 0.038340136 0.06845142 1.1378179
0.2138965 0.12452997 0.094748355 -0.23065472 -0.03187998 -0.08511692 0.028761165 -0.21874821
-0.1317083 -0.05729475 -0.022120802 -0.12932713 0.10705121 0.06846977 -0.40974033 -0.772145
-0.056383137 -0.13003205 0.19819626 -0.30390528 0.053446066 -0.29868847 0.22936207 0.20003003
0.030458314 0.031717423 0.16331616 -0.230505 0.2067062 0.24866864 -0.19753055 -0.21989733
-0.25138903 -0.16930357 -0.0046664476 -0.0997432 -0.030515924 -0.19583425 -0.09577866 0.031678796
-0.17090271 0.11890176 -0.027599663 -0.07841469 -0.8572964 0.39974144 -0.061437577 0.20421824
0.14228217 -0.0014734842 0.12177792 -0.17210205 -0.25844193 -0.24097773 -0.05635652 0.02893409
0.17549896 -0.18945543 0.03221745 -0.2328577 0.012648255 -0.1862777 -0.022432491 -0.24432468
-0.1442257 -0.18254736 0.024503738 -0.051668108 0.007108122 0.038434625 -0.20070368 0.1731875
-0.0064079165 -0.13721454 0.018983215 0.07192851 0.10983285 0.12856175 -0.22749919 -0.0008411651
-0.012804082 0.058551606 -0.06913908 -0.10603399 -0.091914095 0.14356646 0.2209546 -0.13672678
0.09798195 0.022865037 -0.19319294 -0.2870711 -0.11273379 -0.050699897 -0.025566967 0.12388963
-0.101149864 -0.16080694 0.20959294 -0.12283863 0.09898025 0.19168994 -0.13137561 0.22507793
-0.11292326 0.20532314 0.04253597 -0.0538444 0.016626813 -0.086144015 -0.15395379 -0.2463301
0.042037256 -0.2918769 -0.12916845 0.085857674 0.011465009 -0.020784736 0.2537641 -0.36788398
-0.18199477 0.12961571 0.099123165 0.19066155 0.19521351 0.18743643 -0.36346227 -0.23293772
-0.24562348 0.036614265 0.021833569 -0.29818806 -0.06979714 0.3107576 -0.13247633 0.058603603
0.01288486 -0.2502197 -0.16655858 0.072639346 -0.1660626 -0.007998753 0.035320863 -0.0022520083
0.06820708 0.11274609 -0.15439697 -0.29339287 -0.06599707 -0.017799027 -0.13055235 -0.15817003
0.04003988 0.019269135 -0.20498091 -0.13772456 -0.050408993 -0.14464435 -0.1022677 0.13770238
0.0032497244 -0.012477867 0.026668096 0.06481581 -0.17241903 -0.44045964 0.040897455 -0.26961732
0.053183313 -0.35872844 -0.3122108 -0.04352312 0.21304628 -0.13034983 -0.09588058 0.01680767
0.1269274 -0.024906002 0.30699128 -0.19314066 0.88558584 -0.24950652 -0.20891602 -0.045499746
-0.02515915 0.13527276 0.17327885 -0.2945768 -0.109161116 -0.24434233 -0.33355966 0.037283804
0.12197255 0.244886 -0.20032427 0.19645996 -0.13734515 -0.24794441 -0.058938995 -0.3591861
-0.106195286 -0.31587774 0.18229295 0.26882565 0.25581947 0.15712613 -0.25121182 0.019520093
0.29818705 0.011153425 0.13144793 0.15575582 -0.37911713 0.04389752 0.05850447 0.07311098
-0.32251295 0.13024326 -0.19009079 -0.07672684 -0.05482796 0.046003006 -0.020273153 -0.093628205
-0.026857678 0.9773546 -0.15604784 0.11215898 -0.18814375 0.018757347 -0.047966685 0.28646994
0.27409035 -0.13182746 -0.014884521 0.11047207 0.21429667 0.07743085 0.10362453 0.00698027
00000000: cfe8 ddbe b56c b03e 31eb 8ebd da00 e4bd
00000010: 3fb2 fb3d 0170 ab3d 4c24 4abb 895f 52be
00000020: 3e1b a1be e9d5 a7be abe5 8dbe 776e e8be
00000030: 374a 18bd 8c0a 1d3d 4230 8c3d 04a4 913f
00000040: af07 5b3e 9209 ff3d 6d0b c23d c030 6cbe
00000050: 9594 02bd c851 aebd 899c eb3c 88ff 5fbe
00000060: 8ade 06be e6ad 6abd af36 b5bc 556e 04be
00000070: aa3d db3d e139 8c3d 7cc9 d1be 4bab 45bf
00000080: 01f2 66bd 1f27 05be f6f3 4a3e 7999 9bbe
00000090: 43ea 5a3d b2ed 98be e4dd 6a3e acd4 4c3e
000000a0: b783 f93c 21ea 013d 5a3c 273e 8109 6cbe
000000b0: caaa 533e fea2 7e3e 7345 4abe c42c 61be
000000c0: 10b6 80be ea5d 2dbe 00e9 98bb 2a46 ccbd
000000d0: 88fc f9bc c688 48be 9a27 c4bd a0c1 013d
000000e0: 1f01 2fbe c482 f33d b018 e2bc e297 a0bd
000000f0: c777 5bbf e9aa cc3e f8a5 7bbd 961e 513e
00000100: 6bb2 113e ed21 c1ba b466 f93d 853b 30be
00000110: 8052 84be dec2 76be 18d6 66bd 2f07 ed3c
00000120: 00b6 333e 9b00 42be 72f6 033d 4072 6ebe
00000130: a03a 4f3c 95bf 3ebe 58c4 b7bc 4030 7abe
00000140: e7af 13be b2ed 3abe 10bc c83c f0a1 53bd
00000150: 40eb e83b a06d 1d3d 4485 4dbe 1058 313e
00000160: 80f9 d1bb f881 0cbe b082 9b3c 414f 933d
00000170: 0cf0 e03d b1a5 033e 8cf5 68be a281 5cba
00000180: 36c8 51bc cfd3 6f3d ca98 8dbd 5928 d9bd
00000190: 753d bcbd 1603 133e ec41 623e 1b02 0cbe
000001a0: c3aa c83d 754f bb3c 5fd4 45be fcfa 92be
000001b0: f9e0 e6bd b2aa 4fbd d171 d1bc d9b9 fd3d
000001c0: a927 cfbd 93aa 24be 889f 563e d292 fbbd
000001d0: 28b6 ca3d 5e4a 443e 5487 06be d47a 663e
000001e0: 4f44 e7bd 3b40 523e 333a 2e3d f28b 5cbd
000001f0: f434 883c 466c b0bd 10a6 1dbe f53d 7cbe
00000200: 422f 2c3d e470 95be bc44 04be 26d6 af3d
00000210: bcd7 3b3c c044 aabc 5eed 813e 4a5b bcbe
00000220: d65c 3abe fbb9 043e 1601 cb3d c83c 433e
00000230: 0de6 473e 56ef 3f3e ba17 babe 3a87 6ebe
00000240: b984 7bbe d7f8 153d 50dc b23c 1bac 98be
00000250: cef1 8ebd 9f1b 9f3e e0a7 07be 550a 703d
00000260: 051b 533c cc1c 80be 558e 2abe f0c3 943d
00000270: 500c 2abe 340d 03bc 9cac 103d 6e96 13bb
00000280: 27b0 8b3d 6ce7 e63d 3d1a 1ebe 9737 96be
00000290: 7929 87bd 44cf 91bc 84af 05be 53f7 21be
000002a0: db00 243d 4eda 9d3c 84e6 51be ab07 0dbe
000002b0: a979 4ebd a61d 14be ba71 d1bd da01 0d3e
000002c0: 54f9 543b f86f 4cbc 0d77 da3c 27be 843d
000002d0: 9d8e 30be ed83 e1be 1784 273d 480b 8abe
000002e0: bfd6 593d 41ab b7be 18da 9fbe 4d45 32bd
000002f0: ce28 5a3e 6d7a 05be 0a5d c4bd 3db0 893c
00000300: 42f9 013e ac07 ccbc f62d 9d3e aac6 45be
00000310: c1b5 623f a37e 7fbe 15ee 55be f15d 3abd
00000320: 901a cebc f184 0a3e 0370 313e c5d2 96be
00000330: dd8f dfbd e034 7abe 55c8 aabe e7b6 183d
00000340: bfcc f93d 65c3 7a3e ce21 4dbe cd2c 493e
00000350: 35a4 0cbe 24e5 7dbe 046a 71bd 3ee7 b7be
00000360: ea7c d9bd baba a1be 01ab 3a3e 84a3 893e
00000370: c5fa 823e ace5 203e d69e 80be 9ae8 9f3c
00000380: f9ab 983e dbbc 363c 499a 063e 747e 1f3e
00000390: a41b c2be e3cd 333d 62a2 6f3d 36bb 953d
000003a0: 6b20 a5be 7d5e 053e 29a7 42be f622 9dbd
000003b0: 4893 60bd a66d 3c3d e213 a6bc 25c0 bfbd
000003c0: a204 dcbc e933 7a3f 01cb 1fbe 9bb3 e53d
000003d0: c1a8 40be 02a9 993c b778 44bd 30ac 923e
000003e0: 9255 8c3e c7fd 06be 35de 73bc 2e3f e23d
000003f0: 9670 5b3e 1194 9e3d 1939 d43d c0ba e43b

layers.0.bias f4 [64]
0.000107746804 -0.07328092 -0.13218506 0.019016743 -0.123600364 0.22617137 -0.04374046 -0.14111948
-0.10096578 0.005537736 -0.22660331 -0.19464993 -0.13576289 0.112825334 0.11577338 0.0794168
0.1918872 0.16153258 -0.06442882 -0.11689231 -0.019415136 -0.13791864 0.05539621 0.10696806
0.22627825 0.15277776 -0.21795559 0.2559738 0.06658255 0.23075452 -0.19977218 -0.17101601
0.19990556 0.08463756 0.14722821 0.124175005 0.06275457 -0.1536048 -0.17388563 -0.28594375
-0.05220042 -0.20559996 -0.034071937 -0.2497389 0.20242593 -0.1587902 -0.1914291 -0.074532874
-0.0071832067 0.029514555 -0.00038433363 0.15916668 0.103341006 0.039752074 -0.11222178 0.2765524
-0.12354591 -0.10688448 -0.17451069 -0.10214944 0.0499874 0.14135969 0.11451423 -0.08834477
00000000: 20f6 e138 4f14 96bd 855b 07be 00c9 9b3c
00000010: 3022 fdbd 7899 673e 3229 33bd a081 10be
00000020: 26c7 cebd e675 b53b b30a 68be 5052 47be
00000030: 6d05 0bbe f810 e73d 981a ed3d 46a5 a23d
00000040: 147e 443e cc68 253e 42f3 83bd 3c65 efbd
00000050: 7e0c 9fbc 8b3a 0dbe 23e7 623d 1212 db3d
00000060: 7cb5 673e c671 1c3e c02f 5fbe ff0e 833e
00000070: 6f5c 883d ea4a 6c3e 1491 4cbe d21e 2fbe
00000080: 0bb4 4c3e 7556 ad3d fec2 163e 774f fe3d
00000090: 7885 803d 944a 1dbe 130f 32be 3867 92be
000000a0: 1cd0 55bd cc88 52be 048f 0bbd 8ebb 7fbe
000000b0: be48 4f3e e699 22be fd05 44be b1a4 98bd
000000c0: 1b61 ebbb 82c8 f13c 6380 c9b9 97fc 223e
000000d0: 73a4 d33d 12d3 223d 88d4 e5bd 4798 8d3e
000000e0: a305 fdbd 40e6 dabd eeb2 32be ba33 d1bd
000000f0: 97bf 4c3d 98c0 103e 7086 ea3d 1aee b4bd

layers.1.weight f4 [64, 64]
-0.15437363 -0.07216523 0.05401541 -0.11265354 0.0065650437 0.028872505 0.109305225 0.097448885
-0.040529065 0.02217313 -0.051216554 0.05550429 0.019716168 -0.12982953 -0.0099418685 -0.006974026
-0.018594408 -0.0010129809 0.06766203 -0.11412418 0.057085924 -0.032766216 -0.04779003 0.053857084
0.11229661 0.0033540796 0.14422771 -0.111243516 -0.040518176 -0.080636874 -0.06857542 -0.058200773
-0.113174476 0.14043598 -0.046173643 -0.09779268 0.09321864 -0.03614545 0.07569592 0.03326075
0.02066331 0.100456856 0.053504705 0.027358612 0.08727299 -0.0006993908 -0.033041235 0.09796396
0.038881555 0.09486739 -0.042262167 0.034863256 -0.04704598 0.033039913 0.07176233 -0.020588046
-0.10452961 0.057948165 0.038439017 0.02120854 -0.025406014 0.03166543 0.10843947 0.00900008
0.09712484 -0.111799635 -0.014730379 -0.08260387 -0.14248821 0.05798419 0.033950888 -0.07655395
-0.013281372 0.00915993 -0.06277541 0.116293184 -0.004526278 0.0041417535 -0.095100306 0.01615687
0.015594617 0.023414955 0.074388355 -0.083637744 -0.116865434 -0.041607846 -0.034985527 0.081264764
-0.016416356 0.0104440125 -0.05045504 0.0059054643 -0.0038689224 0.065536246 0.029969316 -0.16519903
0.0061772587 -0.03602023 -0.14994168 0.008213699 0.06693569 -0.12503764 0.006374054 -0.052401002
-0.07737084 -0.034231003 -0.030524284 0.024645513 -0.09705567 0.08619107 0.07119018 -0.16247736
0.04088745 0.036648206 -0.030641725 0.04516291 -0.12110851 -0.040909663 0.08255326 -0.015653316
-0.1077103 0.063345276 0.08210924 -0.046144128 -0.06923561 0.029691935 0.06173434 0.06932961
-0.2997582 -0.14460364 -0.14885825 0.054638907 0.0071066273 0.085386604 0.069945745 -0.044727005
0.019091463 -0.022529539 -0.012651249 0.08324108 0.05650107 -0.13261056 -0.18487026 0.030683108
-0.11422516 0.1163764 -0.037748784 -0.03242153 0.06796209 -0.028014995 0.019806964 -0.034946203
0.113392904 0.11026486 -0.045645647 0.037516594 0.10879314 -0.10755138 0.05687945 -0.06881739
-0.27428705 0.015479814 0.06958632 -0.09277352 -0.0060385615 -0.042094287 -0.06970868 -0.0043021017
-0.119397424 0.11004443 0.057221025 -0.046840888 0.042732358 0.044484798 0.114414215 -0.08224952
-0.094665565 0.08345898 0.08286412 0.09345959 0.029237607 0.10042685 0.013807507 -0.076445356
0.17586543 0.085639104 -0.016228016 0.044968814 0.045874845 0.08165917 -0.042716324 -0.02569061
0.049120337 -0.11812894 -0.12393716 0.027015448 0.04681987 0.06554185 -0.026541246 0.070963755
-0.12866284 0.0060580173 -0.0219661 0.045941837 -0.093121395 -0.09127303 -0.12102665 -0.047941193
0.07950945 0.0058465153 -0.11407897 0.003826648 -0.06166288 -0.03693731 0.014603114 -0.13977447
0.09913041 -0.013745713 0.08856822 -0.06692159 0.02434883 -0.079615265 0.09782195 -0.07178572
-0.016002929 -0.11722128 -0.039613023 0.018114446 0.107034534 -0.058411375 -0.062986806 0.0067573194
0.061016385 -0.087854624 0.038429886 -0.02643254 0.0748944 0.048268143 0.09656285 -0.060944393
-0.11811405 -0.004979189 0.04621561 0.03572011 0.04067124 0.0035922357 -0.069724396 -0.051897462
0.028342834 -0.010072392 -0.034100354 -0.089713976 -0.14288838 0.041672215 -0.111728184 0.08851486
00000000: 1f14 1ebe 5dcb 93bd 433f 5d3d e6b6 e6bd
00000010: 941f d73b 0886 ec3c 6bdb df3d 4893 c73d
00000020: ce01 26bd 6da4 b53c 73c8 51bd 7758 633d
00000030: cd83 a13c 08f2 04be 38e3 22bc 5f86 e4bb
00000040: 4d53 98bc 00c6 84ba 6492 8a3d f0b9 e9bd
00000050: eed2 693d de35 06bd 7abf 43bd 3f99 5c3d
00000060: c4fb e53d 1ed0 5b3b 6eb0 133e a4d3 e3bd
00000070: 63f6 25bd f224 a5bd 4571 8cbd ef63 6ebd
00000080: 05c8 e7bd 73ce 0f3e 9320 3dbd 8747 c8bd
00000090: 6ae9 be3d 400d 14bd 7606 9b3d 6d3c 083d
000000a0: 1a46 a93c 53bc cd3d c027 5b3d 2b1f e03c
000000b0: 2ebc b23d 5257 37ba 3f56 07bd 54a1 c83d
000000c0: 4442 1f3d d649 c23d 181b 2dbd c6cc 0e3d
000000d0: 49b3 40bd dc54 073d 21f8 923d 43a8 a8bc
000000e0: 9f13 d6bd 0e5b 6d3d 3b72 1d3d 88bd ad3c
000000f0: 4620 d0bc 9cb3 013d 8315 de3d 1275 133c
00000100: 63e9 c63d 35f7 e4bd b057 71bc 382c a9bd
00000110: 6ee8 11be d480 6d3d 1610 0b3d 51c8 9cbd
00000120: 1d9a 59bc 8813 163c 6590 80bd 1f2b ee3d
00000130: 2c51 94bb 8cb7 873b f3c3 c2bd 6a5b 843c
00000140: 9180 7f3c b8d0 bf3c ec58 983d 444a abbd
00000150: 2557 efbd fd6c 2abd fc4c 0fbd 246e a63d
00000160: 987b 86bc 5d1d 2b3c f2a9 4ebd a082 c13b
00000170: bf8d 7dbb de37 863d 3682 f53c ef29 29be
00000180: 9a6a ca3b f389 13bd 508a 19be c092 063c
00000190: 9415 893d de09 00be 71dd d03b 6fa2 56bd
000001a0: 9a74 9ebd cf35 0cbd 100e fabc 63e5 c93c
000001b0: 20c5 c6bd f284 b03d 28cc 913d 7760 26be
000001c0: 9979 273d 6e1c 163d 5b04 fbbc befc 383d
000001d0: bd07 f8bd e490 27bd af11 a93d 623b 80bc
000001e0: 3897 dcbd 2bbb 813d e428 a83d a001 3dbd
000001f0: 66cb 8dbd 803c f33c 26dd 7c3d affc 8d3d
00000200: e879 99be fa12 14be 4c6e 18be 0ccd 5f3d
00000210: b6de e83b 2cdf ae3d b73f 8f3d aa33 37bd
00000220: b365 9c3c de8f b8bc 2f47 4fbc 4d7a aa3d
00000230: aa6d 673d 10cb 07be a14e 3dbe 245b fb3c
00000240: e1ee e9bd c056 ee3d 789e 1abd 70cc 04bd
00000250: b52f 8b3d b47f e5bc 3742 a23c c023 0fbd
00000260: 8a3a e83d 8bd2 e13d eef6 3abd 00ab 193d
00000270: f0ce de3d e643 dcbd 6dfa 683d 22f0 8cbd
00000280: 5a6f 8cbe 0c9f 7d3c 4683 8e3d 0b00 bebd
00000290: 20df c5bb 0f6b 2cbd 6dc3 8ebd a5f8 8cbb
000002a0: a386 f4bd f95e e13d 9860 6a3d 3bdc 3fbd
000002b0: 2008 2f3d b135 363d 0052 ea3d 7072 a8bd
000002c0: 05e0 c1bd 8bec aa3d aab4 a93d be67 bf3d
000002d0: b583 ef3c 98ac cd3d e238 623c 628f 9cbd
000002e0: 1116 343e 8e63 af3d 9ef0 84bc 3831 383d
000002f0: 43e7 3b3d ec3c a73d 50f7 2ebd 1d75 d2bc
00000300: 6832 493d 96ed f1bd c4d2 fdbd 804f dd3c
00000310: 31c6 3f3d ce3a 863d 076d d9bc 7255 913d
00000320: 31c0 03be 5582 c63b 40f2 b3bc 822d 3c3d
00000330: 6eb6 bebd 5bed babd d2dc f7bd fc5d 44bd
00000340: dad5 a23d 2094 bf3b 3ca2 e9bd 80c8 7a3b
00000350: 3792 7cbd 944b 17bd e641 6f3c 0a21 0fbe
00000360: e204 cb3d b335 61bc 4163 b53d 300e 89bd
00000370: 3377 c73c 540d a3bd e056 c83d 6404 93bd
00000380: 9318 83bc b611 f0bd 4441 22bd bf64 943c
00000390: ec34 db3d c440 6fbd 3aff 80bd 816c dd3b
000003a0: 51ec 793d 20ed b3bd a868 1d3d 0e89 d8bc
000003b0: 3c62 993d d1b4 453d bec2 c53d d4a0 79bd
000003c0: c7e5 f1bd 7728 a3bb 944c 3d3d 404f 123d
000003d0: e396 263d b76b 6b3b aacb 8ebd 6f92 54bd
000003e0: 3b2f e83c ad06 25bc d0ac 0bbd f6bb b7bd
000003f0: 5551 12be 7cb0 2a3d bfd1 e4bd 4747 b53d

layers.1.bias f4 [64]
0.15102457 -0.15159394 -0.084155105 -0.06673769 -0.05767386 0.041200805 -0.0077396133 -0.13935725
-0.036895968 0.035647333 0.04567608 -0.076914914 -0.121993095 0.08001608 -0.05659545 0.090672955
0.0353016 -0.053902086 -0.041570846 0.0053963736 -0.038218893 0.07901959 -0.10309885 -0.06110098
-0.03396494 -0.03732801 -0.040625304 -0.02390993 0.0020567935 -0.142726 0.001254885 0.06128145
-0.112515986 -0.13091074 -0.0048410324 -0.025342392 0.06074759 0.0067689293 0.014097433 -0.06464336
-0.00828684 -0.010646307 0.1073343 0.078892365 -0.016926272 0.05125559 -0.022092909 0.05024047
0.05996438 -0.03322524 0.0060295416 -0.016128674 0.057387263 -0.03829298 -0.12198363 0.041299593
0.03928568 0.015268143 -0.01437507 -0.08315576 -0.0821108 0.07784334 -0.13293879 0.005191023
00000000: 2fa6 1a3e 713b 1bbe 8359 acbd c5ad 88bd
00000010: 6d3b 6cbd 2dc2 283d 959c fdbb abb3 0ebe
00000020: 3a20 17bd f002 123d d716 3b3d 9185 9dbd
00000030: 84d7 f9bd 78df a33d a1d0 67bd beb2 b93d
00000040: 6998 103d 6fc8 5cbd 3146 2abd 10d4 b03b
00000050: 6a8b 1cbd 06d5 a13d 7d25 d3bd 0545 7abd
00000060: d21e 0bbd 41e5 18bd b866 26bd c2de c3bc
00000070: 45cb 063b c426 12be f47a a43a 4202 7b3d
00000080: c86e e6bd 770d 06be 86a1 9ebb d99a cfbc
00000090: 77d2 783d e5cd dd3b ebf8 663c bd63 84bd
000000a0: 87c5 07bc d96d 2ebc 16d2 db3d 5292 a13d
000000b0: f7a8 8abc 62f1 513d 30fc b4bc f3c8 4d3d
000000c0: 369d 753d 3017 08bd 7693 c53b 4820 84bc
000000d0: e80e 6b3d 1ad9 1cbd 8ed2 f9bd c329 293d
000000e0: 05ea 203d 3c27 7a3c 6a85 6bbc 914d aabd
000000f0: b529 a8bd 546c 9f3d 1b21 08be 7519 aa3b

layers.2.weight f4 [9, 64]
0.09998077 -0.03163959 0.07073406 -0.07176876 0.033484437 -0.0057476307 0.009141801 0.042599276
0.040433172 0.0074741635 -0.10312919 -0.033395424 -0.2639113 0.05279404 0.044878297 0.04214504
-0.08415843 0.005523235 0.0826265 0.07207733 -0.08427627 -0.057565033 -0.028687233 -0.045993175
0.03171038 0.100720495 0.0086797625 -0.25522316 0.09162243 -0.19907466 0.018627783 -0.055778127
-0.103741705 -0.05908861 0.03738295 -0.007111993 0.00920251 -0.08974044 -0.44532415 -0.101208575
-0.10988215 0.0681988 0.0937696 -0.01078248 0.03216621 0.036250934 -0.09148772 -0.49232033
0.04336261 0.054881066 0.0034130511 0.019626305 -0.028344618 -0.079568826 0.044030443 -0.09285532
0.08085241 -0.03933156 -0.03065835 0.045350794 -0.28278184 -0.10413417 -0.009667194 0.21176276
0.023408929 -0.037205208 -0.0033381945 -0.048297405 -0.012830023 0.011571795 0.029351298 -0.072086126
0.09103409 -0.050319735 -0.036502603 -0.11593348 -0.25267667 0.074993975 -0.067944564 0.12354825
-0.09098346 -0.016304078 0.091914125 0.015902372 0.061802365 0.09767747 -0.024316737 0.08989162
0.06501692 -0.0054997206 -0.021522501 -0.063950054 -0.0139358 -0.032234866 0.078162864 -0.05929981
-0.046693835 -0.080562845 0.050420035 -0.008670518 0.07305921 -0.042317208 -0.25769928 -0.06132892
-0.059661712 0.016434476 0.14581387 0.057402655 0.056054756 -0.010785153 -0.10196105 -0.29704708
-0.08320476 0.030084627 -0.064917885 0.04473961 0.013181788 -0.057496864 -0.037935186 0.27181765
0.029318135 -0.050455734 0.052302398 -0.05799159 -0.011296082 -0.05083196 -0.017362665 -0.26290885
0.11256427 0.0044455114 0.06716989 0.03713377 0.09919684 -0.045966823 -0.30916277 0.03861457
0.08521758 0.010665666 -0.1372763 -0.00045562416 -0.23933622 0.058781147 -0.12648816 0.12356618
-0.087742835 0.0027056134 0.033358876 0.076786496 -0.058993693 -0.022157937 0.049055804 0.0101204375
0.04717554 0.08450727 0.020218581 0.025680257 0.048823673 0.016142566 0.03115293 -0.030727385
0.06902884 0.029377304 -0.0007549496 -0.0028358728 0.012276604 -0.0704597 -0.41735214 -0.086745225
-0.047950618 -0.025947547 0.04801135 -0.100042164 0.017207375 -0.005502055 0.05027473 -0.17022234
0.030778715 0.07044355 0.03298022 0.054414522 -0.083410405 -0.004474328 -0.04401918 -0.08674209
0.08438845 0.058023185 -0.007063903 -0.17712396 0.004339586 -0.014236063 -0.197539 -0.21679103
0.015585216 0.032597803 0.06955217 0.005883338 -0.10519201 -0.012676102 -0.019365452 0.06984065
0.043636877 -0.027262894 -0.018604368 -0.058251716 -0.24522026 0.06886155 -0.046854574 0.040134415
-0.04040739 -0.011037809 0.08222838 0.055968285 0.017380973 -0.09565896 -0.10894256 -0.07092405
0.09463004 -0.046682987 -0.0324851 -0.026112039 0.03215819 -0.22150728 0.086005084 0.047979746
-0.01934866 -0.023033319 -0.010010072 -0.005707084 0.043534633 0.06864334 -0.3736338 -0.33938873
0.037982363 -0.012268692 0.10322342 -0.016199965 0.036221053 0.023424637 -0.1165888 -0.013795412
0.04539376 0.05062757 0.036997423 -0.010235785 -0.056436427 -0.008843173 -0.13381204 -0.05815552
-0.11518878 -0.05888082 -0.09159345 0.050111964 -0.344433 -0.09203964 -0.019337164 0.16694328
00000000: b8c2 cc3d 8498 01bd 05dd 903d 80fb 92bd
00000010: fa26 093d 9f56 bcbb 7ec7 153c 947c 2e3d
00000020: 419d 253d d4e9 f43b 6635 d3bd a4c9 08bd
00000030: 621f 87be 903e 583d 4ed2 373d 47a0 2c3d
00000040: 415b acbd 41fc b43b 1538 a93d 479d 933d
00000050: 0999 acbd 50c9 6bbd 7d01 ebbc 5763 3cbd
00000060: bee2 013d 8c46 ce3d 9035 0e3c 9cac 82be
00000070: 8aa4 bb3d 3ada 4bbe 4b99 983c 9b77 64bd
00000080: 8876 d4bd e606 72bd dd1e 193d b90b e9bb
00000090: 20c6 163c d6c9 b7bd 8701 e4be 7146 cfbd
000000a0: e509 e1bd d0ab 8b3d 470a c03d 00a9 30bc
000000b0: b7c0 033d dc7b 143d ea5d bbbd 6911 fcbe
000000c0: fe9c 313d f8ca 603d 7fad 5f3b 58c7 a03c
000000d0: f932 e8bc fbf4 a2bd 4459 343d ee2a bebd
000000e0: f395 a53d 211a 21bd 3827 fbbc c1c1 393d
000000f0: c8c8 90be 4c44 d5bd 2763 1ebc 56d8 583e
00000100: 15c4 bf3c 7d64 18bd 9cc5 5abb 80d3 45bd
00000110: 0435 52bc a097 3d3c 2272 f03c e4a1 93bd
00000120: 1570 ba3d 111c 4ebd c183 15bd 886e edbd
00000130: d65e 81be 7196 993d 8526 8bbd dd06 fd3d
00000140: 8955 babd 2190 85bc 793d bc3d b145 823c
00000150: 7a24 7d3d 200b c83d e533 c7bc 1919 b83d
00000160: 9727 853d 0037 b4bb f54f b0bc 3ff8 82bd
00000170: fb52 64bc b508 04bd da13 a03d 5ce4 72bd
00000180: 0942 3fbd 22fe a4bd 3d85 4e3d ca0e 0ebc
00000190: 11a0 953d cf54 2dbd 29f1 83be 0934 7bbd
000001a0: d75f 74bd 98a1 863c 3b50 153e 0c1f 6b3d
000001b0: ac99 653d 36b4 30bc f4d0 d0bd 8e16 98be
000001c0: 4267 aabd 0974 f63c abf3 84bd e240 373d
000001d0: 6df8 573c d581 6bbd ed61 1bbd af2b 8b3e
000001e0: 962c f03c acaa 4ebd 0a3b 563d 9788 6dbd
000001f0: 3413 39bc 2c35 50bd 263c 8ebc fd9b 86be
00000200: 1988 e63d a7ab 913b 5e90 893d 9419 183d
00000210: b627 cb3d b547 3cbd 954a 9ebe 502a 1e3d
00000220: 8e86 ae3d 0cbf 2e3c 2992 0cbe d7e0 eeb9
00000230: 8e14 75be 80c4 703d 1d86 01be 4410 fd3d
00000240: 84b2 b3bd a950 313b 51a3 083d 3d42 9d3d
00000250: 5fa3 71bd 9084 b5bc bdee 483d 31d0 253c
00000260: 243b 413d 2612 ad3d 70a1 a53c 675f d23c
00000270: 55fb 473d 6a3d 843c 6e34 ff3c ffb7 fbbc
00000280: fe5e 8d3d aca8 f03c cfe7 45ba 0dda 39bb
00000290: cf23 493c 2d4d 90bd 2eaf d5be 7ba7 b1bd
000002a0: de67 44bd f38f d4bc 8da7 443d e8e2 ccbd
000002b0: 7bf6 8c3c 954a b4bb e0ec 4d3d c44e 2ebe
000002c0: a523 fc3c b544 903d 4416 073d c3e1 5e3d
000002d0: 13d3 aabd 629d 92bb 754d 34bd d6a5 b1bd
000002e0: dad3 ac3d b8a9 6d3d 5078 e7bb fc5f 35be
000002f0: 1633 8e3b 603e 69bc aa47 4abe 78fe 5dbe
00000300: 2259 7f3c 4685 053d 5e71 8e3d 04c9 c03b
00000310: e96e d7bd 6daf 4fbc 4ca4 9ebc 9d08 8f3d
00000320: 95bc 323d 6f56 dfbc 3068 98bc 5a99 6ebd
00000330: 051b 7bbe 4907 8d3d 95ea 3fbd fc63 243d
00000340: 3882 25bd edd7 34bc 5a67 a83d 003f 653d
00000350: 8b62 8e3c d8e8 c3bd 471d dfbd a140 91bd
00000360: 65cd c13d a936 3fbd 190f 05bd eae8 d5bc
00000370: 4eb8 033d ced2 62be 6f23 b03d 6986 443d
00000380: 1581 9ebc 5fb0 bcbc 4901 24bc 7e02 bbbb
00000390: 5f51 323d e194 8c3d ee4c bfbe 5cc4 adbe
000003a0: 6593 1b3d a002 49bc cd66 d33d cab5 84bc
000003b0: 875c 143d 06e5 bf3c 1cc6 eebd 2706 62bc
000003c0: cfee 393d db5e 4f3d 9c8a 173d feb3 27bc
000003d0: e229 67bd f5e2 10bc 0606 09be 7c34 6ebd
000003e0: 18e8 ebbd 042d 71bd 5995 bbbd 3442 4d3d
000003f0: 8659 b0be 477f bcbd f968 9ebc 2ef3 2a3e

layers.2.bias f4 [9]
0.039819997 0.11244745 -0.03946206 0.12098256 0.019636178 0.11883908 -0.016177233 0.009049201
-0.0036012214
00000000: 4b1a 233d d94a e63d f8a2 21bd b4c5 f73d
00000010: 0ddc a03c e761 f33d 1e86 84bc 1a43 143c
00000020: 7802 6cbb
