experiments/learn_racetrack/racetrack2/2022_01_20_210439836184_5_fbdf8/2022_01_20_210439836184_5_fbdf8_11999.pth (torch, 24919 bytes, 6 tensors)

layers.0.weight f4 [64, 15]
000000 1d 75 ce be 0a 4a d4 3e 17 14 a1 bc 00 67 98 bd
       -0.40323725 0.41462737 -0.0196629 -0.07441521
000010 78 7c 15 3e 27 69 03 3e 98 22 2a 3d 51 03 23 be
       0.14598262 0.12833081 0.041536897 -0.15919234
000020 52 4e a8 be fe 19 ba be fc 6d 93 be 09 b9 dc be
       -0.32872254 -0.36347955 -0.2879485 -0.4310992
000030 ef 1e 36 bc 9d 6d 79 3d d8 2c 01 3d 9f f4 94 3f
       -0.011115774 0.06089555 0.031536907 1.1637152
000040 a0 45 66 3e 95 fe fb 3d 57 86 b8 3d cd 41 67 be
       0.22487497 0.12304417 0.09009998 -0.22583695
000050 8b 16 04 bd 79 f9 ae bd 8e 93 e8 3c 6a 67 5d be
       -0.03224806 -0.08543677 0.028390672 -0.2162148
000060 3e 26 10 be 06 e1 0a bd 79 ea 98 bc 54 b0 00 be
       -0.14077088 -0.033906005 -0.018666493 -0.12567264
000070 b8 a7 07 3e f7 be 95 3d ef 60 d8 be fb aa 4c bf
       0.13247573 0.07311814 -0.42261454 -0.79948395
000080 f7 4f 6f bd 9d a1 06 be 45 06 50 3e ef cd a2 be
       -0.05842587 -0.13147588 0.20314892 -0.3179774
000090 3f 12 8a 3d 38 12 94 be 10 99 6d 3e 51 96 45 3e
       0.067417614 -0.2892015 0.2320292 0.19295622
0000a0 ff 29 c1 3c a5 1c f4 3c 5b 99 2a 3e 90 44 65 be
       0.023579596 0.029798815 0.16660063 -0.22389436
0000b0 47 25 55 3e fe a2 7e 3e 73 45 4a be c4 2c 61 be
       0.20815001 0.24866864 -0.19753055 -0.21989733
0000c0 10 b6 80 be ea 5d 2d be 00 e9 98 bb 2a 46 cc bd
       -0.25138903 -0.16930357 -0.0046664476 -0.0997432
0000d0 88 fc f9 bc c6 88 48 be 9a 27 c4 bd a0 c1 01 3d
       -0.030515924 -0.19583425 -0.09577866 0.031678796
0000e0 1f 01 2f be c4 82 f3 3d b0 18 e2 bc e2 97 a0 bd
       -0.17090271 0.11890176 -0.027599663 -0.07841469
0000f0 3b c9 60 bf 08 fd e9 3e d5 76 4d bd e2 0e 5f 3e
       -0.87807053 0.4570086 -0.050162155 0.21783021
000100 45 62 0d 3e 2a 92 b1 3c 53 4a f7 3d 3c 77 1c be
       0.13807018 0.021676142 0.12074723 -0.1527986
000110 68 98 8d be 88 50 85 be c9 4c a0 bd 52 c6 c3 3c
       -0.2765534 -0.26038003 -0.078271456 0.023898277
000120 2f 5c 36 3e d8 14 47 be c2 6a 98 3c 40 72 6e be
       0.17808603 -0.19441545 0.018605594 -0.2328577
000130 a0 3a 4f 3c 95 bf 3e be 58 c4 b7 bc 40 30 7a be
       0.012648255 -0.1862777 -0.022432491 -0.24432468
000140 e7 af 13 be b2 ed 3a be 10 bc c8 3c f0 a1 53 bd
       -0.1442257 -0.18254736 0.024503738 -0.051668108
000150 40 eb e8 3b a0 6d 1d 3d 44 85 4d be 10 58 31 3e
       0.007108122 0.038434625 -0.20070368 0.1731875
000160 80 f9 d1 bb f8 81 0c be 25 e3 ab 3c 6e f7 aa 3d
       -0.0064079165 -0.13721454 0.020982334 0.08347975
000170 dc fc df 3d e3 dd 03 3e d5 7e 62 be 45 e2 78 bb
       0.10936901 0.12877612 -0.22118695 -0.0037976664
000180 f7 41 63 bc fb b5 3a 3d 3f a7 8b bd 73 07 c7 bd
       -0.013870708 0.045583706 -0.06819009 -0.09718218
000190 1d ea c2 bd 2a 2c 10 3e bb 1b 64 3e 0d 3d 08 be
       -0.0951731 0.14079347 0.22276203 -0.13304539
0001a0 89 3a c8 3d 75 4f bb 3c 5f d4 45 be fc fa 92 be
       0.0977679 0.022865037 -0.19319294 -0.2870711
0001b0 f9 e0 e6 bd b2 aa 4f bd d1 71 d1 bc d9 b9 fd 3d
       -0.11273379 -0.050699897 -0.025566967 0.12388963
0001c0 a9 27 cf bd 93 aa 24 be 88 9f 56 3e d2 92 fb bd
       -0.101149864 -0.16080694 0.20959294 -0.12283863
0001d0 28 b6 ca 3d 5e 4a 44 3e 54 87 06 be d4 7a 66 3e
       0.09898025 0.19168994 -0.13137561 0.22507793
0001e0 80 c5 1f be 45 d4 63 3e 9a d7 51 3d 6b 6c 86 bd
       -0.15602684 0.22248943 0.051231004 -0.06563648
0001f0 fe 08 be 3c 41 69 b2 bd 02 0d 1b be 27 43 7f be
       0.023197647 -0.08711482 -0.15141681 -0.2492796
000200 5a ca 81 3d 42 96 91 be 43 c7 0c be 89 42 96 3d
       0.063374236 -0.2843495 -0.13747887 0.07336909
000210 f6 5b d9 ba 11 f5 ea bc 0e f7 87 3e de 7f bb be
       -0.0016583193 -0.02868131 0.26555675 -0.36620992
000220 37 1e 69 be 3b 22 07 3e e1 32 d5 3d c5 3e 46 3e
       -0.22765432 0.13196652 0.10410095 0.19359882
000230 0c aa 4b 3e ed da 41 3e 97 2a bc be b4 fb 6d be
       0.19889086 0.1893117 -0.36751243 -0.23240548
000240 17 96 76 be 50 a0 0e 3d 0b 32 e8 3c 07 48 97 be
       -0.24080692 0.034820855 0.028344175 -0.2954714
000250 93 3b c7 bd 30 8f 9c 3e dc 3c 0d be b0 50 49 3d
       -0.0972816 0.30577993 -0.13792747 0.049149215
000260 9a 6c 10 3c 90 ed 74 be 3a 52 33 be df f9 93 3d
       0.008814955 -0.23918748 -0.17511836 0.072253935
000270 2a d1 20 be ee e3 01 3c bf a3 aa 3c 29 38 31 bc
       -0.1570479 0.007927878 0.020830033 -0.010816612
000280 2b 93 8e 3d 4c 8c fb 3d 92 d2 16 be 41 02 9f be
       0.06961664 0.12282619 -0.14728764 -0.31056407
000290 9c c1 9d bd 44 cf 91 bc 84 af 05 be 53 f7 21 be
       -0.07702944 -0.017799027 -0.13055235 -0.15817003
0002a0 db 00 24 3d 4e da 9d 3c 84 e6 51 be ab 07 0d be
       0.04003988 0.019269135 -0.20498091 -0.13772456
0002b0 a9 79 4e bd a6 1d 14 be ba 71 d1 bd da 01 0d 3e
       -0.050408993 -0.14464435 -0.1022677 0.13770238
0002c0 54 f9 54 3b f8 6f 4c bc 0d 77 da 3c 27 be 84 3d
       0.0032497244 -0.012477867 0.026668096 0.06481581
0002d0 3f dc 11 be b2 72 04 bf 17 d4 7c 3d e8 c8 87 be
       -0.14244173 -0.5173751 0.061725702 -0.26520467
0002e0 ec 87 63 3d 3a 15 b8 be eb 16 99 be 1c 7d 41 bd
       0.055549547 -0.35953695 -0.29900298 -0.047238454
0002f0 c8 e7 72 3e f3 b4 03 be d5 79 81 bd ed 59 df 3c
       0.2372123 -0.12861995 -0.06322066 0.02726456
000300 88 d1 02 3e 2c 47 c6 bc 96 eb 9a 3e 67 9d 37 be
       0.12775242 -0.02420386 0.30257863 -0.17931138
000310 36 b7 69 3f 96 43 7a be 47 4b 4b be fa 83 1a bd
       0.9129518 -0.24439844 -0.19852935 -0.03772352
000320 41 e9 4a bc a1 99 17 3e 1f 02 3b 3e 97 ab 9b be
       -0.012384714 0.14804699 0.18262528 -0.3040435
000330 06 47 fd bd 1e 86 7f be 33 b3 a4 be 5e 0b 3b 3d
       -0.12367062 -0.24953505 -0.32167968 0.045665137
000340 73 dd 04 3e 97 20 70 3e ce 21 4d be cd 2c 49 3e
       0.12975101 0.23449932 -0.20032427 0.19645996
000350 35 a4 0c be 24 e5 7d be 04 6a 71 bd 3e e7 b7 be
       -0.13734515 -0.24794441 -0.058938995 -0.3591861
000360 ea 7c d9 bd ba ba a1 be 01 ab 3a 3e 84 a3 89 3e
       -0.106195286 -0.31587774 0.18229295 0.26882565
000370 c5 fa 82 3e ac e5 20 3e d6 9e 80 be 9a e8 9f 3c
       0.25581947 0.15712613 -0.25121182 0.019520093
000380 f9 ab 98 3e 35 14 46 bb d3 c7 d3 3d f9 46 20 3e
       0.29818705 -0.0030224447 0.10340848 0.15652074
000390 d4 b9 c2 be 09 94 1e 3d f8 ff 6e 3d 62 27 84 3d
       -0.380324 0.038715396 0.05834958 0.06452824
0003a0 75 1d aa be cf d4 05 3e 88 0a 42 be ca ac 9c bd
       -0.332256 0.13069461 -0.1894933 -0.076501444
0003b0 85 78 64 bd 80 5b 2a 3d 3f 76 e8 bc 93 47 bd bd
       -0.055779 0.041591167 -0.028376697 -0.09242167
0003c0 54 fe 0c bd 07 21 84 3f 5d 60 25 be 3f 80 d4 3d
       -0.034422234 1.0322579 -0.16150041 0.103760235
0003d0 27 8d 3b be 01 5c 6d 3c 0f 17 77 bd f6 87 8d 3e
       -0.18315564 0.0144872675 -0.060324725 0.27642792
0003e0 ed d7 8d 3e 29 a8 06 be 24 62 42 bc 78 d7 d6 3d
       0.277038 -0.13150086 -0.011864219 0.10490316
0003f0 ee 99 5a 3e 0c 8b ad 3d 75 6c e5 3d c0 ba e4 3b
       0.21347782 0.08473787 0.11202327 0.00698027

layers.0.bias f4 [64]
000000 b5 c9 e4 3c d5 dc 97 bd 22 e3 07 be 00 c9 9b 3c
       0.027928213 -0.07415167 -0.13270238 0.019016743
000010 fe 6e f1 bd 78 99 67 3e ac ad 2f bd a0 81 10 be
       -0.11788748 0.22617137 -0.042890236 -0.14111948
000020 cc 2c bd bd 93 d6 01 3c 25 b4 6c be 50 52 47 be
       -0.0923706 0.007924694 -0.23115595 -0.19464993
000030 54 5f f4 bd 62 de f6 3d 98 1a ed 3d 05 9a a2 3d
       -0.11932245 0.12054135 0.11577338 0.07939533
000040 a8 30 41 3e cc 68 25 3e 42 f3 83 bd 3c 65 ef bd
       0.18866217 0.16153258 -0.06442882 -0.11689231
000050 5c 23 48 3b 5a 67 11 be a3 e9 6f 3d 4c 2f d4 3d
       0.0030538654 -0.14199582 0.058572423 0.10360584
000060 7c b5 67 3e ba 50 1d 3e 0b 98 6b be ff 0e 83 3e
       0.22627825 0.15362826 -0.23007219 0.2559738
000070 e7 fc 95 3d ea 4a 6c 3e 0e 73 49 be 5b 5d 31 be
       0.07323628 0.23075452 -0.19672796 -0.17320769
000080 f5 df 4d 3e ee a9 ab 3d 54 4c 17 3e 75 e1 fd 3d
       0.20104964 0.08382021 0.1477521 0.12396518
000090 78 85 80 3d d4 26 25 be 13 bd 27 be c4 24 98 be
       0.06275457 -0.16128093 -0.1638072 -0.2971555
0000a0 66 72 48 bd 78 00 55 be 04 8f 0b bd 45 5a 80 be
       -0.048937224 -0.2080096 -0.034071937 -0.2506887
0000b0 be 48 4f 3e e1 2b 26 be fd 05 44 be 36 aa 9c bd
       0.20242593 -0.16227676 -0.1914291 -0.07649653
0000c0 b4 bf f3 ba bc 5b f6 3c 4f c4 c5 3b 97 fc 22 3e
       -0.0018596561 0.03007304 0.0060353647 0.15916668
0000d0 c9 b5 bd 3d 14 2e 28 3d 18 6d e3 bd ff 8e 8a 3e
       0.092631884 0.04105957 -0.11104792 0.27062222
0000e0 99 93 05 be 6a 41 c6 bd af a0 3a be ba 33 d1 bd
       -0.13044585 -0.096804455 -0.18225358 -0.10214944
0000f0 56 83 4c 3d 98 c0 10 3e 2b ac f7 3d 06 b9 a9 bd
       0.04992994 0.14135969 0.12093385 -0.082872435

layers.1.weight f4 [64, 64]
000000 cc 26 34 be 75 66 94 bd 58 44 10 3d e6 b6 e6 bd
       -0.17592925 -0.07246105 0.035221428 -0.11265354
000010 7d 40 8b 3b 08 86 ec 3c f3 5d dd 3d 48 93 c7 3d
       0.004249631 0.028872505 0.10808935 0.097448885
000020 7c 72 0a bd 00 a1 d7 3c 09 50 66 bd 77 58 63 3d
       -0.033800587 0.026321888 -0.05622867 0.05550429
000030 04 5f e6 bc fa 75 22 be 38 e3 22 bc bf 9b e1 bb
       -0.028121479 -0.15865317 -0.0099418685 -0.0068850215
000040 96 b0 02 ba 00 c6 84 ba 64 92 8a 3d f0 b9 e9 bd
       -0.000498542 -0.0010129809 0.06766203 -0.11412418
000050 77 21 d1 3d d8 38 dd bc be 20 18 bd a4 36 6a 3d
       0.10211461 -0.027004644 -0.0371406 0.057181016
000060 c4 fb e5 3d 49 be 96 3b 64 ff 13 3e a4 d3 e3 bd
       0.11229661 0.0046003205 0.14452893 -0.111243516
000070 23 33 12 bd f2 24 a5 bd e6 0d 9d bd 9e 34 83 bd
       -0.0356933 -0.080636874 -0.076686665 -0.0640652
000080 93 de be bd ad ae 13 3e 92 67 89 bd fc a7 ad bd
       -0.093197964 0.14422102 -0.067092076 -0.08479306
000090 6a e9 be 3d 62 60 0f bd 08 f8 5a 3d 63 3a f5 3c
       0.09321864 -0.035004027 0.053459197 0.029935068
0000a0 34 a5 ba 3c f9 ef d0 3d c0 27 5b 3d dc 18 41 3c
       0.022783853 0.10202021 0.053504705 0.011785712
0000b0 2e bc b2 3d 13 91 16 bc 3f 56 07 bd af cb b8 3d
       0.08727299 -0.009189862 -0.033041235 0.090232246
0000c0 cf 71 12 3d 60 49 c3 3d 29 e2 3c bd c6 cc 0e 3d
       0.035753068 0.095354795 -0.04611412 0.034863256
0000d0 f7 0a 1a bd 7a 65 1b 3d c0 cb 89 3d e7 f6 9b bc
       -0.037608113 0.037938572 0.06728315 -0.01903863
0000e0 37 24 05 be 0a d4 87 3d fd 0f a6 3c 88 bd ad 3c
       -0.13002096 0.0663224 0.020271296 0.02120854
0000f0 f6 ef cf bc 9c b3 01 3d a1 75 e4 3d 4c 0e cc 3b
       -0.025382977 0.03166543 0.111552484 0.0062272903
000100 63 e9 c6 3d 35 f7 e4 bd b0 57 71 bc 38 2c a9 bd
       0.09712484 -0.111799635 -0.014730379 -0.08260387
000110 6e e8 11 be d4 80 6d 3d 16 10 0b 3d 51 c8 9c bd
       -0.14248821 0.05798419 0.033950888 -0.07655395
000120 1d 9a 59 bc 88 13 16 3c 65 90 80 bd 1f 2b ee 3d
       -0.013281372 0.00915993 -0.06277541 0.116293184
000130 2c 51 94 bb 8c b7 87 3b f3 c3 c2 bd 6a 5b 84 3c
       -0.004526278 0.0041417535 -0.095100306 0.01615687
000140 91 80 7f 3c b8 d0 bf 3c ec 58 98 3d 44 4a ab bd
       0.015594617 0.023414955 0.074388355 -0.083637744
000150 25 57 ef bd fd 6c 2a bd fc 4c 0f bd 24 6e a6 3d
       -0.116865434 -0.041607846 -0.034985527 0.081264764
000160 98 7b 86 bc 5d 1d 2b 3c f2 a9 4e bd a0 82 c1 3b
       -0.016416356 0.0104440125 -0.05045504 0.0059054643
000170 bf 8d 7d bb de 37 86 3d 36 82 f5 3c ef 29 29 be
       -0.0038689224 0.065536246 0.029969316 -0.16519903
000180 9a 6a ca 3b f3 89 13 bd 50 8a 19 be c0 92 06 3c
       0.0061772587 -0.03602023 -0.14994168 0.008213699
000190 94 15 89 3d de 09 00 be 71 dd d0 3b 6f a2 56 bd
       0.06693569 -0.12503764 0.006374054 -0.052401002
0001a0 9a 74 9e bd cf 35 0c bd 10 0e fa bc 63 e5 c9 3c
       -0.07737084 -0.034231003 -0.030524284 0.024645513
0001b0 20 c5 c6 bd f2 84 b0 3d 28 cc 91 3d 77 60 26 be
       -0.09705567 0.08619107 0.07119018 -0.16247736
0001c0 99 79 27 3d 6e 1c 16 3d 5b 04 fb bc be fc 38 3d
       0.04088745 0.036648206 -0.030641725 0.04516291
0001d0 bd 07 f8 bd e4 90 27 bd af 11 a9 3d 62 3b 80 bc
       -0.12110851 -0.040909663 0.08255326 -0.015653316
0001e0 38 97 dc bd 2b bb 81 3d e4 28 a8 3d a0 01 3d bd
       -0.1077103 0.063345276 0.08210924 -0.046144128
0001f0 66 cb 8d bd 80 3c f3 3c 26 dd 7c 3d af fc 8d 3d
       -0.06923561 0.029691935 0.06173434 0.06932961
000200 d0 c5 92 be 4f 83 12 be e8 f0 20 be 0c cd 5f 3d
       -0.28666544 -0.14307903 -0.15716898 0.054638907
000210 76 a9 08 3c 2c df ae 3d 33 f5 8e 3d aa 33 37 bd
       0.008341184 0.085386604 0.06980362 -0.044727005
000220 4b cf 7b 3c b5 d3 73 bc 7d 98 9d bc 4d 7a aa 3d
       0.015369247 -0.014882018 -0.019237751 0.08324108
000230 68 c7 92 ba 1d 29 24 be a1 4e 3d be d3 f6 11 3d
       -0.0011198344 -0.16031308 -0.18487026 0.03563578
000240 e4 16 e5 bd c0 56 ee 3d 78 9e 1a bd 70 cc 04 bd
       -0.11186007 0.1163764 -0.037748784 -0.03242153
000250 b0 e7 1c 3e b7 20 b4 bc a2 61 28 3d 9b 3c 0a bd
       0.15322757 -0.021988256 0.041108735 -0.033749204
000260 8a 3a e8 3d 92 45 d6 3d 26 b1 47 bd 00 ab 19 3d
       0.113392904 0.10462488 -0.048752926 0.037516594
000270 6a ea dd 3d e6 43 dc bd ca 54 55 3d 95 a1 8d bd
       0.108357266 -0.10755138 0.052082814 -0.06915585
000280 62 52 7b be a4 8f 8b 3c 24 a5 5c 3d ee c4 b9 bd
       -0.24543145 0.017036267 0.053868428 -0.090707645
000290 20 df c5 bb e9 8b 31 bd 76 e1 dc bd 80 b2 7e bc
       -0.0060385615 -0.04334632 -0.10785191 -0.015545487
0002a0 5a 87 f8 bd ca 6b e4 3d 98 60 6a 3d 5b db 18 bd
       -0.12135191 0.11153372 0.057221025 -0.03731857
0002b0 20 08 2f 3d c3 e7 22 3d 00 52 ea 3d c1 30 a3 bd
       0.042732358 0.039771806 0.114414215 -0.079682834
0002c0 b6 f1 d1 bd 9f a6 a6 3d da 90 a1 3d be 67 bf 3d
       -0.10251181 0.08137249 0.07888956 0.09345959
0002d0 63 ff 52 3d a1 e1 d5 3d b9 86 83 3c 65 0f 91 bd
       0.051513087 0.10443426 0.016055452 -0.070830144
0002e0 1d 0b 21 3e 36 f1 b5 3d 6a 74 37 bd 38 31 38 3d
       0.15726896 0.08883898 -0.044788755 0.044968814
0002f0 c0 c7 21 3d ec 3c a7 3d a7 1e 22 bd 33 25 02 bd
       0.039497137 0.08165917 -0.039580014 -0.031773757
000300 68 32 49 3d 96 ed f1 bd c4 d2 fd bd 80 4f dd 3c
       0.049120337 -0.11812894 -0.12393716 0.027015448
000310 31 c6 3f 3d ce 3a 86 3d 07 6d d9 bc 72 55 91 3d
       0.04681987 0.06554185 -0.026541246 0.070963755
000320 31 c0 03 be 55 82 c6 3b 40 f2 b3 bc 82 2d 3c 3d
       -0.12866284 0.0060580173 -0.0219661 0.045941837
000330 6e b6 be bd 5b ed ba bd d2 dc f7 bd fc 5d 44 bd
       -0.093121395 -0.09127303 -0.12102665 -0.047941193
000340 da d5 a2 3d 20 94 bf 3b 3c a2 e9 bd 80 c8 7a 3b
       0.07950945 0.0058465153 -0.11407897 0.003826648
000350 37 92 7c bd 94 4b 17 bd e6 41 6f 3c 0a 21 0f be
       -0.06166288 -0.03693731 0.014603114 -0.13977447
000360 e2 04 cb 3d b3 35 61 bc 41 63 b5 3d 30 0e 89 bd
       0.09913041 -0.013745713 0.08856822 -0.06692159
000370 33 77 c7 3c 54 0d a3 bd e0 56 c8 3d 64 04 93 bd
       0.02434883 -0.079615265 0.09782195 -0.07178572
000380 93 18 83 bc b6 11 f0 bd 44 41 22 bd bf 64 94 3c
       -0.016002929 -0.11722128 -0.039613023 0.018114446
000390 ec 34 db 3d c4 40 6f bd 3a ff 80 bd 81 6c dd 3b
       0.107034534 -0.058411375 -0.062986806 0.0067573194
0003a0 51 ec 79 3d 20 ed b3 bd a8 68 1d 3d 0e 89 d8 bc
       0.061016385 -0.087854624 0.038429886 -0.02643254
0003b0 3c 62 99 3d d1 b4 45 3d be c2 c5 3d d4 a0 79 bd
       0.0748944 0.048268143 0.09656285 -0.060944393
0003c0 c7 e5 f1 bd 77 28 a3 bb 94 4c 3d 3d 40 4f 12 3d
       -0.11811405 -0.004979189 0.04621561 0.03572011
0003d0 e3 96 26 3d b7 6b 6b 3b aa cb 8e bd 6f 92 54 bd
       0.04067124 0.0035922357 -0.069724396 -0.051897462
0003e0 3b 2f e8 3c ad 06 25 bc d0 ac 0b bd f6 bb b7 bd
       0.028342834 -0.010072392 -0.034100354 -0.089713976
0003f0 55 51 12 be 7c b0 2a 3d bf d1 e4 bd 47 47 b5 3d
       -0.14288838 0.041672215 -0.111728184 0.08851486

layers.1.bias f4 [64]
000000 3c 10 1e 3e 71 3b 1b be 13 86 a9 bd c5 ad 88 bd
       0.1543588 -0.15159394 -0.08277526 -0.06673769
000010 6d 3b 6c bd 2d c2 28 3d 00 65 13 3c c8 dc 1e be
       -0.05767386 0.041200805 0.008996248 -0.15513909
000020 dc 76 37 bd f0 02 12 3d 90 e3 48 3d fc e6 95 bd
       -0.044791088 0.035647333 0.049045146 -0.073194474
000030 4e ad fc bd bd 3e a6 3d 58 20 84 bd 1c 99 bb 3d
       -0.12337743 0.08117435 -0.064514816 0.09160063
000040 d5 f2 12 3d 6f c8 5c bd 8b d7 12 bd 10 d4 b0 3b
       0.035876114 -0.053902086 -0.03585009 0.0053963736
000050 6a 8b 1c bd 06 d5 a1 3d cb 45 cc bd 05 45 7a bd
       -0.038218893 0.07901959 -0.099742495 -0.06110098
000060 5c 06 fc bc 41 e5 18 bd b4 03 0a bd de 06 79 bc
       -0.030764751 -0.03732801 -0.033694938 -0.015199391
000070 45 cb 06 3b e8 c2 0d be ca ac 33 3b 42 02 7b 3d
       0.0020567935 -0.13843882 0.0027416223 0.06128145
000080 c8 6e e6 bd 77 0d 06 be 8c 65 40 bc 5c 51 b5 bc
       -0.112515986 -0.13091074 -0.011742961 -0.022133522
000090 77 d2 78 3d e5 cd dd 3b ad ee 1e 3c 3b 67 86 bd
       0.06074759 0.0067689293 0.009700459 -0.065626584
0000a0 6b 21 d7 bb d9 6d 2e bc 4b 20 e0 3d 52 92 a1 3d
       -0.006565263 -0.010646307 0.109436594 0.078892365
0000b0 98 64 8a bc 53 20 49 3d 30 fc b4 bc 10 da 37 3d
       -0.01689367 0.049103092 -0.022092909 0.044885695
0000c0 36 9d 75 3d 72 c2 02 bd 76 93 c5 3b 19 14 92 bc
       0.05996438 -0.03192372 0.0060295416 -0.017831849
0000d0 e8 0e 6b 3d dd 34 03 bd 12 73 fe bd db a3 40 3d
       0.057387263 -0.032032836 -0.12424292 0.047031265
0000e0 05 ea 20 3d 3c 27 7a 3c 6a 85 6b bc 41 ab ae bd
       0.03928568 0.015268143 -0.01437507 -0.08528758
0000f0 f5 e2 9a bd 54 6c 9f 3d 59 ba 0d be 12 47 e0 bb
       -0.0756282 0.07784334 -0.13840617 -0.0068444097

layers.2.weight f4 [9, 64]
000000 be 3d ca 3d 84 98 01 bd 02 fc 88 3d 80 fb 92 bd
       0.09875058 -0.03163959 0.06688692 -0.07176876
000010 fa 26 09 3d 9f 56 bc bb d9 e7 34 3c 94 7c 2e 3d
       0.033484437 -0.0057476307 0.011041605 0.042599276
000020 2c d0 26 3d d4 e9 f4 3b a2 ba 95 bd ed 56 3d bd
       0.040725872 0.0074741635 -0.07310988 -0.046225477
000030 f6 a1 7b be ba ec 61 3d 4a cf 90 3d a3 e1 0c 3d
       -0.24573502 0.0551574 0.07070787 0.03439487
000040 53 c3 9f bd 41 fc b4 3b c1 0b a0 3d 47 9d 93 3d
       -0.07800927 0.005523235 0.07814742 0.07207733
000050 09 99 ac bd 50 c9 6b bd 9d 32 82 bd 57 63 3c bd
       -0.08427627 -0.057565033 -0.0635731 -0.045993175
000060 d1 19 70 3d 8c 46 ce 3d e2 21 8e 3a b8 75 8e be
       0.05861837 0.100720495 0.0010843838 -0.27824187
000070 8a a4 bb 3d 3a 35 49 be 57 2b 00 3d 9b 77 64 bd
       0.09162243 -0.1964921 0.031291332 -0.055778127
000080 88 76 d4 bd e6 06 72 bd 64 7a 03 3d cc 54 50 bc
       -0.103741705 -0.05908861 0.032099143 -0.01271553
000090 20 c6 16 3c d6 c9 b7 bd e4 2a ec be 4b 8c be bd
       0.00920251 -0.08974044 -0.46126473 -0.093041025
0000a0 1a 1e e4 bd d0 ab 8b 3d 99 e7 ba 3d 00 a9 30 bc
       -0.11138554 0.0681988 0.09126205 -0.01078248
0000b0 5b 23 f3 3c 6d 41 02 3d ea 5d bb bd 9e c3 f7 be
       0.029679945 0.031800676 -0.09148772 -0.48391432
0000c0 fe 9c 31 3d 55 ba 5e 3d 7f ad 5f 3b 87 db 4a 3c
       0.04336261 0.05437692 0.0034130511 0.012381441
0000d0 f9 32 e8 bc 77 9a b5 bd 44 59 34 3d 7e 57 21 be
       -0.028344618 -0.088673525 0.044030443 -0.15756032
0000e0 f3 95 a5 3d 21 1a 21 bd 38 27 fb bc e9 fb bf 3d
       0.08085241 -0.03933156 -0.03065835 0.0937422
0000f0 00 4f 8e be 4c 44 d5 bd b0 5c 90 bc f5 26 87 3e
       -0.27794647 -0.10413417 -0.017622322 0.2639691
000100 ec f2 db 3c 7d 64 18 bd 1e 9a e4 3a 80 d3 45 bd
       0.026849233 -0.037205208 0.001744095 -0.048297405
000110 04 35 52 bc a0 97 3d 3c 15 77 9e bc e4 a1 93 bd
       -0.012830023 0.011571795 -0.019343892 -0.072086126
000120 15 70 ba 3d 11 1c 4e bd 71 a4 88 bd f1 79 d3 bd
       0.09103409 -0.050319735 -0.0667199 -0.10325993
000130 d4 bd b4 be eb 22 af 3d 11 43 c3 bd 56 5f ff 3d
       -0.35301077 0.08551582 -0.09534276 0.12469356
000140 ee 3a d6 bd 21 90 85 bc 58 6a bd 3d b1 45 82 3c
       -0.10460459 -0.016304078 0.09248799 0.015902372
000150 7a 24 7d 3d 20 0b c8 3d a5 da c0 bc 19 19 b8 3d
       0.061802365 0.09767747 -0.023541758 0.08989162
000160 0e d2 8c 3d 00 37 b4 bb 52 32 b2 bc 60 55 81 bd
       0.06876002 -0.0054997206 -0.02175251 -0.06315112
000170 fb 52 64 bc 2a 85 1c bd c4 dd a5 3d 5c e4 72 bd
       -0.0139358 -0.038212933 0.08098939 -0.05929981
000180 09 42 3f bd 22 fe a4 bd cb 56 27 3d 49 7e 31 bb
       -0.046693835 -0.080562845 0.040854257 -0.0027083328
000190 11 a0 95 3d cf 54 2d bd 4c e4 92 be c0 72 c7 bd
       0.07305921 -0.042317208 -0.28689802 -0.09738684
0001a0 cb b3 65 bd 98 a1 86 3c d7 d0 10 3e 0c 1f 6b 3d
       -0.056079667 0.016434476 0.14142166 0.057402655
0001b0 ea 34 6a 3d af 0a bd bc f4 d0 d0 bd 3f 28 b5 be
       0.05717937 -0.023076383 -0.10196105 -0.35382268
0001c0 42 67 aa bd f0 20 15 3d ab f3 84 bd 0e de 48 3d
       -0.08320476 0.036408365 -0.064917885 0.049039893
0001d0 6d f8 57 3c e8 e4 8c bd ed 61 1b bd a0 c6 80 3e
       0.013181788 -0.06879598 -0.037935186 0.2515154
0001e0 96 2c f0 3c ac aa 4e bd 0a 3b 56 3d 9a de a8 bd
       0.029318135 -0.050455734 0.052302398 -0.08245583
0001f0 62 97 b9 bb 2c 35 50 bd 88 ed 64 bd d2 8d 8d be
       -0.005663798 -0.05083196 -0.05589059 -0.27647263
000200 8d d2 f8 3d a7 ab 91 3b 91 79 96 3d 94 19 18 3d
       0.121495344 0.0044455114 0.07347406 0.03713377
000210 b6 27 cb 3d b5 47 3c bd 44 c9 b4 be 50 2a 1e 3d
       0.09919684 -0.045966823 -0.35309803 0.03861457
000220 8e 86 ae 3d 0c bf 2e 3c 8a 54 28 be ab 2d 76 3b
       0.08521758 0.010665666 -0.16438499 0.0037563841
000230 8e 14 75 be cb d1 6b 3d 07 32 3f be b5 ab 00 3e
       -0.23933622 0.05757312 -0.18671428 0.12565501
000240 0b a7 e5 bd a9 50 31 3b aa 62 19 3d 3d 42 9d 3d
       -0.112135015 0.0027056134 0.03744761 0.076786496
000250 5f a3 71 bd 90 84 b5 bc 5d 29 b0 3d 31 d0 25 3c
       -0.058993693 -0.022157937 0.086016394 0.0101204375
000260 6d e1 ef 3c 26 12 ad 3d c1 64 d5 3c 55 93 8c 3d
       0.029282296 0.08450727 0.02604902 0.06864039
000270 55 fb 47 3d 08 14 96 b9 c2 e9 0d 3d ff b7 fb bc
       0.048823673 -0.00028625154 0.034646757 -0.030727385
000280 fe 5e 8d 3d ac a8 f0 3c a2 2b 38 3a 75 9f 84 3b
       0.06902884 0.029377304 0.0007025545 0.004047329
000290 cf 23 49 3c 2d 4d 90 bd dc 18 dd be c9 8f cc bd
       0.012276604 -0.0704597 -0.4318303 -0.09988362
0002a0 95 72 74 bd f3 8f d4 bc fe fe 3f 3d e8 e2 cc bd
       -0.059679586 -0.025947547 0.04687404 -0.100042164
0002b0 b7 01 8c 3c a0 21 29 b9 e0 ec 4d 3d 20 ec 4c be
       0.017090661 -0.00016129622 0.05027473 -0.2001195
0002c0 a5 23 fc 3c ff 7e 99 3d 44 16 07 3d dc fc 6c 3d
       0.030778715 0.07494926 0.03298022 0.057858333
0002d0 13 d3 aa bd 98 2f 6c bc 75 4d 34 bd 66 b5 01 be
       -0.083410405 -0.014415644 -0.04401918 -0.12666854
0002e0 da d3 ac 3d b8 a9 6d 3d 50 78 e7 bb 76 ca 55 be
       0.08438845 0.058023185 -0.007063903 -0.20878014
0002f0 eb 79 2c bc 60 3e 69 bc 7e a5 60 be bb 8d 57 be
       -0.010527114 -0.014236063 -0.2193813 -0.2105016
000300 45 f1 87 3c 46 85 05 3d a3 70 89 3d 04 c9 c0 3b
       0.016594538 0.032597803 0.06710937 0.005883338
000310 e9 6e d7 bd 6d af 4f bc 3b 76 92 ba 9d 08 8f 3d
       -0.10519201 -0.012676102 -0.0011174151 0.06984065
000320 95 bc 32 3d 6f 56 df bc 1f 8c a1 bc 04 bc 80 bd
       0.043636877 -0.027262894 -0.019720135 -0.06285861
000330 28 39 63 be fb f9 9e 3d f9 bb 59 bd 0f 56 41 3d
       -0.22189772 0.07762524 -0.05315778 0.047201212
000340 2b 6c 35 bd ed d7 34 bc 53 9d ba 3d 00 3f 65 3d
       -0.04429261 -0.011037809 0.091120385 0.055968285
000350 8b 62 8e 3c d8 e8 c3 bd 38 32 e0 bd a1 40 91 bd
       0.017380973 -0.09565896 -0.109470785 -0.07092405
000360 64 69 b5 3d a9 36 3f bd 6b 09 06 bd 22 dd 2f bd
       0.08857992 -0.046682987 -0.032723825 -0.042935498
000370 4e b8 03 3d c1 06 5e be 21 dc 97 3d 69 86 44 3d
       0.03215819 -0.21682264 0.07415033 0.047979746
000380 15 81 9e bc 5f b0 bc bc 07 af 83 bd fd 5b c5 3c
       -0.01934866 -0.023033319 -0.06429868 0.024091715
000390 5f 51 32 3d e1 94 8c 3d ee 4c bf be 1b fc 93 be
       0.043534633 0.06864334 -0.3736338 -0.2890328
0003a0 75 e1 87 3d a0 02 49 bc 96 2a cd 3d ca b5 84 bc
       0.066347994 -0.012268692 0.10017888 -0.016199965
0003b0 44 76 1a 3d 5e 2c 3d 3b 1c c6 ee bd a9 ae b8 bb
       0.037710443 0.0028865556 -0.1165888 -0.0056360555
0003c0 cf ee 39 3d 21 ae 40 3d 9c 8a 17 3d df 60 75 bc
       0.04539376 0.047041062 0.036997423 -0.014976709
0003d0 e2 29 67 bd d7 59 03 bb 06 06 09 be 7c 34 6e bd
       -0.056436427 -0.0020042562 -0.13381204 -0.05815552
0003e0 18 e8 eb bd 04 2d 71 bd 59 95 bb bd 95 2a 18 3d
       -0.11518878 -0.05888082 -0.09159345 0.037149984
0003f0 97 fb c0 be 47 7f bc bd 5a f8 b4 bb fc a6 1c 3e
       -0.37691948 -0.09203964 -0.00552277 0.15298074

layers.2.bias f4 [9]
000000 f0 02 33 3d aa 12 ef 3d 1d d2 ef bc 2a 79 fd 3d
       0.043703973 0.11673482 -0.029274995 0.12376626
000010 26 23 b8 3c 61 d1 f4 3d 19 9b 60 bc cd 71 2b 3c
       0.022477698 0.11953998 -0.013708853 0.010464144
000020 1c d5 a4 bb
       -0.0050302874
