experiments/learn_racetrack/racetrack2/2022_01_20_210439836184_5_fbdf8/2022_01_20_210439836184_5_fbdf8_14999.pth (torch, 24919 bytes, 6 tensors)

layers.0.weight f4 [64, 15]
-0.38435534 0.46585572 -0.05654879 -0.078348495 0.14739761 0.12562533 0.038831748 -0.17717847
-0.3860868 -0.44591653 -0.33179528 -0.42144856 -0.010773209 0.06300692 0.03547062 1.206412
0.2325551 0.12351381 0.0845462 -0.24249953 -0.013821088 -0.06627237 0.020496603 -0.21329357
-0.15022139 -0.024147851 -0.021029763 -0.13493136 0.11295148 0.078671925 -0.4737235 -0.81024384
-0.06003358 -0.16414435 0.18710123 -0.38942155 0.031078748 -0.33315057 0.24073344 0.18699156
-0.001992727 0.016083414 0.14193821 -0.24113183 0.24081849 0.24866864 -0.19753055 -0.21989733
-0.25138903 -0.16930357 -0.0046664476 -0.0997432 -0.030515924 -0.19583425 -0.09577866 0.031678796
-0.17090271 0.11890176 -0.027599663 -0.07841469 -0.9291245 0.48915946 -0.042068575 0.2004537
0.102607585 0.010255893 0.087947875 -0.17320243 -0.26131144 -0.24198237 -0.06646063 0.039721325
0.14434953 -0.23337553 0.035982084 -0.2328577 0.012648255 -0.1862777 -0.022432491 -0.24432468
-0.1442257 -0.18254736 0.024503738 -0.051668108 0.007108122 0.038434625 -0.20070368 0.1731875
-0.0064079165 -0.13721454 0.013036465 0.061059564 0.09209954 0.11964694 -0.18708363 -0.03836562
0.008184454 0.028596923 -0.07123128 -0.092786245 -0.08847236 0.1308825 0.24272016 -0.08627625
0.10689711 0.022865037 -0.19319294 -0.2870711 -0.11273379 -0.050699897 -0.025566967 0.12388963
-0.101149864 -0.16080694 0.20959294 -0.12283863 0.09898025 0.19168994 -0.13137561 0.22507793
-0.09541172 0.2117681 0.073988244 -0.07976078 -0.014012702 -0.087223746 -0.21941075 -0.19732493
0.09496424 -0.32292995 -0.12829788 0.06525034 -0.014139863 -0.005075267 0.2796799 -0.39952037
-0.29622382 0.13103884 0.1246218 0.2583269 0.19914828 0.24270147 -0.38187996 -0.23978928
-0.21261212 0.052054085 0.031409137 -0.2567563 0.00956646 0.28525904 -0.07410577 -0.013759723
0.009284353 -0.24993716 -0.19632284 0.056933634 -0.15740907 0.0060544587 0.02527397 -0.031693194
0.05051809 0.11236053 -0.16380712 -0.34734818 -0.066279136 -0.017799027 -0.13055235 -0.15817003
0.04003988 0.019269135 -0.20498091 -0.13772456 -0.050408993 -0.14464435 -0.1022677 0.13770238
0.0032497244 -0.012477867 0.026668096 0.06481581 -0.19518438 -0.5040442 0.0693432 -0.27842507
0.05191821 -0.44792646 -0.32823935 -0.14385629 0.24776892 -0.11314991 -0.047045056 0.03933221
0.115293086 -0.033472132 0.31579903 -0.19007993 0.9296234 -0.29859146 -0.17832434 -0.018116588
0.011884023 0.17231564 0.17399485 -0.3647419 -0.21416152 -0.27969664 -0.29805392 0.0657311
0.14974235 0.21429431 -0.19610317 0.19645996 -0.13967861 -0.25037917 -0.061818257 -0.3608147
-0.10734506 -0.31820878 0.17983715 0.26570684 0.25336382 0.15478873 -0.25399664 0.016475841
0.3006218 0.020084519 0.09118895 0.12700029 -0.39845783 0.024540674 0.03959023 0.07428519
-0.36744407 0.0962705 -0.19481355 -0.09215305 -0.08112196 0.015271681 -0.0560563 -0.07428726
-0.026810955 1.1435816 -0.14293319 0.11792233 -0.19915837 0.023518365 -0.05785499 0.29297876
0.27957168 -0.123449124 -0.0071611614 0.12503958 0.20833188 0.063492484 0.09786118 0.00698027
00000000: 39ca c4be a484 ee3e b49f 67bd 2d75 a0bd
00000010: 66ef 163e eda3 003e 0a0e 1f3d 466e 35be
00000020: 2bad c5be 2c4f e4be 12e1 a9be 1bc8 d7be
00000030: 1d82 30bc c609 813d a449 113d b56b 9a3f
00000040: ed22 6e3e cff4 fc3d 8f26 ad3d cc51 78be
00000050: d871 62bc cfb9 87bd 7ee8 a73c a169 5abe
00000060: a3d3 19be b7d1 c5bc 9c46 acbc 722b 0abe
00000070: 1b53 e73d bf1e a13d e38b f2be 246c 4fbf
00000080: c5e5 75bd 7515 28be 7797 3f3e 4362 c7be
00000090: dc98 fe3c b692 aabe d482 763e b77a 3f3e
000000a0: 6998 02bb 5dc1 833c 4058 113e 43eb 76be
000000b0: 1f99 763e fea2 7e3e 7345 4abe c42c 61be
000000c0: 10b6 80be ea5d 2dbe 00e9 98bb 2a46 ccbd
000000d0: 88fc f9bc c688 48be 9a27 c4bd a0c1 013d
000000e0: 1f01 2fbe c482 f33d b018 e2bc e297 a0bd
000000f0: 1adb 6dbf 1c73 fa3e 1950 2cbd bc43 4d3e
00000100: ed23 d23d 5508 283c 041e b43d fa5b 31be
00000110: 9dca 85be 3aca 77be 831c 88bd d4b2 223d
00000120: 5dd0 133e fff9 6ebe f361 133d 4072 6ebe
00000130: a03a 4f3c 95bf 3ebe 58c4 b7bc 4030 7abe
00000140: e7af 13be b2ed 3abe 10bc c83c f0a1 53bd
00000150: 40eb e83b a06d 1d3d 4485 4dbe 1058 313e
00000160: 80f9 d1bb f881 0cbe e696 553c 9819 7a3d
00000170: af9e bc3d 7409 f53d da92 3fbe 4525 1dbd
00000180: 1718 063c 1844 ea3c b5e1 91bd b706 bebd
00000190: ff30 b5bd 1006 063e a28b 783e 9ab1 b0bd
000001a0: dfec da3d 754f bb3c 5fd4 45be fcfa 92be
000001b0: f9e0 e6bd b2aa 4fbd d171 d1bc d9b9 fd3d
000001c0: a927 cfbd 93aa 24be 889f 563e d292 fbbd
000001d0: 28b6 ca3d 5e4a 443e 5487 06be d47a 663e
000001e0: 3867 c3bd bdd9 583e 2687 973d 9f59 a3bd
000001f0: 8895 65bc 5da2 b2bd 36ad 60be 8c0f 4abe
00000200: 9d7c c23d 1357 a5be 8560 03be f8a1 853d
00000210: e2aa 67bc 6d4e a6bb 3432 8f3e ef8d ccbe
00000220: a6aa 97be 0c2f 063e b739 ff3d 6c43 843e
00000230: 87ed 4b3e bc86 783e c585 c3be 528b 75be
00000240: feb6 59be aa36 553d dea6 003d 9075 83be
00000250: a4bc 1c3c 790d 923e c4c4 97bd 7670 61bc
00000260: 661d 183c 87ef 7fbe db08 49be 3e33 693d
00000270: d82f 21be 7b64 c63b 5b0b cf3c b9d0 01bd
00000280: 0fec 4e3d 471d e63d 0ebd 27be 9fd7 b1be
00000290: 5bbd 87bd 44cf 91bc 84af 05be 53f7 21be
000002a0: db00 243d 4eda 9d3c 84e6 51be ab07 0dbe
000002b0: a979 4ebd a61d 14be ba71 d1bd da01 0d3e
000002c0: 54f9 543b f86f 4cbc 0d77 da3c 27be 843d
000002d0: 6ade 47be 0a09 01bf cf03 8e3d bb8d 8ebe
000002e0: 30a8 543d 9e56 e5be fd0e a8be 104f 13be
000002f0: 23b7 7d3e 24bb e7bd 51b2 40bd d01a 213d
00000300: c81e ec3d 131a 09bd 69b0 a13e 50a4 42be
00000310: cdfb 6d3f fbe0 98be a89a 36be 3d69 94bc
00000320: 35b5 423c 8373 303e b52b 323e 73bf babe
00000330: 284d 5bbe 6634 8fbe 869a 98be 079e 863d
00000340: 0f56 193e f86f 5b3e 45cf 48be cd2c 493e
00000350: e907 0fbe b331 80be 2435 7dbd b4bc b8be
00000360: bad7 dbbd 43ec a2be 3b27 383e ba0a 883e
00000370: e7b8 813e f080 1e3e d90b 82be 58f8 863c
00000380: 1aeb 993e 4a88 a43c 46c1 ba3d 5d0c 023e
00000390: aa02 ccbe 8609 c93c 5d29 223d d522 983d
000003a0: a121 bcbe 7829 c53d 347d 47be bdba bcbd
000003b0: 4523 a6bd 1336 7a3c 4a9b 65bd eb23 98bd
000003c0: a6a2 dbbc e260 923f 145d 12be 4381 f13d
000003d0: 2cf0 4bbe 96a9 c03c 5bf9 6cbd 5001 963e
000003e0: 0524 8f3e e5d2 fcbd 2da8 eabb 600a 003e
000003f0: f454 553e 5908 823d 716b c83d c0ba e43b

layers.0.bias f4 [64]
0.02330285 -0.07597427 -0.13980374 0.019016743 -0.13095154 0.22617137 -0.048949867 -0.14111948
-0.07390543 0.01361411 -0.23292594 -0.19464993 -0.11476631 0.13632794 0.11332913 0.049925935
0.19904503 0.16153258 -0.06442882 -0.11689231 0.0060574184 -0.14145137 0.060384523 0.09795933
0.22627825 0.1448925 -0.22140759 0.2559738 0.07189696 0.23075452 -0.20997755 -0.17104816
0.21823591 0.076716416 0.13722405 0.12701334 0.06275457 -0.166146 -0.17736301 -0.29872474
-0.03591703 -0.21333128 -0.034071937 -0.27250406 0.20242593 -0.15572262 -0.1914291 -0.08618636
-0.018337727 0.027641382 0.005165949 0.15916668 0.06930113 0.040308397 -0.099357694 0.28176856
-0.14370857 -0.09423263 -0.1880261 -0.10214944 0.053616975 0.14135969 0.1214966 -0.09189056
00000000: 9ee5 be3c 6698 9bbd b628 0fbe 00c9 9b3c
00000010: 2918 06be 7899 673e a87f 48bd a081 10be
00000020: bb5b 97bd b70d 5f3c 2384 6ebe 5052 47be
00000030: 990a ebbd 8d99 0b3e 1a19 e83d 237f 4c3d
00000040: 76d2 4b3e cc68 253e 42f3 83bd 3c65 efbd
00000050: 4f7d c63b a1d8 10be c355 773d e79e c83d
00000060: 7cb5 673e b35e 143e acb8 62be ff0e 833e
00000070: b73e 933d ea4a 6c3e 5b04 57be 4027 2fbe
00000080: 3c79 5f3e 7f1d 9d3d 7684 0c3e c90f 023e
00000090: 7885 803d 2d22 2abe a69e 35be 73f2 98be
000000a0: bc1d 13bd 8473 5abe 048f 0bbd a785 8bbe
000000b0: be48 4f3e c075 1fbe fd05 44be 7982 b0bd
000000c0: 0039 96bc 2e70 e23c 1f47 a93b 97fc 223e
000000d0: c0ed 8d3d 6b1a 253d 0c7c cbbd f843 903e
000000e0: 5728 13be 0afd c0bd ea89 40be ba33 d1bd
000000f0: 799d 5b3d 98c0 103e 36d3 f83d 1e31 bcbd

layers.1.weight f4 [64, 64]
-0.18522184 -0.067318015 0.084464 -0.11265354 -0.024578778 0.028872505 0.107004315 0.097448885
-0.031445004 0.036798865 -0.022844082 0.05550429 -0.054673355 -0.17848153 -0.006065792 -0.012548968
0.00042390617 -0.0010129809 0.06766203 -0.11412418 0.058695886 -0.026206242 -0.018642956 0.054891314
0.11229661 0.0070100524 0.13660045 -0.111243516 -0.04541491 -0.080636874 -0.0704162 -0.057695355
-0.035346713 0.1508001 -0.053453967 -0.09193883 0.09321864 -0.029375969 0.0072282115 0.00412653
0.020840667 0.10036198 0.053504705 -0.0009084702 0.08727299 -0.031919956 -0.033041235 0.101396225
0.05388533 0.10003987 -0.051398993 0.034863256 -0.041330222 0.04273496 0.04889058 -0.01243878
-0.16291672 0.050721724 0.040873226 0.02120854 -0.021346051 0.03166543 0.11498347 -0.026091086
0.09712484 -0.111799635 -0.014730379 -0.08260387 -0.14248821 0.05798419 0.018548843 -0.07655395
-0.013281372 0.00915993 -0.06277541 0.116293184 -0.004526278 0.0041417535 -0.095100306 0.01615687
-0.00021346689 0.023414955 0.074388355 -0.083637744 -0.116865434 -0.056830652 -0.034985527 0.066249065
-0.016416356 -0.005015041 -0.05045504 0.0059054643 -0.01913345 0.065536246 0.029969316 -0.17211878
0.0061772587 -0.051725868 -0.14994168 -0.0067346045 0.06693569 -0.13925083 0.006374054 -0.06760165
-0.07737084 -0.034231003 -0.030524284 0.024645513 -0.09705567 0.08619107 0.07119018 -0.16247736
0.04088745 0.020916624 -0.030641725 0.04516291 -0.12110851 -0.05670967 0.08255326 -0.015653316
-0.1077103 0.04761311 0.06731425 -0.046144128 -0.08502945 0.029691935 0.045890033 0.05376688
-0.29318002 -0.1343889 -0.15589581 0.054638907 -0.013700807 0.085386604 0.06563554 -0.044727005
-0.020068109 0.0066813566 0.008767112 0.08324108 -0.04638872 -0.1712943 -0.18151589 0.034031957
-0.13228254 0.1163764 -0.037748784 -0.03242153 0.100901105 -0.03811812 0.0700123 -0.04377408
0.113392904 0.09595649 -0.111391366 0.037516594 0.07096103 -0.10755138 0.07119217 -0.072142445
-0.21380876 0.011683341 0.063163735 -0.10818461 -0.0060385615 -0.041931055 -0.16054532 -0.041708898
-0.11372593 0.11082556 0.057221025 -0.043767907 0.042732358 0.02001266 0.114414215 -0.0626713
-0.094114035 0.0789121 0.07775597 0.09345959 0.05539991 0.09424079 0.012927797 -0.06354972
0.1343938 0.06864292 -0.019928277 0.044968814 0.040061254 0.08165917 -0.05810911 -0.05641553
0.049120337 -0.11812894 -0.12393716 0.027015448 0.04681987 0.06554185 -0.026541246 0.070963755
-0.12866284 0.0060580173 -0.0219661 0.045941837 -0.093121395 -0.09127303 -0.12102665 -0.047941193
0.07950945 0.0058465153 -0.11407897 0.003826648 -0.06166288 -0.03693731 0.014603114 -0.13977447
0.09913041 -0.013745713 0.08856822 -0.06692159 0.02434883 -0.079615265 0.09782195 -0.07178572
-0.016002929 -0.11722128 -0.039613023 0.018114446 0.107034534 -0.058411375 -0.062986806 0.0067573194
0.061016385 -0.087854624 0.038429886 -0.02643254 0.0748944 0.048268143 0.09656285 -0.060944393
-0.11811405 -0.004979189 0.04621561 0.03572011 0.04067124 0.0035922357 -0.069724396 -0.051897462
0.028342834 -0.010072392 -0.034100354 -0.089713976 -0.14288838 0.041672215 -0.111728184 0.08851486
00000000: cbaa 3dbe 07de 89bd 76fb ac3d e6b6 e6bd
00000010: 6f59 c9bc 0886 ec3c 1425 db3d 4893 c73d
00000020: 7acc 00bd 68ba 163d 8323 bbbc 7758 633d
00000030: 2bf1 5fbd ddc3 36be 8dc3 c6bb 309a 4dbc
00000040: b93f de39 00c6 84ba 6492 8a3d f0b9 e9bd
00000050: 196b 703d 79ae d6bc 1db9 98bc b7d5 603d
00000060: c4fb e53d 95b4 e53b fde0 0b3e a4d3 e3bd
00000070: fc04 3abd f224 a5bd 5e36 90bd f751 6cbd
00000080: b7c7 10bd 576b 1a3e 8cf2 5abd 6d4a bcbd
00000090: 6ae9 be3d dfa5 f0bc a2da ec3b d837 873b
000000a0: 0cba aa3c 958a cd3d c027 5b3d 6726 6eba
000000b0: 2ebc b23d 80be 02bd 3f56 07bd d3a8 cf3d
000000c0: ddb6 5c3d b4e1 cc3d c087 52bd c6cc 0e3d
000000d0: e149 29bd da0a 2f3d 7d41 483d 06cc 4bbc
000000e0: a4d3 26be 95c1 4f3d af6a 273d 88bd ad3c
000000f0: eadd aebc 9cb3 013d 747c eb3d f9bc d5bc
00000100: 63e9 c63d 35f7 e4bd b057 71bc 382c a9bd
00000110: 6ee8 11be d480 6d3d bef3 973c 51c8 9cbd
00000120: 1d9a 59bc 8813 163c 6590 80bd 1f2b ee3d
00000130: 2c51 94bb 8cb7 873b f3c3 c2bd 6a5b 843c
00000140: 15d6 5fb9 b8d0 bf3c ec58 983d 444a abbd
00000150: 2557 efbd 42c7 68bd fc4c 0fbd 97ad 873d
00000160: 987b 86bc 3755 a4bb f2a9 4ebd a082 c13b
00000170: c1bd 9cbc de37 863d 3682 f53c e83f 30be
00000180: 9a6a ca3b 81de 53bd 508a 19be f5ad dcbb
00000190: 9415 893d c597 0ebe 71dd d03b bc72 8abd
000001a0: 9a74 9ebd cf35 0cbd 100e fabc 63e5 c93c
000001b0: 20c5 c6bd f284 b03d 28cc 913d 7760 26be
000001c0: 9979 273d 5759 ab3c 5b04 fbbc befc 383d
000001d0: bd07 f8bd 6648 68bd af11 a93d 623b 80bc
000001e0: 3897 dcbd f705 433d 0edc 893d a001 3dbd
000001f0: ec23 aebd 803c f33c 30f7 3b3d a93a 5c3d
00000200: b11b 96be 3e9d 09be 27a3 1fbe 0ccd 5f3d
00000210: 5979 60bc 2cdf ae3d ed6b 863d aa33 37bd
00000220: e065 a4bc 48ef da3b efa3 0f3c 4d7a aa3d
00000230: 1902 3ebd c667 2fbe 4ddf 39be 1865 0b3d
00000240: 1375 07be c056 ee3d 789e 1abd 70cc 04bd
00000250: 3da5 ce3d bf21 1cbd 9c62 8f3d 734c 33bd
00000260: 8a3a e83d d684 c43d 2821 e4bd 00ab 193d
00000270: 0454 913d e643 dcbd 33cd 913d 6bbf 93bd
00000280: aff0 5abe 7c6b 3f3c fd5b 813d e58f ddbd
00000290: 20df c5bb e6bf 2bbd fe65 24be f3d6 2abd
000002a0: 24e9 e8bd 83f8 e23d 9860 6a3d fa45 33bd
000002b0: 2008 2f3d 97f1 a33c 0052 ea3d cf59 80bd
000002c0: dcbe c0bd ab9c a13d 863e 9f3d be67 bf3d
000002d0: 04eb 623d 5101 c13d 1ccf 533c 5b26 82bd
000002e0: 879e 093e a994 8c3d a040 a3bc 3831 383d
000002f0: 4517 243d ec3c a73d d103 6ebd f913 67bd
00000300: 6832 493d 96ed f1bd c4d2 fdbd 804f dd3c
00000310: 31c6 3f3d ce3a 863d 076d d9bc 7255 913d
00000320: 31c0 03be 5582 c63b 40f2 b3bc 822d 3c3d
00000330: 6eb6 bebd 5bed babd d2dc f7bd fc5d 44bd
00000340: dad5 a23d 2094 bf3b 3ca2 e9bd 80c8 7a3b
00000350: 3792 7cbd 944b 17bd e641 6f3c 0a21 0fbe
00000360: e204 cb3d b335 61bc 4163 b53d 300e 89bd
00000370: 3377 c73c 540d a3bd e056 c83d 6404 93bd
00000380: 9318 83bc b611 f0bd 4441 22bd bf64 943c
00000390: ec34 db3d c440 6fbd 3aff 80bd 816c dd3b
000003a0: 51ec 793d 20ed b3bd a868 1d3d 0e89 d8bc
000003b0: 3c62 993d d1b4 453d bec2 c53d d4a0 79bd
000003c0: c7e5 f1bd 7728 a3bb 944c 3d3d 404f 123d
000003d0: e396 263d b76b 6b3b aacb 8ebd 6f92 54bd
000003e0: 3b2f e83c ad06 25bc d0ac 0bbd f6bb b7bd
000003f0: 5551 12be 7cb0 2a3d bfd1 e4bd 4747 b53d

layers.1.bias f4 [64]
0.16469093 -0.16730161 -0.0820068 -0.06673769 -0.05767386 0.041200805 -0.024994195 -0.15513909
-0.045706093 0.035647333 0.018706664 -0.06454026 -0.13759203 0.0895366 -0.07094551 0.09832782
0.04023742 -0.053902086 -0.028338302 0.0030783291 -0.038218893 0.07901959 -0.09823204 -0.06110098
-0.031300765 -0.03732801 -0.039581414 0.0016602033 0.0020567935 -0.1529775 0.012224159 0.06128145
-0.112515986 -0.13091074 -0.015854279 -0.02234089 0.06074759 0.0067689293 0.0063090227 -0.06704961
-0.009585865 -0.010646307 0.109373234 0.06311926 -0.018708112 0.05290472 -0.022092909 0.029076017
0.05996438 -0.030316487 -0.008468979 -0.02387529 0.057387263 -0.048286833 -0.12424292 0.03202006
0.03928568 0.015268143 -0.01437507 -0.08469937 -0.083281554 0.062107112 -0.13748868 -0.013157282
00000000: bda4 283e 1d51 2bbe 2ef3 a7bd c5ad 88bd
00000010: 6d3b 6cbd 2dc2 283d a0c0 ccbc c8dc 1ebe
00000020: 5036 3bbd f002 123d b83e 993c af2d 84bd
00000030: ede4 0cbe f75e b73d e14b 91bd 1960 c93d
00000040: fecf 243d 6fc8 5cbd ba25 e8bc cbbd 493b
00000050: 6a8b 1cbd 06d5 a13d e12d c9bd 0545 7abd
00000060: 3b35 00bd 41e5 18bd 1f20 22bd 2e9b d93a
00000070: 45cb 063b 22a6 1cbe d747 483c 4202 7b3d
00000080: c86e e6bd 770d 06be d5e0 81bc 3e04 b7bc
00000090: 77d2 783d e5cd dd3b ebbb ce3b 4e51 89bd
000000a0: 080e 1dbc d96d 2ebc 13ff df3d ac44 813d
000000b0: c141 99bc 9fb2 583d 30fc b4bc d430 ee3c
000000c0: 369d 753d 485a f8bc 79c1 0abc 1d96 c3bc
000000d0: e80e 6b3d 6ac8 45bd 1273 febd 7727 033d
000000e0: 05ea 203d 3c27 7a3c 6a85 6bbc dd76 adbd
000000f0: 858f aabd 0764 7e3d d5c9 0cbe a491 57bc

layers.2.weight f4 [9, 64]
0.09451532 -0.03163959 0.057262897 -0.07176876 0.033484437 -0.0057476307 -0.012712836 0.042599276
0.05684866 0.0074741635 -0.06051197 -0.023575649 -0.26958063 0.06104889 0.03161581 0.025043022
-0.051253825 0.005523235 0.07235529 0.07616245 -0.08427627 -0.057565033 -0.13945203 -0.045993175
0.06315677 0.100720495 0.020306863 -0.39550647 0.09162243 -0.22767599 0.029247742 -0.055778127
-0.103741705 -0.05908861 0.021377392 -0.020857692 0.00920251 -0.08974044 -0.48191568 -0.025501776
-0.109494515 0.0681988 0.08717299 0.0048202383 0.01957033 0.042558994 -0.09148772 -0.5044075
0.04336261 0.062163264 0.025139393 0.05152973 -0.028344618 -0.11220053 0.044030443 -0.22681113
0.08085241 -0.03933156 -0.03065835 0.058740683 -0.37378895 -0.10413417 -0.0227782 0.22798498
0.037428357 -0.037205208 0.0070249415 -0.048297405 -0.012830023 0.011571795 -0.01591536 -0.072086126
0.095982656 -0.050319735 -0.03990593 -0.07510404 -0.35307336 0.08842729 -0.07903588 0.09570542
-0.080646574 -0.016304078 0.08459282 -0.04242419 0.061802365 0.09767747 0.06803938 0.08989162
0.054641392 -0.0054997206 0.015014756 -0.0068458817 -0.0139358 -0.05694405 0.077352904 -0.05929981
-0.046693835 -0.080562845 0.032066148 -0.019737821 0.07305921 -0.042317208 -0.32483113 -0.08832974
-0.0484728 0.016434476 0.13805768 0.057402655 0.036916696 -0.043597694 -0.10196105 -0.37216565
-0.08320476 0.037822336 -0.064917885 0.00040502707 0.013181788 0.016191365 -0.037935186 0.27161312
0.029318135 -0.050455734 0.052302398 -0.103109516 0.017611321 -0.05083196 0.0020120784 -0.23650488
0.13054754 0.0044455114 0.07762734 0.03713377 0.09919684 -0.045966823 -0.31697473 0.03861457
0.09995865 0.010665666 -0.14016047 0.010659575 -0.17939447 0.05846109 -0.2219396 0.123053364
-0.09332028 0.0027056134 0.050124943 0.09225072 -0.058993693 -0.022157937 -0.04448079 0.0101204375
0.0019434928 0.08450727 0.0117034465 -0.0038697731 0.048823673 -0.07815737 0.04645068 -0.030727385
0.06902884 0.029377304 0.018523466 0.0073572844 0.012276604 -0.0704597 -0.46921012 -0.14127013
-0.069238804 -0.025947547 0.03325526 -0.100042164 0.02724081 -0.03696102 0.05027473 -0.19635345
0.030778715 0.07805983 0.03298022 0.0933934 -0.083410405 -0.082835905 -0.04401918 -0.14135213
0.08438845 0.058023185 -0.007063903 -0.2370427 -0.022388225 -0.014236063 -0.3245242 -0.27204224
0.024423199 0.032597803 0.06483154 0.005883338 -0.10519201 -0.012676102 -0.0048669702 0.06984065
0.03258904 -0.027262894 0.0042117336 -0.08292357 -0.2882281 0.08124725 -0.05142228 0.07330383
-0.065370895 -0.011037809 0.09913935 0.045464277 0.017380973 -0.09565896 -0.12972087 -0.07092405
0.071213566 -0.046682987 -0.0739862 -0.051770046 0.03215819 -0.2337635 0.078952484 0.047979746
-0.01934866 -0.023033319 -0.1705487 0.017767128 0.043534633 0.06864334 -0.34038615 -0.18368272
0.090687424 -0.012268692 0.10392385 -0.016199965 0.027667196 0.02255808 -0.1165888 0.011441276
0.04539376 0.045017663 0.019616513 0.004673912 -0.056436427 -0.040161476 -0.13381204 -0.0041012396
-0.11518878 -0.05888082 -0.09159345 0.05635831 -0.45360237 -0.09203964 -0.0034792577 0.15077595
00000000: 4091 c13d 8498 01bd 808c 6a3d 80fb 92bd
00000010: fa26 093d 9f56 bcbb 8049 50bc 947c 2e3d
00000020: 24da 683d d4e9 f43b 66db 77bd b821 c1bc
00000030: 7906 8abe 670e 7a3d 947f 013d 0627 cd3c
00000040: 88ef 51bd 41fc b43b 032f 943d 0ffb 9b3d
00000050: 0999 acbd 50c9 6bbd 83cc 0ebe 5763 3cbd
00000060: 5658 813d 8c46 ce3d 945a a63c d37f cabe
00000070: 8aa4 bb3d e523 69be f698 ef3c 9b77 64bd
00000080: 8876 d4bd e606 72bd a41f af3c c0dd aabc
00000090: 20c6 163c d6c9 b7bd a7bd f6be 1ae9 d0bc
000000a0: a93e e0bd d0ab 8b3d c187 b23d 17f3 9d3b
000000b0: f551 a03c 5752 2e3d ea5d bbbd da20 01bf
000000c0: fe9c 313d e89e 7e3d 21f1 cd3c d710 533d
000000d0: f932 e8bc 64c9 e5bd 4459 343d 2d41 68be
000000e0: f395 a53d 211a 21bd 3827 fbbc 129a 703d
000000f0: 4461 bfbe 4c44 d5bd 5999 babc e574 693e
00000100: 7a4e 193d 7d64 18bd 7b31 e63b 80d3 45bd
00000110: 0435 52bc a097 3d3c ee60 82bc e4a1 93bd
00000120: 8e92 c43d 111c 4ebd 6774 23bd 26d0 99bd
00000130: 08c6 b4be 5e19 b53d 90dd a1bd 3401 c43d
00000140: 082a a5bd 2190 85bc 003f ad3d fdc4 2dbd
00000150: 7a24 7d3d 200b c83d 3b58 8b3d 1919 b83d
00000160: a7cf 5f3d 0037 b4bb 7300 763c 6b53 e0bb
00000170: fb52 64bc 2a3e 69bd 336b 9e3d 5ce4 72bd
00000180: 0942 3fbd 22fe a4bd cb57 033d 36b1 a1bc
00000190: 11a0 953d cf54 2dbd 4450 a6be 39e6 b4bd
000001a0: 6a8b 46bd 98a1 863c fe5e 0d3e 0c1f 6b3d
000001b0: f635 173d 7f93 32bd f4d0 d0bd 7f8c bebe
000001c0: 4267 aabd 98eb 1a3d abf3 84bd d059 d439
000001d0: 6df8 573c c1a3 843c ed61 1bbd e010 8b3e
000001e0: 962c f03c acaa 4ebd 0a3b 563d 152b d3bd
000001f0: 9e45 903c 2c35 50bd 13dd 033b 562e 72be
00000200: 41ae 053e a7ab 913b 15fb 9e3d 9419 183d
00000210: b627 cb3d b547 3cbd 834a a2be 502a 1e3d
00000220: 1fb7 cc3d 0cbf 2e3c 3a86 0fbe 80a5 2e3c
00000230: 2fb3 37be e574 6f3d 2244 63be 6703 fc3d
00000240: b41e bfbd a950 313b d04f 4d3d f2ed bc3d
00000250: 5fa3 71bd 9084 b5bc 7d31 36bd 31d0 253c
00000260: ccbc fe3a 2612 ad3d d0bf 3f3c 059c 7dbb
00000270: 55fb 473d f910 a0bd 1143 3e3d ffb7 fbbc
00000280: fe5e 8d3d aca8 f03c 86be 973c 6015 f13b
00000290: cf23 493c 2d4d 90bd 4f3c f0be 1ea9 10be
000002a0: 13cd 8dbd f38f d4bc ab36 083d e8e2 ccbd
000002b0: 1f28 df3c 7064 17bd e0ec 4d3d e110 49be
000002c0: a523 fc3c d5dd 9f3d 4416 073d 0a45 bf3d
000002d0: 13d3 aabd dfa5 a9bd 754d 34bd 9dbe 10be
000002e0: dad3 ac3d b8a9 6d3d 5078 e7bb 52bb 72be
000002f0: 8367 b7bc 603e 69bc 0928 a6be 1f49 8bbe
00000300: 2913 c83c 4685 053d 66c6 843d 04c9 c03b
00000310: e96e d7bd 6daf 4fbc 1b7b 9fbb 9d08 8f3d
00000320: 167c 053d 6f56 dfbc 9502 8a3b d5d3 a9bd
00000330: a292 93be f564 a63d 2ba0 52bd 5220 963d
00000340: 2de1 85bd edd7 34bc 9209 cb3d c038 3a3d
00000350: 8b62 8e3c d8e8 c3bd 8cd5 04be a140 91bd
00000360: 6bd8 913d a936 3fbd 1486 97bd d40c 54bd
00000370: 4eb8 033d b35f 6fbe d7b1 a13d 6986 443d
00000380: 1581 9ebc 5fb0 bcbc 52a4 2ebe 5e8c 913c
00000390: 5f51 323d e194 8c3d 1847 aebe 5317 3cbe
000003a0: 54ba b93d a002 49bc 07d6 d43d cab5 84bc
000003b0: 51a6 e23c b9cb b83c 1cc6 eebd 3174 3b3c
000003c0: cfee 393d 7164 383d cfb2 a03c 9e27 993b
000003d0: e229 67bd 5c80 24bd 0606 09be b163 86bb
000003e0: 18e8 ebbd 042d 71bd 5995 bbbd f9d7 663d
000003f0: 923e e8be 477f bcbd 4204 64bb 0365 1a3e

layers.2.bias f4 [9]
0.062836066 0.12646577 -0.016074244 0.13512966 0.040855367 0.13243604 -0.0106424885 0.022046823
-0.0018865529
00000000: 32b0 803d 3e80 013e 22ae 83bc 6e5f 0a3e
00000010: f557 273d 509d 073e d55d 2ebc 8a9b b43c
00000020: 3646 f7ba
