experiments/learn_racetrack/racetrack2/2022_01_20_210439836184_5_fbdf8/2022_01_20_210439836184_5_fbdf8_13999.pth (torch, 24919 bytes, 6 tensors)

layers.0.weight f4 [64, 15]
000000 42 92 d6 be 65 81 de 3e 4c 21 84 bd 53 7d ac bd
       -0.4190846 0.43458095 -0.064516634 -0.08422341
000010 cb 3f 13 3e 88 51 f1 3d 96 42 fe 3c 0d 11 40 be
       0.14379804 0.11783129 0.03103761 -0.18756504
000020 eb f4 c1 be 55 d1 dd be 9f 9c a6 be ca b4 d1 be
       -0.3788217 -0.4332377 -0.32541367 -0.40958244
000030 c1 e7 72 bc e8 45 73 3d e5 59 29 3d 3a 3d 98 3f
       -0.014825762 0.05939284 0.041345496 1.1893685
000040 cf d0 71 3e 76 57 f9 3d 2d 7c ae 3d 00 67 61 be
       0.2361481 0.12174885 0.085197784 -0.22011948
000050 05 04 cc bb 2a ab 8a bd 19 5c b7 3c 90 dc 59 be
       -0.006226065 -0.06770928 0.022382783 -0.21275544
000060 eb 60 1b be 9c ff fd bc 7f 4f 99 bc 44 84 fa bd
       -0.1517369 -0.031005673 -0.018714665 -0.12232259
000070 3a b9 1b 3e 21 c9 9f 3d 07 01 fd be 83 d5 51 bf
       0.15207377 0.07802034 -0.49414846 -0.8196642
000080 55 cb 67 bd 16 fe 12 be 35 ae 41 3e 65 57 b8 be
       -0.056590397 -0.14354739 0.18914111 -0.36004177
000090 36 0a 29 3d 7a 19 a6 be c8 0f 71 3e 85 10 3f 3e
       0.041269504 -0.32441312 0.23541176 0.18658645
0000a0 c1 bf f7 3c 37 1b 01 3d fc d9 19 3e 40 95 76 be
       0.030242803 0.031520095 0.1502456 -0.24080372
0000b0 c0 81 61 3e fe a2 7e 3e 73 45 4a be c4 2c 61 be
       0.22022152 0.24866864 -0.19753055 -0.21989733
0000c0 10 b6 80 be ea 5d 2d be 00 e9 98 bb 2a 46 cc bd
       -0.25138903 -0.16930357 -0.0046664476 -0.0997432
0000d0 88 fc f9 bc c6 88 48 be 9a 27 c4 bd a0 c1 01 3d
       -0.030515924 -0.19583425 -0.09577866 0.031678796
0000e0 1f 01 2f be c4 82 f3 3d b0 18 e2 bc e2 97 a0 bd
       -0.17090271 0.11890176 -0.027599663 -0.07841469
0000f0 21 3f 6b bf 4f f1 f5 3e 68 0b 22 bd 3a 61 55 3e
       -0.918932 0.48035666 -0.03956166 0.2083787
000100 19 eb de 3d 6a 9a d2 3c c3 ad dc 3d a1 3c 26 be
       0.10884685 0.025708396 0.1077533 -0.16234066
000110 a8 ee 88 be 8b 25 80 be c8 be 8f bd b8 9d 2a 3d
       -0.2674458 -0.25028643 -0.070188105 0.04165432
000120 6a 6b 1c 3e d7 9c 67 be 5e d8 e5 3c 40 72 6e be
       0.1527535 -0.22618423 0.028057273 -0.2328577
000130 a0 3a 4f 3c 95 bf 3e be 58 c4 b7 bc 40 30 7a be
       0.012648255 -0.1862777 -0.022432491 -0.24432468
000140 e7 af 13 be b2 ed 3a be 10 bc c8 3c f0 a1 53 bd
       -0.1442257 -0.18254736 0.024503738 -0.051668108
000150 40 eb e8 3b a0 6d 1d 3d 44 85 4d be 10 58 31 3e
       0.007108122 0.038434625 -0.20070368 0.1731875
000160 80 f9 d1 bb f8 81 0c be 2d cd d1 3c 40 ac 93 3d
       -0.0064079165 -0.13721454 0.02561053 0.072105885
000170 16 98 bf 3d 53 f1 f9 3d 03 fa 47 be b8 32 d3 bc
       0.0935518 0.12204232 -0.19528966 -0.02578102
000180 de 5d 18 bb 1a 77 06 3d a7 a5 99 bd ee 04 be bd
       -0.0023249309 0.032828428 -0.07502299 -0.09278284
000190 70 d0 c0 bd bd 9a 02 3e 84 7d 72 3e 6d 20 ca bd
       -0.09414756 0.1275434 0.23680693 -0.09869466
0001a0 00 05 d6 3d 75 4f bb 3c 5f d4 45 be fc fa 92 be
       0.104501724 0.022865037 -0.19319294 -0.2870711
0001b0 f9 e0 e6 bd b2 aa 4f bd d1 71 d1 bc d9 b9 fd 3d
       -0.11273379 -0.050699897 -0.025566967 0.12388963
0001c0 a9 27 cf bd 93 aa 24 be 88 9f 56 3e d2 92 fb bd
       -0.101149864 -0.16080694 0.20959294 -0.12283863
0001d0 28 b6 ca 3d 5e 4a 44 3e 54 87 06 be d4 7a 66 3e
       0.09898025 0.19168994 -0.13137561 0.22507793
0001e0 85 56 c5 bd 7a a2 62 3e be 24 96 3d 7e 6f 89 bd
       -0.09635643 0.22132292 0.07331227 -0.067107186
0001f0 30 d2 f1 bb 47 c0 91 bd 7b 88 4d be 87 3c 4e be
       -0.0073797926 -0.07116752 -0.20071594 -0.20140277
000200 14 29 b7 3d 7e f0 a1 be 07 a1 ec bd 6a 10 aa 3d
       0.08943382 -0.31628793 -0.11554151 0.08303912
000210 6b 06 92 bb 6b 98 14 bd b1 b7 88 3e 66 54 c5 be
       -0.0044563315 -0.03627817 0.26702645 -0.38540953
000220 a4 e4 90 be 9b 8b 0e 3e 29 4c fb 3d c6 98 80 3e
       -0.2829944 0.13920443 0.12270386 0.25116557
000230 69 5c 36 3e 30 36 6a 3e 8a ab c1 be 28 4d 67 be
       0.17808689 0.22872233 -0.37826186 -0.22588027
000240 e9 98 50 be 23 96 50 3d e9 da 13 3d 79 7e 85 be
       -0.2037083 0.05092443 0.03609744 -0.26073053
000250 e3 f6 90 ba ca 08 93 3e 41 78 8c bd 3b e3 f2 ba
       -0.0011059906 0.28717643 -0.06858874 -0.0018530855
000260 cd f4 30 3a 54 bf 82 be 04 a1 43 be 22 76 1e 3d
       0.00067503453 -0.25536597 -0.19104391 0.03868688
000270 c3 9c 17 be f6 85 d1 bb 78 77 8a 3c de 63 d8 bc
       -0.14805894 -0.006394143 0.01690267 -0.026414808
000280 98 14 45 3d c5 04 e0 3d 86 05 2b be da cf ad be
       0.048115343 0.1093841 -0.16701326 -0.3394764
000290 9e 3e 79 bd 44 cf 91 bc 84 af 05 be 53 f7 21 be
       -0.060850732 -0.017799027 -0.13055235 -0.15817003
0002a0 db 00 24 3d 4e da 9d 3c 84 e6 51 be ab 07 0d be
       0.04003988 0.019269135 -0.20498091 -0.13772456
0002b0 a9 79 4e bd a6 1d 14 be ba 71 d1 bd da 01 0d 3e
       -0.050408993 -0.14464435 -0.1022677 0.13770238
0002c0 54 f9 54 3b f8 6f 4c bc 0d 77 da 3c 27 be 84 3d
       0.0032497244 -0.012477867 0.026668096 0.06481581
0002d0 83 3f 77 be 6f 44 00 bf e9 d2 89 3d 8b 28 8d be
       -0.24145322 -0.5010442 0.06729681 -0.27569994
0002e0 71 f8 75 3d 65 94 d8 be 0d 34 a2 be 75 7e ea bd
       0.060051385 -0.42300716 -0.31680337 -0.11449901
0002f0 e9 e9 7d 3e e2 fa 04 be 7c 59 4f bd a6 44 03 3d
       0.24796261 -0.12986329 -0.05062245 0.03204789
000300 55 ce fe 3d ad e6 b4 bc 39 4b a0 3e 43 fb 50 be
       0.124416985 -0.022082651 0.3130739 -0.20408349
000310 9a 07 65 3f 68 e1 9c be d6 db 36 be 56 b0 5b bc
       0.89464724 -0.3064072 -0.17857298 -0.013408741
000320 14 9e 02 3c 12 72 2c 3e f2 7b 2b 3e 9b 30 af be
       0.007972259 0.1684039 0.167465 -0.3421677
000330 bc 49 3b be 98 f6 86 be 44 b7 91 be d9 36 8e 3d
       -0.18289846 -0.2636001 -0.28460133 0.06944055
000340 15 40 1e 3e 26 b1 5b 3e 45 cf 48 be cd 2c 49 3e
       0.15454133 0.21454296 -0.19610317 0.19645996
000350 e9 07 0f be b3 31 80 be 24 35 7d bd b4 bc b8 be
       -0.13967861 -0.25037917 -0.061818257 -0.3608147
000360 ba d7 db bd 43 ec a2 be 3b 27 38 3e ba 0a 88 3e
       -0.10734506 -0.31820878 0.17983715 0.26570684
000370 e7 b8 81 3e f0 80 1e 3e d9 0b 82 be 58 f8 86 3c
       0.25336382 0.15478873 -0.25399664 0.016475841
000380 1a eb 99 3e 2a c2 02 3c 12 fd bf 3d 38 00 0d 3e
       0.3006218 0.007980863 0.09374441 0.13769615
000390 96 3c c9 be c4 bb cd 3c 41 d3 3e 3d e5 1f 99 3d
       -0.39304036 0.025113948 0.046588186 0.074767865
0003a0 76 50 b7 be 84 5e dd 3d 81 a2 46 be 26 e2 ac bd
       -0.35803574 0.10809043 -0.19397928 -0.08441572
0003b0 6e 8d 90 bd 16 14 a4 3c 8f 86 65 bd 63 3c a3 bd
       -0.070582256 0.020029109 -0.05603653 -0.07970502
0003c0 73 aa 00 bd fa 05 8e 3f c0 ae 17 be 1e 4a e8 3d
       -0.031412553 1.1095574 -0.14812756 0.11342262
0003d0 9c 40 49 be 95 88 02 3d 8f ea 71 bd f8 25 94 3e
       -0.19653553 0.031868536 -0.059061583 0.28935218
0003e0 19 12 8f 3e b5 ae f6 bd a4 8f dd bb 28 e9 f8 3d
       0.27943495 -0.120450415 -0.006761508 0.12153846
0003f0 2a fc 54 3e 1b 2b 8a 3d 96 a2 d1 3d c0 ba e4 3b
       0.20799318 0.06746503 0.10236089 0.00698027

layers.0.bias f4 [64]
000000 ea 03 a1 3c d0 d9 98 bd 4a 19 0b be 00 c9 9b 3c
       0.019655187 -0.074634194 -0.13583866 0.019016743
000010 a0 7f 01 be 78 99 67 3e ad e0 4c bd a0 81 10 be
       -0.12646341 0.22617137 -0.050018955 -0.14111948
000020 70 d5 97 bd f1 c0 a6 3c 1c 0a 76 be 50 52 47 be
       -0.07413757 0.020355674 -0.24027294 -0.19464993
000030 96 5f e8 bd 2c 6e 0f 3e 1a 19 e8 3d 2e db 75 3d
       -0.113463566 0.14006871 0.11332913 0.06002348
000040 19 35 48 3e cc 68 25 3e 42 f3 83 bd 3c 65 ef bd
       0.19551505 0.16153258 -0.06442882 -0.11689231
000050 2c 62 8b b7 95 a2 10 be 12 f1 67 3d b2 96 d3 3d
       -1.6615806e-05 -0.1412452 0.056626387 0.10331477
000060 7c b5 67 3e 2f 1b 16 3e 95 e4 63 be ff 0e 83 3e
       0.22627825 0.14658807 -0.22255166 0.2559738
000070 bc 04 9f 3d ea 4a 6c 3e 75 d6 4d be 3d bc 27 be
       0.07764575 0.23075452 -0.2010134 -0.16380401
000080 c7 7e 4f 3e 59 ec a9 3d e0 e3 17 3e 54 78 f6 3d
       0.20263205 0.08297033 0.14833021 0.120346695
000090 78 85 80 3d 36 b4 28 be d8 69 2e be 06 e5 93 be
       0.06275457 -0.16474995 -0.17032564 -0.2888567
0000a0 d1 ae 35 bd c1 4a 5c be 04 8f 0b bd 37 f6 8f be
       -0.04435617 -0.21512891 -0.034071937 -0.28117535
0000b0 be 48 4f 3e c5 1c 1a be fd 05 44 be f3 16 98 bd
       0.20242593 -0.15050037 -0.1914291 -0.07426252
0000c0 a9 3e 85 bb bc 78 e9 3c 2b 3b 66 3c 97 fc 22 3e
       -0.0040663076 0.028499953 0.014052193 0.15916668
0000d0 c0 ed 8d 3d d3 90 14 3d 03 c9 d4 bd e8 da 88 3e
       0.06930113 0.036270928 -0.103899024 0.26729512
0000e0 c5 bb 0d be a1 b2 c0 bd d7 dd 3d be ba 33 d1 bd
       -0.1384116 -0.09409071 -0.18541656 -0.10214944
0000f0 fb 48 4a 3d 98 c0 10 3e cb 9f f7 3d a9 da ac bd
       0.049386006 0.14135969 0.12091025 -0.084401436

layers.1.weight f4 [64, 64]
000000 74 ce 50 be 64 35 81 bd 1c b5 c3 3d e6 b6 e6 bd
       -0.20391256 -0.063090116 0.09556028 -0.11265354
000010 7b 02 29 bc 08 86 ec 3c 00 5b dc 3d 48 93 c7 3d
       -0.010315533 0.028872505 0.107595444 0.097448885
000020 55 6e 41 bd b5 6d e6 3c 35 9c 1e bd 77 58 63 3d
       -0.04722436 0.028128484 -0.03872319 0.05550429
000030 e6 1f 49 bd 1f 9f 46 be 8d c3 c6 bb 32 66 89 bc
       -0.049102686 -0.19396637 -0.006065792 -0.016772363
000040 24 d6 0b 3a 00 c6 84 ba 64 92 8a 3d f0 b9 e9 bd
       0.00053343386 -0.0010129809 0.06766203 -0.11412418
000050 2f 0e 4e 3d 16 bd d8 bc 8e a1 e6 bc 63 ea 6b 3d
       0.050306495 -0.02645735 -0.028153207 0.057596575
000060 c4 fb e5 3d d1 b5 1c 3c f4 e9 f5 3d a4 d3 e3 bd
       0.11229661 0.009564833 0.12007514 -0.111243516
000070 9e 79 1e bd f2 24 a5 bd 1f b5 9d bd 6e 6f 67 bd
       -0.038690202 -0.080636874 -0.07700562 -0.056502752
000080 54 6d 7b bd 0b c5 1a 3e b6 c0 4f bd ae 44 b9 bd
       -0.06138356 0.15114228 -0.050720893 -0.09046303
000090 6a e9 be 3d ae 99 eb bc ce 9f 08 3d 4a 48 30 3c
       0.09321864 -0.028759804 0.033355527 0.010759423
0000a0 e7 8b c6 3c 39 2a bf 3d c0 27 5b 3d bf 37 30 3b
       0.024236633 0.09334225 0.053504705 0.0026888696
0000b0 2e bc b2 3d b8 e6 12 bd 3f 56 07 bd 98 7e c1 3d
       0.08727299 -0.03586456 -0.033041235 0.09447974
0000c0 18 4c 2d 3d a7 af c8 3d cc 5e 37 bd c6 cc 0e 3d
       0.042308897 0.09799128 -0.04476814 0.034863256
0000d0 e1 49 29 bd 8a c1 28 3d fd f5 4e 3d 31 06 d9 bc
       -0.041330222 0.0412002 0.05052756 -0.02649221
0000e0 a0 8e 26 be 72 7e 79 3d 75 d1 04 3d 88 bd ad 3c
       -0.16265345 0.060911603 0.032426316 0.02120854
0000f0 e9 d8 ce bc 9c b3 01 3d 13 82 f1 3d b0 3e b1 bc
       -0.025249915 0.03166543 0.11792388 -0.021636337
000100 63 e9 c6 3d 35 f7 e4 bd b0 57 71 bc 38 2c a9 bd
       0.09712484 -0.111799635 -0.014730379 -0.08260387
000110 6e e8 11 be d4 80 6d 3d be f3 97 3c 51 c8 9c bd
       -0.14248821 0.05798419 0.018548843 -0.07655395
000120 1d 9a 59 bc 88 13 16 3c 65 90 80 bd 1f 2b ee 3d
       -0.013281372 0.00915993 -0.06277541 0.116293184
000130 2c 51 94 bb 8c b7 87 3b f3 c3 c2 bd 6a 5b 84 3c
       -0.004526278 0.0041417535 -0.095100306 0.01615687
000140 15 d6 5f b9 b8 d0 bf 3c ec 58 98 3d 44 4a ab bd
       -0.00021346689 0.023414955 0.074388355 -0.083637744
000150 25 57 ef bd 42 c7 68 bd fc 4c 0f bd 97 ad 87 3d
       -0.116865434 -0.056830652 -0.034985527 0.066249065
000160 98 7b 86 bc 37 55 a4 bb f2 a9 4e bd a0 82 c1 3b
       -0.016416356 -0.005015041 -0.05045504 0.0059054643
000170 c1 bd 9c bc de 37 86 3d 36 82 f5 3c e8 3f 30 be
       -0.01913345 0.065536246 0.029969316 -0.17211878
000180 9a 6a ca 3b 81 de 53 bd 50 8a 19 be f5 ad dc bb
       0.0061772587 -0.051725868 -0.14994168 -0.0067346045
000190 94 15 89 3d c5 97 0e be 71 dd d0 3b bc 72 8a bd
       0.06693569 -0.13925083 0.006374054 -0.06760165
0001a0 9a 74 9e bd cf 35 0c bd 10 0e fa bc 63 e5 c9 3c
       -0.07737084 -0.034231003 -0.030524284 0.024645513
0001b0 20 c5 c6 bd f2 84 b0 3d 28 cc 91 3d 77 60 26 be
       -0.09705567 0.08619107 0.07119018 -0.16247736
0001c0 99 79 27 3d 57 59 ab 3c 5b 04 fb bc be fc 38 3d
       0.04088745 0.020916624 -0.030641725 0.04516291
0001d0 bd 07 f8 bd 66 48 68 bd af 11 a9 3d 62 3b 80 bc
       -0.12110851 -0.05670967 0.08255326 -0.015653316
0001e0 38 97 dc bd f7 05 43 3d 0e dc 89 3d a0 01 3d bd
       -0.1077103 0.04761311 0.06731425 -0.046144128
0001f0 ec 23 ae bd 80 3c f3 3c 30 f7 3b 3d a9 3a 5c 3d
       -0.08502945 0.029691935 0.045890033 0.05376688
000200 eb e6 9a be 25 15 05 be 06 11 0e be 0c cd 5f 3d
       -0.302543 -0.12996347 -0.13873681 0.054638907
000210 ca 21 e2 bb 2c df ae 3d e6 92 89 3d aa 33 37 bd
       -0.0069010006 0.085386604 0.06717472 -0.044727005
000220 4a 96 e5 bc 0d 67 2f ba 30 96 ca bb 4d 7a aa 3d
       -0.028025765 -0.0006691076 -0.0061824545 0.08324108
000230 67 63 37 bd 7c f3 46 be 4d df 39 be 6b 26 f2 3c
       -0.04477253 -0.1942882 -0.18151589 0.029559335
000240 68 74 00 be c0 56 ee 3d 78 9e 1a bd 70 cc 04 bd
       -0.12544405 0.1163764 -0.037748784 -0.03242153
000250 76 35 d8 3d ff 34 06 bd 72 ac 7b 3d 88 8b 2b bd
       0.10557072 -0.032765385 0.061443754 -0.041881114
000260 8a 3a e8 3d 26 2d d1 3d be 55 f2 bd 00 ab 19 3d
       0.113392904 0.102136895 -0.1183276 0.037516594
000270 e6 30 ac 3d e6 43 dc bd c8 68 81 3d 3e 32 86 bd
       0.08407764 -0.10755138 0.063188136 -0.06552552
000280 e4 61 6b be 43 28 83 3c f5 b2 91 3d 74 11 ca bd
       -0.22986561 0.01601041 0.071142115 -0.0986661
000290 20 df c5 bb 2b 02 22 bd 30 98 05 be f0 c6 03 bd
       -0.0060385615 -0.03955285 -0.13046336 -0.032172143
0002a0 f1 a7 eb bd ca 4b d3 3d 98 60 6a 3d 7f 11 39 bd
       -0.11506642 0.1031719 0.057221025 -0.0451827
0002b0 20 08 2f 3d 46 8e 55 3c 00 52 ea 3d df b1 7e bd
       0.042732358 0.013034409 0.114414215 -0.06218135
0002c0 3d f5 d5 bd a0 f7 a2 3d 83 47 ab 3d be 67 bf 3d
       -0.10447166 0.07957387 0.08363249 0.09345959
0002d0 04 eb 62 3d 32 cc c6 3d 7f 73 53 3c b9 ee 90 bd
       0.05539991 0.09706916 0.012905954 -0.07076783
0002e0 87 9e 09 3e 7d 9f a9 3d ff f0 c1 bc 38 31 38 3d
       0.1343938 0.08282373 -0.023674486 0.044968814
0002f0 97 86 1e 3d ec 3c a7 3d 29 48 49 bd 3f 0a 6c bd
       0.038702574 0.08165917 -0.049141083 -0.05762696
000300 68 32 49 3d 96 ed f1 bd c4 d2 fd bd 80 4f dd 3c
       0.049120337 -0.11812894 -0.12393716 0.027015448
000310 31 c6 3f 3d ce 3a 86 3d 07 6d d9 bc 72 55 91 3d
       0.04681987 0.06554185 -0.026541246 0.070963755
000320 31 c0 03 be 55 82 c6 3b 40 f2 b3 bc 82 2d 3c 3d
       -0.12866284 0.0060580173 -0.0219661 0.045941837
000330 6e b6 be bd 5b ed ba bd d2 dc f7 bd fc 5d 44 bd
       -0.093121395 -0.09127303 -0.12102665 -0.047941193
000340 da d5 a2 3d 20 94 bf 3b 3c a2 e9 bd 80 c8 7a 3b
       0.07950945 0.0058465153 -0.11407897 0.003826648
000350 37 92 7c bd 94 4b 17 bd e6 41 6f 3c 0a 21 0f be
       -0.06166288 -0.03693731 0.014603114 -0.13977447
000360 e2 04 cb 3d b3 35 61 bc 41 63 b5 3d 30 0e 89 bd
       0.09913041 -0.013745713 0.08856822 -0.06692159
000370 33 77 c7 3c 54 0d a3 bd e0 56 c8 3d 64 04 93 bd
       0.02434883 -0.079615265 0.09782195 -0.07178572
000380 93 18 83 bc b6 11 f0 bd 44 41 22 bd bf 64 94 3c
       -0.016002929 -0.11722128 -0.039613023 0.018114446
000390 ec 34 db 3d c4 40 6f bd 3a ff 80 bd 81 6c dd 3b
       0.107034534 -0.058411375 -0.062986806 0.0067573194
0003a0 51 ec 79 3d 20 ed b3 bd a8 68 1d 3d 0e 89 d8 bc
       0.061016385 -0.087854624 0.038429886 -0.02643254
0003b0 3c 62 99 3d d1 b4 45 3d be c2 c5 3d d4 a0 79 bd
       0.0748944 0.048268143 0.09656285 -0.060944393
0003c0 c7 e5 f1 bd 77 28 a3 bb 94 4c 3d 3d 40 4f 12 3d
       -0.11811405 -0.004979189 0.04621561 0.03572011
0003d0 e3 96 26 3d b7 6b 6b 3b aa cb 8e bd 6f 92 54 bd
       0.04067124 0.0035922357 -0.069724396 -0.051897462
0003e0 3b 2f e8 3c ad 06 25 bc d0 ac 0b bd f6 bb b7 bd
       0.028342834 -0.010072392 -0.034100354 -0.089713976
0003f0 55 51 12 be 7c b0 2a 3d bf d1 e4 bd 47 47 b5 3d
       -0.14288838 0.041672215 -0.111728184 0.08851486

layers.1.bias f4 [64]
000000 24 81 25 3e 1d 51 2b be 5b e0 a6 bd c5 ad 88 bd
       0.16162544 -0.16730161 -0.08148261 -0.06673769
000010 6d 3b 6c bd 2d c2 28 3d 5a 34 51 3a c8 dc 1e be
       -0.05767386 0.041200805 0.0007980518 -0.15513909
000020 fa e6 35 bd f0 02 12 3d 9a 29 98 3c 8d 89 90 bd
       -0.04440973 0.035647333 0.018574525 -0.07057486
000030 9e 8b 0d be 6c e2 b2 3d d3 2a 85 bd 73 92 c9 3d
       -0.13822791 0.08734593 -0.06502309 0.09842386
000040 a4 71 0f 3d 6f c8 5c bd c7 17 f2 bc b0 ee 46 3c
       0.035020486 -0.053902086 -0.029552354 0.0121418685
000050 6a 8b 1c bd 06 d5 a1 3d 06 3b cd bd 05 45 7a bd
       -0.038218893 0.07901959 -0.100210235 -0.06110098
000060 9b 5b f6 bc 41 e5 18 bd ea 1d 31 bd 8e 98 b4 bb
       -0.030072978 -0.03732801 -0.04324142 -0.00551135
000070 45 cb 06 3b ff de 17 be 50 5f 5b 3c 42 02 7b 3d
       0.0020567935 -0.1483116 0.0133894235 0.06128145
000080 c8 6e e6 bd 77 0d 06 be 0b 07 91 bc a6 23 f4 bc
       -0.112515986 -0.13091074 -0.017703554 -0.029802155
000090 77 d2 78 3d e5 cd dd 3b fa 42 92 3a d0 19 92 bd
       0.06074759 0.0067689293 0.0011158877 -0.071338296
0000a0 c6 5f 26 bc d9 6d 2e bc 5a 77 de 3d ac 44 81 3d
       -0.01015467 -0.010646307 0.10862608 0.06311926
0000b0 c1 41 99 bc 87 1a 6e 3d 30 fc b4 bc 34 db 05 3d
       -0.018708112 0.058130767 -0.022092909 0.03267975
0000c0 36 9d 75 3d 63 9f fa bc 76 93 c5 3b b4 63 d3 bc
       0.05996438 -0.03059358 0.0060295416 -0.025804378
0000d0 e8 0e 6b 3d 02 6a 28 bd 12 73 fe bd 87 62 29 3d
       0.057387263 -0.041116722 -0.12424292 0.04135373
0000e0 05 ea 20 3d 3c 27 7a 3c 6a 85 6b bc 5c b9 d7 bd
       0.03928568 0.015268143 -0.01437507 -0.10533401
0000f0 22 2f ab bd 54 6c 9f 3d 5b 90 0c be 8a a5 92 3b
       -0.08358599 0.07784334 -0.13726942 0.0044753

layers.2.weight f4 [9, 64]
000000 1e 5e c2 3d 84 98 01 bd 74 cd 7a 3d 80 fb 92 bd
       0.09490608 -0.03163959 0.06123109 -0.07176876
000010 fa 26 09 3d 9f 56 bc bb d6 0f 10 3a 94 7c 2e 3d
       0.033484437 -0.0057476307 0.0005495524 0.042599276
000020 0a 8d 82 3d d4 e9 f4 3b 66 db 77 bd 0f 22 f1 bc
       0.06374557 0.0074741635 -0.06051197 -0.029435186
000030 78 0b 81 be 46 48 69 3d 92 5d 49 3d cc 35 96 3c
       -0.25204062 0.05695369 0.0491615 0.0183362
000040 c5 01 95 bd 41 fc b4 3b 69 e9 a5 3d cb 33 a8 3d
       -0.07275728 0.005523235 0.0810116 0.08213004
000050 09 99 ac bd 50 c9 6b bd 77 3d 14 be 57 63 3c bd
       -0.08427627 -0.057565033 -0.14476572 -0.045993175
000060 6f 40 5e 3d 8c 46 ce 3d 03 5f 77 3c e9 7b c8 be
       0.054260667 0.100720495 0.015098336 -0.39157036
000070 8a a4 bb 3d b6 a1 5f be 39 f7 d2 3c 9b 77 64 bd
       0.09162243 -0.21839032 0.02575265 -0.055778127
000080 88 76 d4 bd e6 06 72 bd bb ad 9c 3c fe de 2a 3b
       -0.103741705 -0.05908861 0.01912581 0.0026072855
000090 20 c6 16 3c d6 c9 b7 bd 04 cf f5 be 6c b5 3e bd
       0.00920251 -0.08974044 -0.48009503 -0.046559736
0000a0 3f cc 1c be d0 ab 8b 3d ec 4c b5 3d 17 f3 9d 3b
       -0.15312289 0.0681988 0.08852562 0.0048202383
0000b0 f5 51 a0 3c bd 16 2c 3d ea 5d bb bd 34 ce 04 bf
       0.01957033 0.042013872 -0.09148772 -0.5187714
0000c0 fe 9c 31 3d ab 02 7f 3d 7f ad 5f 3b 8e dc 34 3d
       0.04336261 0.062258404 0.0034130511 0.04415565
0000d0 f9 32 e8 bc 5e b9 d6 bd 44 59 34 3d d6 23 59 be
       -0.028344618 -0.10484575 0.044030443 -0.21205077
0000e0 f3 95 a5 3d 21 1a 21 bd 38 27 fb bc 5b 58 ac 3d
       0.08085241 -0.03933156 -0.03065835 0.0841529
0000f0 88 36 9f be 4c 44 d5 bd 00 84 dd bb 28 25 79 3e
       -0.31096292 -0.10413417 -0.0067601204 0.2433058
000100 9c cc be 3c 7d 64 18 bd 0b 66 6d bb 80 d3 45 bd
       0.023290925 -0.037205208 -0.0036224152 -0.048297405
000110 04 35 52 bc a0 97 3d 3c b2 f5 f9 bb e4 a1 93 bd
       -0.012830023 0.011571795 -0.007628166 -0.072086126
000120 e7 2d c3 3d 11 1c 4e bd 67 74 23 bd 22 1a 9b bd
       0.095302396 -0.050319735 -0.03990593 -0.07573344
000130 08 c6 b4 be 16 a1 c0 3d 90 dd a1 bd a3 12 c9 3d
       -0.35307336 0.09405725 -0.07903588 0.09818008
000140 f6 19 a2 bd 21 90 85 bc 9b 16 b4 3d 34 8f 70 bc
       -0.07915108 -0.016304078 0.08793374 -0.01468258
000150 7a 24 7d 3d 20 0b c8 3d 31 58 8b 3d 19 19 b8 3d
       0.061802365 0.09767747 0.068039306 0.08989162
000160 a5 d0 87 3d 00 37 b4 bb ed e5 0b 3b 24 83 8c bd
       0.06631593 -0.0054997206 0.0021346763 -0.068609506
000170 fb 52 64 bc 90 57 99 bd 38 07 9e 3d 5c e4 72 bd
       -0.0139358 -0.07487404 0.077162206 -0.05929981
000180 09 42 3f bd 22 fe a4 bd cd 5d 88 3c 73 2d a5 bc
       -0.046693835 -0.080562845 0.01664629 -0.020163273
000190 11 a0 95 3d cf 54 2d bd a8 55 af be d8 c0 84 bd
       0.07305921 -0.042317208 -0.34245038 -0.064820945
0001a0 b8 3e a3 bd 98 a1 86 3c fd cf 14 3e 0c 1f 6b 3d
       -0.07970947 0.016434476 0.14532466 0.057402655
0001b0 f6 35 17 3d 07 da 7f bd f4 d0 d0 bd 02 3a b1 be
       0.036916696 -0.062463786 -0.10196105 -0.3461457
0001c0 42 67 aa bd 53 37 fc 3c ab f3 84 bd e4 a9 6c 3c
       -0.08320476 0.0307881 -0.064917885 0.014444802
0001d0 6d f8 57 3c ee 7f 70 3c ed 61 1b bd 13 3a 6f 3e
       0.013181788 0.014678938 -0.037935186 0.23361997
0001e0 96 2c f0 3c ac aa 4e bd 0a 3b 56 3d 15 2b d3 bd
       0.029318135 -0.050455734 0.052302398 -0.103109516
0001f0 10 ad 98 bc 2c 35 50 bd c9 b9 31 bb 56 2e 72 be
       -0.01863721 -0.05083196 -0.0027118793 -0.23650488
000200 69 27 05 3e a7 ab 91 3b 4a 7c 9b 3d 94 19 18 3d
       0.13003315 0.0044455114 0.07592066 0.03713377
000210 b6 27 cb 3d b5 47 3c bd ef 32 9f be 50 2a 1e 3d
       0.09919684 -0.045966823 -0.31093547 0.03861457
000220 1f b7 cc 3d 0c bf 2e 3c 3a 86 0f be 97 c5 ce bb
       0.09995865 0.010665666 -0.14016047 -0.0063101756
000230 2f b3 37 be dd 0b 71 3d 4b 1d 55 be 96 d0 fd 3d
       -0.17939447 0.058849204 -0.20811956 0.123933
000240 0d 9a c1 bd a9 50 31 3b 1e 8c 07 3d f2 ed bc 3d
       -0.09453211 0.0027056134 0.03309261 0.09225072
000250 5f a3 71 bd 90 84 b5 bc e6 4d 03 bd 31 d0 25 3c
       -0.058993693 -0.022157937 -0.03205671 0.0101204375
000260 58 7c 95 3b 26 12 ad 3d 8b b2 67 3c 74 c9 68 3b
       0.004561942 0.08450727 0.014141689 0.0035520466
000270 55 fb 47 3d dc ae 00 bd e1 b5 11 3d ff b7 fb bc
       0.048823673 -0.03141676 0.035573844 -0.030727385
000280 fe 5e 8d 3d ac a8 f0 3c 83 10 c5 3c d5 1a 0d 3b
       0.06902884 0.029377304 0.024055725 0.0021530886
000290 cf 23 49 3c 2d 4d 90 bd 10 8f e7 be 1b 88 11 be
       0.012276604 -0.0704597 -0.45226336 -0.14212076
0002a0 03 a1 6a bd f3 8f d4 bc f8 2d 15 3d e8 e2 cc bd
       -0.05728246 -0.025947547 0.036420792 -0.100042164
0002b0 1f 28 df 3c 85 ec 3a bc e0 ec 4d 3d 04 c6 4a be
       0.02724081 -0.01140893 0.05027473 -0.198021
0002c0 a5 23 fc 3c 81 dd a4 3d 44 16 07 3d 2e a1 8c 3d
       0.030778715 0.08050061 0.03298022 0.0686668
0002d0 13 d3 aa bd 72 1f ac bd 75 4d 34 bd cd 78 0e be
       -0.083410405 -0.08404435 -0.04401918 -0.1391327
0002e0 da d3 ac 3d b8 a9 6d 3d 50 78 e7 bb a1 15 38 be
       0.08438845 0.058023185 -0.007063903 -0.17977001
0002f0 48 8f b2 bc 60 3e 69 bc 32 20 79 be 20 df 7d be
       -0.021796837 -0.014236063 -0.24328688 -0.24792147
000300 c0 90 9c 3c 46 85 05 3d bd 55 85 3d 04 c9 c0 3b
       0.01911199 0.032597803 0.06510494 0.005883338
000310 e9 6e d7 bd 6d af 4f bc c3 c3 a2 bc 9d 08 8f 3d
       -0.10519201 -0.012676102 -0.019868737 0.06984065
000320 16 7c 05 3d 6f 56 df bc 95 02 8a 3b 80 ad 9a bd
       0.03258904 -0.027262894 0.0042117336 -0.07552624
000330 84 34 95 be 18 e2 9f 3d 9a b1 4a bd 2c 3b 8e 3d
       -0.2914163 0.07806796 -0.04948578 0.0694488
000340 4d 99 83 bd ed d7 34 bc 6e 67 c3 3d b7 91 91 3d
       -0.06425724 -0.011037809 0.09541212 0.07107871
000350 8b 62 8e 3c d8 e8 c3 bd dc 99 04 be a1 40 91 bd
       0.017380973 -0.09565896 -0.12949318 -0.07092405
000360 a9 2c a2 3d a9 36 3f bd e7 c1 8a bd 21 07 9c bd
       0.079186745 -0.046682987 -0.06775265 -0.07618547
000370 4e b8 03 3d 35 14 75 be 94 d2 a1 3d 69 86 44 3d
       0.03215819 -0.2393349 0.07901493 0.047979746
000380 15 81 9e bc 5f b0 bc bc f0 fe 21 be 02 cd 04 3d
       -0.01934866 -0.023033319 -0.15819907 0.032422073
000390 5f 51 32 3d e1 94 8c 3d 25 89 ae be ce bf 37 be
       0.043534633 0.06864334 -0.34089008 -0.17944261
0003a0 8f 2f cc 3d a0 02 49 bc 10 06 ce 3d ca b5 84 bc
       0.099700086 -0.012268692 0.1005975 -0.016199965
0003b0 51 a6 e2 3c ae 84 3f 3c 1c c6 ee bd 3e ea c1 bb
       0.027667196 0.011689348 -0.1165888 -0.0059178164
0003c0 cf ee 39 3d 4b 59 2d 3d 9c 8a 17 3d f6 5a a6 bb
       0.04539376 0.042321485 0.036997423 -0.0050767614
0003d0 e2 29 67 bd c4 69 24 bd 06 06 09 be 65 11 ce bb
       -0.056436427 -0.04013993 -0.13381204 -0.0062886947
0003e0 18 e8 eb bd 04 2d 71 bd 59 95 bb bd f9 d7 66 3d
       -0.11518878 -0.05888082 -0.09159345 0.05635831
0003f0 49 ec d9 be 47 7f bc bd 8b f9 a9 bb 38 df 19 3e
       -0.42563084 -0.09203964 -0.0051872185 0.15026557

layers.2.bias f4 [9]
000000 45 09 70 3d 36 a3 ec 3d 66 07 a2 bc 93 1c 03 3e
       0.05860259 0.115545675 -0.019778918 0.12803869
000010 45 71 0f 3d 28 2f 01 3e 81 96 fa bb 23 49 9a 3c
       0.03502013 0.12615645 -0.007647336 0.018833702
000020 d0 b3 34 bb
       -0.0027572997
