experiments/learn_cdrive/cdrive/2022_01_20_133555017350_5_664e5/2022_01_20_133555017350_5_664e5_3999.pth (torch, 32215 bytes, 6 tensors)

layers.0.weight f4 [64, 7]
0	0xbeadbc3a	-0.33932668
1	0xbe9bda61	-0.30440047
2	0xbeb77f76	-0.35839432
3	0x3dede954	0.116167694
4	0xbdabf11c	-0.08395597
5	0xbea37053	-0.31921634
6	0x3e2365ee	0.15956852
7	0x3e86068b	0.26176867
8	0x3eb47900	0.35248566
9	0x3e750b40	0.23930073
10	0xbdbfc6a4	-0.093640596
11	0xbddfa639	-0.10920376
12	0xbde308e2	-0.11085679
13	0xbed15f85	-0.40893188
14	0xbddda323	-0.108221315
15	0x3e892662	0.26787096
16	0xbe8a7833	-0.2704483
17	0x3eb1e850	0.34747553
18	0xbd83e2eb	-0.064397655
19	0x3dc3bfd7	0.09558075
20	0xbedb5c0e	-0.4284367
21	0x3e3fdf98	0.18737638
22	0x3d53b9c9	0.05169085
23	0x3dc897f2	0.09794606
24	0xbeab7655	-0.33488718
25	0x3e7d7e02	0.247551
26	0x3dbb2685	0.091382064
27	0xbd4cbc9a	-0.049984552
28	0xbe81c874	-0.25348246
29	0xbdf1633e	-0.11786507
30	0x3e296bea	0.16545072
31	0xbe991891	-0.29901555
32	0x3e612da8	0.21990073
33	0x3e866f24	0.2625667
34	0xbeb4f9f5	-0.35346952
35	0x3e1fdda9	0.156119
36	0x3e17ecce	0.14836428
37	0xbebcb1df	-0.36854455
38	0xbeb982e6	-0.3623268
39	0x3dbac52d	0.091196395
40	0x3d43bb1c	0.047785863
41	0x3e937ef5	0.28807798
42	0x3e8b18b0	0.27167273
43	0x3d20cd2a	0.03925816
44	0xbe88b5ed	-0.26701298
45	0xbe9d45e5	-0.30717388
46	0x3eabde2a	0.33567935
47	0x3ec8d0f6	0.39221925
48	0xbebd2b1d	-0.36946955
49	0x3eb30018	0.3496101
50	0xbdd73cbb	-0.1050963
51	0xbbf5cf08	-0.0075014867
52	0x3e00838e	0.12550184
53	0xbea23618	-0.31681895
54	0xbe2891fc	-0.16461939
55	0xbec2e317	-0.3806388
56	0xbdb58148	-0.08862549
57	0xbddaa846	-0.10676627
58	0x3e69ea21	0.2284322
59	0xbdfa106b	-0.12210163
60	0xbe41d099	-0.1892723
61	0x3ea669e4	0.32502663
62	0xbd46321e	-0.04838764
63	0x3e462aaa	0.19352213
64	0x3e67dc6a	0.22642675
65	0x3e5c113f	0.21490954
66	0x3e2ba479	0.1676196
67	0xbe302981	-0.17203332
68	0x3dd8dcd5	0.10588995
69	0xbdf7a9e4	-0.12092951
70	0xbec3ce54	-0.38243353
71	0xbe36e10d	-0.17859288
72	0xbe9b97f0	-0.30389357
73	0x3e6eacee	0.23308155
74	0x3e8782ea	0.26467067
75	0x3e9bcc2d	0.3042921
76	0x3e53f989	0.20700659
77	0x3e1f85d4	0.15578395
78	0x3e3fb5ee	0.18721744
79	0xbec7bc10	-0.39010668
80	0xbe9e58ee	-0.30927223
81	0x3e6d61b9	0.2318181
82	0x3eb8c8a0	0.36090565
83	0xbebc0ea9	-0.36729935
84	0xbd1ef206	-0.03880503
85	0xbe878a85	-0.2647287
86	0x3ebb7e99	0.36620024
87	0xbe98eec8	-0.29869676
88	0x3e1d7a13	0.15378599
89	0xbe50ef5b	-0.20403807
90	0xb9bfbcfb	-0.0003657116
91	0xbdc7d421	-0.09757257
92	0x3e9261a8	0.2859013
93	0x3d5bba2b	0.05364434
94	0x3dab9d8f	0.08379661
95	0xbdab84ad	-0.08374915
96	0x3e4090bb	0.1880521
97	0x3e60d931	0.21957852
98	0xbe57c7e0	-0.2107234
99	0xbe538c06	-0.20658883
100	0x3ba7fd08	0.005126599
101	0x3eb47c39	0.35251024
102	0x3d61dac6	0.05514028
103	0x3e09e272	0.13465288
104	0x3d44c4b7	0.048039164
105	0x3dc5b81c	0.09654257
106	0xbebcaf8d	-0.36852685
107	0xbe7193f1	-0.23591591
108	0x3e7ee772	0.24892977
109	0xbcc2a350	-0.023759514
110	0xbe4f9537	-0.20271765
111	0x3eb82849	0.35968235
112	0x3ea02000	0.31274414
113	0x3b7a9dbf	0.0038240997
114	0x3eb8dd8e	0.36106533
115	0x3e6daec7	0.23211204
116	0x3e89f5b9	0.26945284
117	0x3ebe8950	0.37214136
118	0x3ddc54aa	0.10758336
119	0xbea03f84	-0.3129846
120	0xbe1e5bb8	-0.15464675
121	0x3d80fe28	0.062984765
122	0x3e62734f	0.22114299
123	0xbe08390b	-0.1330301
124	0xbe4565c4	-0.19277102
125	0x3e63fd5e	0.2226462
126	0xbda2d80f	-0.07951366
127	0x3e3a74d7	0.18208633
128	0x3e47f377	0.19526468
129	0x3e242555	0.16029866
130	0xbe67e892	-0.22647312
131	0xbe8390e2	-0.25696474
132	0x3ec3147b	0.38101563
133	0x3e9f3eed	0.31102696
134	0x3e753a82	0.239481
135	0xbe41cc74	-0.18925649
136	0x3e64e184	0.22351652
137	0xbe1832cc	-0.14863127
138	0x3e66e0ac	0.22546643
139	0xbe110d1c	-0.14165157
140	0xbe124608	-0.14284527
141	0xbe8bb72d	-0.2728819
142	0x3ea5d18f	0.32386443
143	0xbe4b6daf	-0.1986606
144	0x3eb8effa	0.36120588
145	0xbd5f7b99	-0.05456123
146	0xbe82e957	-0.2556865
147	0xbebc0f8a	-0.36730605
148	0xbc956809	-0.018238084
149	0x3d960eb8	0.07327026
150	0xbe6c944b	-0.23103444
151	0x3e3399a9	0.17539085
152	0x3e4fa681	0.2027836
153	0x3dc97c68	0.09838182
154	0xbe890d3e	-0.26767915
155	0x3e124319	0.14283408
156	0xbe1f02cf	-0.15528415
157	0x3d133467	0.035938647
158	0xbe3489a7	-0.17630635
159	0x3ea1c97c	0.31599033
160	0x3ebf6351	0.3738046
161	0x3e8397c7	0.25701734
162	0x3ea14379	0.3149679
163	0xbde4c7a7	-0.11170893
164	0xbd40ddae	-0.04708641
165	0xbd6415fc	-0.05568503
166	0x3c060464	0.008179758
167	0xbe554547	-0.20827208
168	0xbeba0fb2	-0.363401
169	0xbc7007d9	-0.0146503085
170	0x3e3ef726	0.18648967
171	0xbd395d56	-0.045255028
172	0xbe8b506f	-0.27209803
173	0x3db0c886	0.08631997
174	0xbdc1bc3a	-0.094597295
175	0xbe8b7f45	-0.27245536
176	0x3d250734	0.040290073
177	0xbdd01bf0	-0.10161579
178	0xbcae1e11	-0.021254571
179	0xbebfb7a5	-0.37444797
180	0xbe9a5400	-0.30142212
181	0x3ea29ccc	0.31760252
182	0xbeab1e21	-0.33421424
183	0xbebb4caf	-0.36581942
184	0x3e961d76	0.29319352
185	0x3e47e3f8	0.19520557
186	0x3de725fd	0.112865426
187	0x3d920dfe	0.07131575
188	0xbed3eae4	-0.41390145
189	0xbc867efc	-0.016417973
190	0xbe047dc2	-0.12938598
191	0x3ea83f4f	0.328608
192	0x3e9baaf7	0.30403873
193	0xbe87458c	-0.26420248
194	0xbe721917	-0.23642384
195	0x3e97dc1d	0.2966012
196	0xbd8da2d6	-0.06915824
197	0xbe09b2b2	-0.13447073
198	0x3d5e0815	0.054206926
199	0xbe332b56	-0.17497
200	0x3e93d2f8	0.28871894
201	0xbe9d1206	-0.30677813
202	0x3dbd8adb	0.09255
203	0xbcf818ea	-0.030285317
204	0xbe64212e	-0.22278282
205	0x3e97aa32	0.29622036
206	0x3ec68f1a	0.38781053
207	0xbdadb466	-0.08481674
208	0x3e9cfa6b	0.30659804
209	0xbeb2d159	-0.34925345
210	0x3dd5568e	0.104168996
211	0xbd0e1e94	-0.03469713
212	0xbd3e657f	-0.046483513
213	0x3ed5fd4d	0.41794816
214	0xbeac052b	-0.33597693
215	0xbe7ed6df	-0.24886654
216	0x3ed65181	0.41859058
217	0xbe424f11	-0.18975474
218	0xbebd8f8d	-0.37023583
219	0xbe1ef51e	-0.15523192
220	0xbea5955c	-0.32340515
221	0xbea6a35c	-0.32546508
222	0xbe2c8b32	-0.16849974
223	0xbe2d09dc	-0.16898292
224	0x3ec78b5a	0.38973504
225	0x3e839382	0.25698477
226	0x3de6f039	0.112762876
227	0x3e65e165	0.22449262
228	0xbe156589	-0.14589514
229	0xbe463808	-0.19357312
230	0xbe08a490	-0.13344026
231	0xbea9c214	-0.33155882
232	0x3e593941	0.21213247
233	0xbe79e17e	-0.24402425
234	0xbd459621	-0.048238877
235	0x3dd0ac32	0.10189094
236	0x3bd0bf74	0.0063704792
237	0xbeb0cb61	-0.34530166
238	0x3e5787d0	0.21047902
239	0xbd46f205	-0.04857065
240	0x3da616b7	0.08109801
241	0x3e38ac02	0.18034366
242	0x3e59fd47	0.21288024
243	0x3d182088	0.0371404
244	0xbe8ed8bb	-0.27899727
245	0xbde7d55f	-0.11319994
246	0xba81fcad	-0.0009917222
247	0xbe959776	-0.29217118
248	0x3cc09585	0.023508796
249	0x3ea82816	0.32843083
250	0xbd9dee39	-0.07711453
251	0xbebe878c	-0.3721279
252	0x3e7a37e5	0.24435385
253	0x3e87d7c8	0.26531816
254	0xbdae27b5	-0.08503667
255	0xbe1e85cf	-0.15480731

layers.0.bias f4 [64]
0	0xbe83be1e	-0.25730985
1	0xbcf9a25f	-0.030472932
2	0x3e4aee7b	0.19817536
3	0x3e692c8e	0.22770903
4	0x3e1a518c	0.1507017
5	0xbe3da8d5	-0.18521436
6	0xbe3d52fc	-0.18488687
7	0x3d0b0965	0.033944506
8	0xbeb0f2fa	-0.34560376
9	0x3ec5aaa4	0.3860675
10	0x3d7edea4	0.062224045
11	0xbe920225	-0.2851726
12	0xbe70ce29	-0.23516144
13	0xbe1acbf8	-0.1511687
14	0xbeab325e	-0.33436865
15	0xbeb40d63	-0.35166463
16	0xbc321165	-0.010868405
17	0x3e2bfa54	0.16794711
18	0x3ec2fca5	0.38083377
19	0xbd46c570	-0.048528135
20	0xbe8034e2	-0.25040346
21	0xbe8490b0	-0.25891638
22	0xbdd6ac48	-0.10482079
23	0xbeb54b0c	-0.3540882
24	0xbe1a66f6	-0.15078339
25	0x3e8bc304	0.27297223
26	0x3e8af77e	0.27141947
27	0x3e7a0ea2	0.24419644
28	0xbeae0353	-0.3398691
29	0xbe9e6889	-0.3093913
30	0xbe19e70c	-0.15029544
31	0xbd2e0078	-0.042480916
32	0xbeb74300	-0.35793304
33	0xbe322eb0	-0.17400622
34	0x3d69ef48	0.057112962
35	0xbe3d5857	-0.1849073
36	0xbe9a7e7d	-0.30174628
37	0xbe94c865	-0.2905914
38	0x3d7cdb95	0.061732847
39	0xbe81d657	-0.2535884
40	0x3e5c9848	0.21542466
41	0x3e97f2d4	0.2967745
42	0x3ebe06e4	0.37114632
43	0xbeaa94d3	-0.3331667
44	0xbe66bba6	-0.2253252
45	0x3df56157	0.11981457
46	0xbe97ca08	-0.29646325
47	0x3e7620cc	0.24035949
48	0xbddc4fb0	-0.10757387
49	0x3eb0e5ce	0.34550327
50	0x3e8bb951	0.27289823
51	0x3dfcd6d1	0.123456605
52	0x3eb7acab	0.35873923
53	0x3e7fa0ce	0.24963686
54	0x3e8ed221	0.2789469
55	0x3eb30831	0.34967187
56	0x3ea7a22d	0.32740918
57	0x3e74df60	0.23913336
58	0x3d2cf920	0.04222977
59	0xbe89ecfd	-0.2693862
60	0x3e3a0dee	0.18169376
61	0xbeab8a1f	-0.33503816
62	0x3ea28577	0.3174245
63	0xbe2dc141	-0.16968252

layers.1.weight f4 [64, 64]
0	0x3c2272a0	0.009915024
1	0xbda242b5	-0.079228796
2	0x3d71d658	0.059042305
3	0xbcf4b866	-0.029873084
4	0x3dff9221	0.12479044
5	0xbd8812bc	-0.06644198
6	0x3d3b6a99	0.045755956
7	0x3dfcdf2c	0.12347254
8	0xbd9b0014	-0.07568374
9	0xbdc48f07	-0.09597593
10	0x3dfb4454	0.12268892
11	0x3d8b5a71	0.0680436
12	0x3bcdfcc0	0.0062862337
13	0xbd144d70	-0.036206663
14	0x3e1f4cfd	0.15556712
15	0x3ca3c3f8	0.019990906
16	0x3d2ba7ae	0.04190796
17	0x3a34e924	0.0006901196
18	0xbd85ebb3	-0.06539097
19	0xbdabc7c3	-0.08387711
20	0xbdff6e52	-0.12472214
21	0xbd54e8fa	-0.051979996
22	0xbda996f1	-0.08280743
23	0x3daacbb4	0.083396345
24	0xbdbe67d0	-0.092971444
25	0xbd179482	-0.037006862
26	0x3cedf7d8	0.029048845
27	0x3ab9e5d2	0.0014182872
28	0xbdd3ebe0	-0.10347724
29	0xbd48be8b	-0.04900984
30	0xbdcb9566	-0.09940605
31	0x3de732be	0.11288975
32	0x3d301e6e	0.04299777
33	0x3d020502	0.031743057
34	0xbd875a7f	-0.06609058
35	0xbdc9757f	-0.09836864
36	0xbd8adf8c	-0.067809194
37	0xbd85f2e4	-0.06540468
38	0xb8fda7ef	-0.0001209526
39	0xbdab593a	-0.08366628
40	0x3dee87b5	0.11646978
41	0x3d2049e9	0.039132986
42	0xbd345f6d	-0.044036318
43	0xbd329165	-0.04359569
44	0x3dc27df4	0.0949668
45	0xbce8ea7d	-0.028432125
46	0xbb23adc0	-0.002497539
47	0x3d0cd8f4	0.03438659
48	0x3dba3872	0.09092797
49	0x3d8022c4	0.06256631
50	0xbd0d5b1c	-0.034510717
51	0xbe0b8638	-0.13625419
52	0x3d0d02af	0.034426387
53	0x3df4f45a	0.11960669
54	0x3dafb901	0.085802086
55	0x3d12880a	0.03577427
56	0x3d52beb0	0.051451385
57	0xbc9081fe	-0.01764011
58	0x3d894160	0.067019224
59	0x3dde1f72	0.108458415
60	0xbcaf8880	-0.021427393
61	0xbdfc7284	-0.123265296
62	0xbd7d95d6	-0.061910473
63	0x3ceadfe6	0.028671216
64	0xbddc94c2	-0.10770561
65	0x3e377af7	0.17918001
66	0xbd048abc	-0.03235887
67	0xbd425f21	-0.047454003
68	0x3d05ae41	0.032636885
69	0x3df4dfc9	0.11956746
70	0xbd1f4002	-0.038879402
71	0x3e13420c	0.14380664
72	0x3c12d48b	0.008961807
73	0x3dbc9f9b	0.0921013
74	0x3c892cc4	0.016744979
75	0x3dc21dfb	0.094783746
76	0xbe0ba61d	-0.13637586
77	0xbd0d9ceb	-0.034573477
78	0xbdc6c22e	-0.097050056
79	0x3d9e44b4	0.07727948
80	0x3d6e6a84	0.05820705
81	0xbd982373	-0.074286364
82	0x3cd83765	0.026393602
83	0x3e16529e	0.14679953
84	0x3d98b646	0.07456641
85	0x3e0190a2	0.1265283
86	0xbe88da48	-0.26729035
87	0x3db5fdb2	0.08886279
88	0x3d7fa610	0.06241423
89	0x3d0d132a	0.034442104
90	0x3d6c822f	0.05774134
91	0x3defde68	0.117123425
92	0xbdadcf15	-0.084867634
93	0x3cf419dc	0.029797487
94	0xbd4e8fd3	-0.05043013
95	0x3d5e249c	0.054234132
96	0x3ca60f54	0.02027098
97	0x3dd8b3b9	0.105811544
98	0x3de52c53	0.11190095
99	0x3c8538c7	0.016262425
100	0x3d916d49	0.071009226
101	0x3df561b8	0.11981529
102	0xbda064a7	-0.07831698
103	0x3e02a040	0.12756443
104	0x3d002807	0.031288173
105	0x3d3c18ac	0.045921966
106	0x3cb796d4	0.022410788
107	0x3b98ed5d	0.004666968
108	0xbdf9e1b8	-0.122012556
109	0xbd3b131c	-0.04567252
110	0xbab7fe80	-0.0014037639
111	0x3e33380b	0.17501847
112	0x3d7c917c	0.061662182
113	0x3d549e8d	0.05190902
114	0x3dc03d49	0.09386689
115	0xbe2a5bb6	-0.16636547
116	0x3db57e81	0.08862019
117	0xbd1bac70	-0.038006246
118	0xbd324e31	-0.0435316
119	0x3e28218c	0.16419047
120	0x3ddfb7bc	0.109237164
121	0x3cad459b	0.021151355
122	0xbdc886e0	-0.0979135
123	0x3d81f870	0.06346214
124	0xbd4a7f38	-0.04943773
125	0x3d96594f	0.07341253
126	0x3dac8839	0.0842442
127	0x3c9c864b	0.019107005
128	0xbdfc3cbe	-0.12316273
129	0x3c5d27c0	0.013498247
130	0x3dca0fed	0.09866319
131	0x3d93c5e1	0.07215477
132	0xbd684f8d	-0.05671649
133	0x3d002ab9	0.031290743
134	0x3db7abcf	0.08968317
135	0xbd987288	-0.0744372
136	0x3c4e9a20	0.012609988
137	0xbd52b4ce	-0.05144196
138	0x3dd2a362	0.10285069
139	0xbd8d4e16	-0.06899659
140	0xbd46f7a0	-0.048575997
141	0x3d3817e6	0.044944666
142	0x3d876a28	0.066120446
143	0x3d69f964	0.057122603
144	0xbd593e30	-0.053037822
145	0x3ce2458c	0.027621053
146	0x3bfc7200	0.0077040195
147	0xbe00679d	-0.12539525
148	0x3d72e728	0.05930248
149	0x3d0ea4de	0.0348252
150	0x3c789410	0.01517202
151	0x3db6b30e	0.08920871
152	0xbd639120	-0.055558324
153	0x3de59e18	0.112117946
154	0xbd77dec9	-0.0605152
155	0xbbc35660	-0.0059612244
156	0x3c8beeab	0.01708158
157	0xbdf1d53c	-0.11808249
158	0xbdb86bfa	-0.0900497
159	0x3dd5e552	0.1044413
160	0xbdac4872	-0.08412255
161	0xbb8d7205	-0.0043165707
162	0x3db94e70	0.09048164
163	0x3c864811	0.016391786
164	0x3d39381c	0.045219526
165	0xbde66424	-0.11249569
166	0x3db870ea	0.09005912
167	0xbe001d63	-0.1251121
168	0xbd9a3140	-0.07528925
169	0x3cd162b8	0.025559768
170	0xbd8263b5	-0.06366674
171	0xbda92fb5	-0.082610525
172	0x3d93ce38	0.072170675
173	0xbdb8209b	-0.08990594
174	0x3d9e4a3c	0.07729003
175	0xbe04f029	-0.12982239
176	0xbdf81278	-0.12112898
177	0x3d139120	0.036027074
178	0x3d584783	0.052802574
179	0xbcf221a8	-0.029557064
180	0x3dcb3316	0.09921853
181	0xbdfeb7fe	-0.124374375
182	0x3dc6cc92	0.097069874
183	0xbdaed8e8	-0.08537465
184	0xbd2e152c	-0.04250066
185	0xbe01daf3	-0.12681179
186	0x3d9df7dc	0.07713291
187	0xbd155952	-0.036462136
188	0x3d70025c	0.058596
189	0xbd63f6a8	-0.05565515
190	0xbc992721	-0.018695416
191	0x3dee6d8f	0.116419904
192	0x3d2da46c	0.042393133
193	0x3d6c5b4e	0.057704262
194	0x3e5ad976	0.21372017
195	0x3e14703b	0.14495938
196	0x3c42b9a2	0.011885079
197	0x3c95eb13	0.018300569
198	0x3dd827a6	0.10554437
199	0x3e510dde	0.20415446
200	0x3d6cf511	0.0578509
201	0x3e1d5165	0.15363081
202	0xbdd836c1	-0.105573185
203	0x3de1737b	0.11008354
204	0xbd586799	-0.052833173
205	0xbcdd7ef4	-0.027038075
206	0xbdece9c1	-0.115680225
207	0xbdbd9fee	-0.0925902
208	0xbd9e9364	-0.07742956
209	0xbc15a21c	-0.009132888
210	0x3dbc1952	0.09184517
211	0x3dec28c7	0.11531215
212	0xbcfe4bde	-0.031042036
213	0xbe102c6f	-0.1407945
214	0xbe817804	-0.25286877
215	0xbdb9e9c3	-0.0907779
216	0x3d8283fe	0.06372832
217	0x3daf0642	0.085461155
218	0xbdaca971	-0.08430756
219	0xbd110e3f	-0.035413977
220	0xbc0db26c	-0.008648496
221	0x3d684837	0.056709494
222	0xbd3c35ef	-0.045949873
223	0x3c1013f0	0.008793816
224	0x3d95cf97	0.07314985
225	0x3ce06824	0.027393408
226	0x3e2b96d0	0.16756749
227	0x3d9da5ce	0.0769764
228	0x3c63ea08	0.013910778
229	0xbda2a5a8	-0.07941753
230	0x3dc64296	0.09680669
231	0xbd981604	-0.07426074
232	0x3def3106	0.11679272
233	0x3dd6a430	0.10480535
234	0x3add8210	0.0016899724
235	0x3db4b19a	0.08822937
236	0xbdc94270	-0.09827125
237	0xbd13d67c	-0.03609322
238	0x3d17936c	0.037005827
239	0x3e2d01dd	0.16895242
240	0xbdd9525a	-0.106114104
241	0x3e0d2543	0.13783745
242	0x3e29403f	0.16528414
243	0x3cec9079	0.028877484
244	0xbd0904ff	-0.03345203
245	0xbdb8e5a0	-0.090281725
246	0x3d57f8f1	0.052727643
247	0x3df6fb8a	0.12059696
248	0xbc89dab4	-0.016827919
249	0xbd6914c0	-0.056904554
250	0x3df7085e	0.12062143
251	0xbe099942	-0.1343737
252	0x3b1bff40	0.0023803264
253	0x3da77cef	0.08178126
254	0xbbde4fca	-0.006784414
255	0xbe066817	-0.13125645

layers.1.bias f4 [64]
0	0xbe05b4d7	-0.13057266
1	0xba89bf8a	-0.0010509354
2	0x3d3e0dd6	0.046399914
3	0x3d45bdd5	0.04827674
4	0xbd4965f9	-0.049169514
5	0xbd90bc8a	-0.07067211
6	0xbd5ed94e	-0.054406457
7	0xbdc59042	-0.096466556
8	0x3d8803ed	0.06641374
9	0xbde1e8a2	-0.11030699
10	0xbbd65042	-0.006540329
11	0xbde2b49e	-0.11069606
12	0xbd4620f8	-0.048371285
13	0x3d285e2c	0.041105434
14	0x39f24186	0.00046206656
15	0x3d8ca718	0.06867808
16	0xbd9f95c6	-0.07792239
17	0xbcde9b66	-0.02717371
18	0xbd7ec329	-0.062197838
19	0x3daa55c3	0.08317139
20	0x3dd8af20	0.105802774
21	0x3d32e683	0.043676864
22	0x3cdbe869	0.02684422
23	0x3d463ea7	0.048399594
24	0x3de4fa06	0.11180501
25	0xbd7e6686	-0.062109493
26	0x3d25f44c	0.040516183
27	0x3c5bc2e7	0.013413168
28	0x3d485ace	0.048914723
29	0xbe030dcc	-0.12798232
30	0xbcbf62d7	-0.02336256
31	0x3d251ebf	0.040312525
32	0x3dc338a3	0.09532287
33	0xbd955c26	-0.072929665
34	0x3de99d35	0.11406938
35	0x3c2d637b	0.0105828
36	0xbdf5586a	-0.11979754
37	0xbdf5c5b5	-0.120006
38	0x3dad45d5	0.08460585
39	0x3e14b79f	0.14523171
40	0x3e02daa5	0.12778719
41	0xbdc66b0a	-0.09688385
42	0xbdebb175	-0.115084566
43	0xbdc51575	-0.09623233
44	0x3d03cc21	0.032177094
45	0xbdedff74	-0.116209894
46	0x3dd2b3a6	0.102881715
47	0xbdb5fc9e	-0.088860735
48	0x3d641f0a	0.055693664
49	0xbe008d0e	-0.12553808
50	0xbdb9cf6a	-0.09072764
51	0x3d2b9fac	0.04190032
52	0xbda4f10c	-0.080537885
53	0x3db5a400	0.08869171
54	0xbd62f275	-0.055407006
55	0x3d900659	0.07032461
56	0x3cc0b34e	0.023523
57	0x3d839e24	0.06426647
58	0xbd007eb2	-0.031370826
59	0x3de55c9c	0.111993045
60	0xbd9fd708	-0.07804686
61	0xbd4ee3c0	-0.050510168
62	0x3de82230	0.11334646
63	0xbd88714c	-0.06662235

layers.2.weight f4 [45, 64]
0	0x3d9a62a3	0.07538345
1	0x3dc87ead	0.097897865
2	0xbc4861c0	-0.012230337
3	0x3e06b45a	0.13154736
4	0xbd9ea300	-0.077459335
5	0xbdebecd2	-0.11519779
6	0xbd3dd419	-0.04634485
7	0xbdecbefc	-0.11559865
8	0x3e22b56b	0.15889518
9	0x3d25d6f4	0.0404882
10	0x3cb0f3c4	0.021600612
11	0xbce19248	-0.027535573
12	0xbd5f77bc	-0.054557547
13	0xbd580929	-0.05274311
14	0x3dbb1687	0.09135156
15	0x3d0516f4	0.032492593
16	0x3df307ee	0.11866747
17	0x3d0931d0	0.03349477
18	0x3ddccfaa	0.10781796
19	0x3dd4078f	0.10353004
20	0x3e091b93	0.13389425
21	0x3dedd723	0.116133
22	0x3da03c00	0.07823944
23	0x3cc9eb90	0.024648458
24	0x3e189f79	0.14904584
25	0x3e06b256	0.13153967
26	0x3de19b8a	0.11015995
27	0x3de96575	0.113963045
28	0xbdb646a2	-0.08900191
29	0x3da764f7	0.081735544
30	0x3cc25c76	0.02372573
31	0x3c682fd0	0.014171556
32	0x3d1ee2c4	0.03879048
33	0xbd15a5b0	-0.036534965
34	0xbd01145c	-0.031513557
35	0xbd6be022	-0.057586797
36	0xbd2be2b4	-0.041964248
37	0x3d67f4e0	0.056630015
38	0xbb970c33	-0.0046096086
39	0xbd3d8f3e	-0.046279185
40	0xbc790dd8	-0.0152010545
41	0xbdea30b8	-0.114350736
42	0x3c6ebe60	0.014571756
43	0xbcd12a70	-0.025532931
44	0x3d3198be	0.043358557
45	0x3c8123c8	0.015764132
46	0x3d545d18	0.051846594
47	0xbc3fe8a0	-0.011713177
48	0x3e0a9a12	0.13535336
49	0x3ca933e5	0.020654628
50	0xbcd51070	-0.026008815
51	0xbd1df580	-0.038564205
52	0xbcf82e08	-0.030295387
53	0xbd02dec8	-0.031950742
54	0x3d19db53	0.03756268
55	0x3c918c80	0.017767191
56	0x3dba78ea	0.09105094
57	0x3e20d795	0.15707238
58	0xbdd1c5cf	-0.10242807
59	0xbd255d8b	-0.040372413
60	0x3dc0222c	0.09381518
61	0x3d8ae52a	0.06781991
62	0x3d060c52	0.032726593
63	0x3dd16fb3	0.10226383
64	0x3de6e114	0.11273399
65	0x3d5e3718	0.05425176
66	0x3bfe2e80	0.007757008
67	0x3d889932	0.06669845
68	0x3de6b3fa	0.112647966
69	0x3da2d420	0.07950616
70	0x3c36c600	0.011155605
71	0xbcbfbff8	-0.023406968
72	0x3dee8ebc	0.11648318
73	0xbc71d310	-0.014759794
74	0xbc725640	-0.014791071
75	0xbd9137f2	-0.07090749
76	0xbdec6ef0	-0.11544597
77	0x3bd678e0	0.006545171
78	0x3dd35730	0.10319364
79	0x3d56b740	0.052420855
80	0x3d44027c	0.04785393
81	0xbdf6a5ac	-0.12043318
82	0x3cf56948	0.029957429
83	0xbde15ddc	-0.110042304
84	0xbdb7baa6	-0.08971147
85	0x3d3d3cec	0.046200678
86	0x3a171f00	0.0005764812
87	0xbdd24110	-0.10266316
88	0xbd4d6968	-0.05014935
89	0x3d4905cc	0.049077794
90	0xbdeba15c	-0.11505386
91	0xbd10997c	-0.035302624
92	0xbcd01298	-0.025399491
93	0xbdd94d26	-0.10610418
94	0xbd669a50	-0.056299508
95	0xbc969110	-0.018379718
96	0xbd934f94	-0.07192913
97	0x3c9e0718	0.019290492
98	0xbc219eb0	-0.009864494
99	0xbdebb5fc	-0.1150932
100	0x3c560c10	0.013064399
101	0xbddf7b88	-0.109122336
102	0x3d97715a	0.07394667
103	0x3cd45a88	0.025922075
104	0xbd607270	-0.054796636
105	0xbd2ff9d4	-0.042962864
106	0xbd97c42a	-0.07410462
107	0xbc4b0520	-0.012391359
108	0x3ccc5410	0.024942428
109	0xbdec2ffc	-0.1153259
110	0x3da6292a	0.0811332
111	0xbddff0ac	-0.109345764
112	0xbdba59a0	-0.09099126
113	0x3beec100	0.007286191
114	0x3d208958	0.03919348
115	0x3c803b88	0.015653387
116	0xbbc2e560	-0.005947754
117	0xbdcfd496	-0.101479694
118	0x3bc7dfa0	0.006099656
119	0xbd7ebbd4	-0.062190846
120	0x3d2298d0	0.039696515
121	0x3df8e804	0.121536285
122	0x3ccf67a0	0.025317967
123	0xbdce6056	-0.10076968
124	0xbd3da060	-0.046295524
125	0x3c1e1f30	0.00965099
126	0xbbd7d220	-0.006586328
127	0xbd573e18	-0.05254945
128	0x3d9caae8	0.07649785
129	0xbd4d12a2	-0.050066598
130	0x3d312b90	0.043254435
131	0xbd7f394d	-0.062310506
132	0x3d8352aa	0.06412251
133	0xbdf34e3a	-0.11880155
134	0xbd945321	-0.07242418
135	0xbd1730fc	-0.03691195
136	0x3e215e30	0.15758586
137	0xbdfb515a	-0.12271376
138	0x3e0a6ca5	0.13518007
139	0xbdd7d980	-0.10539532
140	0xbc514010	-0.012771621
141	0x3dcc2724	0.09968403
142	0x3df08e95	0.11745945
143	0xbdb48bfa	-0.08815761
144	0x3d6fbcec	0.05852978
145	0x3dfacb4d	0.12245808
146	0x3db2a892	0.087235585
147	0x3db62708	0.08894163
148	0x3e06116e	0.13092586
149	0x3e1747d3	0.14773493
150	0xbd8dc652	-0.06922592
151	0xbd625830	-0.055259883
152	0x3e20aeb1	0.1569164
153	0x3d3099d0	0.043115437
154	0xbd8c9c14	-0.06865707
155	0x3d0d41b0	0.034486473
156	0x3cbb5ddf	0.02287191
157	0xbd677dd4	-0.056516483
158	0x3d0bfd54	0.03417714
159	0x3cb4fb70	0.022092551
160	0xbda52b70	-0.08064926
161	0x3c9a7ab0	0.01885733
162	0x3c544190	0.012955084
163	0x3dd1c227	0.1024211
164	0xbce39d08	-0.02778484
165	0xbde5dc1e	-0.11223625
166	0x3df579cf	0.11986124
167	0xbd5c221d	-0.05374347
168	0xbcf0c0c5	-0.029388795
169	0xbd8dc192	-0.06921686
170	0x3d192750	0.037391007
171	0x3db98a92	0.09059633
172	0xbc88ef0c	-0.016715549
173	0xbd3087d8	-0.0430983
174	0xbdd7e1d8	-0.10541123
175	0xbdec2586	-0.115305945
176	0xbd475311	-0.048663203
177	0x3c502e81	0.0127064
178	0x3c675ec0	0.014121711
179	0xbdcadd88	-0.09905535
180	0x3ce60610	0.028079063
181	0xbda845b6	-0.08216421
182	0x3d7dd8b2	0.061974235
183	0x3e000e31	0.12505414
184	0xbc649c2c	-0.01395325
185	0x3d0685fe	0.03284263
186	0x3dc55e66	0.09637146
187	0x3da25684	0.07926658
188	0x3dd2b282	0.10287954
189	0xbc4e2780	-0.01258266
190	0x3d029108	0.031876594
191	0xbd9ea1af	-0.077456824
192	0xbdd3b3c5	-0.10337023
193	0x3e1d0df7	0.15337358
194	0xbdb0e5ee	-0.086376056
195	0x3e8f49b7	0.27985927
196	0x3db6746c	0.089089245
197	0xbdde80f2	-0.10864438
198	0x3cfba19f	0.030716715
199	0x3dab8234	0.08374444
200	0x3b60193b	0.0034194726
201	0xbcd1ae68	-0.025595859
202	0xbac540ed	-0.0015049257
203	0xbcc84f38	-0.024451837
204	0xbd1cdf1c	-0.03829871
205	0xbc9875a6	-0.018610787
206	0xbd17a040	-0.03701806
207	0xbb47b240	-0.0030471236
208	0x3ddea438	0.10871166
209	0x3cb92bda	0.022603918
210	0x3d933323	0.07187488
211	0xbdc0faba	-0.09422822
212	0x3d240c26	0.04005065
213	0x3d40dc21	0.04708493
214	0x3ba70600	0.005097151
215	0xbcb01d8c	-0.021498464
216	0x3d99f75b	0.075178824
217	0xbd55a445	-0.052158613
218	0x3d96e6da	0.0736825
219	0xbd2449f6	-0.040109597
220	0x3debde9f	0.11517071
221	0xbd29cda0	-0.041455865
222	0x3dddc312	0.10828222
223	0x3ddc3510	0.10752308
224	0x3d84bd66	0.064814374
225	0x3dc4fb59	0.09618253
226	0xbc11f190	-0.008907691
227	0xbc902110	-0.01759389
228	0x3d9d12d0	0.07669604
229	0xbc8808c8	-0.01660575
230	0xbd3e603e	-0.046478502
231	0x3ddf76db	0.10911342
232	0x3b64eeed	0.003493245
233	0x3d0fd558	0.03511557
234	0xbc4f5fd0	-0.012657121
235	0x3de30dcc	0.11086616
236	0x3cf8dbb5	0.030378202
237	0x3dcff92e	0.10154949
238	0x3e0646f1	0.13113
239	0xbdb3f2ca	-0.08786543
240	0x3c8e8856	0.017398994
241	0x3e057c7b	0.13035767
242	0xbbafcde0	-0.0053651184
243	0x3dfddff8	0.12396234
244	0xbcbd5080	-0.023109674
245	0x3baa82c0	0.005203575
246	0x3d6a42d4	0.05719264
247	0xbc101cf6	-0.008795967
248	0x3dced8e3	0.100999616
249	0x3dcf251d	0.10114501
250	0xbc1ba724	-0.009500299
251	0x3db3b1df	0.087741606
252	0x3d4b5618	0.049642652
253	0x3d60f66e	0.054922514
254	0xbcc026ba	-0.023455966
255	0x3d0c0a56	0.034189545

layers.2.bias f4 [45]
0	0xbc100994	-0.008791346
1	0xbd2295a0	-0.039693475
2	0xbda57aeb	-0.08080085
3	0xbb39b999	-0.0028339385
4	0xbc5768f0	-0.013147578
5	0x39876244	0.0002582242
6	0x3c1057ca	0.008809993
7	0xbd5cb2b8	-0.053881377
8	0x3d14879e	0.036262147
9	0xbd9cc92a	-0.076555565
10	0x3df226ce	0.11823808
11	0x3d20084d	0.039070416
12	0x3de8d643	0.11368992
13	0xbc867fdd	-0.016418392
14	0x3d14ea08	0.036356002
15	0x3dd22f36	0.10262911
16	0xbd818268	-0.06323701
17	0xbd56ba5d	-0.052423824
18	0xbd203a98	-0.03911838
19	0xbcf8dfe6	-0.0303802
20	0xbb503266	-0.003176832
21	0xbd945008	-0.07241827
22	0xbd6ddfbc	-0.058074698
23	0xbd13ec10	-0.0361138
24	0xbc99cc10	-0.018774062
25	0x3da7346a	0.08164294
26	0xbde9f410	-0.11423504
27	0x3e03f276	0.1288546
28	0xbd483833	-0.04888172
29	0x3d6e67f4	0.058204606
30	0xbd84e8cc	-0.06489715
31	0x3d9ac74c	0.07557544
32	0x3dd00e7a	0.10159011
33	0xbd036e84	-0.032087818
34	0x3cf7f2c8	0.030267134
35	0x3cd42a30	0.025899023
36	0xbd3744b0	-0.04474324
37	0xbbf26040	-0.007396728
38	0x3e108b7d	0.1411571
39	0xbcbed528	-0.023295
40	0x3d147e9e	0.036253564
41	0x3e1fc927	0.15604077
42	0xbd2e2558	-0.042516083
43	0x3daa6adb	0.08321162
44	0x3e08116d	0.13287897
