experiments/learn_cdrive/cdrive/2022_01_20_133555017350_5_664e5/2022_01_20_133555017350_5_664e5_end.pth (torch, 32215 bytes, 6 tensors)

layers.0.weight f4 [64, 7]
0	0xbeadbc3a	-0.33932668
1	0xbe9bda61	-0.30440047
2	0xbeb77f76	-0.35839432
3	0x3dede954	0.116167694
4	0xbdabf11c	-0.08395597
5	0xbea37053	-0.31921634
6	0x3e2365ee	0.15956852
7	0x3e716fdc	0.23577827
8	0x3ea38704	0.31938946
9	0x3e78ef85	0.2431012
10	0xbdb7a030	-0.089661
11	0xbdf4df2b	-0.119566284
12	0xbe135a1f	-0.14389847
13	0xbed1be58	-0.40965533
14	0xbe1896e5	-0.14901312
15	0x3e6be05c	0.23034805
16	0xbe935c2a	-0.28781253
17	0x3eadd676	0.33952683
18	0xbde493d3	-0.11161008
19	0x3d539224	0.051653042
20	0xbeb175cc	-0.34660184
21	0x3e41ffee	0.18945286
22	0x3d84ec69	0.06490404
23	0x3dc46aed	0.09590707
24	0xbea94090	-0.3305707
25	0x3e7e1920	0.24814272
26	0x3d997e42	0.07494785
27	0xbcc51a0b	-0.02406027
28	0xbe8c812d	-0.27442303
29	0xbdd37570	-0.10325134
30	0x3db9b192	0.09067072
31	0xbea47d1f	-0.3212671
32	0x3e4cda32	0.2000511
33	0x3e81c3fb	0.25344834
34	0xbee5f7b6	-0.4491555
35	0x3e1fe678	0.1561526
36	0x3e0d8f2f	0.13824151
37	0xbebcd23a	-0.3687914
38	0xbeb9df48	-0.36303163
39	0x3db5c4d9	0.08875436
40	0x3ceb698c	0.028736852
41	0x3ee56de4	0.44810402
42	0x3e86ac1f	0.26303193
43	0x3d01caaa	0.031687416
44	0xbe9a8022	-0.30175883
45	0xbeb974e3	-0.3622199
46	0x3ea38f37	0.31945202
47	0x3ec309e2	0.38093477
48	0xbe88e73f	-0.26738927
49	0x3ea31c43	0.318575
50	0xbe078fb8	-0.13238418
51	0xbcc2fce2	-0.023802225
52	0x3de6147b	0.11234375
53	0xbea23618	-0.31681895
54	0xbe485c09	-0.19566359
55	0xbec3fe07	-0.38279745
56	0xbdfcb9ee	-0.12340151
57	0xbe137011	-0.14398219
58	0x3e3a95c3	0.18221192
59	0xbe30ca52	-0.17264679
60	0xbe473407	-0.1945344
61	0x3e8c8bf6	0.27450532
62	0xbdcb3f32	-0.09924163
63	0x3e54b506	0.2077218
64	0x3e78677e	0.24258229
65	0x3e5cd774	0.21566564
66	0x3e257631	0.16158368
67	0xbe290d27	-0.16508923
68	0x3dec0da7	0.115260415
69	0xbd8a9c56	-0.067681
70	0xbed6f680	-0.4198494
71	0xbe8120dc	-0.25220382
72	0xbeaf8bb1	-0.34286264
73	0x3e09f8ea	0.1347386
74	0x3e287fc8	0.16454995
75	0x3e6ef457	0.23335396
76	0x3e0a3684	0.13497359
77	0x3e1cb474	0.15303212
78	0x3e3ef085	0.18646438
79	0xbed1e774	-0.40996897
80	0xbe9dffc9	-0.3085921
81	0x3e783691	0.24239565
82	0x3eb7dee2	0.35912234
83	0xbe758b1a	-0.23978844
84	0xbd120f1d	-0.035658944
85	0xbe28c993	-0.16483144
86	0x3ebd6005	0.3698732
87	0xbe96eab0	-0.29475927
88	0x3e20dead	0.15709944
89	0xbe4ce7a0	-0.20010233
90	0x3b69fa58	0.0035702195
91	0xbde9ce82	-0.11416341
92	0x3e87d69e	0.26530927
93	0x3d7e01c6	0.06201341
94	0x3d9f801e	0.07788108
95	0xbdb6ded7	-0.08929222
96	0x3e44b88c	0.19211024
97	0x3e5c0681	0.21486856
98	0xbe647969	-0.2231194
99	0xbe593851	-0.21212889
100	0xbc4b3a2e	-0.012404008
101	0x3eadf69a	0.33977205
102	0x3d2b4a01	0.041818622
103	0x3df9aea4	0.12191513
104	0x3ce1587a	0.02750801
105	0x3dc5b81c	0.09654257
106	0xbebcaf8d	-0.36852685
107	0xbe7193f1	-0.23591591
108	0x3e7ee772	0.24892977
109	0xbcc2a350	-0.023759514
110	0xbe4f9537	-0.20271765
111	0x3eb82849	0.35968235
112	0x3eab32d2	0.3343721
113	0x3ce8b0c2	0.028404597
114	0x3ec1ff9b	0.37890324
115	0x3e81a36f	0.25320002
116	0x3e943acd	0.2895111
117	0x3ec40b9d	0.3829011
118	0x3e16893f	0.14700793
119	0xbea251b7	-0.31702968
120	0xbe4eeadc	-0.20206779
121	0xbbfd47a2	-0.0077294866
122	0x3e35dd5f	0.17760228
123	0xbe221f10	-0.15832162
124	0xbe80315e	-0.25037664
125	0x3e28c99b	0.16483156
126	0xbd5d5f44	-0.05404593
127	0x3e5a266f	0.21303724
128	0x3e58bc0b	0.21165483
129	0x3e378a99	0.17923965
130	0xbe50cb03	-0.20389943
131	0xbe7700e6	-0.24121436
132	0x3ed43c72	0.41452366
133	0x3e9e1e9d	0.3088273
134	0x3e69fb76	0.22849831
135	0xbe470c1a	-0.1943821
136	0x3e500a11	0.2031634
137	0xbe148dbf	-0.14507197
138	0x3e4d832f	0.20069574
139	0xbdcbe25d	-0.09955285
140	0xbe148ddd	-0.14507242
141	0xbe5763f9	-0.2103423
142	0x3ea30b19	0.31844404
143	0xbe50fc53	-0.20408754
144	0x3eb6114b	0.35560068
145	0xbd698c23	-0.05701841
146	0xbe89a765	-0.26885524
147	0xbec2bdac	-0.38035333
148	0xbd20e4c3	-0.039280664
149	0x3d3b8d42	0.04578901
150	0xbe84c99f	-0.25935075
151	0x3e1041b7	0.14087568
152	0x3e31cb08	0.17362607
153	0x3d922296	0.07135503
154	0xbe9393d3	-0.28823718
155	0x3df0ec15	0.11763779
156	0xbe59aa4d	-0.21256371
157	0xba1417a2	-0.00056492735
158	0xbe89ea23	-0.26936445
159	0x3e940d89	0.28916577
160	0x3e929c1d	0.2863473
161	0x3e6c4beb	0.23075835
162	0x3e93d1be	0.28870958
163	0xbde4c7a7	-0.11170893
164	0xbd40ddae	-0.04708641
165	0xbd60f9f6	-0.05492588
166	0xbc941945	-0.018078456
167	0xbe650e86	-0.22368822
168	0xbeba0d0c	-0.3633808
169	0xbd3ead16	-0.046551786
170	0x3e26595f	0.1624503
171	0xbd94c3ec	-0.07263932
172	0xbe8b506f	-0.27209803
173	0x3d716641	0.058935408
174	0xbdf9d1a0	-0.12198186
175	0xbe70632d	-0.23475333
176	0x3d3a15f2	0.045431085
177	0xbe0af9b1	-0.13571812
178	0xbd652af8	-0.05594918
179	0xbebfb7a5	-0.37444797
180	0xbe8be771	-0.27325013
181	0x3eaec314	0.34133208
182	0xbeb1b14c	-0.3470558
183	0xbec5a3a5	-0.38601413
184	0x3e8c9111	0.27454427
185	0x3e3257b4	0.17416269
186	0x3dac8e2b	0.08425554
187	0x3d4eb54c	0.050465867
188	0xbeddada2	-0.43296534
189	0x3bddf63c	0.006773738
190	0xbdc7dc1f	-0.09758782
191	0x3eb071e4	0.34461892
192	0x3ea6f29a	0.32606965
193	0xbe7bc5ee	-0.24587223
194	0xbe675782	-0.22591975
195	0x3ea5350b	0.3226703
196	0xbd90454e	-0.07044469
197	0xbe0b1d62	-0.13585427
198	0x3d5a9a31	0.053369705
199	0xbe347731	-0.17623593
200	0x3e932f7f	0.28747174
201	0xbe9d1206	-0.30677813
202	0x3dbafc90	0.09130204
203	0xbcf0c369	-0.029390054
204	0xbe58b9e3	-0.2116466
205	0x3e99cd79	0.30039576
206	0x3ec78e80	0.38975906
207	0xbdb13222	-0.0865214
208	0x3e9df9d0	0.30854654
209	0xbead9fd9	-0.33911017
210	0x3ded07c5	0.115737475
211	0xbce60de9	-0.028082805
212	0xbd7a8b77	-0.06116816
213	0x3ed7144c	0.42007673
214	0xbea30640	-0.31840706
215	0xbe8e2a2d	-0.27766553
216	0x3ed9766d	0.42473164
217	0xbe424f11	-0.18975474
218	0xbebd8f8d	-0.37023583
219	0xbe1ef51e	-0.15523192
220	0xbea5955c	-0.32340515
221	0xbea6a35c	-0.32546508
222	0xbe2c8b32	-0.16849974
223	0xbe2d09dc	-0.16898292
224	0x3ec82eac	0.39098108
225	0x3e83fc33	0.2577835
226	0x3dce1665	0.10062865
227	0x3e6db21f	0.23212479
228	0xbe09a68c	-0.13442439
229	0xbe670898	-0.22561872
230	0xbe00a2d1	-0.1256211
231	0xbea9c214	-0.33155882
232	0x3e5381c4	0.2065497
233	0xbe79e17e	-0.24402425
234	0xbd5c7344	-0.053820863
235	0x3dd30811	0.10304273
236	0x3a4ea682	0.0007883088
237	0xbeb0cb61	-0.34530166
238	0x3e5b67e7	0.21426354
239	0xbd03a619	-0.032140825
240	0x3daac7cd	0.0833889
241	0x3e3c3b76	0.18382058
242	0x3e60cb54	0.21952564
243	0x3d08c1eb	0.03338806
244	0xbe7e7681	-0.24849893
245	0xbe332477	-0.17494379
246	0xbc9ce528	-0.019152239
247	0xbe9adecd	-0.30248109
248	0x3d224653	0.039617848
249	0x3e9ec308	0.31008172
250	0xbdd69fa0	-0.10479665
251	0xbea2774b	-0.31731638
252	0x3e85e05e	0.2614774
253	0x3e8faf95	0.28063646
254	0xbdd96c46	-0.10616355
255	0xbe30ac0b	-0.17253129

layers.0.bias f4 [64]
0	0xbe83be1e	-0.25730985
1	0xbd6d124d	-0.05787878
2	0x3e2235de	0.15840861
3	0x3e68cc9e	0.22734305
4	0x3e10fb06	0.14158258
5	0xbe480693	-0.19533758
6	0xbe4a7efe	-0.19775006
7	0x3b3e9b7a	0.002908437
8	0xbecad0ea	-0.39612514
9	0x3ecb92fd	0.3976058
10	0xbca8422f	-0.020539371
11	0xbe92ebe6	-0.286956
12	0xbe6cc66e	-0.2312257
13	0xbe25a11e	-0.16174743
14	0xbeb1b7fd	-0.34710684
15	0xbeb40d63	-0.35166463
16	0x3c26a5f6	0.010171404
17	0x3dfec8ee	0.12440668
18	0x3ecf50f9	0.40491465
19	0xbd808961	-0.06276203
20	0xbe8176f4	-0.25286067
21	0xbe937e52	-0.28807312
22	0xbe066c1b	-0.13127176
23	0xbec2bcc4	-0.38034642
24	0xbe3671a5	-0.1781679
25	0x3e8e64df	0.27811334
26	0x3e8049f3	0.2505642
27	0x3e88faa6	0.2675373
28	0xbeaea6b7	-0.34111568
29	0xbe9d6928	-0.3074429
30	0xbe15578f	-0.14584182
31	0xbd2e0078	-0.042480916
32	0xbeb8352a	-0.3597806
33	0xbe37e62d	-0.17958899
34	0x3d7c944c	0.061664864
35	0xbe508999	-0.2036499
36	0xbe92a6b2	-0.28642803
37	0xbe94c865	-0.2905914
38	0x3d687312	0.056750365
39	0xbe8504fb	-0.25980362
40	0x3e5e9a2a	0.21738496
41	0x3e87f092	0.26550728
42	0x3eb45746	0.35222834
43	0xbeb448fb	-0.3521193
44	0xbe66bba6	-0.2253252
45	0x3dd896f6	0.105756685
46	0xbe97ca08	-0.29646325
47	0x3e781288	0.24225819
48	0xbddc4fb0	-0.10757387
49	0x3ea9fb23	0.33199415
50	0x3e84666e	0.25859398
51	0x3d9a4118	0.07531947
52	0x3eb28981	0.34870532
53	0x3e7fa0ce	0.24963686
54	0x3e798ba7	0.2436968
55	0x3ebcab63	0.36849508
56	0x3ea578a6	0.3231861
57	0x3e652c82	0.2238026
58	0x3d2cf920	0.04222977
59	0xbe903463	-0.28164968
60	0x3e3a0dee	0.18169376
61	0xbeba0db4	-0.3633858
62	0x3eab2e00	0.33433533
63	0xbe32f74f	-0.17477153

layers.1.weight f4 [64, 64]
0	0x3c2272a0	0.009915024
1	0xbda8db3f	-0.08244943
2	0x3d521cbf	0.051296946
3	0xbcd23929	-0.025662022
4	0x3e0057b9	0.12533464
5	0xbd8812bc	-0.06644198
6	0x3d52efde	0.051498286
7	0x3dfcdf2c	0.12347254
8	0xbd9b0014	-0.07568374
9	0xbdd55392	-0.104163304
10	0x3dfd4baa	0.123679474
11	0x3d8dbdec	0.0692099
12	0x3bcdfcc0	0.0062862337
13	0xbd3f3982	-0.046685703
14	0x3e1e9547	0.15486632
15	0x3ca3c3f8	0.019990906
16	0x3d2c16f3	0.042014074
17	0x3b846035	0.004039789
18	0xbdb1f8b3	-0.08690014
19	0xbdbfc1c6	-0.09363131
20	0xbde22b45	-0.11043409
21	0xbd4c54a1	-0.049885396
22	0xbdcd24f2	-0.100168124
23	0x3daacbb4	0.083396345
24	0xbdbe67d0	-0.092971444
25	0xbd0cd5e1	-0.03438366
26	0x3d0a3cc4	0.033749357
27	0xbc1f0a9c	-0.009707119
28	0xbdd3ebe0	-0.10347724
29	0xbd8fe35f	-0.070257895
30	0xbd17374d	-0.036917973
31	0x3de732be	0.11288975
32	0x3d301e6e	0.04299777
33	0x3c8be45d	0.017076666
34	0xbd84fde9	-0.06493742
35	0xbdc70075	-0.09716884
36	0xbd8adf8c	-0.067809194
37	0xbd85f2e4	-0.06540468
38	0xbcd58b4d	-0.0260674
39	0xbdab593a	-0.08366628
40	0x3de6b53a	0.11265035
41	0x3cb2f703	0.0218463
42	0xbd38fe0c	-0.045164153
43	0xbd8ab04a	-0.06771906
44	0x3dc27df4	0.0949668
45	0xbd34ffd2	-0.04418928
46	0xbb23adc0	-0.002497539
47	0x3d05e6c4	0.03269078
48	0x3dba3872	0.09092797
49	0x3d344f65	0.04402103
50	0xbd0d1d75	-0.03445192
51	0xbe1394d3	-0.1441224
52	0x3cbb4f30	0.022864908
53	0x3df4f45a	0.11960669
54	0x3d95b55c	0.07309982
55	0x3cd01585	0.025400886
56	0x3d1d0f97	0.038344946
57	0xbca46863	-0.020069307
58	0x3d894160	0.067019224
59	0x3dde1f72	0.108458415
60	0xbcaf8880	-0.021427393
61	0xbdfc7284	-0.123265296
62	0xbd719707	-0.05898192
63	0x3d07c257	0.03314432
64	0xbddc94c2	-0.10770561
65	0x3e083c0c	0.13304156
66	0xbd58a50c	-0.052891776
67	0xbc6620b7	-0.014045886
68	0x3d226313	0.039645266
69	0x3e45afe6	0.19305381
70	0xbcba1e1c	-0.022719435
71	0x3dc873ae	0.09787689
72	0xbbf077f9	-0.0073385206
73	0x3e046cd1	0.12932135
74	0x3d3a6910	0.04551035
75	0x3dbf73cb	0.09348258
76	0xbe082193	-0.13294058
77	0x3bd6fa2d	0.006560585
78	0xbdcfdfcd	-0.101501085
79	0x3d9e44b4	0.07727948
80	0x3dc67293	0.09689822
81	0xbd3c6e42	-0.046003588
82	0x3d87f3e3	0.066383146
83	0x3e1ed85f	0.15512227
84	0x3dad7702	0.084699646
85	0x3dcb9626	0.09940748
86	0xbe43485b	-0.1907057
87	0x3d56daef	0.052454885
88	0x3c91080c	0.017704032
89	0x3db3218f	0.08746635
90	0x3d9c0b3a	0.07619329
91	0x3e1509c1	0.14554502
92	0xbdadf607	-0.084941916
93	0x3d30833a	0.043093897
94	0xbd226fd0	-0.039657414
95	0x3d5e249c	0.054234132
96	0x3cafeab6	0.021474224
97	0x3dd6ff50	0.10497916
98	0x3e0b85d7	0.13625275
99	0xba9faf1a	-0.0012182922
100	0x3df442ec	0.11926827
101	0x3df561b8	0.11981529
102	0xbd45add1	-0.048261467
103	0x3e09119e	0.13385627
104	0x3d8e866a	0.06959231
105	0x3c73a2ef	0.014870389
106	0x3c76d488	0.01506532
107	0x3d3eb39e	0.046558015
108	0xbdf9e1b8	-0.122012556
109	0xbca6e6b7	-0.020373685
110	0xbab7fe80	-0.0014037639
111	0x3e35f59f	0.17769478
112	0x3d7c917c	0.061662182
113	0x3d372fbc	0.044723257
114	0x3dd886d2	0.1057259
115	0xbdfce399	-0.12348098
116	0x3e0bae10	0.13640618
117	0xbd1bac70	-0.038006246
118	0xbd88fbaa	-0.06688626
119	0x3e4c2457	0.19935738
120	0x3dcfacdf	0.101403944
121	0x3d8e67de	0.06953405
122	0xbdc886e0	-0.0979135
123	0x3d9395a8	0.07206279
124	0xbd4a7f38	-0.04943773
125	0x3d0f1114	0.034928396
126	0x3dff5694	0.12467685
127	0x3d245ff5	0.040130574
128	0xbdfc3cbe	-0.12316273
129	0x3c5d27c0	0.013498247
130	0x3dca0fed	0.09866319
131	0x3d93c5e1	0.07215477
132	0xbd684f8d	-0.05671649
133	0x3d002ab9	0.031290743
134	0x3db7abcf	0.08968317
135	0xbd987288	-0.0744372
136	0x3c4e9a20	0.012609988
137	0xbd52b4ce	-0.05144196
138	0x3dd2a362	0.10285069
139	0xbd8d4e16	-0.06899659
140	0xbd46f7a0	-0.048575997
141	0x3d3817e6	0.044944666
142	0x3d876a28	0.066120446
143	0x3d69f964	0.057122603
144	0xbd593e30	-0.053037822
145	0x3ce2458c	0.027621053
146	0x3bfc7200	0.0077040195
147	0xbe00679d	-0.12539525
148	0x3d72e728	0.05930248
149	0x3d0ea4de	0.0348252
150	0x3c789410	0.01517202
151	0x3db6b30e	0.08920871
152	0xbd639120	-0.055558324
153	0x3de59e18	0.112117946
154	0xbd77dec9	-0.0605152
155	0xbbc35660	-0.0059612244
156	0x3c8beeab	0.01708158
157	0xbdf1d53c	-0.11808249
158	0xbdb86bfa	-0.0900497
159	0x3dd5e552	0.1044413
160	0xbdac4872	-0.08412255
161	0xbb8d7205	-0.0043165707
162	0x3db94e70	0.09048164
163	0x3c864811	0.016391786
164	0x3d39381c	0.045219526
165	0xbde66424	-0.11249569
166	0x3db870ea	0.09005912
167	0xbe001d63	-0.1251121
168	0xbd9a3140	-0.07528925
169	0x3cd162b8	0.025559768
170	0xbd8263b5	-0.06366674
171	0xbda92fb5	-0.082610525
172	0x3d93ce38	0.072170675
173	0xbdb8209b	-0.08990594
174	0x3d9e4a3c	0.07729003
175	0xbe04f029	-0.12982239
176	0xbdf81278	-0.12112898
177	0x3d139120	0.036027074
178	0x3d584783	0.052802574
179	0xbcf221a8	-0.029557064
180	0x3dcb3316	0.09921853
181	0xbdfeb7fe	-0.124374375
182	0x3dc6cc92	0.097069874
183	0xbdaed8e8	-0.08537465
184	0xbd2e152c	-0.04250066
185	0xbe01daf3	-0.12681179
186	0x3d9df7dc	0.07713291
187	0xbd155952	-0.036462136
188	0x3d70025c	0.058596
189	0xbd63f6a8	-0.05565515
190	0xbc992721	-0.018695416
191	0x3dee6d8f	0.116419904
192	0x3d2da46c	0.042393133
193	0xbb9ab83b	-0.004721669
194	0x3e4124b3	0.18861656
195	0x3e21e21b	0.15808909
196	0xbcfb200d	-0.030654931
197	0x3db46979	0.0880918
198	0x3deaabd5	0.114585556
199	0x3e111aa3	0.14170317
200	0xbd1570f0	-0.03648466
201	0x3e22fa9d	0.15915914
202	0xbd76f45b	-0.06029163
203	0x3de3db73	0.11125841
204	0xbdc1b485	-0.094582595
205	0x3c286be7	0.010279632
206	0xbdf92ce9	-0.12166769
207	0xbdbd9fee	-0.0925902
208	0xbd872c34	-0.06600228
209	0xbd44509f	-0.04792845
210	0x3de7ed67	0.11324578
211	0x3df13a57	0.117787056
212	0xbd93e9a1	-0.072222956
213	0xbe8a8056	-0.27051038
214	0xbe4d11f3	-0.20026378
215	0xbe098149	-0.13428225
216	0x3d8738c6	0.066026255
217	0x3d911e0f	0.07085811
218	0xbdf5fe27	-0.12011366
219	0xbd301efa	-0.04299829
220	0xbc41c9cf	-0.0118279
221	0x3c20c6f7	0.009813062
222	0xbd18a883	-0.03727008
223	0x3c1013f0	0.008793816
224	0x3d95865f	0.0730102
225	0x3cd8821d	0.02642923
226	0x3e20213b	0.15637676
227	0x3d5b2870	0.05350536
228	0x3d96317b	0.073336564
229	0xbda2a5a8	-0.07941753
230	0x3db238e5	0.08702258
231	0xbdeae4c8	-0.11469418
232	0x3e0077c7	0.12545691
233	0x3d8371c4	0.064181834
234	0xbad90488	-0.0016557137
235	0x3e0e116f	0.13873838
236	0xbdc94270	-0.09827125
237	0xbc31ccef	-0.010852083
238	0x3d17936c	0.037005827
239	0x3e2b1028	0.16705382
240	0xbdd9525a	-0.106114104
241	0x3dd55302	0.10416223
242	0x3e22f23c	0.15912718
243	0x3ccdbf53	0.025115645
244	0x3c090897	0.008363864
245	0xbdb8e5a0	-0.090281725
246	0x3c92c4ba	0.017916072
247	0x3e04add0	0.12956929
248	0xbd4a61fb	-0.049409848
249	0xbd032ac5	-0.03202321
250	0x3df7085e	0.12062143
251	0xbe027014	-0.12738067
252	0x3b1bff40	0.0023803264
253	0x3d3882f3	0.045046758
254	0x3c7e2795	0.015512367
255	0xbe16be48	-0.14721024

layers.1.bias f4 [64]
0	0xbe09989f	-0.13437127
1	0x3d402a8f	0.046915587
2	0x3d3e0dd6	0.046399914
3	0x3d945bd3	0.072440766
4	0xbd2dc589	-0.042424712
5	0xbd90bc8a	-0.07067211
6	0xbcbe0d96	-0.023199838
7	0xbdc59042	-0.096466556
8	0x3daf32e5	0.08554629
9	0xbde1e8a2	-0.11030699
10	0xbc31dd41	-0.010855974
11	0xbde2b49e	-0.11069606
12	0xbd4620f8	-0.048371285
13	0x3d0dfcee	0.03466504
14	0x3d0d7a15	0.034540255
15	0x3d8ca718	0.06867808
16	0xbd9f95c6	-0.07792239
17	0xbc85f287	-0.016350998
18	0xbce1d7f6	-0.027568799
19	0x3d819fb2	0.063292876
20	0x3e00785c	0.12545913
21	0x3d37b2e6	0.044848345
22	0x3cdbe869	0.02684422
23	0x3dbac85d	0.091202475
24	0x3e077ee1	0.13231994
25	0xbd45ddae	-0.048307113
26	0x3d25f44c	0.040516183
27	0xbbc2f100	-0.0059491396
28	0x3d9b0af0	0.075704455
29	0xbe030dcc	-0.12798232
30	0xbc73f258	-0.014889322
31	0x3d17a56a	0.037022986
32	0x3db65c8f	0.08904373
33	0xbd0a45fc	-0.03375815
34	0x3de4a3cd	0.11164055
35	0x3d08b9b4	0.033380225
36	0xbdf5586a	-0.11979754
37	0xbdf5c5b5	-0.120006
38	0x3dcdacc6	0.100427195
39	0x3e1ca9eb	0.15299194
40	0x3e14e84e	0.14541742
41	0xbdc66b0a	-0.09688385
42	0xbdebb175	-0.115084566
43	0xbde9ef14	-0.11422554
44	0x3d8e22d0	0.06940234
45	0xbdedff74	-0.116209894
46	0x3da7a48d	0.081856824
47	0xbdb5fc9e	-0.088860735
48	0x3d4cf51b	0.05003844
49	0xbe004208	-0.12525189
50	0xbdd6406e	-0.10461508
51	0x3d2b9fac	0.04190032
52	0xbda4f10c	-0.080537885
53	0x3db5a400	0.08869171
54	0xbd69f45a	-0.057117797
55	0x3daf1a53	0.08549943
56	0x3cc24e52	0.023718987
57	0x3db34629	0.08753616
58	0xbd174997	-0.036935415
59	0x3e0f2cc3	0.13981919
60	0xbd9fd708	-0.07804686
61	0xbd845840	-0.06462145
62	0x3e005527	0.12532483
63	0xbd7e7396	-0.06212195

layers.2.weight f4 [45, 64]
0	0x3c0e313d	0.0086787315
1	0x3e0194a3	0.12654357
2	0xbc4861c0	-0.012230337
3	0x3e1e0747	0.15432464
4	0xbd9ea300	-0.077459335
5	0xbdebecd2	-0.11519779
6	0xbbec64cc	-0.0072141644
7	0xbdecbefc	-0.11559865
8	0x3e38d577	0.1805018
9	0x3d25d6f4	0.0404882
10	0x3cb0f3c4	0.021600612
11	0xbce19248	-0.027535573
12	0xbd5f77bc	-0.054557547
13	0xbd60606f	-0.054779466
14	0x3ddffc0b	0.10936745
15	0x3d0516f4	0.032492593
16	0x3df307ee	0.11866747
17	0x3d027d55	0.031857807
18	0x3e08e101	0.13367082
19	0x3db5679e	0.08857654
20	0x3e1cb14d	0.1530201
21	0x3dfdd618	0.12394351
22	0x3da03c00	0.07823944
23	0x3d68f434	0.056873515
24	0x3e08b972	0.13351992
25	0x3e0ecefa	0.13946143
26	0x3de19b8a	0.11015995
27	0x3de89161	0.11355854
28	0xbd524bdb	-0.051341873
29	0x3da764f7	0.081735544
30	0x3d21bba8	0.039485604
31	0x3c682fd0	0.014171556
32	0x3d1ee2c4	0.03879048
33	0xbb517489	-0.003196033
34	0xbd01145c	-0.031513557
35	0xbc8a6ee2	-0.016898576
36	0xbd2be2b4	-0.041964248
37	0x3d67f4e0	0.056630015
38	0x3c0310dd	0.007999626
39	0xbc40b8be	-0.011762796
40	0x3c89e91d	0.01683479
41	0xbdea30b8	-0.114350736
42	0x3c6ebe60	0.014571756
43	0xbcd12a70	-0.025532931
44	0x3d8d5e87	0.06902795
45	0x3c8123c8	0.015764132
46	0x3d4fea12	0.050760336
47	0xbc3fe8a0	-0.011713177
48	0x3e01e45c	0.12684768
49	0x3c72e38d	0.01482476
50	0xbcd51070	-0.026008815
51	0xbd1df580	-0.038564205
52	0xbcf82e08	-0.030295387
53	0xbd02dec8	-0.031950742
54	0x3b803b44	0.003913315
55	0x3c918c80	0.017767191
56	0x3ddc52d0	0.10757983
57	0x3e34acb6	0.17644009
58	0xbdd041f8	-0.101688325
59	0xbb4ca4e5	-0.0031226214
60	0x3dc0222c	0.09381518
61	0x3d8ae52a	0.06781991
62	0xbc525904	-0.012838606
63	0x3d661161	0.056168918
64	0x3de6e114	0.11273399
65	0x3d5e3718	0.05425176
66	0x3bfe2e80	0.007757008
67	0x3d889932	0.06669845
68	0x3de6b3fa	0.112647966
69	0x3da2d420	0.07950616
70	0x3c36c600	0.011155605
71	0xbcbfbff8	-0.023406968
72	0x3dee8ebc	0.11648318
73	0xbc71d310	-0.014759794
74	0xbc725640	-0.014791071
75	0xbd9137f2	-0.07090749
76	0xbdec6ef0	-0.11544597
77	0x3bd678e0	0.006545171
78	0x3dd35730	0.10319364
79	0x3d56b740	0.052420855
80	0x3d44027c	0.04785393
81	0xbdf6a5ac	-0.12043318
82	0x3cf56948	0.029957429
83	0xbde15ddc	-0.110042304
84	0xbdb7baa6	-0.08971147
85	0x3d3d3cec	0.046200678
86	0x3a171f00	0.0005764812
87	0xbdd24110	-0.10266316
88	0xbd4d6968	-0.05014935
89	0x3d4905cc	0.049077794
90	0xbdeba15c	-0.11505386
91	0xbd10997c	-0.035302624
92	0xbcd01298	-0.025399491
93	0xbdd94d26	-0.10610418
94	0xbd669a50	-0.056299508
95	0xbc969110	-0.018379718
96	0xbd934f94	-0.07192913
97	0x3c9e0718	0.019290492
98	0xbc219eb0	-0.009864494
99	0xbdebb5fc	-0.1150932
100	0x3c560c10	0.013064399
101	0xbddf7b88	-0.109122336
102	0x3d97715a	0.07394667
103	0x3cd45a88	0.025922075
104	0xbd607270	-0.054796636
105	0xbd2ff9d4	-0.042962864
106	0xbd97c42a	-0.07410462
107	0xbc4b0520	-0.012391359
108	0x3ccc5410	0.024942428
109	0xbdec2ffc	-0.1153259
110	0x3da6292a	0.0811332
111	0xbddff0ac	-0.109345764
112	0xbdba59a0	-0.09099126
113	0x3beec100	0.007286191
114	0x3d208958	0.03919348
115	0x3c803b88	0.015653387
116	0xbbc2e560	-0.005947754
117	0xbdcfd496	-0.101479694
118	0x3bc7dfa0	0.006099656
119	0xbd7ebbd4	-0.062190846
120	0x3d2298d0	0.039696515
121	0x3df8e804	0.121536285
122	0x3ccf67a0	0.025317967
123	0xbdce6056	-0.10076968
124	0xbd3da060	-0.046295524
125	0x3c1e1f30	0.00965099
126	0xbbd7d220	-0.006586328
127	0xbd573e18	-0.05254945
128	0x3d9caae8	0.07649785
129	0x3cf4f8f1	0.02990386
130	0x3d312b90	0.043254435
131	0x3c942a19	0.01808648
132	0x3d8352aa	0.06412251
133	0xbdf34e3a	-0.11880155
134	0x3bc2c44f	0.005943812
135	0xbd1730fc	-0.03691195
136	0x3e74d549	0.23909487
137	0xbdfb515a	-0.12271376
138	0x3e0a6ca5	0.13518007
139	0xbdd7d980	-0.10539532
140	0xbc514010	-0.012771621
141	0x3dcc2724	0.09968403
142	0x3e4cdc3b	0.20005886
143	0xbdb48bfa	-0.08815761
144	0x3d6fbcec	0.05852978
145	0x3e527d73	0.20555668
146	0x3e2da3e1	0.16957046
147	0x3e06129e	0.1309304
148	0x3e59375b	0.21212523
149	0x3e78ed8d	0.24309368
150	0xbd8dc652	-0.06922592
151	0x3cc73404	0.024316795
152	0x3e7ad71f	0.24496125
153	0x3d3099d0	0.043115437
154	0xbd8c9c14	-0.06865707
155	0x3d9ea54b	0.07746371
156	0x3dd34774	0.10316363
157	0xbd677dd4	-0.056516483
158	0x3df59dc6	0.119929835
159	0x3cb4fb70	0.022092551
160	0xbd84bc12	-0.06481184
161	0x3dd144d1	0.10218204
162	0x3c544190	0.012955084
163	0x3e3e7540	0.18599415
164	0xbce39d08	-0.02778484
165	0xbde5dc1e	-0.11223625
166	0x3e667287	0.22504626
167	0x3cca133f	0.02466738
168	0x3d4c6cbc	0.049908385
169	0xbd8dc192	-0.06921686
170	0x3d192750	0.037391007
171	0x3db98a92	0.09059633
172	0x3d831f50	0.06402457
173	0xbd3087d8	-0.0430983
174	0xbdb770cc	-0.08957061
175	0xbdec2586	-0.115305945
176	0xbd475311	-0.048663203
177	0x3c502e81	0.0127064
178	0x3c675ec0	0.014121711
179	0xbdcadd88	-0.09905535
180	0x3ce60610	0.028079063
181	0xbda845b6	-0.08216421
182	0x3d7dd8b2	0.061974235
183	0x3e5d1101	0.21588518
184	0x3d891ea0	0.066952944
185	0x3dea2860	0.11433482
186	0x3dc55e66	0.09637146
187	0x3e27c867	0.16385041
188	0x3dd2b282	0.10287954
189	0xbc4e2780	-0.01258266
190	0x3d029108	0.031876594
191	0xbd9ea1af	-0.077456824
192	0xbdd3b3c5	-0.10337023
193	0x3e31a8c1	0.17349531
194	0xbdb0e5ee	-0.086376056
195	0x3e8bf20b	0.27333102
196	0x3db6746c	0.089089245
197	0xbdde80f2	-0.10864438
198	0x3d063ab2	0.03277082
199	0x3dab8234	0.08374444
200	0x3b7382c4	0.00371568
201	0xbcd1ae68	-0.025595859
202	0xbac540ed	-0.0015049257
203	0xbcc84f38	-0.024451837
204	0xbd1cdf1c	-0.03829871
205	0xbcc4fb6d	-0.02404567
206	0x3d5b6572	0.053563543
207	0xbb47b240	-0.0030471236
208	0x3ddea438	0.10871166
209	0xbc610e1d	-0.013736275
210	0x3dc0025c	0.0937545
211	0xbdc0faba	-0.09422822
212	0x3d8c0481	0.068367966
213	0x3d46e0ce	0.048554234
214	0x3ba70600	0.005097151
215	0x3c3cd037	0.011524252
216	0x3d6e85dd	0.05823313
217	0xbd285ea3	-0.041105878
218	0x3d96e6da	0.0736825
219	0xbdb05b89	-0.08611209
220	0x3defb610	0.117046475
221	0xbd29cda0	-0.041455865
222	0x3de5b9f7	0.112171106
223	0x3ddc3510	0.10752308
224	0x3d84bd66	0.064814374
225	0x3df4f8ec	0.119615406
226	0xbc11f190	-0.008907691
227	0x3c1ef6d8	0.009702407
228	0x3d9d12d0	0.07669604
229	0xbc8808c8	-0.01660575
230	0xbb264526	-0.0025370806
231	0x3dda3478	0.10654539
232	0x3ce3f4a4	0.027826615
233	0x3d0fd558	0.03511557
234	0xbc4f5fd0	-0.012657121
235	0x3de30dcc	0.11086616
236	0x3d7cdb58	0.06173262
237	0x3dcff92e	0.10154949
238	0x3dbebd0e	0.09313403
239	0xbdb3f2ca	-0.08786543
240	0xbc076287	-0.008263237
241	0x3e1a93e3	0.15095477
242	0xba8d7732	-0.0010792969
243	0x3dfddff8	0.12396234
244	0xbcbd5080	-0.023109674
245	0x3baa82c0	0.005203575
246	0x3cc44566	0.023958873
247	0x3b8cc37e	0.0042957654
248	0x3dce2fea	0.10067733
249	0x3def4de1	0.11684776
250	0xb9c88095	-0.00038242774
251	0x3df04c18	0.11733264
252	0x3d4b5618	0.049642652
253	0x3d60f66e	0.054922514
254	0xbdc1cc7b	-0.0946283
255	0xbc608bd2	-0.013705211

layers.2.bias f4 [45]
0	0x3cc881f2	0.024476025
1	0xbd2295a0	-0.039693475
2	0xbac0d671	-0.0014712346
3	0x3d009fd8	0.03140244
4	0xbc5768f0	-0.013147578
5	0xbb873187	-0.004125777
6	0x3d4ca41c	0.049961194
7	0xbd5cb2b8	-0.053881377
8	0x3d9bed28	0.07613593
9	0xbd9cc92a	-0.076555565
10	0x3df226ce	0.11823808
11	0x3d137f4a	0.036010064
12	0x3de8d643	0.11368992
13	0x3cb977d3	0.022640144
14	0x3d14ea08	0.036356002
15	0x3dd22f36	0.10262911
16	0xbd5fc4cf	-0.05463105
17	0xbc255236	-0.010090401
18	0xbd203a98	-0.03911838
19	0xbc779333	-0.015110779
20	0x3d218593	0.039434027
21	0xbd945008	-0.07241827
22	0xbd6ddfbc	-0.058074698
23	0xbd13ec10	-0.0361138
24	0xbbd46756	-0.006482045
25	0x3da7346a	0.08164294
26	0xbde9f410	-0.11423504
27	0x3e3141a6	0.17310199
28	0xbc96c504	-0.018404491
29	0x3d6e67f4	0.058204606
30	0xbd84e8cc	-0.06489715
31	0x3d9ac74c	0.07557544
32	0x3dd00e7a	0.10159011
33	0xbd036e84	-0.032087818
34	0x3cf7f2c8	0.030267134
35	0x3cd42a30	0.025899023
36	0xbd3744b0	-0.04474324
37	0xbbf26040	-0.007396728
38	0x3e2811e2	0.16413072
39	0xbcbed528	-0.023295
40	0x3d88e4cd	0.06684265
41	0x3e480679	0.19533719
42	0xbb81753a	-0.003950742
43	0x3df2a19f	0.11847233
44	0x3e23aabe	0.15983102
