experiments/learn_cdrive/cdrive/2022_01_20_133555017350_5_664e5/2022_01_20_133555017350_5_664e5_best.pth (torch, 32215 bytes, 6 tensors)

layers.0.weight f4 [64, 7]
000000 3a bc ad be 61 da 9b be 76 7f b7 be 54 e9 ed 3d
       -0.33932668 -0.30440047 -0.35839432 0.116167694
000010 1c f1 ab bd 53 70 a3 be ee 65 23 3e e8 d9 75 3e
       -0.08395597 -0.31921634 0.15956852 0.24008906
000020 cd 39 a6 3e 36 77 79 3e 53 80 b7 bd a0 db f4 bd
       0.32465973 0.24361882 -0.08960023 -0.11955953
000030 fa 72 0b be a6 f1 d1 be 9e e7 0d be 62 7e 74 3e
       -0.13618079 -0.41004676 -0.13857886 0.23876336
000040 ba a0 91 be 1c f1 ae 3e 88 81 dc bd 4f cf 76 3d
       -0.28442937 0.34168327 -0.107668936 0.0602563
000050 d0 4f b8 be 1f 2c 40 3e 5d bc 70 3d 1c 9e c2 3d
       -0.35998392 0.18766831 0.058773387 0.09502813
000060 73 55 aa be 87 54 7d 3e f9 54 9a 3d 7e b5 e9 bc
       -0.33268318 0.24739276 0.075357385 -0.028528925
000070 0a c8 90 be bf ef d8 bd e0 ae b8 3d 07 17 a9 be
       -0.28277618 -0.10592603 0.0901773 -0.3302538
000080 53 b2 44 3e ac 94 7a 3e 13 81 e1 be 64 f2 21 3e
       0.1920865 0.24470776 -0.44043788 0.15815121
000090 40 f4 0e 3e df b1 bc be 1e 72 ba be b1 92 bb 3d
       0.13960361 -0.36854455 -0.3641519 0.091588385
0000a0 58 51 eb 3c 2d c9 de 3e 7b 2c 88 3e 7d 97 10 3d
       0.028725311 0.4351286 0.26596436 0.03530072
0000b0 19 3c 9e be 85 31 ba be 59 75 a3 3e 88 90 c4 3e
       -0.30905226 -0.36365905 0.31925467 0.3839152
0000c0 a6 d7 8b be 46 1f a7 3e e5 b2 00 be 84 63 9d bc
       -0.27312964 0.32641047 -0.12568243 -0.019212492
0000d0 ba 7a ef 3d 18 36 a2 be e2 55 40 be 07 fe c3 be
       0.1169333 -0.31681895 -0.18782762 -0.38279745
0000e0 98 81 ed bd 11 70 13 be 8b 34 42 3e f8 2c 29 be
       -0.11596984 -0.14398219 0.18965356 -0.1652106
0000f0 07 34 47 be 94 5a 90 3e 4f 04 bc bd ff 5a 50 3e
       -0.1945344 0.28194106 -0.09180509 0.20347212
000100 cc 5c 73 3e c3 c4 5a 3e 6c e8 20 3e 7d 41 2d be
       0.23765868 0.21364121 0.15713662 -0.16919513
000110 4a e7 e7 3d c8 61 97 bd c9 48 d5 be cc 9a 77 be
       0.11323412 -0.07391697 -0.41657093 -0.24180144
000120 b1 8b af be ac 8d 12 3e 94 25 35 3e 94 b4 78 3e
       -0.34286264 0.14311856 0.17690116 0.24287635
000130 be 3e 0d 3e 26 f9 1d 3e 3b 9d 3f 3e 74 e7 d1 be
       0.13793465 0.15427074 0.18712322 -0.40996897
000140 49 a6 9e be 02 ea 77 3e 41 35 b8 3e 2a 6d 81 be
       -0.3098624 0.2421036 0.3597813 -0.25278598
000150 04 7d 10 bd cc a1 41 be b6 9b bd 3e 86 aa 96 be
       -0.035275474 -0.18909377 0.3703286 -0.29426974
000160 07 7e 21 3e 52 67 4c be 37 07 85 3b eb 63 f1 bd
       0.15770732 -0.19961289 0.004059698 -0.11786636
000170 d9 29 86 3e e1 9b 71 3d 6c 18 99 3d 14 c6 be bd
       0.26203802 0.05898655 0.07475361 -0.09315124
000180 81 ac 40 3e 20 66 55 3e 69 79 64 be 51 38 59 be
       0.18815805 0.20839739 -0.2231194 -0.21212889
000190 2e 3a 4b bc 9a f6 ad 3e 01 4a 2b 3d a4 ae f9 3d
       -0.012404008 0.33977205 0.041818622 0.12191513
0001a0 7a 58 e1 3c 1c b8 c5 3d 8d af bc be f1 93 71 be
       0.02750801 0.09654257 -0.36852685 -0.23591591
0001b0 72 e7 7e 3e 50 a3 c2 bc 37 95 4f be 49 28 b8 3e
       0.24892977 -0.023759514 -0.20271765 0.35968235
0001c0 66 2b a9 3e ea ae ac 3c 41 9a c0 3e 59 fc 7e 3e
       0.33040923 0.0210795 0.37617686 0.2490095
0001d0 58 7c 92 3e 1d d5 c2 3e d3 7c 10 3e b7 51 a2 be
       0.28610492 0.38053218 0.14110117 -0.31702968
0001e0 32 72 4f be e2 9d 38 bb 51 62 35 3e 10 1f 22 be
       -0.20258406 -0.0028170277 0.17713286 -0.15832162
0001f0 99 8c 80 be a6 4a 28 3e 71 56 6e bd 0c af 52 3e
       -0.25107267 0.16434726 -0.058187906 0.20574588
000200 d9 16 56 3e 40 69 33 3e 35 68 54 be e7 9c 79 be
       0.20907153 0.17520618 -0.20742877 -0.2437626
000210 ec 6e d1 3e 8b c6 9c 3e bc 2c 6b 3e a7 db 4c be
       0.4090494 0.30620226 0.22966284 -0.20005666
000220 b9 91 4a 3e 8b 9f 1b be 26 90 4e 3e e3 b3 d4 bd
       0.19782151 -0.1519758 0.20172176 -0.10385873
000230 8b fb 16 be 63 38 62 be d0 b8 a2 3e fb 78 54 be
       -0.14744394 -0.22091822 0.31781626 -0.20749275
000240 35 92 b4 3e d6 8e 78 bd 3b 97 89 be ac bd c2 be
       0.35267797 -0.060683094 -0.26873192 -0.38035333
000250 d9 27 23 bd bf 55 39 3d 6d 11 85 be 03 98 0f 3e
       -0.039832924 0.04524779 -0.25989857 0.14022832
000260 ca 3b 31 3e 9a 03 91 3d b3 79 95 be fd 2c f0 3d
       0.17307964 0.07080765 -0.29194412 0.11727331
000270 88 c7 52 be 2d a6 e6 3b 85 6e 87 be ce dd 93 3e
       -0.20583928 0.0070388527 -0.26451507 0.2888016
000280 d5 76 90 3e 20 1c 6f 3e e3 39 95 3e a7 c7 e4 bd
       0.28215662 0.23350573 0.29145727 -0.11170893
000290 ae dd 40 bd 9a 40 79 bd 75 2f 7b bc 86 0e 65 be
       -0.04708641 -0.060852624 -0.015331139 -0.22368822
0002a0 0c 0d ba be 16 ad 3e bd 5f 59 26 3e ec c3 94 bd
       -0.3633808 -0.046551786 0.1624503 -0.07263932
0002b0 6f 50 8b be 41 66 71 3d a0 d1 f9 bd 0e e0 75 be
       -0.27209803 0.058935408 -0.12198186 -0.24011251
0002c0 17 77 37 3d c4 2c 05 be 3a 30 51 bd a5 b7 bf be
       0.044791307 -0.13005358 -0.051071383 -0.37444797
0002d0 54 11 8e be c7 81 ac 3e e9 91 b1 be 37 c0 c5 be
       -0.27747595 0.33692762 -0.34681633 -0.3862321
0002e0 6c 9b 8d 3e da 93 32 3e dd 7e af 3d 29 a6 4f 3d
       0.2765764 0.17439213 0.08569119 0.050695572
0002f0 b5 31 dc be b6 6e de 3a e3 f2 da bd b4 17 af 3e
       -0.43006673 0.001697025 -0.10690858 0.34197772
000300 bc 96 a4 3e 77 9f 7f be 6d c4 6a be a3 64 a2 3e
       0.3214625 -0.24963175 -0.22926493 0.31717405
000310 4e 45 90 bd 62 1d 0b be 31 9a 5a 3d 31 77 34 be
       -0.07044469 -0.13585427 0.053369705 -0.17623593
000320 7f 2f 93 3e 06 12 9d be 90 fc ba 3d de d4 ec bc
       0.28747174 -0.30677813 0.09130204 -0.028910097
000330 c9 d6 5c be 20 90 99 3e db 7f c7 3e 3f 34 b0 bd
       -0.21566309 0.2999277 0.38964733 -0.08603715
000340 2b eb 9d 3e bb 1a ae be 95 d3 e6 3d 43 a7 f9 bc
       0.3084348 -0.3400477 0.11270825 -0.030475264
000350 e8 8d 7e bd 05 08 d6 3e 66 48 a4 be e8 22 8c be
       -0.06214705 0.41802993 -0.32086486 -0.2737038
000360 ed 5a d8 3e 11 4f 42 be 8d 8f bd be 1e f5 1e be
       0.4225687 -0.18975474 -0.37023583 -0.15523192
000370 5c 95 a5 be 5c a3 a6 be 32 8b 2c be dc 09 2d be
       -0.32340515 -0.32546508 -0.16849974 -0.16898292
000380 a2 70 c7 3e ee 31 83 3e 63 f1 c9 3d 51 c3 6a 3e
       0.3895312 0.2562403 0.09860494 0.2292607
000390 ef e3 0c be b9 f0 5c be 9a 99 03 be 14 c2 a9 be
       -0.13758825 -0.21576203 -0.12851563 -0.33155882
0003a0 c1 08 55 3e 7e e1 79 be bc 57 56 bd dc d7 d3 3d
       0.2080412 -0.24402425 -0.052329764 0.10343906
0003b0 80 64 15 3b 61 cb b0 be b6 33 59 3e 95 ea 1f bd
       0.0022795498 -0.34530166 0.21211132 -0.039042074
0003c0 32 2f a8 3d fe 82 39 3e 49 11 5f 3e af 1e 07 3d
       0.08212127 0.18116376 0.21783938 0.032988247
0003d0 44 e8 81 be c0 d4 2a be 70 de 91 bc cd de 9a be
       -0.25372517 -0.1668272 -0.017806262 -0.30248109
0003e0 ac ac 22 3d b4 3b 9f 3e f3 dd d3 bd 4b 77 a2 be
       0.039715454 0.31100237 -0.10345068 -0.31731638
0003f0 94 31 83 3e 08 02 8d 3e 43 85 dd bd 0b b5 32 be
       0.25623763 0.27540612 -0.10816433 -0.17451875

layers.0.bias f4 [64]
000000 1e be 83 be 15 a8 58 bd fc 03 2b 3e a4 8f 66 3e
       -0.25730985 -0.05289467 0.16700739 0.22515732
000010 d7 07 08 3e 82 a1 46 be dc 71 47 be 7e 08 30 3c
       0.1328424 -0.19397548 -0.19477028 0.010744212
000020 4c 02 c7 be 74 4f c9 3e da 08 36 bc 86 95 92 be
       -0.3886894 0.3931843 -0.011110509 -0.28629702
000030 20 46 6c be 13 b5 29 be fd b7 b1 be 63 0d b4 be
       -0.23073626 -0.1657298 -0.34710684 -0.35166463
000040 e4 ab ba 3b c8 d2 fd 3d 38 f5 cc 3e 34 1f 84 bd
       0.0056967605 0.12393719 0.40030837 -0.06451264
000050 4d 57 83 be 0a c6 93 be 76 cb 06 be a0 54 c1 be
       -0.25652543 -0.2886203 -0.13163552 -0.37759876
000060 a5 71 36 be 07 11 8e 3e 14 68 80 3e e9 10 86 3e
       -0.1781679 0.27747366 0.25079405 0.26184776
000070 b7 a6 ae be cd 77 9d be 32 ae 17 be 78 00 2e bd
       -0.34111568 -0.30755463 -0.14812544 -0.042480916
000080 3b d5 b8 be 2f 5f 36 be cf 0a 71 3d dd 28 4f be
       -0.36100182 -0.17809747 0.0588482 -0.20230432
000090 3f 54 95 be 65 c8 94 be cf 32 60 3d f0 a9 85 be
       -0.29165837 -0.2905914 0.054735955 -0.26106215
0000a0 85 47 5a 3e 79 c5 8b 3e 68 70 b7 3e be 2f b4 be
       0.21316345 0.27299097 0.35827947 -0.35192674
0000b0 a6 bb 66 be 18 eb d6 3d 08 ca 97 be 6c 71 73 3e
       -0.2253252 0.10494059 -0.29646325 0.23773736
0000c0 b0 4f dc bd bf ba aa 3e 56 25 7d 3e e5 a4 b1 3d
       -0.10757387 0.333456 0.24721274 0.08674029
0000d0 9c 8e b2 3e ce a0 7f 3e a1 a5 83 3e d3 a1 ba 3e
       0.34874427 0.24963686 0.25712302 0.36451587
0000e0 76 e6 a3 3e a4 26 62 3e 20 f9 2c 3d 63 34 90 be
       0.32011765 0.22085053 0.04222977 -0.28164968
0000f0 ee 0d 3a 3e 91 cf b7 be 50 e2 a8 3e cb d9 35 be
       0.18169376 -0.35900548 0.32985163 -0.17758863

layers.1.weight f4 [64, 64]
000000 a0 72 22 3c 3f db a8 bd 9f 23 54 3d 1a db cf bc
       0.009915024 -0.08244943 0.051791783 -0.02537303
000010 1e 21 01 3e bc 12 88 bd ff ff 53 3d 2c df fc 3d
       0.1261029 -0.06644198 0.05175781 0.12347254
000020 14 00 9b bd a8 cc d4 bd 2c e7 fd 3d 82 fe 8e 3d
       -0.07568374 -0.103905976 0.12397608 0.06982137
000030 c0 fc cd 3b 10 be 3d bd 47 95 1e 3e f8 c3 a3 3c
       0.0062862337 -0.046323836 0.15486632 0.019990906
000040 d6 17 2d 3d 35 60 84 3b 49 7e b1 bd 19 19 bf bd
       0.04225906 0.004039789 -0.08666665 -0.09330959
000050 4e 2a e2 bd a1 54 4c bd f2 24 cd bd b4 cb aa 3d
       -0.11043225 -0.049885396 -0.100168124 0.083396345
000060 d0 67 be bd e1 d5 0c bd 6e dc 09 3d 9c 0a 1f bc
       -0.092971444 -0.03438366 0.033657484 -0.009707119
000070 e0 eb d3 bd d2 07 93 bd 4d 37 17 bd be 32 e7 3d
       -0.10347724 -0.07179226 -0.036917973 0.11288975
000080 6e 1e 30 3d 58 b7 9b 3c 8d 66 84 bd 0a 7e c4 bd
       0.04299777 0.019008324 -0.064648725 -0.095943525
000090 8c df 8a bd e4 f2 85 bd 2f 8b d5 bc 3a 59 ab bd
       -0.067809194 -0.06540468 -0.026067344 -0.08366628
0000a0 0e 40 e7 3d 46 54 bc 3c 7c 0c 37 bd 47 b0 8a bd
       0.11291514 0.022989403 -0.04468964 -0.067719035
0000b0 f4 7d c2 3d e7 37 34 bd c0 ad 23 bb 66 84 07 3d
       0.0949668 -0.043998625 -0.002497539 0.03308525
0000c0 72 38 ba 3d 21 9e 36 3d a0 f2 0a bd d3 94 13 be
       0.09092797 0.044584397 -0.03392279 -0.1441224
0000d0 a1 33 bf 3c 5a f4 f4 3d 0d ee 96 3d 00 0d d2 3c
       0.023340048 0.11960669 0.07369623 0.025640965
0000e0 c4 4c 1f 3d 7f 19 a2 bc 60 41 89 3d 72 1f de 3d
       0.03889157 -0.019787548 0.067019224 0.108458415
0000f0 80 88 af bc 84 72 fc bd 20 8f 70 bd bf d3 08 3d
       -0.021427393 -0.123265296 -0.058730245 0.03340506
000100 c2 94 dc bd 44 f2 0c 3e 1f 0a 50 bd 58 c7 ac bc
       -0.10770561 0.13764292 -0.050790902 -0.021091148
000110 ea 75 ee 3c 49 6a 3f 3e 1f 13 eb bc f2 a8 d9 3d
       0.02910896 0.18692888 -0.028695641 0.10627927
000120 6d 7d 73 bb e8 32 f9 3d 1d a3 2b 3d c9 ed c1 3d
       -0.0037153617 0.12167913 0.041903604 0.09469182
000130 b0 66 08 be 41 05 6b 3a cd df cf bd b4 44 9e 3d
       -0.13320422 0.00089653215 -0.101501085 0.07727948
000140 50 06 b7 3d f2 ba 43 bd 6d c0 74 3d b4 50 1a 3e
       0.08936751 -0.047785707 0.059753824 0.15069848
000150 13 1d a8 3d f6 a6 c2 3d db c1 49 be a4 28 66 3d
       0.082086705 0.095045015 -0.19702856 0.0561911
000160 0c 08 91 3c fe d5 9f 3d 25 5b 92 3d 53 9a 0f 3e
       0.017704032 0.07804488 0.07146291 0.14023714
000170 07 f6 ad bd 8c 59 21 3d 7d 48 2e bd 9c 24 5e 3d
       -0.084941916 0.03939204 -0.0425496 0.054234132
000180 9c e0 9b 3c 28 76 d6 3d 53 e2 03 3e c5 11 38 ba
       0.019028 0.10471755 0.12879305 -0.0007021691
000190 47 97 e7 3d b8 61 f5 3d 47 2b 58 bd 14 92 06 3e
       0.11308151 0.11981529 -0.052775647 0.13141662
0001a0 13 7e 79 3d 0a c0 a1 3c a5 6e 88 3c 80 0f 2e 3d
       0.06091125 0.019744892 0.016654322 0.04249525
0001b0 b8 e1 f9 bd 84 fd be bc 80 fe b7 ba 8b c5 2b 3e
       -0.122012556 -0.023314245 -0.0014037639 0.16774575
0001c0 7c 91 7c 3d b2 f8 2b 3d 69 4e ba 3d c4 a1 07 be
       0.061662182 0.04198522 0.09096987 -0.13245302
0001d0 2c 9f 06 3e 70 ac 1b bd 2f 44 82 bd 63 79 43 3e
       0.13146657 -0.038006246 -0.06360661 0.19089274
0001e0 cf cf c5 3d c2 2e 7b 3d e0 86 c8 bd a8 95 93 3d
       0.09658777 0.06132389 -0.0979135 0.07206279
0001f0 38 7f 4a bd 13 55 25 3d 0d a0 ef 3d fa 76 0c 3d
       -0.04943773 0.040364336 0.11700449 0.034293152
000200 be 3c fc bd c0 27 5d 3c ed 0f ca 3d e1 c5 93 3d
       -0.12316273 0.013498247 0.09866319 0.07215477
000210 8d 4f 68 bd b9 2a 00 3d cf ab b7 3d 88 72 98 bd
       -0.05671649 0.031290743 0.08968317 -0.0744372
000220 20 9a 4e 3c ce b4 52 bd 62 a3 d2 3d 16 4e 8d bd
       0.012609988 -0.05144196 0.10285069 -0.06899659
000230 a0 f7 46 bd e6 17 38 3d 28 6a 87 3d 64 f9 69 3d
       -0.048575997 0.044944666 0.066120446 0.057122603
000240 30 3e 59 bd 8c 45 e2 3c 00 72 fc 3b 9d 67 00 be
       -0.053037822 0.027621053 0.0077040195 -0.12539525
000250 28 e7 72 3d de a4 0e 3d 10 94 78 3c 0e b3 b6 3d
       0.05930248 0.0348252 0.01517202 0.08920871
000260 20 91 63 bd 18 9e e5 3d c9 de 77 bd 60 56 c3 bb
       -0.055558324 0.112117946 -0.0605152 -0.0059612244
000270 ab ee 8b 3c 3c d5 f1 bd fa 6b b8 bd 52 e5 d5 3d
       0.01708158 -0.11808249 -0.0900497 0.1044413
000280 72 48 ac bd 05 72 8d bb 70 4e b9 3d 11 48 86 3c
       -0.08412255 -0.0043165707 0.09048164 0.016391786
000290 1c 38 39 3d 24 64 e6 bd ea 70 b8 3d 63 1d 00 be
       0.045219526 -0.11249569 0.09005912 -0.1251121
0002a0 40 31 9a bd b8 62 d1 3c b5 63 82 bd b5 2f a9 bd
       -0.07528925 0.025559768 -0.06366674 -0.082610525
0002b0 38 ce 93 3d 9b 20 b8 bd 3c 4a 9e 3d 29 f0 04 be
       0.072170675 -0.08990594 0.07729003 -0.12982239
0002c0 78 12 f8 bd 20 91 13 3d 83 47 58 3d a8 21 f2 bc
       -0.12112898 0.036027074 0.052802574 -0.029557064
0002d0 16 33 cb 3d fe b7 fe bd 92 cc c6 3d e8 d8 ae bd
       0.09921853 -0.124374375 0.097069874 -0.08537465
0002e0 2c 15 2e bd f3 da 01 be dc f7 9d 3d 52 59 15 bd
       -0.04250066 -0.12681179 0.07713291 -0.036462136
0002f0 5c 02 70 3d a8 f6 63 bd 21 27 99 bc 8f 6d ee 3d
       0.058596 -0.05565515 -0.018695416 0.116419904
000300 6c a4 2d 3d fa a1 12 39 06 b2 42 3e 8d 7b 1f 3e
       0.042393133 0.00013983986 0.19013223 0.15574475
000310 39 2a f8 bc 79 9c aa 3d 3d 8c e8 3d 1c 15 19 3e
       -0.03029357 0.08330626 0.11354873 0.14949459
000320 8b 4f 2d bc 67 06 20 3e 25 10 82 bd d5 e1 e4 3d
       -0.010578047 0.15627442 -0.063507356 0.111758865
000330 6e bc b5 bd 3a 84 e7 3b e9 2c f9 bd ee 9f bd bd
       -0.08873831 0.007065323 -0.12166769 -0.0925902
000340 78 cc 8c bd c0 44 3f bd ba bb df 3d 01 a4 ed 3d
       -0.06874937 -0.046696424 0.10924478 0.11603547
000350 d5 e0 8a bd 77 1d 7d be 89 09 53 be a2 d6 0a be
       -0.067811646 -0.24718271 -0.20609106 -0.13558438
000360 c6 38 87 3d aa 5e 8d 3d df 95 f0 bd 79 44 35 bd
       0.066026255 0.06902821 -0.11747336 -0.044254754
000370 cf c9 41 bc 5b 76 64 3c 2d 26 26 bd f0 13 10 3c
       -0.0118279 0.013944234 -0.04056375 0.008793816
000380 cf e0 8f 3d b9 ff d7 3c 11 34 1e 3e 03 bc 5f 3d
       0.07025301 0.026367055 0.1544955 0.05462266
000390 34 20 89 3d a8 a5 a2 bd 6a 46 b2 3d 14 23 e4 bd
       0.066955954 -0.07941753 0.08704837 -0.11139503
0003a0 10 1e fb 3d 2d e0 89 3d f3 79 6b ba 29 53 0a 3e
       0.12261593 0.06732211 -0.00089827104 0.13508286
0003b0 70 42 c9 bd 76 22 59 bc 6c 93 17 3d 7b 41 27 3e
       -0.09827125 -0.013252845 0.037005827 0.16333573
0003c0 5a 52 d9 bd d8 63 da 3d e2 cc 1e 3e 2f 29 b8 3c
       -0.106114104 0.10663575 0.15507844 0.022480575
0003d0 c6 29 c7 3b a0 e5 b8 bd 4f 66 ad 3c fd 38 01 3e
       0.006077978 -0.090281725 0.021166949 0.12619396
0003e0 fc 4a 44 bd 9b 8f 10 bd 5e 08 f7 3d 14 70 02 be
       -0.047923073 -0.035293203 0.12062143 -0.12738067
0003f0 40 ff 1b 3b eb bb 48 3d b7 fc 4d 3c fa c9 16 be
       0.0023803264 0.049007338 0.012572459 -0.14725485

layers.1.bias f4 [64]
000000 ef 5d 09 be 69 6a 18 3d d6 0d 3e 3d bd d5 8a 3d
       -0.13414739 0.037210856 0.046399914 0.067790486
000010 e8 3f 1e bd 8a bc 90 bd 4b e0 ed bc 42 90 c5 bd
       -0.038635164 -0.07067211 -0.029037615 -0.096466556
000020 26 2f a0 3d a2 e8 e1 bd 41 dd 31 bc 9e b4 e2 bd
       0.07821493 -0.11030699 -0.010855974 -0.11069606
000030 f8 20 46 bd 4b 33 01 3d 49 e8 f5 3c 18 a7 8c 3d
       -0.048371285 0.031543057 0.030017989 0.06867808
000040 c6 95 9f bd 6d 23 a4 bc f9 35 02 bd b2 9f 81 3d
       -0.07792239 -0.020036424 -0.031789754 0.063292876
000050 d9 f6 f7 3d ab a6 33 3d 69 e8 db 3c 77 16 b0 3d
       0.12107629 0.04386012 0.02684422 0.08598035
000060 77 b1 04 3e 56 8e 47 bd 4c f4 25 3d 0b 4c 5d bb
       0.12958322 -0.048719727 0.040516183 -0.003376725
000070 a8 c0 92 3d cc 0d 03 be c9 33 8a bc 6a a5 17 3d
       0.071656525 -0.12798232 -0.016870396 0.037022986
000080 80 21 b7 3d 6b 5a 23 bd cd a3 e4 3d 16 f3 02 3d
       0.089419365 -0.03988115 0.11164055 0.031970106
000090 6a 58 f5 bd b5 c5 f5 bd 6e 84 d4 3d 20 17 20 3e
       -0.11979754 -0.120006 0.103768215 0.15633821
0000a0 50 c3 0f 3e 0a 6b c6 bd 75 b1 eb bd 14 ef e9 bd
       0.1403935 -0.09688385 -0.115084566 -0.11422554
0000b0 e4 77 7f 3d 74 ff ed bd a9 a0 a9 3d 9e fc b5 bd
       0.062370196 -0.116209894 0.082825966 -0.088860735
0000c0 56 e6 4f 3d 83 7d 02 be 6e 40 d6 bd ac 9f 2b 3d
       0.050756775 -0.12743191 -0.10461508 0.04190032
0000d0 0c f1 a4 bd 00 a4 b5 3d c3 fe 60 bd aa 53 a8 3d
       -0.080537885 0.08869171 -0.05493046 0.08219083
0000e0 dc 63 e8 3c 5e 0b a5 3d 97 49 17 bd db 6a 09 3e
       0.02836793 0.08058809 -0.036935415 0.13419668
0000f0 08 d7 9f bd 40 58 84 bd 12 c5 fd 3d 91 9a 7d bd
       -0.07804686 -0.06462145 0.12391104 -0.061914984

layers.2.weight f4 [45, 64]
000000 e6 65 be 3c ce cf fc 3d c0 61 48 bc 67 a2 1b 3e
       0.023241948 0.12344323 -0.012230337 0.1519867
000010 00 a3 9e bd d2 ec eb bd 80 69 36 bc fc be ec bd
       -0.077459335 -0.11519779 -0.011133552 -0.11559865
000020 05 a1 36 3e f4 d6 25 3d c4 f3 b0 3c 48 92 e1 bc
       0.17834862 0.0404882 0.021600612 -0.027535573
000030 bc 77 5f bd 6f 60 60 bd 2f c0 da 3d f4 16 05 3d
       -0.054557547 -0.054779466 0.10681187 0.032492593
000040 ee 07 f3 3d e1 8f 10 3d b4 0f 06 3e 9e 67 b5 3d
       0.11866747 0.035293464 0.13091928 0.08857654
000050 f3 9c 1a 3e 15 29 fe 3d 00 3c a0 3d c1 26 5c 3d
       0.15098934 0.124101795 0.07823944 0.053747896
000060 ed 0f 0a 3e e1 87 0e 3e 8a 9b e1 3d 61 6b ed 3d
       0.13482638 0.13919021 0.11015995 0.115927465
000070 ca 71 62 bd f7 64 a7 3d 38 ae 1b 3d d0 2f 68 3c
       -0.0552843 0.081735544 0.038007945 0.014171556
000080 c4 e2 1e 3d f6 2e e3 bb 5c 14 01 bd b0 1e aa bc
       0.03879048 -0.0069330884 -0.031513557 -0.020766586
000090 b4 e2 2b bd e0 f4 67 3d c6 11 03 3c 3e e5 74 bc
       -0.041964248 0.056630015 0.007999843 -0.014947234
0000a0 76 3c 5b 3c b8 30 ea bd 60 be 6e 3c 70 2a d1 bc
       0.013381114 -0.114350736 0.014571756 -0.025532931
0000b0 80 fe 86 3d c8 23 81 3c eb 0d 59 3d a0 e8 3f bc
       0.06591511 0.015764132 0.05299179 -0.011713177
0000c0 4f 55 05 3e 8d e3 72 3c 70 10 d5 bc 80 f5 1d bd
       0.13020824 0.01482476 -0.026008815 -0.038564205
0000d0 08 2e f8 bc c8 de 02 bd 44 3b 80 3b 80 8c 91 3c
       -0.030295387 -0.031950742 0.003913315 0.017767191
0000e0 d8 9a da 3d 63 8b 32 3e f8 41 d0 bd 05 b0 01 bc
       0.10674065 0.17435984 -0.101688325 -0.0079155015
0000f0 2c 22 c0 3d 2a e5 8a 3d d6 22 55 bc 85 8e 78 3d
       0.09381518 0.06781991 -0.013008794 0.060682792
000100 14 e1 e6 3d 18 37 5e 3d 80 2e fe 3b 32 99 88 3d
       0.11273399 0.05425176 0.007757008 0.06669845
000110 fa b3 e6 3d 20 d4 a2 3d 00 c6 36 3c f8 bf bf bc
       0.112647966 0.07950616 0.011155605 -0.023406968
000120 bc 8e ee 3d 10 d3 71 bc 40 56 72 bc f2 37 91 bd
       0.11648318 -0.014759794 -0.014791071 -0.07090749
000130 f0 6e ec bd e0 78 d6 3b 30 57 d3 3d 40 b7 56 3d
       -0.11544597 0.006545171 0.10319364 0.052420855
000140 7c 02 44 3d ac a5 f6 bd 48 69 f5 3c dc 5d e1 bd
       0.04785393 -0.12043318 0.029957429 -0.110042304
000150 a6 ba b7 bd ec 3c 3d 3d 00 1f 17 3a 10 41 d2 bd
       -0.08971147 0.046200678 0.0005764812 -0.10266316
000160 68 69 4d bd cc 05 49 3d 5c a1 eb bd 7c 99 10 bd
       -0.05014935 0.049077794 -0.11505386 -0.035302624
000170 98 12 d0 bc 26 4d d9 bd 50 9a 66 bd 10 91 96 bc
       -0.025399491 -0.10610418 -0.056299508 -0.018379718
000180 94 4f 93 bd 18 07 9e 3c b0 9e 21 bc fc b5 eb bd
       -0.07192913 0.019290492 -0.009864494 -0.1150932
000190 10 0c 56 3c 88 7b df bd 5a 71 97 3d 88 5a d4 3c
       0.013064399 -0.109122336 0.07394667 0.025922075
0001a0 70 72 60 bd d4 f9 2f bd 2a c4 97 bd 20 05 4b bc
       -0.054796636 -0.042962864 -0.07410462 -0.012391359
0001b0 10 54 cc 3c fc 2f ec bd 2a 29 a6 3d ac f0 df bd
       0.024942428 -0.1153259 0.0811332 -0.109345764
0001c0 a0 59 ba bd 00 c1 ee 3b 58 89 20 3d 88 3b 80 3c
       -0.09099126 0.007286191 0.03919348 0.015653387
0001d0 60 e5 c2 bb 96 d4 cf bd a0 df c7 3b d4 bb 7e bd
       -0.005947754 -0.101479694 0.006099656 -0.062190846
0001e0 d0 98 22 3d 04 e8 f8 3d a0 67 cf 3c 56 60 ce bd
       0.039696515 0.121536285 0.025317967 -0.10076968
0001f0 60 a0 3d bd 30 1f 1e 3c 20 d2 d7 bb 18 3e 57 bd
       -0.046295524 0.00965099 -0.006586328 -0.05254945
000200 e8 aa 9c 3d f1 f8 f4 3c 90 2b 31 3d 19 2a 94 3c
       0.07649785 0.02990386 0.043254435 0.01808648
000210 aa 52 83 3d 3a 4e f3 bd 4f c4 c2 3b fc 30 17 bd
       0.06412251 -0.11880155 0.005943812 -0.03691195
000220 49 d5 74 3e 5a 51 fb bd a5 6c 0a 3e 80 d9 d7 bd
       0.23909487 -0.12271376 0.13518007 -0.10539532
000230 10 40 51 bc 24 27 cc 3d 3b dc 4c 3e fa 8b b4 bd
       -0.012771621 0.09968403 0.20005886 -0.08815761
000240 ec bc 6f 3d 73 7d 52 3e e1 a3 2d 3e 9e 12 06 3e
       0.05852978 0.20555668 0.16957046 0.1309304
000250 5b 37 59 3e 8d ed 78 3e 52 c6 8d bd 04 34 c7 3c
       0.21212523 0.24309368 -0.06922592 0.024316795
000260 1f d7 7a 3e d0 99 30 3d 14 9c 8c bd 4b a5 9e 3d
       0.24496125 0.043115437 -0.06865707 0.07746371
000270 74 47 d3 3d d4 7d 67 bd c6 9d f5 3d 70 fb b4 3c
       0.10316363 -0.056516483 0.119929835 0.022092551
000280 12 bc 84 bd d1 44 d1 3d 90 41 54 3c 40 75 3e 3e
       -0.06481184 0.10218204 0.012955084 0.18599415
000290 08 9d e3 bc 1e dc e5 bd 87 72 66 3e 3f 13 ca 3c
       -0.02778484 -0.11223625 0.22504626 0.02466738
0002a0 bc 6c 4c 3d 92 c1 8d bd 50 27 19 3d 92 8a b9 3d
       0.049908385 -0.06921686 0.037391007 0.09059633
0002b0 50 1f 83 3d d8 87 30 bd cc 70 b7 bd 86 25 ec bd
       0.06402457 -0.0430983 -0.08957061 -0.115305945
0002c0 11 53 47 bd 81 2e 50 3c c0 5e 67 3c 88 dd ca bd
       -0.048663203 0.0127064 0.014121711 -0.09905535
0002d0 10 06 e6 3c b6 45 a8 bd b2 d8 7d 3d 01 11 5d 3e
       0.028079063 -0.08216421 0.061974235 0.21588518
0002e0 a0 1e 89 3d 60 28 ea 3d 66 5e c5 3d 67 c8 27 3e
       0.066952944 0.11433482 0.09637146 0.16385041
0002f0 82 b2 d2 3d 80 27 4e bc 08 91 02 3d af a1 9e bd
       0.10287954 -0.01258266 0.031876594 -0.077456824
000300 c5 b3 d3 bd 27 1d 30 3e ee e5 b0 bd 15 30 8c 3e
       -0.10337023 0.1719862 -0.086376056 0.27380434
000310 6c 74 b6 3d f2 80 de bd 09 d9 04 3d 34 82 ab 3d
       0.089089245 -0.10864438 0.032433543 0.08374444
000320 de 00 5e 3b 68 ae d1 bc ed 40 c5 ba 38 4f c8 bc
       0.0033875029 -0.025595859 -0.0015049257 -0.024451837
000330 1c df 1c bd 6d fb c4 bc cb dc 43 3d 40 b2 47 bb
       -0.03829871 -0.02404567 0.047817986 -0.0030471236
000340 38 a4 de 3d 1d 0e 61 bc ae 77 bc 3d ba fa c0 bd
       0.10871166 -0.013736275 0.092025146 -0.09422822
000350 e2 87 88 3d a2 de 4b 3d 00 06 a7 3b 95 02 16 3c
       0.066665426 0.049772866 0.005097151 0.009155889
000360 e7 d0 73 3d 44 d0 1b bd da e6 96 3d bf db a3 bd
       0.059525397 -0.038040414 0.0736825 -0.080008976
000370 1a ff ee 3d a0 cd 29 bd 05 74 e4 3d 10 35 dc 3d
       0.116697505 -0.041455865 0.111549415 0.10752308
000380 66 bd 84 3d 73 7b ef 3d 90 f1 11 bc 02 7f ed 3b
       0.064814374 0.11693468 -0.008907691 0.0072478065
000390 d0 12 9d 3d c8 08 88 bc b3 05 27 bb 2c 04 dc 3d
       0.07669604 -0.01660575 -0.0025485575 0.10742983
0003a0 b1 a9 d6 3c 58 d5 0f 3d d0 5f 4f bc cc 0d e3 3d
       0.026203962 0.03511557 -0.012657121 0.11086616
0003b0 95 43 73 3d 2e f9 cf 3d 0e bd be 3d ca f2 b3 bd
       0.059390623 0.10154949 0.09313403 -0.08786543
0003c0 5e 37 8e bb cb fe 18 3e 32 77 8d ba f8 df fd 3d
       -0.0043400964 0.14940946 -0.0010792969 0.12396234
0003d0 80 50 bd bc c0 82 aa 3b 0a 0f f5 3c d2 e8 7d 3b
       -0.023109674 0.005203575 0.029914398 0.0038743508
0003e0 0a cd cf 3d 5d 0f ed 3d 95 80 c8 b9 c1 95 ea 3d
       0.1014653 0.11575196 -0.00038242774 0.114543445
0003f0 18 56 4b 3d 6e f6 60 3d 64 2f b4 bd 41 b6 8a bb
       0.049642652 0.054922514 -0.087981015 -0.004233152

layers.2.bias f4 [45]
000000 2d f7 ac 3c a0 95 22 bd 71 d6 c0 ba 42 02 f1 3c
       0.021113956 -0.039693475 -0.0014712346 0.029420022
000010 f0 68 57 bc 56 80 31 3c 10 ef 2e 3d b8 b2 5c bd
       -0.013147578 0.01083382 0.042708457 -0.053881377
000020 03 a2 8c 3d 2a c9 9c bd ce 26 f2 3d 4a 7f 13 3d
       0.06866839 -0.076555565 0.11823808 0.036010064
000030 43 d6 e8 3d 24 10 97 3c 08 ea 14 3d 36 2f d2 3d
       0.11368992 0.018440314 0.036356002 0.10262911
000040 53 7d 69 bd 97 5c 86 bc 98 3a 20 bd c4 70 8b bc
       -0.057004284 -0.016401572 -0.03911838 -0.017021544
000050 98 2a 0e 3d 08 50 94 bd bc df 6d bd 10 ec 13 bd
       0.03470859 -0.07241827 -0.058074698 -0.0361138
000060 4c 87 00 bb 6a 34 a7 3d 10 f4 e9 bd a6 41 31 3e
       -0.0019611893 0.08164294 -0.11423504 0.17310199
000070 2a 7a a5 bc f4 67 6e 3d cc e8 84 bd 4c c7 9a 3d
       -0.020199854 0.058204606 -0.06489715 0.07557544
000080 7a 0e d0 3d 84 6e 03 bd c8 f2 f7 3c 30 2a d4 3c
       0.10159011 -0.032087818 0.030267134 0.025899023
000090 b0 44 37 bd 40 60 f2 bb 0f 89 25 3e 28 d5 be bc
       -0.04474324 -0.007396728 0.16165565 -0.023295
0000a0 fd 78 70 3d 96 d7 43 3e 94 55 22 bc ca 23 e5 3d
       0.058709133 0.19125208 -0.009908099 0.11188467
0000b0 f3 dd 21 3e
       0.15807323
