experiments/learn_racetrack/racetrack2/2022_01_20_205543535008_4_fbdf8/2022_01_20_205543535008_4_fbdf8_14999.pth (torch, 24919 bytes, 6 tensors)

layers.0.weight f4 [64, 15]
0	0x3cef89d3	0.029240524
1	0x3ee81130	0.45325613
2	0xbe54c1b2	-0.20777014
3	0xbd8e1bd3	-0.06938901
4	0xbd86e1f3	-0.06586065
5	0xbe94df15	-0.29076448
6	0xbe0e9223	-0.13922934
7	0xbe33e3c4	-0.17567354
8	0xbe50e34e	-0.2039921
9	0x3d0fd6b8	0.03511688
10	0xbdf7d22c	-0.12100634
11	0x3e6f9541	0.2339678
12	0x3cf09d32	0.029371832
13	0x3e063892	0.13107517
14	0x3e60a23b	0.21936886
15	0xbe8692df	-0.2628393
16	0xbfa2619e	-1.268604
17	0x3d8f5ae6	0.069997594
18	0xbe5874cc	-0.21138304
19	0x3e60a753	0.21938829
20	0xbea9bf30	-0.33153677
21	0xbe74cf36	-0.2390717
22	0xbee86857	-0.45392105
23	0xbda2fe72	-0.07958688
24	0x3ded5724	0.115888864
25	0x3dba9353	0.09110131
26	0xbcfd6b16	-0.030934852
27	0x3da8fbc0	0.082511425
28	0xbe5c14e5	-0.21492346
29	0x3e4b0f7e	0.19830129
30	0x3f2a9090	0.66626835
31	0x3f17a634	0.5923798
32	0x3de3495d	0.11097977
33	0x3e49e4e8	0.19716227
34	0x3d29bfe0	0.041442752
35	0xbda7a85d	-0.081864096
36	0x3e232694	0.15932685
37	0xbd6a3b11	-0.057185236
38	0xbdb7e372	-0.089789286
39	0xbeae444b	-0.34036478
40	0xbe311343	-0.17292504
41	0xbcbb8219	-0.022889184
42	0x3c014595	0.007890125
43	0xbe2cbe3c	-0.16869444
44	0x3db961c0	0.090518475
45	0xbf50be87	-0.8154072
46	0x3e04d2ac	0.1297099
47	0xbda54f3b	-0.08071753
48	0x3de6b2a1	0.112645395
49	0x3d2c8615	0.042120058
50	0x3e8be8be	0.27326006
51	0x3e8e73b1	0.2782264
52	0xbe3571ba	-0.17719164
53	0x3dd14584	0.10218337
54	0x3e3de64c	0.18544883
55	0xbd3e877e	-0.046515934
56	0x3dc1a84d	0.09455929
57	0xbe7789c0	-0.24173641
58	0xbf101dad	-0.5629528
59	0x3d86c7b3	0.06581058
60	0x3f09b749	0.53795296
61	0xbc838513	-0.016054666
62	0xbb5ff450	-0.0034172721
63	0x3de0a51d	0.10968993
64	0xbe8d1e08	-0.27561975
65	0xbdb42118	-0.08795375
66	0x3e47475f	0.1946082
67	0xbe213a81	-0.15744974
68	0x3e246865	0.16055448
69	0x3e0e322f	0.13886331
70	0xbd897e04	-0.06713489
71	0x3d061f50	0.032744706
72	0xbdf817a7	-0.12113886
73	0x3dffe691	0.12495149
74	0x3dd65875	0.104660906
75	0xbecd504e	-0.4010033
76	0xbf09dd28	-0.5385308
77	0xbcff7e6c	-0.031188212
78	0xbdd858f6	-0.10563843
79	0xbbd0d925	-0.006373542
80	0xbe5dd0fc	-0.21661752
81	0x3e477e18	0.19481695
82	0xbe5873ea	-0.21137968
83	0x3e388a1b	0.18021433
84	0xbc98739e	-0.018609818
85	0xbe30508f	-0.1721823
86	0x3dd872ac	0.10568747
87	0x3e29be6c	0.16576546
88	0x3e02ecfd	0.12785716
89	0x3e64f40f	0.22358726
90	0x3f5af405	0.85528594
91	0x3f3bcfc5	0.73363906
92	0x3d5ccb3a	0.05390475
93	0xbe5a9dda	-0.21349278
94	0xbdca08fa	-0.098649934
95	0x3d6602f1	0.05615515
96	0xbd1ff45c	-0.0390514
97	0x3dde010d	0.10840044
98	0xbd7b973a	-0.061423518
99	0xbd879c59	-0.06621618
100	0x3b318c61	0.002709173
101	0xb9405aa9	-0.0001834432
102	0x3d9d7e41	0.07690097
103	0xbe616b3b	-0.22013561
104	0xbdaf388a	-0.08555706
105	0xbe3b1618	-0.18270147
106	0xbdb915e6	-0.0903738
107	0xbe10f226	-0.14154872
108	0x3e274356	0.1633428
109	0x3d84c41c	0.064827174
110	0x3da8fbbc	0.082511395
111	0x3e0c89dc	0.13724464
112	0x3ddbd4bc	0.10733935
113	0x3daa8c25	0.08327512
114	0xbe12e8e8	-0.14346659
115	0x3e5a7510	0.21333718
116	0xbdb6596b	-0.08903774
117	0x3dbc6c21	0.092003115
118	0xbe7f9e23	-0.24962668
119	0x3e67fdea	0.22655454
120	0x3d4e4770	0.050361097
121	0x3d2ef008	0.04270938
122	0xbd8417fc	-0.06449887
123	0xbe7c66a9	-0.24648537
124	0x3c86f340	0.016473413
125	0xbe42efe4	-0.19036824
126	0x3d94184c	0.07231197
127	0xbdd51414	-0.1040422
128	0xbdba255e	-0.090891585
129	0x3d72ab20	0.05924523
130	0x3d93ef54	0.072233826
131	0xbe71199b	-0.23544924
132	0xbd4d438c	-0.050113246
133	0xbd23fcd0	-0.040036023
134	0xbd985902	-0.07438852
135	0x3eaa916b	0.3331407
136	0x3e229aeb	0.15879409
137	0xbe5be30b	-0.21473329
138	0x3e1785d6	0.14797148
139	0xbda24dd6	-0.07925002
140	0xbdb0cb0b	-0.086324774
141	0x3dab6c67	0.083702855
142	0xbd8536c3	-0.065045856
143	0x3d26935f	0.040667888
144	0xbe759ebc	-0.23986334
145	0x3e0b038d	0.13575573
146	0xbd3ad1f2	-0.045610376
147	0xbce4fb6f	-0.027951924
148	0x3d10cc24	0.035350934
149	0xbe07ecd4	-0.13273937
150	0xbf015153	-0.50514716
151	0x3d20e54e	0.039281182
152	0xbc9144c9	-0.017732995
153	0x3c9c1a02	0.01905537
154	0xbdee2078	-0.11627287
155	0xbc705e39	-0.014670902
156	0xbe419a6a	-0.1890656
157	0xbd6088a4	-0.05481781
158	0xbd9e550c	-0.07731065
159	0xbe85ebb6	-0.26156396
160	0xbf0fc410	-0.5615854
161	0xbeccb49d	-0.39981547
162	0x3def8f59	0.11697263
163	0x3dccee70	0.10006416
164	0x3e8de98b	0.27717242
165	0xbf4b1c3e	-0.7933997
166	0xbe2c1aeb	-0.16807143
167	0x3cb689a5	0.02228243
168	0x3d01ebd5	0.031719048
169	0x3ddd40c4	0.10803369
170	0x3e92bec1	0.2866116
171	0x3e2e861f	0.1704335
172	0xbe570f34	-0.21001893
173	0x3e57794c	0.21042365
174	0x3e9c6c26	0.3055126
175	0xbe0e2cf1	-0.13884331
176	0xbc8b1d21	-0.016981663
177	0xbe73e9f0	-0.23819709
178	0xbf54cb62	-0.8312284
179	0xbdb409a2	-0.087909
180	0x3f0f32e7	0.55937046
181	0xbf04d00f	-0.5187997
182	0x3e16fb74	0.14744359
183	0xbded6e91	-0.115933545
184	0x3bc4e91f	0.0060092355
185	0xbb9928b5	-0.004674042
186	0x3cf405bc	0.02978789
187	0x3df20d0c	0.11818895
188	0xbe2af616	-0.16695437
189	0xbed92acb	-0.4241546
190	0xbd652451	-0.055942837
191	0x3d032c54	0.032024696
192	0xbea10425	-0.31448475
193	0x3e2b0152	0.16699722
194	0x3e2bc3c4	0.16773897
195	0x3e95f72b	0.29290137
196	0xbf5a1642	-0.8519021
197	0x3df2b35c	0.11850616
198	0xbe2577e8	-0.16159022
199	0x3c541dea	0.012946585
200	0xbe77a768	-0.24184954
201	0xbdd70b39	-0.105001874
202	0xbe002a87	-0.12516223
203	0xbe48f9d9	-0.1962656
204	0xbd53871e	-0.05164253
205	0xbdb8d85c	-0.09025642
206	0x3ba1d68f	0.0049389075
207	0x3e00b10b	0.12567537
208	0xbd5d9828	-0.054100186
209	0xbddaf022	-0.10690333
210	0x3e241978	0.1602534
211	0xbe7d4c9e	-0.24736258
212	0xbe2c22c2	-0.16810134
213	0x3d86b50c	0.06577501
214	0xbd6fb718	-0.05852422
215	0x3e038ac6	0.12845907
216	0xbe244aa8	-0.16044104
217	0xbdfffbe4	-0.12499216
218	0xbbc2e200	-0.0059473515
219	0xbe285da2	-0.16441968
220	0xbd2c64a4	-0.042088166
221	0x3dcfeb4c	0.10152301
222	0xbe6a50a1	-0.2288232
223	0xbdb85882	-0.090012565
224	0x3e113d72	0.14183596
225	0x3c5f1d1a	0.013617778
226	0x3f2e8673	0.68173903
227	0xbde58587	-0.11207109
228	0x3decfbdd	0.115714766
229	0xbc01d806	-0.007925039
230	0x3e3955a3	0.18099074
231	0xbd0ebd56	-0.034848534
232	0xbea946f4	-0.33061945
233	0xbeb54c26	-0.3540966
234	0xbeb3ec89	-0.351414
235	0xbe8f8d73	-0.28037605
236	0xbe5fd565	-0.21858747
237	0x3d237ef7	0.039916005
238	0xbe0e2668	-0.13881838
239	0xbe3ce418	-0.18446386
240	0x3ee191af	0.4405646
241	0x3eb36b97	0.35043022
242	0x3e2e8035	0.17041095
243	0xbc879192	-0.016548906
244	0x3df35dfc	0.118831605
245	0xbd8f3e84	-0.06994346
246	0xbd862edc	-0.065519065
247	0x3d88c5fb	0.06678387
248	0xbe5ca644	-0.215478
249	0xbe7fe9e3	-0.24991564
250	0xbea8f81a	-0.33001786
251	0xbe94712f	-0.28992602
252	0xbe20e493	-0.15712194
253	0xbe28dae9	-0.16489758
254	0xbce83c07	-0.028348936
255	0x3df8951e	0.12137817

layers.0.bias f4 [64]
0	0xbe57f37e	-0.21088979
1	0xbd982734	-0.074293524
2	0xbe9b2329	-0.30300263
3	0x3e6871b4	0.22699624
4	0x3c94600c	0.018112205
5	0x3e40601b	0.18786661
6	0xbe50136b	-0.20319907
7	0xbe66d720	-0.22543001
8	0xbe0b97e6	-0.13632163
9	0x3e4ce9ca	0.20011058
10	0x3d5a7c51	0.053341214
11	0xbdb6d6eb	-0.08927711
12	0x3df8338c	0.12119207
13	0xbe8d36b1	-0.2758079
14	0xbdaa5562	-0.08317067
15	0xbd501c03	-0.050807964
16	0x3de58aa8	0.11208087
17	0xbe16e1eb	-0.14734618
18	0xbe322380	-0.17396355
19	0xbe85b994	-0.26118147
20	0xbe21a8b6	-0.15787014
21	0x3e274083	0.16333203
22	0xbe2f0381	-0.1709118
23	0xbe86b49e	-0.26309675
24	0x3e41127b	0.18854706
25	0xbe075292	-0.13215092
26	0xbea0d4ed	-0.3141245
27	0x3db5687e	0.08857821
28	0x3cbaf920	0.02282387
29	0xbdbb4e8f	-0.09145843
30	0x3de5cc4e	0.11220609
31	0x3dd8c3ac	0.105841964
32	0xbe0943d4	-0.1340478
33	0x3da1bd84	0.07897475
34	0x3da4a1c6	0.08038668
35	0xb9409500	-0.00018366054
36	0x3d3c1e0d	0.045927096
37	0xbe5504b4	-0.20802575
38	0xbe220709	-0.15822996
39	0xbd226166	-0.039643668
40	0x3cb37656	0.021907013
41	0x3afbdabe	0.001921497
42	0x3db7776c	0.08958325
43	0xbe4167dd	-0.18887277
44	0xbc069ed2	-0.008216577
45	0x3ddd27b3	0.10798588
46	0xbe57dc7c	-0.21080202
47	0xbcf7aa40	-0.030232549
48	0xbdb1b030	-0.08676183
49	0xbde7fc53	-0.11327424
50	0xbe90b69b	-0.28264317
51	0xbe4e1cb2	-0.20128134
52	0xbe68d3db	-0.22737066
53	0x3da8851f	0.08228516
54	0xbc04276b	-0.008066039
55	0x3e0a0e29	0.13481964
56	0x3e1fd92a	0.15610185
57	0xbe317376	-0.17329201
58	0xbd52d33d	-0.051470984
59	0xbe5d33aa	-0.2160174
60	0x3dab3ff0	0.083618045
61	0xbd747419	-0.05968103
62	0xbe3d917f	-0.18512534
63	0xbe4034c6	-0.18770131

layers.1.weight f4 [64, 64]
0	0x3d02e808	0.031959563
1	0xbea0f101	-0.3143387
2	0x3d799019	0.060928438
3	0xbe0596f8	-0.13045871
4	0xbd2eca0e	-0.042673163
5	0x3d99e4c3	0.07514336
6	0x3c18fda1	0.009337814
7	0xbe03bd3c	-0.12865156
8	0x3d33a3b4	0.04385729
9	0x3db81f8d	0.08990393
10	0xbcff8336	-0.031190496
11	0x3d628a39	0.0553076
12	0xbdc94bd9	-0.0982892
13	0x3d8118d6	0.06303565
14	0xbd726534	-0.059178546
15	0xbe169eb5	-0.1470898
16	0xbdd44141	-0.10364009
17	0x3d71f476	0.059071027
18	0x3dfd5012	0.12368788
19	0x3c51a747	0.01279623
20	0xbd44e191	-0.04806668
21	0x3d1e1d5b	0.038602214
22	0x3cb1e209	0.021714227
23	0xbb88232c	-0.0041545834
24	0x3ddf8f9f	0.109160654
25	0xbdb07dc4	-0.08617738
26	0xbd63c66e	-0.05560916
27	0xbe436312	-0.19080761
28	0xbd92fe6e	-0.07177435
29	0x3d031656	0.032003723
30	0x3d52c549	0.051457677
31	0xbdb86322	-0.09003283
32	0xbcedcb45	-0.02902759
33	0xbdd8a814	-0.10578933
34	0x3daa314a	0.083101824
35	0xbe7b30b6	-0.245303
36	0xbd275fc0	-0.0408628
37	0x3def72d2	0.11691822
38	0x3c5b0709	0.0133683765
39	0xbc761ce0	-0.015021533
40	0x3c647ba7	0.013945497
41	0xbc635ce4	-0.013877127
42	0x3d7d4a6d	0.061838556
43	0xbcab70af	-0.020927755
44	0xbde80372	-0.11328782
45	0xbdbf63e2	-0.09345223
46	0xbd49e7ac	-0.049293205
47	0xbd9476dc	-0.07249233
48	0x3da0cf6a	0.07852061
49	0xbcddf3cb	-0.027093789
50	0xbc440744	-0.011964623
51	0xbe18fc53	-0.14940004
52	0xbcbb15a0	-0.02283746
53	0x3da92b1e	0.08260177
54	0xbda18f31	-0.0788864
55	0x3e022878	0.1271075
56	0xbb9d97a7	-0.004809338
57	0x3dad1922	0.08452059
58	0x3dd9fcc4	0.10643914
59	0xbd8ca16c	-0.06866726
60	0x3c9ca918	0.019123599
61	0x3cef9ad5	0.029248634
62	0xbbb72ef8	-0.005590316
63	0x3d9cb40e	0.0765153
64	0xbc046f97	-0.008083246
65	0xbd210217	-0.039308634
66	0xbde9f685	-0.11423973
67	0xbe0b8efa	-0.1362876
68	0x3cb2a96f	0.021809308
69	0xbd849dce	-0.06475411
70	0x3dfa9886	0.12236123
71	0xbddb046e	-0.10694204
72	0xbd59a2e4	-0.05313386
73	0xbc322aeb	-0.01087449
74	0xbb8051ad	-0.0039159865
75	0xbd8c1b6f	-0.0684117
76	0xbd186f70	-0.03721565
77	0x3d9b3401	0.07578278
78	0xbdab2a90	-0.083577275
79	0xbda161b5	-0.07879964
80	0x3d484b2e	0.048899822
81	0xbe1204cf	-0.14259647
82	0xbddd03c4	-0.10791734
83	0x3d052245	0.032503385
84	0xbe3bc86e	-0.18338177
85	0x3c4b1043	0.012394014
86	0xbe03762d	-0.12838049
87	0xbe26f1f7	-0.1630324
88	0xbd5487b1	-0.051887218
89	0xbd362762	-0.044471152
90	0x3d31450d	0.043278743
91	0x3db37696	0.08762853
92	0xbba2cb60	-0.004968092
93	0x3ca844b5	0.020540575
94	0x3dc0e35d	0.09418366
95	0xbdf0329b	-0.11728402
96	0x3e304ce3	0.1721683
97	0x3cf218c8	0.029552832
98	0xbdf5f407	-0.12009435
99	0x3e4a0e45	0.19732006
100	0xbd6fda53	-0.05855782
101	0xbccf1ed8	-0.025283262
102	0xbd1b1ad4	-0.037867382
103	0xbd83e5b0	-0.06440294
104	0xbd558224	-0.052126065
105	0x3d03260d	0.03201871
106	0xbdbb8af0	-0.091573596
107	0xbdb228ec	-0.086992115
108	0x3d54cbef	0.0519523
109	0xbd3186db	-0.0433415
110	0x3d6de109	0.05807594
111	0x3c9a5076	0.018837195
112	0x3d77e51c	0.06052123
113	0xbdae7dc0	-0.08520079
114	0xbe05d36b	-0.13068931
115	0xbd067504	-0.03282644
116	0x3d88b028	0.06674224
117	0xbdc2f39e	-0.095191225
118	0xbe225e3b	-0.15856259
119	0xbd3b05da	-0.045659877
120	0xbe341ecf	-0.17589878
121	0x3dd341f8	0.10315317
122	0x3e9b9078	0.30383658
123	0xbd701014	-0.058609083
124	0x3ce3e236	0.027817827
125	0xbd2867be	-0.04111456
126	0x3e12d372	0.14338472
127	0xbd20f43c	-0.03929542
128	0xba886ccf	-0.0010408404
129	0xbd11da0e	-0.035608344
130	0x3c87b3f3	0.016565299
131	0xbddc2c06	-0.10750584
132	0xbd34416a	-0.044007696
133	0xbbd516d6	-0.0065029664
134	0x3d1cc5d9	0.03827462
135	0x3ce4f2d8	0.027947828
136	0x3d549b34	0.051905826
137	0xbd4e9072	-0.050430723
138	0xbcb30f9e	-0.021858033
139	0xbd86ae00	-0.065761566
140	0x3c5fd8c2	0.013662519
141	0xbd9ba3e1	-0.07599617
142	0x3db18158	0.086672485
143	0x3d6fc3db	0.05853639
144	0xbca4af2d	-0.020103062
145	0xbddbd779	-0.107344575
146	0xbdbdf384	-0.092749625
147	0xbe0e1e36	-0.13878712
148	0x3a7642b4	0.0009394095
149	0xbd8ae90f	-0.06782734
150	0x3d3518ab	0.04421298
151	0x3db80134	0.089846045
152	0xbd13d674	-0.03609319
153	0xbcb2ed32	-0.02184162
154	0xbb7135f9	-0.0036805852
155	0xbd8065bb	-0.062694035
156	0x3d820702	0.06348993
157	0xbdf1dad0	-0.11809313
158	0xbbe4a42e	-0.0069775796
159	0x3d44f5f6	0.04808613
160	0x3d3fe106	0.04684546
161	0xbcfe7b7f	-0.031064747
162	0xbb0620ca	-0.002046632
163	0xbd99b39c	-0.07504961
164	0x3d829858	0.063767135
165	0xbc21e1a0	-0.009880453
166	0x3c273130	0.010204598
167	0x3c7b09a8	0.015322126
168	0xbd51437f	-0.05108976
169	0xbcead2a9	-0.028664904
170	0xbd375d22	-0.044766553
171	0x3d9f2bbc	0.077720135
172	0xbe076e49	-0.13225664
173	0x3d2d4fef	0.04231256
174	0xbe2f63bb	-0.17127888
175	0xbd340cc6	-0.043957494
176	0x3dbb7578	0.09153265
177	0xbe0480be	-0.12939736
178	0x3cd61dd8	0.026137277
179	0x3b2ee5e3	0.0026687316
180	0xbbf05faa	-0.007335623
181	0x3d20930f	0.039202746
182	0x3dbf4a26	0.093403146
183	0xbda63c6a	-0.08116992
184	0x3be2b76d	0.0069188387
185	0xbcbd4848	-0.023105755
186	0x3d3f101d	0.046646226
187	0xbd9c28b0	-0.07624948
188	0xbc14e457	-0.009087644
189	0x3ca7e2db	0.020493915
190	0xbdb03c21	-0.08605219
191	0x3b962c00	0.004582882
192	0x3d3d5ac9	0.046229158
193	0xbe1a7d8a	-0.15086952
194	0x3d22026e	0.0395531
195	0xbdfa2e95	-0.12215916
196	0xbd0d4962	-0.03449381
197	0x3c8ab2bf	0.016930936
198	0xbe81bcf1	-0.25339463
199	0xbd5572c4	-0.052111402
200	0xbc50e500	-0.01274991
201	0xbd9795a8	-0.074015915
202	0xbe5552e6	-0.20832404
203	0x3e6f9c31	0.23399426
204	0xbdb731cc	-0.08945045
205	0xbd3c24ae	-0.045933418
206	0x3bed4d60	0.00724189
207	0xbde19fa3	-0.110167764
208	0x3d559b60	0.05215013
209	0x3bb7e13b	0.0056115664
210	0xbdaeddd0	-0.08538401
211	0x3d656d34	0.056012347
212	0x3d099a3c	0.033594355
213	0x3cd704f5	0.02624748
214	0x3cd50a01	0.026005747
215	0x3d58d8b0	0.052941024
216	0xbe149c0c	-0.14512652
217	0xbd01731d	-0.03160392
218	0xbd930083	-0.07177832
219	0xbc42f495	-0.011899133
220	0x3de7559e	0.11295627
221	0x3e291d9d	0.16515203
222	0xbb43b5ac	-0.0029862924
223	0x3e0c4085	0.13696487
224	0x3d10de32	0.035368152
225	0x3d6b41a2	0.05743564
226	0x3c768808	0.015047081
227	0xbe69ec15	-0.22843964
228	0xbd40b96e	-0.04705184
229	0x3cef7228	0.029229239
230	0xbc0865e2	-0.008325072
231	0x3e1e3dcf	0.15453266
232	0xbd85bbd5	-0.06529967
233	0xbded37b7	-0.115828924
234	0x3cacabf4	0.021078087
235	0xbd716fb8	-0.058944434
236	0x3dcab0cc	0.098970026
237	0xbe231c2c	-0.15928715
238	0x3d8f3809	0.0699311
239	0x3cd03d96	0.025419991
240	0x3c5b2020	0.013374358
241	0x3da3d0a5	0.0799878
242	0x3bb164ff	0.005413651
243	0xbcfa7528	-0.030573443
244	0xbda2027d	-0.07910631
245	0xbc90d712	-0.017680679
246	0xbd705dae	-0.05868309
247	0x3d5df986	0.054193042
248	0x3db4ad79	0.0882215
249	0x3dbfd3f6	0.093666
250	0xbe1940a5	-0.14966066
251	0x3ca0e668	0.019641116
252	0x3db021d1	0.086002
253	0xbb623e51	-0.0034522007
254	0x3d0aee57	0.033918705
255	0x3dfa1dd6	0.12212722

layers.1.bias f4 [64]
0	0x3da4325f	0.0801742
1	0xbddb1dd2	-0.10699047
2	0x3c9d7afc	0.019223683
3	0x3e2921a4	0.16516739
4	0xbde07d16	-0.10961358
5	0xbc96f399	-0.018426703
6	0xbc5fd2e6	-0.013661122
7	0xbe37d491	-0.17952181
8	0xbdb20fdc	-0.08694431
9	0x3d525172	0.051347204
10	0xbd07aad9	-0.033121917
11	0xbde66f72	-0.11251725
12	0xbd8764cb	-0.066110216
13	0x3d1bc204	0.038026825
14	0xbcbe05e0	-0.02319616
15	0x3d49bede	0.04925429
16	0x3d3d6ada	0.04624448
17	0xbd576803	-0.052589428
18	0xbc542991	-0.012949363
19	0xbdb1e78c	-0.08686742
20	0xbdab0fd0	-0.08352625
21	0x3da36a3b	0.07979246
22	0x3e460c92	0.19340733
23	0xbdf34bc5	-0.11879686
24	0xbe1ec363	-0.15504222
25	0xbd06729e	-0.03282415
26	0xbc907128	-0.017632082
27	0xbe0f3524	-0.13985115
28	0xbe02052f	-0.1269729
29	0xbde35a0d	-0.1110116
30	0x3b18a591	0.0023292045
31	0xbdd9784a	-0.106186464
32	0xbd2f7984	-0.042840496
33	0x3d0eacc3	0.034832727
34	0x3da69add	0.081350066
35	0xbc70441b	-0.014664675
36	0x3d6381bd	0.05554365
37	0x3d1bb45b	0.038013797
38	0xbd872729	-0.06599266
39	0xbd088b9c	-0.033336267
40	0x3e0cc755	0.13747914
41	0x3d0cf1db	0.03441034
42	0x3d0fbe38	0.035093516
43	0x3c8e3162	0.017357532
44	0x3db9b531	0.09067763
45	0x3d0cf448	0.034412652
46	0xbdb045c9	-0.086070605
47	0xbd755067	-0.05989113
48	0xbdad7b99	-0.0847084
49	0xbe11c889	-0.14236654
50	0xbdd6f1b6	-0.104953215
51	0x3d6e3399	0.058154676
52	0x3b8d4264	0.004310893
53	0xbdac4063	-0.08410718
54	0x3d5f8a04	0.05457498
55	0xbd99a964	-0.07503012
56	0x3cff0bf7	0.031133635
57	0xbc75eae0	-0.015009612
58	0xbdd394d8	-0.10331124
59	0xbe072fff	-0.13201903
60	0xbd00e015	-0.0314637
61	0x3c4dc251	0.012558536
62	0xbccdeae4	-0.025136419
63	0xbda25a50	-0.07927382

layers.2.weight f4 [9, 64]
0	0xbc71a8fd	-0.014749763
1	0xbe2733e9	-0.16328396
2	0x3dacc460	0.08435893
3	0x3d8b51c2	0.068027034
4	0x3c03ff29	0.00805644
5	0xbdb4d171	-0.0882901
6	0xbc04f11a	-0.008114124
7	0xbc29326b	-0.010326962
8	0x3d56d5c1	0.052449945
9	0x3caf2e30	0.021384329
10	0x3dd9fb82	0.106436744
11	0xbdee9166	-0.11648826
12	0xbcf92275	-0.030411938
13	0x3c81b8f9	0.015835272
14	0x3d065030	0.032791317
15	0x3d69582e	0.05696886
16	0xbbec4c4b	-0.0072112433
17	0xbc5383fe	-0.012909887
18	0x3d4ad296	0.049517237
19	0xbe8372bc	-0.25673473
20	0x3d9bfea4	0.07616928
21	0x3dffa841	0.12483264
22	0x3ded8ed5	0.11599509
23	0xbe49b65d	-0.19698472
24	0xbd84509e	-0.06460689
25	0x3d1ac360	0.03778398
26	0xbdc8ea75	-0.09810344
27	0xbef96c22	-0.4871531
28	0xbef86675	-0.4851567
29	0x3d550ed6	0.0520161
30	0xbd1c7056	-0.03819307
31	0xbe70c320	-0.23511934
32	0x3c87544b	0.016519686
33	0x3d7e2c78	0.062054127
34	0xbde9eee1	-0.11422516
35	0xbdf337e4	-0.11875895
36	0xbdaf230e	-0.08551608
37	0x3d740652	0.05957634
38	0x3d4997a0	0.049216866
39	0xbe9b8541	-0.30375102
40	0x3dd76ed6	0.10519187
41	0x3d67c0f1	0.056580488
42	0x3d5b92fa	0.053606965
43	0x3dcc18df	0.09965681
44	0x3d0bf14d	0.03416567
45	0xbe9390f7	-0.28821537
46	0xbe97296a	-0.29523784
47	0xbcb0d195	-0.021584312
48	0x3dea7813	0.114486836
49	0xbe3d0bc2	-0.18461516
50	0xbd90762c	-0.070537895
51	0x3d08ff84	0.033446804
52	0x3d55ca73	0.052195024
53	0x3d73b7ca	0.059501447
54	0xbd97bd05	-0.074090995
55	0x3cd1d016	0.025611918
56	0x3e021296	0.12702402
57	0x3db02a4b	0.08601817
58	0xbd985301	-0.07437707
59	0x3b061387	0.0020458417
60	0xbdda7299	-0.10666389
61	0x3dd4bcf8	0.103876054
62	0xbdaa5964	-0.08317831
63	0xbc5e51c9	-0.013569304
64	0x3d80c501	0.062875755
65	0x3d677c94	0.05651529
66	0x3da2025a	0.07910605
67	0x3d14b64d	0.036306668
68	0xbd262c3f	-0.04056954
69	0x3c9a6a16	0.018849414
70	0x3c34fb6f	0.011046275
71	0x3d3f7857	0.046745624
72	0xbe6caf73	-0.23113804
73	0xbdc1fd94	-0.09472194
74	0x3bf20000	0.007385254
75	0xbe83932e	-0.25698227
76	0x3dee8a8a	0.11647518
77	0x3c9b33e5	0.018945644
78	0xbd28ff88	-0.04125932
79	0xbbe08ec8	-0.0068529584
80	0x3c9be8f7	0.019031985
81	0xba59ee8f	-0.0008313441
82	0x3d3bb481	0.04582644
83	0x3bab7c6e	0.005233339
84	0x3dfdac62	0.12386395
85	0x3db9248b	0.09040173
86	0x3dcad52e	0.09903942
87	0xbeb7dd07	-0.35910818
88	0xbdbc4bca	-0.09194143
89	0x3c016630	0.007897899
90	0xbdbc60d8	-0.09198159
91	0xbe5f1068	-0.21783602
92	0xbed55889	-0.4166911
93	0xbdde3203	-0.10849383
94	0x3dab72c4	0.08371499
95	0xbe1010a8	-0.14068854
96	0x3c7c8e62	0.015414806
97	0xbcbdf517	-0.023188157
98	0x3dcc4b82	0.099753395
99	0x3dc50c50	0.09621489
100	0x3cdd3dca	0.027007002
101	0x3d35f678	0.044424504
102	0x3de5b663	0.11216428
103	0xbe61a540	-0.22035694
104	0x3dc9b350	0.09848654
105	0xbdc89265	-0.097935475
106	0xbced4f88	-0.028968588
107	0x3dd64ca2	0.10463835
108	0xbca560c2	-0.02018774
109	0xbc2df4b0	-0.01061742
110	0xbec8b540	-0.39200783
111	0x3905eb30	0.00012771483
112	0xbca70244	-0.020386823
113	0xbdda9c9c	-0.10674402
114	0xbdabf8e2	-0.0839708
115	0x3b0e68d7	0.002172997
116	0x3d8005ad	0.062510826
117	0x3dae0b41	0.0849824
118	0xbca2197e	-0.019787546
119	0x3d412e0d	0.047163058
120	0x3de54d75	0.111964144
121	0x3dc48034	0.09594765
122	0xbe707476	-0.23481926
123	0xbd9f7698	-0.07786292
124	0x3da1e53b	0.0790505
125	0x3da9dae4	0.08293703
126	0x3d4f9fca	0.050689496
127	0x3c326c61	0.010890097
128	0x3d0c1704	0.034201637
129	0x3db7a53d	0.089670636
130	0x3d3be188	0.04586938
131	0x3de59bf7	0.112113886
132	0x3d944113	0.072389744
133	0x3d7934da	0.06084142
134	0x3d6cf25c	0.05784832
135	0x3d9d8929	0.07692177
136	0xbe91b1a9	-0.28455856
137	0x3d498b0d	0.049204875
138	0x3c303c20	0.010756522
139	0x3e51c5b2	0.20485571
140	0x3ce06ce0	0.027395666
141	0x3d108dae	0.035291366
142	0xbc811ad8	-0.01575987
143	0xbe4f38f7	-0.20236574
144	0x3dee207f	0.11627292
145	0xbec51f02	-0.3850022
146	0x3dcaff15	0.09911934
147	0x3cca57f2	0.024700139
148	0x3caf4610	0.021395713
149	0x3d266bd4	0.040630177
150	0x3d96f5b6	0.073710844
151	0xbe44d7e1	-0.19222976
152	0xbbd89e55	-0.0066106715
153	0xbd2f58b2	-0.042809196
154	0xbdca416b	-0.09875759
155	0x3a35a619	0.00069293525
156	0xbe7d1864	-0.24716336
157	0xbd9ed7fd	-0.0775604
158	0x3d3313dd	0.043720115
159	0xbec0e0e0	-0.37671566
160	0x3bad5d1e	0.0052906414
161	0xbd27816f	-0.040894922
162	0xbdd9f378	-0.10642141
163	0x3cc07d08	0.02349712
164	0x3d423868	0.047417074
165	0x3cbaf18d	0.022820259
166	0x3d8eace6	0.069665715
167	0x3e0051cc	0.12531203
168	0x3c99ab91	0.018758567
169	0x3ca22f33	0.019797897
170	0xbcaed6f0	-0.021342725
171	0x3b0fd112	0.0021944684
172	0xbb2410c0	-0.0025034398
173	0x3d1e22ca	0.038607396
174	0xbcc801ab	-0.024414858
175	0xbcff9525	-0.031199047
176	0xbddaef2e	-0.10690151
177	0xbe230ff1	-0.1592405
178	0x3de700d6	0.11279456
179	0x3d42c85e	0.047554366
180	0xbcc4e3b8	-0.024034366
181	0xbdd76858	-0.10517949
182	0x3d99e15f	0.07513689
183	0x3e08d492	0.13362339
184	0x3d837947	0.06419616
185	0x3d195ba9	0.03744093
186	0xbe14b173	-0.14520817
187	0x3d8eaa10	0.069660306
188	0xbdf7ec0b	-0.121055685
189	0x3dd77a91	0.105214246
190	0xbdbcefa0	-0.09225392
191	0x3c6cd198	0.014454268
192	0xba2d64dd	-0.0006614456
193	0xbdacec4b	-0.08443507
194	0x3c3f5a3d	0.011679229
195	0x3d5a29f2	0.05326266
196	0xbd535e47	-0.05160358
197	0xbd04f257	-0.032457676
198	0x3cf0b67b	0.029383888
199	0x3cd2aef8	0.025718197
200	0xbcb57add	-0.022153312
201	0xbdbbeb48	-0.09175736
202	0x3d812c80	0.06307316
203	0xbe80f574	-0.25187266
204	0x3c459440	0.012059271
205	0x3d18ddd7	0.037320938
206	0xbd19c22c	-0.037538692
207	0x3ce05f84	0.027389295
208	0x3cb367e5	0.021900127
209	0xbd480e5d	-0.048841823
210	0x3d3dc0be	0.04632639
211	0xbf0631fc	-0.5242002
212	0xbcc1dfc8	-0.023666278
213	0xbd63a5c0	-0.055577993
214	0x3de86ab5	0.11348478
215	0x3d53d6d2	0.05171854
216	0x3db723c7	0.08942371
217	0x3d395b16	0.045252882
218	0xbe3c52d2	-0.18390968
219	0xbdc486f9	-0.095960565
220	0xbf224e9a	-0.63401186
221	0x3d7646f3	0.060126256
222	0xbd04a4bf	-0.032383677
223	0xbe38f7be	-0.18063256
224	0xbd3dc07a	-0.046326138
225	0x3dafbd63	0.085810445
226	0x3d1cf503	0.0383196
227	0xbb2d9fc0	-0.0026492923
228	0x3d6663fe	0.056247704
229	0x3d93623a	0.071964696
230	0x3dc26e56	0.09493701
231	0xbdcc5fe3	-0.099792264
232	0x3db93d1e	0.0904486
233	0xbdbfe4f3	-0.093698405
234	0xbc910d00	-0.017706394
235	0x3d3d8fc1	0.046279673
236	0x3ccb0061	0.024780454
237	0x3e00948e	0.12556669
238	0xbe83d9e6	-0.2575218
239	0x3c438259	0.011932933
240	0xbb957cb2	-0.004561984
241	0xbda2bb1e	-0.07945846
242	0xbdeca758	-0.11555356
243	0xbcd680c4	-0.026184447
244	0xbdcd9d65	-0.10039786
245	0xbc4590eb	-0.012058477
246	0x3e1d9703	0.15389638
247	0x39712550	0.00022997451
248	0xbcd92b8a	-0.026510019
249	0x3c438e9b	0.011935855
250	0xb9f2a1fe	-0.0004627853
251	0x3c56a3a6	0.01310054
252	0xbddb333b	-0.10703131
253	0x3ddf1132	0.108919516
254	0x3c87d7b6	0.016582351
255	0xbcc4e7f8	-0.024036393

layers.2.bias f4 [9]
0	0x3b62d17c	0.0034609726
1	0x3dbb8c21	0.09157587
2	0x3b0bc5e6	0.0021327673
3	0x3dad197b	0.08452126
4	0x3e2d7406	0.1693879
5	0xbcc5e6a9	-0.024157839
6	0x3d911eee	0.070859775
7	0x3d318b6b	0.04334585
8	0x3d82e0e5	0.063905515
