experiments/learn_racetrack/racetrack2/2022_01_20_205543535008_4_fbdf8/2022_01_20_205543535008_4_fbdf8_5999.pth (torch, 24919 bytes, 6 tensors)

layers.0.weight f4 [64, 15]
000000 7e ab 2f 3d 16 a2 80 3e 87 3e 2f be 05 7f c4 bc
       0.042888157 0.25123662 -0.17113696 -0.023986349
000010 99 b1 e7 bc d2 1e 80 be 73 cc 59 bd ca 5b 17 be
       -0.028282927 -0.25023514 -0.053173494 -0.14781108
000020 3b 23 34 be f3 e2 0d 3d 08 55 ae bd df 96 87 3e
       -0.17591564 0.034640264 -0.08512312 0.26482293
000030 51 14 90 3d 42 c3 28 3e 6b 24 32 3e af a6 75 be
       0.07035125 0.16480735 0.17396705 -0.23989366
000040 fc 98 91 bf dc 8e 86 3d 4c be 61 be 35 89 58 3e
       -1.1374812 0.06570217 -0.22045249 0.2114609
000050 7b 57 a0 be 8c 44 01 be af a2 d7 be 61 ac 9c bd
       -0.31316742 -0.12623805 -0.42116305 -0.07650066
000060 13 30 fc 3d ff 3a ae 3d f8 ff ea bc 36 b8 98 3d
       0.12313857 0.08507346 -0.028686509 0.074570104
000070 79 b4 5f be fe 58 54 3e 03 f1 ff 3e 8d e7 ad 3e
       -0.21846189 0.20737073 0.49988565 0.33965722
000080 5c 90 04 3e 7d 66 37 3e 75 c5 8b 3d f1 f9 3b bd
       0.12945694 0.1791019 0.06824771 -0.04589266
000090 ed 09 40 3e 51 85 17 be 24 92 1a bd 89 b6 9c be
       0.18753786 -0.1479695 -0.037737027 -0.30608013
0000a0 f1 20 e5 bd 77 32 80 bd c3 d3 f0 bb 9b 68 29 be
       -0.11187924 -0.062596254 -0.0073494627 -0.1654381
0000b0 ac 5e de 3d aa 41 1b bf f5 a1 84 3d 69 b4 bb bd
       0.10857901 -0.6064707 0.06476203 -0.0916527
0000c0 db f6 95 3d 59 8b bc 3d a0 21 63 3e d9 d3 89 3e
       0.073224746 0.09206266 0.22180796 0.2691944
0000d0 c1 ec 48 be 4a 9f 04 3e 70 74 6d 3e 09 15 a0 bd
       -0.19621564 0.12951389 0.23188949 -0.07816512
0000e0 f7 c8 dc 3d f8 e6 82 be 6b 8a ad be 79 83 d7 3d
       0.107805185 -0.2556684 -0.33894667 0.10523123
0000f0 68 8a cb 3e db a7 c6 bb af 5e 92 3b e1 6d c3 3d
       0.39754033 -0.0060624904 0.0044668536 0.09542442
000100 91 3c 7f be 9c 65 c1 bd d5 0a c6 3d a9 0a 2d be
       -0.24925448 -0.094432086 0.09670035 -0.16898598
000110 8b 88 46 3e f2 e3 12 3e 09 c5 b2 bd 23 be 2f 3d
       0.19388025 0.14344767 -0.08728988 0.042905938
000120 b0 3e e7 bd d6 a8 38 3e b1 8f f3 3d 0e 47 9a be
       -0.112912536 0.18033156 0.11892641 -0.30132335
000130 f5 44 90 be b7 7c 09 bd d4 ba f5 bd 2f 45 6f bc
       -0.2817761 -0.033566203 -0.11998525 -0.014603897
000140 83 17 55 be 6b 28 0c 3e d9 a3 3b be 83 c0 35 3e
       -0.2080975 0.13687293 -0.18324222 0.17749219
000150 cf cb a2 bd 7f 5e 2f be 78 31 e8 3d ad 96 2a 3e
       -0.0794903 -0.17125891 0.113375604 0.16659041
000160 70 5d 10 3e 09 a5 73 3e b1 ec 31 3f 6d f3 43 3f
       0.14098144 0.23793425 0.6950179 0.76543313
000170 ad 6d 73 3d bb 9c 56 be 9b 2d 97 bd 1a aa cb 3d
       0.059430767 -0.20958225 -0.073817454 0.09944554
000180 38 6b ab bd 6d 66 b3 3d d5 dc 4b bd db 61 7c bd
       -0.0837006 0.087597705 -0.04977115 -0.06161676
000190 7a df 3e 3c 2f df d2 bc 0c ab a0 3d 61 a3 63 be
       0.011649961 -0.025741188 0.078451246 -0.22230293
0001a0 9e 3a b7 bd 18 16 3b be e6 15 b9 bd 26 f2 10 be
       -0.08946727 -0.18270147 -0.0903738 -0.14154872
0001b0 56 43 27 3e 1c c4 84 3d bc fb a8 3d dc 89 0c 3e
       0.1633428 0.064827174 0.082511395 0.13724464
0001c0 bc d4 db 3d 25 8c aa 3d e8 e8 12 be 10 75 5a 3e
       0.10733935 0.08327512 -0.14346659 0.21333718
0001d0 6b 59 b6 bd 21 6c bc 3d 23 9e 7f be ea fd 67 3e
       -0.08903774 0.092003115 -0.24962668 0.22655454
0001e0 70 47 4e 3d 08 f0 2e 3d fc 17 84 bd a9 66 7c be
       0.050361097 0.04270938 -0.06449887 -0.24648537
0001f0 40 f3 86 3c e4 ef 42 be 4c 18 94 3d 14 14 d5 bd
       0.016473413 -0.19036824 0.07231197 -0.1040422
000200 5e 25 ba bd 20 ab 72 3d 54 ef 93 3d 9b 19 71 be
       -0.090891585 0.05924523 0.072233826 -0.23544924
000210 8c 43 4d bd d0 fc 23 bd 02 59 98 bd 6b 91 aa 3e
       -0.050113246 -0.040036023 -0.07438852 0.3331407
000220 5d e3 24 3e 0b e3 5b be b9 ec 19 3e c6 a7 9c bd
       0.16102357 -0.21473329 0.15031709 -0.07649188
000230 7b 46 ac bd db f0 af 3d 68 f5 83 bd d9 17 2c 3d
       -0.084118806 0.085908614 -0.06443292 0.04201493
000240 5c 6f 74 be bc cb 0c 3e b3 b4 37 bd 7f d1 ce bc
       -0.23870605 0.13749593 -0.044850063 -0.02524638
000250 de 38 1c 3d b7 53 0a be 0f 43 d2 be cb ad 44 3c
       0.03814017 -0.13508497 -0.41066787 0.012004326
000260 93 93 58 3d 5c e2 85 3d ec 3a d6 bd 13 9e 01 3d
       0.052875113 0.06537315 -0.10460457 0.031644892
000270 10 f8 15 be ed ca 93 3d fd 84 f5 3b cd e7 31 be
       -0.1464541 0.072164394 0.00749266 -0.17373581
000280 b1 13 d5 be a8 bd 93 be 06 47 0a 3e 31 10 e3 3d
       -0.41616586 -0.28855634 0.13503656 0.11087073
000290 6b 65 6c 3e c7 2f 22 bf 27 25 5d be 2b 8e e0 3c
       0.23085563 -0.6335415 -0.21596204 0.027411541
0002a0 52 c3 34 3d 3f f5 e6 3d 71 c2 82 3e 75 61 48 3e
       0.044131584 0.11277246 0.25538972 0.19568427
0002b0 49 f6 36 be af ad 55 3e 34 21 a5 3e 6c 19 06 be
       -0.17867388 0.20867036 0.32251894 -0.13095635
0002c0 91 4b 38 bc fe 76 58 be 31 d5 2c bf 61 75 cd bd
       -0.011248485 -0.21139142 -0.67512804 -0.10032154
0002d0 7b 96 a2 3e 7e d2 7e be 21 59 0d 3e 52 90 d6 bd
       0.31755432 -0.24884984 0.13803531 -0.10476746
0002e0 5a 8b dc 3d 06 39 2c 3c c8 51 47 3d 70 f2 07 bc
       0.10768767 0.010511642 0.048661977 -0.008297548
0002f0 ac 16 31 be d2 83 a3 be 69 8b 81 bd f4 ed 89 3c
       -0.17293805 -0.31936508 -0.063254185 0.016837098
000300 6a 0a 95 be 08 61 67 3e b9 54 20 3e 95 9c 9a 3e
       -0.29109508 0.22595608 0.15657319 0.30197588
000310 78 69 14 bf 7b 7a e2 3d 6b bf 4c be 77 15 15 3d
       -0.5797343 0.110585175 -0.19994895 0.036397424
000320 a5 0a 57 be 26 e4 5b be b6 9a 63 be 8f ff 1e be
       -0.21000154 -0.2147375 -0.22226986 -0.15527175
000330 4a be 8a bd b3 0e a5 bd 38 2d f9 39 7b df eb 3d
       -0.06774576 -0.08059444 0.00047526672 0.11517235
000340 0a ec 16 bd 3d 61 8c bd 78 19 24 3e 9e 4c 7d be
       -0.0368462 -0.06854484 0.1602534 -0.24736258
000350 c2 22 2c be 0c b5 86 3d 18 b7 6f bd c6 8a 03 3e
       -0.16810134 0.06577501 -0.05852422 0.12845907
000360 a8 4a 24 be e4 fb ff bd 00 e2 c2 bb a2 5d 28 be
       -0.16044104 -0.12499216 -0.0059473515 -0.16441968
000370 a4 64 2c bd 4c eb cf 3d a1 50 6a be 82 58 b8 bd
       -0.042088166 0.10152301 -0.2288232 -0.090012565
000380 72 3d 11 3e 6d 99 c0 bc 15 e8 25 3f ba 1d a2 bd
       0.14183596 -0.02351066 0.64807254 -0.07915826
000390 13 5e 11 3e 93 54 83 3c 3d 46 52 3e 17 ee 2b bc
       0.14196043 0.016031539 0.20534606 -0.010493777
0003a0 3d 1d 97 be db a7 95 be 40 5a 92 be 4a 76 73 be
       -0.29514495 -0.29229626 -0.2858448 -0.23775592
0003b0 3d 29 55 be d8 29 84 3d c5 46 ec bd 3f c4 57 be
       -0.20816512 0.064532936 -0.11536936 -0.21070956
0003c0 a1 21 ed 3e 22 9c 7e 3e 1d 54 29 3e e6 47 8e 3c
       0.4631472 0.24864247 0.16535993 0.017368268
0003d0 88 c5 ff 3d b7 d5 1e bd b4 01 4a bd ba 06 b5 3d
       0.12488848 -0.038778033 -0.04931803 0.088391736
0003e0 a4 a9 75 be 73 f1 65 be f8 96 89 be 7c 12 71 be
       -0.23990494 -0.22455387 -0.26872993 -0.23542207
0003f0 ae 9b 08 be 11 f1 2f be b2 0a 7f bd 04 e6 51 3e
       -0.13340637 -0.17181803 -0.06226606 0.204979

layers.0.bias f4 [64]
000000 52 07 26 be c5 64 a4 bd c5 06 91 be a0 1f 63 3e
       -0.1621373 -0.08027033 -0.28325477 0.22180033
000010 3e 57 ed 3c ee 5f 3b 3e 2e a9 47 be 20 d7 66 be
       0.028972264 0.18298313 -0.1949813 -0.22543001
000020 e6 97 0b be 65 6a 4f 3e 8f 28 a9 3d b6 48 ab bd
       -0.13632163 0.2025543 0.08259689 -0.08363478
000030 7a 3d fa 3d 67 db 8d be 62 55 aa bd db 7f bc bc
       0.12218757 -0.27706453 -0.08317067 -0.023010185
000040 5e cf dc 3d b0 29 d5 bd 80 23 32 be c6 77 82 be
       0.1078174 -0.10408342 -0.17396355 -0.25482005
000050 b4 50 1a be 5a cc 22 3e 26 74 1c be 9f 3f 87 be
       -0.15069848 0.15898266 -0.15278682 -0.26415727
000060 90 92 49 3e 4f 95 e8 bd 19 ca 69 be 8a 1a b0 3d
       0.19684815 -0.11356603 -0.22831 0.08598812
000070 20 f9 ba 3c e1 e9 c1 bd 6b f6 24 3e 7f 3c f7 3d
       0.02282387 -0.09468437 0.16109626 0.120720856
000080 95 68 08 be 84 bd a1 3d 1d bd d2 3d 95 0e 49 3c
       -0.13321145 0.07897475 0.10289977 0.012271543
000090 d0 f5 12 3d b4 04 55 be 60 39 16 be 3b df b9 bc
       0.035878956 -0.20802575 -0.14670324 -0.022689452
0000a0 89 93 a5 3d 31 cb 29 3d 5a 07 74 3d cb 66 2d be
       0.08084781 0.041453544 0.059577323 -0.16933744
0000b0 d2 9e 06 bc 4f 67 06 3e f7 f8 24 be 25 63 a6 bc
       -0.008216577 0.13125347 -0.16110598 -0.020310948
0000c0 30 b0 b1 bd e6 81 cc bd 64 c9 8f be 80 fd 3c be
       -0.08676183 -0.09985714 -0.28083336 -0.18456078
0000d0 da 79 5c be 4e 8e d2 3d 61 3e a4 3b 10 dc 0f 3e
       -0.21530858 0.10281049 0.005012319 0.14048791
0000e0 42 89 17 3e 76 73 31 be b2 59 6e bd aa 33 5d be
       0.14798453 -0.17329201 -0.05819101 -0.2160174
0000f0 cd 58 db 3d 69 9f 5f bd 1e d3 28 be c6 34 40 be
       0.10710297 -0.054595385 -0.16486785 -0.18770131

layers.1.weight f4 [64, 64]
000000 fc d5 3d 3d a7 9f 52 be eb 2e 58 3d d8 f6 4c be
       0.04634665 -0.20568715 0.05277912 -0.20016038
000010 0b 67 85 bc 91 ba 2c 3d 2d 7c d4 bc 3c bd 03 be
       -0.016284486 0.04217011 -0.025938118 -0.12865156
000020 b4 a3 33 3d 65 1b b8 3d a5 d8 c1 3c 4a 97 78 3d
       0.04385729 0.089896 0.023662874 0.060691155
000030 88 56 52 bd 15 d1 6b 3d 34 65 72 bd 28 0f fe bd
       -0.051352054 0.057572443 -0.059178546 -0.124052346
000040 b0 7f b4 bd a9 9f 62 3d 12 50 fd 3d 8b cf 81 3d
       -0.08813417 0.055328045 0.12368788 0.06338414
000050 4d fb 3e 3a ad 79 33 3d c5 25 93 3d 2a ca a1 bb
       0.00072853715 0.04381721 0.07184938 -0.00493743
000060 ee 94 df bc ca b5 7f bd 16 8d 48 bd af 35 fc bd
       -0.027292695 -0.062429227 -0.048962675 -0.12314927
000070 6e fe 92 bd 7a 54 86 3d b6 f8 c4 3d 16 30 ad bd
       -0.07177435 0.065590814 0.0961775 -0.08456437
000080 1e 7c 5b bd 14 a8 d8 bd 17 ff 81 3d c7 c9 01 be
       -0.053585164 -0.10578933 0.06347483 -0.12674628
000090 ab 9a c0 bd d2 72 ef 3d 6a 34 e3 bb 12 a8 42 3d
       -0.094045006 0.11691822 -0.0069337385 0.047523566
0000a0 ea 4d 73 3d d1 65 f6 bc c2 52 76 3d 0b 3b aa 3c
       0.059400477 -0.030077847 0.060137518 0.020780107
0000b0 72 03 e8 bd 1a 15 b4 bc 8a 6c 54 bd 06 1f 81 bd
       -0.11328782 -0.021982718 -0.051861323 -0.063047454
0000c0 6a cf a0 3d f9 11 70 bb 6b 6d 45 bc a0 a2 c8 bd
       0.07852061 -0.0036631806 -0.012050013 -0.09796643
0000d0 17 25 48 bd 7b 2d b4 3d 38 ce bd bd 4b d3 ee 3d
       -0.048863497 0.08797737 -0.09267849 0.11661395
0000e0 ca 10 0b 3a 22 19 ad 3d 67 cb 71 3d 6c a1 8c bd
       0.0005304931 0.08452059 0.05903187 -0.06866726
0000f0 92 da ab 3d 0c 5b c5 bc f3 ba 95 ba 0e b4 9c 3d
       0.08391298 -0.024091266 -0.0011423513 0.0765153
000100 26 05 0d 3d 98 42 3a 3c 30 1d bf bd bf 46 cb bd
       0.034428738 0.011368416 -0.09331739 -0.09925603
000110 95 d4 02 bd 92 da 28 bc 89 08 a3 3d 6e 04 db bd
       -0.031941015 -0.0103060175 0.07960612 -0.10694204
000120 e4 a2 59 bd eb 2a 32 bc e3 16 33 3c 71 f6 a4 bc
       -0.05313386 -0.01087449 0.01093075 -0.020137044
000130 72 3e fc bc 45 15 e9 3d 90 2a ab bd b5 61 a1 bd
       -0.030791495 0.1138101 -0.083577275 -0.07879964
000140 2e 4b 48 3d 84 f5 ef bd c4 03 dd bd 07 b7 8d 3c
       0.048899822 -0.1171675 -0.10791734 0.017299188
000150 e9 0b 06 be 3b 2f a2 3d 77 aa 25 bd 8c f8 18 be
       -0.13090481 0.07919165 -0.04044577 -0.14938563
000160 53 77 00 bd c9 3b 34 bd 24 7a 87 3d 18 a0 c0 3d
       -0.031363796 -0.044002328 0.06615093 0.094055355
000170 60 cb a2 bb 1f 3b 98 3d 20 fc de 3d 41 79 f2 bd
       -0.004968092 0.074331515 0.10887933 -0.118395336
000180 e3 e6 28 3e c8 18 f2 3c 14 b7 d5 3b 05 61 4a 3e
       0.16494326 0.029552832 0.0065220688 0.19763573
000190 70 ef 86 bd d8 1e cf bc 10 8e 84 3c bd ad 84 bd
       -0.06588638 -0.025283262 0.016181022 -0.064784504
0001a0 b3 34 c0 bc b6 c9 39 3d 18 f9 a2 bd 97 f2 d3 bd
       -0.023462629 0.045358382 -0.07957667 -0.10349005
0001b0 ef cb 54 3d db 86 31 bd c6 8f b0 3d 92 1a 57 3d
       0.0519523 -0.0433415 0.086211726 0.052515574
0001c0 1c e5 77 3d a5 5c 15 bd 6b d3 05 be fb 82 da 3c
       0.06052123 -0.036465306 -0.13068931 0.026673784
0001d0 e3 fe 9c 3d c3 89 c5 bd 60 9f 10 be 71 75 12 ba
       0.07665803 -0.096454166 -0.14123297 -0.0005586958
0001e0 76 52 17 be f8 41 d3 3d 95 e8 b6 3e 14 10 70 bd
       -0.1477755 0.10315317 0.3572432 -0.058609083
0001f0 f5 9f 31 3d ed 55 c1 bc 62 5f e6 3d 3c f4 20 bd
       0.043365438 -0.023600543 0.112486616 -0.03929542
000200 cf 6c 88 ba 32 90 d0 bc 32 1a ae 3c 06 2c dc bd
       -0.0010408404 -0.025459383 0.021252725 -0.10750584
000210 87 1a 23 bd d6 16 d5 bb 88 ea 1e 3d d8 f2 e4 3c
       -0.03982022 -0.0065029664 0.038797885 0.027947828
000220 34 9b 54 3d 72 90 4e bd 9e 0f b3 bc c9 8e 5d bd
       0.051905826 -0.050430723 -0.021858033 -0.05409125
000230 ba 4c 9c 3c db ab 85 bd 58 81 b1 3d db c3 6f 3d
       0.019079555 -0.065269195 0.086672485 0.05853639
000240 16 ea c2 bc 79 d7 db bd 84 f3 bd bd 80 09 0a be
       -0.023793261 -0.107344575 -0.092749625 -0.13480186
000250 8e 0b 47 3c 98 c3 5b bd 8d 52 54 3d 34 01 b8 3d
       0.012148751 -0.05365333 0.05183654 0.089846045
000260 74 d6 13 bd d3 b5 c2 bc d8 5f 3c 3b cf 8b 67 bd
       -0.03609319 -0.023768341 0.002874365 -0.056529816
000270 02 07 82 3d e7 94 dd bd fe b3 a4 bb a5 f9 67 3d
       0.06348993 -0.108194165 -0.0050263396 0.056634564
000280 06 e1 3f 3d 7f 7b fe bc ca 20 06 bb 9c b3 99 bd
       0.04684546 -0.031064747 -0.002046632 -0.07504961
000290 58 98 82 3d a0 e1 21 bc ee d8 e4 3c bb b0 b4 3c
       0.063767135 -0.009880453 0.027935471 0.022056928
0002a0 ef c4 2a bd a9 d2 ea bc 22 5d 37 bd 4d b8 a9 3d
       -0.041691717 -0.028664904 -0.044766553 0.08287106
0002b0 49 6e 07 be 4b d4 62 3d a4 5f 2d be 45 7c 0d bd
       -0.13225664 0.05537824 -0.16931015 -0.03454234
0002c0 78 75 bb 3d a2 c8 fd bd d8 1d d6 3c 9b 15 34 3c
       0.09153265 -0.12391783 0.026137277 0.010991479
0002d0 aa 5f f0 bb cc da 42 3d fe e0 cd 3d 80 5a 97 bd
       -0.007335623 0.047571942 0.100526795 -0.073903084
0002e0 26 9e 74 3c 48 48 bd bc 1d 10 3f 3d b0 28 9c bd
       0.014930284 -0.023105755 0.046646226 -0.07624948
0002f0 25 0c 70 3a db e2 a7 3c 21 3c b0 bd 00 2c 96 3b
       0.0009157083 0.020493915 -0.08605219 0.004582882
000300 cc ec a3 3d ce 2c 22 be e0 30 9a 3d 66 28 08 be
       0.0800415 -0.15837404 0.075288534 -0.13296661
000310 cf b4 c8 3b 80 f1 e9 3c f5 59 99 be c4 72 55 bd
       0.0061250697 0.028557539 -0.29951444 -0.052111402
000320 00 e5 50 bc 9f a3 97 bd cb 66 0f be 6e b6 85 3e
       -0.01274991 -0.07404255 -0.14004056 0.26115745
000330 0c c7 a8 bd 34 03 54 bd 60 4d ed 3b 39 bf 09 be
       -0.0824109 -0.051760867 0.00724189 -0.13451852
000340 a8 02 08 3d ab 7c c3 3c d0 dd ae bd 59 57 cd 3c
       0.03320566 0.023863157 -0.08538401 0.025066065
000350 5f 05 0a 3d d7 11 48 bc 3e de 81 3d 7a 2b 8b 3d
       0.03369653 -0.012211285 0.063412175 0.06795402
000360 a2 b6 17 be 1a 14 23 bb 4a f1 39 bd e6 ad 68 3b
       -0.14815763 -0.0024883808 -0.045396127 0.0035504042
000370 9e 55 e7 3d e1 44 14 3e 4d 3b ad 3b 42 65 03 3e
       0.11295627 0.144794 0.00528661 0.12831596
000380 19 f9 83 3d a2 41 6b 3d c3 1c 18 bb af e8 86 be
       0.06443996 0.05743564 -0.0023210503 -0.26349398
000390 8d 32 0c be 28 72 ef 3c 8e b2 0d 3c 49 ae 12 3e
       -0.13691159 0.029229239 0.008648528 0.14324297
0003a0 67 4e e8 bc 11 db c9 bd d8 c7 4a 3d 3c 78 9d bc
       -0.028357698 -0.09856237 0.049506992 -0.019222371
0003b0 cc b0 ca 3d 1e 30 5e be ba 1c 96 3d ff b9 1d 3d
       0.098970026 -0.21698043 0.07329698 0.038507458
0003c0 20 20 5b 3c 61 94 75 3d 8f 9b b3 3b 0c cd 50 bd
       0.013374358 0.05995596 0.0054811905 -0.050976798
0003d0 88 01 8c bd 50 92 51 bd c9 8c 90 bd 75 e5 b7 3d
       -0.068362296 -0.051164925 -0.07058103 0.08979312
0003e0 8b 26 33 3e f6 d3 bf 3d 81 6e 41 be 68 e6 a0 3c
       0.17495172 0.093666 -0.1888981 0.019641116
0003f0 b9 ac ab 3d a6 3f 16 bd c7 36 3c 3b d6 1d fa 3d
       0.083825536 -0.036681794 0.0028719173 0.12212722

layers.1.bias f4 [64]
000000 f3 3f a7 3d 97 44 5f bd e0 49 e7 3c e4 49 e4 3d
       0.08166494 -0.05450877 0.028233469 0.11146906
000010 16 7d e0 bd 19 6a 4f bb ff 9e 99 bd 53 51 e5 bd
       -0.10961358 -0.0031648932 -0.07501029 -0.11197152
000020 59 7a 85 bd f6 8c 98 3d d9 aa 07 bd 2e 51 b8 bd
       -0.065174766 0.07448761 -0.033121917 -0.08999859
000030 cb 64 87 bd d4 6d 88 3a e0 05 be bc e6 25 b3 3d
       -0.066110216 0.0010408708 -0.02319616 0.08747463
000040 75 8e 1d 3c 82 32 4b bd ca 30 58 bc f9 c9 a8 bd
       0.009616484 -0.049608715 -0.013195226 -0.08241648
000050 38 fd a0 bd 4d 6b e6 3d aa 0a 09 3e 99 aa c9 bd
       -0.07860798 0.11250935 0.13382974 -0.09846992
000060 45 8d 0e be 43 f7 83 bd db 9f ea 3b 5d 65 f8 bd
       -0.13921078 -0.06443646 0.0071601695 -0.121287085
000070 bb 33 95 bd 0d 5a e3 bd 15 f3 40 3c 95 93 86 bd
       -0.072852574 -0.1110116 0.011776705 -0.06571118
000080 23 c7 00 bd 2f f5 90 3d 5a e6 a7 3d 1b 44 70 bc
       -0.03143991 0.07078015 0.08198233 -0.014664675
000090 a1 81 b2 3d 66 ad 53 3c cc 3a 5d bd 15 31 07 bd
       0.08716131 0.012919759 -0.05401115 -0.033005793
0000a0 a9 71 b3 3d 5f ac 49 3d 38 be 0f 3d 68 b5 89 3b
       0.08761913 0.04923665 0.035093516 0.0042025335
0000b0 31 b5 b9 3d ea 03 3f 3d 12 93 82 bd 6f 2d 49 bd
       0.09067763 0.046634592 -0.06375708 -0.049115594
0000c0 99 7b ad bd a6 c9 0a be 9b 6e b6 bd 11 3f 95 3d
       -0.0847084 -0.13553485 -0.08907815 0.072874196
0000d0 85 5a 08 3c c8 49 7b bd 04 8a 5f 3d a3 80 d9 bd
       0.008322363 -0.06134966 0.05457498 -0.10620239
0000e0 77 99 17 3d f5 1a 6e bd 40 e6 f7 bd ff 2f 07 be
       0.03701159 -0.058131177 -0.121044636 -0.13201903
0000f0 15 e0 00 bd 0f d5 b5 bc 5f e8 99 bc f0 5e b9 bd
       -0.0314637 -0.02219632 -0.018787561 -0.09051311

layers.2.weight f4 [9, 64]
000000 eb 4f 0d bd d8 ee 2e be a2 de ad 3d cc cc 6e 3d
       -0.034500044 -0.17083299 0.084897295 0.05830078
000010 29 ff 03 3c 71 d1 b4 bd c5 7a a9 bc ed 39 6b bc
       0.00805644 -0.0882901 -0.020688424 -0.014357072
000020 10 7c 4d 3b 48 93 cc 3c 82 fb d9 3d d6 01 35 be
       0.0031354465 0.024972573 0.106436744 -0.17676482
000030 75 22 f9 bc ea ab 01 3d 30 50 06 3d ad 96 32 bb
       -0.030411938 0.03165809 0.032791317 -0.0027250454
000040 e9 77 bd bc 33 6c 8b 3b fe 4e 5a 3d 43 0f bc bd
       -0.023128467 0.0042548417 0.05329799 -0.091825984
000050 a4 fe 9b 3d cb b5 81 3d e8 98 bb 3d 77 de d9 bd
       0.07616928 0.063335024 0.09160024 -0.10638135
000060 9e 50 84 bd a4 06 5d 3c 56 92 8e bd 25 80 76 be
       -0.06460689 0.013490353 -0.06961505 -0.24072321
000070 2f 98 8d be d6 0e 55 3d af 4f 24 bd 4e 7f 51 be
       -0.2765517 0.0520161 -0.040115055 -0.20458719
000080 26 a3 13 3d 8d cf 81 3d e1 ee e9 bd e4 37 f3 bd
       0.036044262 0.06338415 -0.11422516 -0.11875895
000090 0e 23 af bd 76 40 54 3d 0c 51 85 3d b9 4b 44 be
       -0.08551608 0.051819287 0.06509599 -0.19169511
0000a0 71 68 e1 3d f1 c0 67 3d fa 92 5b 3d 53 e9 bb 3d
       0.11006249 0.056580488 0.053606965 0.091753624
0000b0 4d f1 0b 3d dd 1c ac bd 4c 7a 79 be ee 12 03 bc
       0.03416567 -0.08403943 -0.24363059 -0.008000119
0000c0 13 78 ea 3d 8a aa c5 bd 2c 76 90 bd 6e 37 6b 3d
       0.114486836 -0.09651668 -0.070537895 0.05742591
0000d0 73 ca 55 3d ca b7 73 3d 05 bd 97 bd c1 c1 e5 3c
       0.052195024 0.059501447 -0.074090995 0.02804649
0000e0 3a c8 e3 3d 76 63 a8 3d bb de c8 bc 87 13 06 3b
       0.111221746 0.08222096 -0.024520269 0.0020458417
0000f0 99 72 da bd 60 9c db 3d 38 b6 6f bd 6b cf af 3b
       -0.10666389 0.107231855 -0.058523387 0.0053653023
000100 76 04 a8 3d 2b 82 75 3d c7 3d a2 3d b2 af 14 3c
       0.08203976 0.05993859 0.07921939 0.009075092
000110 3f 2c 26 bd 16 6a 9a 3c 7d 73 5e 3b d2 36 1e bb
       -0.04056954 0.018849414 0.0033943348 -0.0024141562
000120 50 96 bd bd f8 e5 b6 bd 00 00 f2 3b fb 2e af bd
       -0.092571855 -0.08930582 0.007385254 -0.08553883
000130 8a 8a ee 3d 16 a5 08 3d 88 ff 28 bd e8 14 70 bd
       0.11647518 0.033360563 -0.04125932 -0.058613688
000140 07 1f 44 3d 2b e0 fd bd 54 68 7c 3c e7 3c 93 bd
       0.047881152 -0.12396272 0.015405733 -0.071893506
000150 62 ac fd 3d ac ff 93 3d 14 73 b9 3d 42 79 fb bd
       0.12386395 0.072265 0.090551525 -0.122789875
000160 bf b0 dc bd fc 87 82 3d 47 3d 08 be f7 e5 85 be
       -0.10775899 0.06373593 -0.13304625 -0.26152012
000170 92 87 99 be 03 32 de bd 8d 7a e3 3d 54 a9 d9 bd
       -0.29986244 -0.10849383 0.11107359 -0.10628
000180 2e 05 38 3d 22 4f 41 bb c4 76 cc 3d 50 0c c5 3d
       0.044926815 -0.002949663 0.0998359 0.09621489
000190 ca 3d dd 3c fc e5 0f 3d 6f 41 e5 3d 89 cb 66 3d
       0.027007002 0.03513144 0.11194121 0.05634645
0001a0 0a 74 d0 3d 65 92 c8 bd 88 4f ed bc 83 20 cf 3d
       0.10178383 -0.097935475 -0.028968588 0.10113623
0001b0 c2 60 a5 bc e5 d9 92 3d f1 1a 8b be d6 04 41 bd
       -0.02018774 0.07170466 -0.27168992 -0.047123753
0001c0 44 02 a7 bc 2a 07 d1 bd e2 f8 ab bd 79 1a 45 bd
       -0.020386823 -0.102064446 -0.0839708 -0.04812095
0001d0 47 51 7e 3d 41 0b ae 3d 7e 19 a2 bc fa af 7d 3b
       0.06208923 0.0849824 -0.019787546 0.0038709627
0001e0 75 4d e5 3d 4a 12 08 3d fa c4 37 be 98 76 9f bd
       0.111964144 0.033220567 -0.17946234 -0.07786292
0001f0 3b e5 a1 3d eb c5 b7 3d f2 56 8e 3d 3c 80 27 3c
       0.0790505 0.08973297 0.06950177 0.010223445
000200 58 4b 71 bb 0e 5a 51 3d 42 fb 42 3d c4 92 0a 3e
       -0.003681859 0.051111273 0.0476029 0.13532549
000210 13 41 94 3d da 34 79 3d 5b 0f 7e 3d 8a f2 9e 3d
       0.072389744 0.06084142 0.062026363 0.077611044
000220 7e 8c 34 be 84 a5 11 3d 20 3c 30 3c 79 95 9c 3d
       -0.17631719 0.03555824 0.010756522 0.07645697
000230 e0 6c e0 3c 27 00 da bb d8 1a 81 bc dd 3e fe bd
       0.027395666 -0.00665285 -0.01575987 -0.12414334
000240 22 59 84 3d 06 96 81 be 44 ba c9 3d be ee 74 3c
       0.06462313 -0.2530977 0.098499805 0.014949499
000250 10 46 af 3c 1d d9 d3 3d 4c 3c 8e 3d be 4d 57 bd
       0.021395713 0.103441454 0.069450945 -0.052564375
000260 55 9e d8 bb 08 2a c6 bc 6b 9d 8d bd ee 7c db bd
       -0.0066106715 -0.024189964 -0.06914791 -0.10717188
000270 fb 04 82 be fd d7 9e bd d8 75 e5 3c 21 06 8b be
       -0.25394425 -0.0775604 0.028010294 -0.27153113
000280 9f 5a 67 3c 78 2b cb bc 78 f3 d9 bd 08 7d c0 3c
       0.014120727 -0.024801001 -0.10642141 0.02349712
000290 91 96 80 3d 3e 1f c1 3c 3a b7 39 3d ce 31 0f 3e
       0.06278718 0.023574468 0.045340754 0.13983843
0002a0 63 9c 39 bc 33 2f a2 3c f0 d6 ae bc bd 24 bc ba
       -0.011328789 0.019797897 -0.021342725 -0.001435421
0002b0 c0 10 24 bb da 79 88 bd 36 fe 11 bd 72 a7 ac bd
       -0.0025034398 -0.06663866 -0.035642825 -0.08430375
0002c0 2e ef da bd ce c7 e7 bd d6 00 e7 3d 90 f5 b7 3d
       -0.10690151 -0.113174066 0.11279456 0.08982384
0002d0 b8 e3 c4 bc 58 68 d7 bd 5f e1 99 3d 3d d7 86 3d
       -0.024034366 -0.10517949 0.07513689 0.06584022
0002e0 47 79 83 3d b8 ae db 3b 92 d5 23 be 10 aa 8e 3d
       0.06419616 0.0067041777 -0.1599944 0.069660306
0002f0 0b ec f7 bd 04 44 ce 3d 51 49 0a be 34 e9 77 b9
       -0.121055685 0.10071567 -0.1350453 -0.0002364263
000300 1a a6 75 bb 36 e7 d4 bd 7a b5 4c 3c 18 8d 0e 3c
       -0.0037483037 -0.103956625 0.012494439 0.008700632
000310 47 5e 53 bd 57 f2 04 bd f0 9a 04 3b 0a 68 15 3d
       -0.05160358 -0.032457676 0.0020233952 0.036476173
000320 f9 f6 13 be 72 47 e2 bd 80 2c 81 3d 23 c0 41 be
       -0.14449681 -0.11048783 0.06307316 -0.1892095
000330 40 94 45 3c 67 2b 71 3c 2c c2 19 bd a5 a3 ac 3d
       0.012059271 0.014719821 -0.037538692 0.0842965
000340 9b d4 dd 3c 24 50 85 3c 53 80 8a 3d 0c 89 a3 be
       0.027078917 0.016273566 0.06762757 -0.31940496
000350 c8 df c1 bc 6c d0 69 3c 39 2b f1 3d 5d 3a 96 3c
       -0.023666278 0.014270883 0.11775822 0.018338377
000360 c7 23 b7 3d 85 d9 ad 3d f8 ef 6c bc 2b 38 63 bd
       0.08942371 0.08488754 -0.01446151 -0.055473488
000370 69 9b 01 bf f3 46 76 3d ac 30 80 bd c5 f8 7d be
       -0.5062776 0.060126256 -0.062592834 -0.2480193
000380 ac f9 d6 bd df d6 fe bc 03 f5 1c 3d c0 9f 2d bb
       -0.1049684 -0.031108318 0.0383196 -0.0026492923
000390 fe 63 66 3d ad 6a dc 3d 82 ef e2 3d 65 9d d1 bd
       0.056247704 0.10762534 0.11080839 -0.10235099
0003a0 68 6e ca 3d 4c 47 be bd 00 0d 91 bc 3e 3e a0 3d
       0.098843396 -0.092909425 -0.017706394 0.07824372
0003b0 61 00 cb 3c ed 4c e0 bc 96 af 10 be 8a 39 71 bd
       0.024780454 -0.027380431 -0.1412948 -0.058892764
0003c0 b2 7c 95 bb a1 8c 46 be 58 a7 ec bd 84 05 49 ba
       -0.004561984 -0.19389583 -0.11555356 -0.00076683634
0003d0 8f fa ce bd eb 90 45 bc 03 97 1d 3e 8e 54 1a 3d
       -0.10106384 -0.012058477 0.15389638 0.037678294
0003e0 9c 6d 70 bb a9 54 84 bc 04 f8 c6 bd a6 a3 56 3c
       -0.0036686426 -0.01615365 -0.09715274 0.01310054
0003f0 3b 33 db bd 8b 44 e4 3d 7e 17 65 3d ea 04 a2 bd
       -0.10703131 0.11145886 0.055930607 -0.079110935

layers.2.bias f4 [9]
000000 d1 4a 23 bd 66 ee 5c 3d 40 fb 8f bc 3b af ee 3c
       -0.039866272 0.053938292 -0.01757586 0.02913629
000010 26 fb b9 3d d7 31 8f bd bd a4 c5 3c 25 53 a2 bc
       0.09081106 -0.06991928 0.024126405 -0.019815037
000020 87 2a ac 3c
       0.021016372
