experiments/learn_racetrack/racetrack2/2022_01_20_205543535008_4_fbdf8/2022_01_20_205543535008_4_fbdf8_19999.pth (torch, 24919 bytes, 6 tensors)

layers.0.weight f4 [64, 15]
00000000: 0662 e53c ba33 e83e 168e 57be 6680 96bd
00000010: 540f 90bd cacc 95be 3a68 10be cb3c 37be
00000020: a2da 55be ffff e83c a1da 03be 326a 6c3e
00000030: 2f85 cc3c 59af 013e 73d4 643e 2883 8abe
00000040: 2f76 b1bf 423c 5f3d 8fdc 6bbe 89bd 4f3e
00000050: 6953 cbbe 2f77 9dbe 7968 fdbe b192 cdbd
00000060: 6ea6 ea3d cb71 c23d 7a2d 14bd ed5d 853d
00000070: 9b33 6bbe 4177 5e3e 9967 313f 2b44 1b3f
00000080: 9834 f33d 183d 4d3e f534 4fbc 542b a6bd
00000090: cba3 1d3e 5aff 78bd 5e03 cebd 20ab 9fbe
000000a0: 4aa2 14be 0ae9 fe3b 943a aabc f316 79be
000000b0: 8bb1 b23d 914c 63bf baf6 0c3e 07a5 b7bd
000000c0: 0ecf f93d 4496 c73c 8bf7 743e 09cc 943e
000000d0: f35b 31be 9911 a53d 3807 373e a2ef 5bbd
000000e0: 894d ce3d bcc5 71be 9485 13bf 8756 673d
000000f0: 1f55 3b3f c943 81bd 58cc b9bb 6406 e93d
00000100: 622b 88be ae8d 87bd 71a9 8b3e 3aab 38be
00000110: 69d7 203e 44fc 1c3e c81a 1ebd b2fd 0c3d
00000120: 9c85 03be 2e9c ae3d 28f7 cd3d cd30 ebbe
00000130: 209f 12bf c7f1 79bc 8b4c cdbd ff2b c1bc
00000140: a73b 79be 0254 413e 2690 4ebe 2681 4d3e
00000150: 6708 f7bb c230 28be 78c7 e73d 616b 1e3e
00000160: 3871 d83d c86d 5f3e 781c 6e3f 092e 2d3f
00000170: 8c70 783d c04f 5cbe 80f9 fbbd 9fc7 bb3d
00000180: cf86 21bd f701 e93d f918 61bd 5d39 81bd
00000190: e2a5 7e3c d90b b4bc 3f38 833d 8351 81be
000001a0: c0d4 abbd 1816 3bbe e615 b9bd 26f2 10be
000001b0: 5643 273e 1cc4 843d bcfb a83d dc89 0c3e
000001c0: bcd4 db3d 258c aa3d e8e8 12be 1075 5a3e
000001d0: 6b59 b6bd 216c bc3d 239e 7fbe eafd 673e
000001e0: 7047 4e3d 08f0 2e3d fc17 84bd a966 7cbe
000001f0: 40f3 863c e4ef 42be 4c18 943d 1414 d5bd
00000200: 5e25 babd 20ab 723d 54ef 933d 9b19 71be
00000210: 8c43 4dbd d0fc 23bd 0259 98bd 6b91 aa3e
00000220: eb9a 223e 0be3 5bbe d685 173e d64d a2bd
00000230: 0bcb b0bd 676c ab3d c336 85bd 5f93 263d
00000240: bc9e 75be 8d03 0b3e f2d1 3abd 6ffb e4bc
00000250: 24cc 103d d4ec 07be 8a7e 16bf de0d 503d
00000260: c4f2 3cbd 10ce 2e3c 7f2d fdbd 44b2 7ebc
00000270: 9d7f 42be 17a0 acbd d0d7 dabd 0812 9dbe
00000280: c753 0fbf 22cb dabe 59aa df3d 60fd be3d
00000290: 8a34 923e 25e0 42bf 2c57 78be 8854 113d
000002a0: 0383 213d 252c 083e e14a 893e ab57 683e
000002b0: 40d8 64be b406 693e fd09 aa3e 59e4 0bbe
000002c0: 062d 88bb b1d5 73be f689 62bf 2bd5 c3bd
000002d0: e9e5 333f c6d7 19bf bd30 163e 0721 f8bd
000002e0: c931 3cbd 3540 8c3d 88a5 613c d89a 1e3e
000002f0: f497 30be ad15 f4be 34a9 19bd 7f36 013d
00000300: 1f6c acbe a6b4 5d3d f91c 313e 27e9 a03e
00000310: 1df2 7cbf d5fd eb3d 36dd 2bbe 7964 453c
00000320: ad8f 8abe 23f8 d2bd 2ff5 0ebe f901 33be
00000330: 23c5 0fbc 0c49 88bd f014 773b 90f1 fc3d
00000340: f2c8 57bd 0f26 cebd 7819 243e 9e4c 7dbe
00000350: c222 2cbe 0cb5 863d 18b7 6fbd c68a 033e
00000360: a84a 24be e4fb ffbd 00e2 c2bb a25d 28be
00000370: a464 2cbd 4ceb cf3d a150 6abe 8258 b8bd
00000380: 723d 113e 1a1d 5f3c 7386 2e3f 8785 e5bd
00000390: ddfb ec3d 06d8 01bc a355 393e 56bd 0ebd
000003a0: f446 a9be 264c b5be 89ec b3be 738d 8fbe
000003b0: 65d5 5fbe f77e 233d 6826 0ebe 18e4 3cbe
000003c0: 6a8e e13e 306c d43e fea7 0e3e 81ca 26bd
000003d0: 5d5a c73d 83f7 c0bd ade3 adbd c6f7 213b
000003e0: f2b7 7cbe f19e 88be d3cb d0be e551 b0be
000003f0: 3c21 3bbe 9757 48be dbe1 88bb 1e95 f83d
0.028000843 0.45351964 -0.21050295 -0.07348709 -0.070341736 -0.29257804 -0.1410226 -0.17894284
-0.20884183 0.028442381 -0.12876369 0.23087385 0.02496585 0.12664546 0.22346668 -0.2705319
-1.3864192 0.054500826 -0.23033355 0.20287146 -0.39712074 -0.30754992 -0.4949377 -0.10037745
0.11457525 0.094943605 -0.036176182 0.065120555 -0.22968905 0.2172518 0.692987 0.6065089
0.11875266 0.20042837 -0.012646903 -0.08113733 0.15394513 -0.060790397 -0.10059236 -0.31185246
-0.14515033 0.0077792453 -0.020779885 -0.2432516 0.0872527 -0.88788706 0.13765994 -0.08967023
0.12197696 0.024363644 0.23922555 0.29061916 -0.17320232 0.08059997 0.17873847 -0.05369533
0.100733824 -0.23610586 -0.576257 0.056479003 0.7317676 -0.06311757 -0.0056701116 0.11378172
-0.26595598 -0.0661882 0.2727771 -0.18034068 0.15707172 0.15330607 -0.03859976 0.03442163
-0.12843937 0.08525883 0.10056907 -0.4593567 -0.57274055 -0.015255398 -0.10024365 -0.02358055
-0.24339162 0.18879703 -0.20172176 0.20068797 -0.0075388434 -0.1642485 0.113173425 0.1547065
0.1056847 0.21819222 0.9301219 0.6764837 0.060654208 -0.21514797 -0.12303448 0.09168934
-0.039435204 0.11377328 -0.054955456 -0.06309769 0.015542479 -0.021978306 0.064072125 -0.252575
-0.08390188 -0.18270147 -0.0903738 -0.14154872 0.1633428 0.064827174 0.082511395 0.13724464
0.10733935 0.08327512 -0.14346659 0.21333718 -0.08903774 0.092003115 -0.24962668 0.22655454
0.050361097 0.04270938 -0.06449887 -0.24648537 0.016473413 -0.19036824 0.07231197 -0.1040422
-0.090891585 0.05924523 0.072233826 -0.23544924 -0.050113246 -0.040036023 -0.07438852 0.3331407
0.15879409 -0.21473329 0.14797148 -0.07925002 -0.086324774 0.083702855 -0.065045856 0.040667888
-0.23986334 0.13575573 -0.045610376 -0.027951924 0.035350934 -0.13273937 -0.58786833 0.050794475
-0.046129957 0.010669246 -0.12362193 -0.0155454315 -0.18993993 -0.08428972 -0.10685694 -0.3067782
-0.5598721 -0.42733103 0.10921163 0.09325671 0.2855571 -0.7612327 -0.24252003 0.035481006
0.039431583 0.1329809 0.2681494 0.22689693 -0.22348118 0.22756463 0.33210745 -0.13661326
-0.004155758 -0.23811986 -0.8849176 -0.09562143 0.7027269 -0.6009487 0.1466703 -0.121156745
-0.045945916 0.06848184 0.013772376 0.15488756 -0.17245466 -0.47672787 -0.03751488 0.031546112
-0.3367624 0.054127358 0.17296208 0.3142788 -0.98806936 0.11523024 -0.16783604 0.01204788
-0.2706274 -0.103012346 -0.13960718 -0.17481221 -0.008775028 -0.066545576 0.0037701689 0.12350762
-0.05268187 -0.10065853 0.1602534 -0.24736258 -0.16810134 0.06577501 -0.05852422 0.12845907
-0.16044104 -0.12499216 -0.0059473515 -0.16441968 -0.042088166 0.10152301 -0.2288232 -0.090012565
0.14183596 0.013617778 0.68173903 -0.11207109 0.115714766 -0.007925039 0.18099074 -0.034848534
-0.33061945 -0.3540966 -0.351414 -0.28037605 -0.21858747 0.039916005 -0.13881838 -0.18446386
0.44053966 0.4148879 0.13931271 -0.040720467 0.09734032 -0.09422209 -0.08490691 0.0024714335
-0.24679545 -0.26683763 -0.40780506 -0.3443748 -0.18274397 -0.19564663 -0.0041773147 0.12137817

layers.0.bias f4 [64]
00000000: bae3 5cbe f63d bdbd a90e 9dbe cd2e 5e3e
00000010: 21d8 8c3c 95d6 473e 3ead 4dbe 20d7 66be
00000020: e697 0bbe cae9 4c3e 71a4 283d 45ad 9abd
00000030: c985 ec3d ab39 8fbe 6255 aabd 031c 50bd
00000040: 9228 a73d ebe1 16be 8023 32be 887b 8cbe
00000050: e706 20be 660a 393e 5fe0 50be cf67 58be
00000060: a205 2d3e de0a 04be ae02 a4be fed2 743d
00000070: 20f9 ba3c 2fe7 b1bd 8530 103e 92c5 983d
00000080: 6784 24be 84bd a13d 001e 9e3d acea ae39
00000090: f445 333d b404 55be 8f9a 0bbe 45fe 3bbd
000000a0: 3033 f43b aec6 0d3c 5776 963d d5dd 62be
000000b0: 38d5 c3bc 764c e93d 8b93 42be 9c29 74bd
000000c0: 30b0 b1bd 5a7c dbbd 0e0b 92be 009a 4fbe
000000d0: dbd3 68be 7fec a23d 929a 4fbc 275f 163e
000000e0: f619 e93d 7673 31be 98a5 4abd aa33 5dbe
000000f0: f2c1 b53d 3b1f 46bd 7526 47be c634 40be
-0.21571246 -0.09240334 -0.30675247 0.2169754 0.017192902 0.1951545 -0.20085618 -0.22543001
-0.13632163 0.20011058 0.04117245 -0.0755258 0.11548955 -0.27973685 -0.08317067 -0.050807964
0.08162035 -0.14734618 -0.17396355 -0.27437997 -0.15627633 0.18070373 -0.20398091 -0.2113335
0.1689668 -0.1289477 -0.32033294 0.05977153 0.02282387 -0.08686673 0.14081009 0.074595585
-0.16066132 0.07897475 0.07720566 0.0003336271 0.043767884 -0.20802575 -0.13633178 -0.045896787
0.007452391 0.008653326 0.0734679 -0.22154935 -0.023905382 0.11391537 -0.19001596 -0.059609994
-0.08676183 -0.107170776 -0.2852406 -0.2027359 -0.22737066 0.07955264 -0.01267113 0.14684735
0.11381905 -0.17329201 -0.04947433 -0.2160174 0.08874883 -0.048369627 -0.19448264 -0.18770131

layers.1.weight f4 [64, 64]
00000000: 4ce6 093d 6836 ebbe c255 343d 334c 01be
00000010: 1ef0 3bbd 0e47 683d 44d0 ab3c 3cbd 03be
00000020: b4a3 333d 8d1f b83d 7f2f f5bb b9e6 ccbb
00000030: 532c d0bd 3164 3d3d 3465 72bd b59e 16be
00000040: 258a 71be 76f4 713d 1250 fd3d efc2 04bd
00000050: d610 88bd 557d 6bbb 98da 553d 5c67 b63c
00000060: 5965 c03d ee0a aebd 5e73 91bd 112e d2bb
00000070: 6efe 92bd ae9a b63c 8e2f be3d fa91 b0bd
00000080: 0526 2fbe 14a8 d8bd a777 f23d 5c60 b2be
00000090: f751 a2bd d272 ef3d 30d0 c43d d6c8 beb9
000000a0: 9c9f 483d 55e0 6dbd 0f9f 003e 6d16 aabc
000000b0: 7203 e8bd de4c e5bd aa64 a53d 2845 5fbd
000000c0: 6acf a03d 02dc 89bd e7b2 adbc 90b9 21be
000000d0: a015 bbbc cb58 6e3d 3e49 9fbd 05b3 d53d
000000e0: f4cb 00be 2219 ad3d 3ba8 923d 6ca1 8cbd
000000f0: fa42 af3d cb34 973c 898b a3bb 0eb4 9c3d
00000100: 976f 04bc a359 943c 3a9b 41be e48d dabd
00000110: 3684 bc3d 0d02 71bd 98d4 9e3d 6e04 dbbd
00000120: e4a2 59bd eb2a 32bc ad51 80bb 241e a4bd
00000130: 7214 dbbc dfa9 cb3d 902a abbd b561 a1bd
00000140: 2e4b 483d cf04 12be c403 ddbd caee 373c
00000150: f9d3 90be bd9b 7f3c 2d76 03be f7f1 26be
00000160: b187 54bd 6227 36bd 0d45 313d 9676 b33d
00000170: 60cb a2bb 3589 9a3c 5de3 c03d c80c b6bd
00000180: e34c 303e c818 f23c 07f4 f5bd 450e 4a3e
00000190: 53da 6fbd d81e cfbc e466 b3bd 999b 48bd
000001a0: 2482 55bd 0d26 033d 0bb6 e4bd ec28 b2bd
000001b0: efcb 543d db86 31bd 44ae 743d 7650 9a3c
000001c0: 1ce5 773d 7e1e a9bd 6bd3 05be ebae d5bd
000001d0: 28b0 883d 3cab b9bd 35c3 29be a3b5 d0bd
000001e0: cf1e 34be f841 d33d fc52 ab3e 1410 70bd
000001f0: 9717 18bd b3e0 62bd 72d3 123e 3cf4 20bd
00000200: cf6c 88ba 0eda 11bd f3b3 873c 062c dcbd
00000210: 6a41 34bd d616 d5bb d9c5 1c3d d8f2 e43c
00000220: 349b 543d 7290 4ebd 9e0f b3bc 00ae 86bd
00000230: c2d8 5f3c e1a3 9bbd 5881 b13d dbc3 6f3d
00000240: 2daf a4bc 79d7 dbbd 84f3 bdbd 361e 0ebe
00000250: b442 763a 0fe9 8abd ab18 353d 3401 b83d
00000260: 74d6 13bd 32ed b2bc f935 71bb bb65 80bd
00000270: 0207 823d d0da f1bd 2ea4 e4bb f6f5 443d
00000280: 06e1 3f3d 7f7b febc ca20 06bb 9cb3 99bd
00000290: 5898 823d a0e1 21bc 3031 273c a809 7b3c
000002a0: 7f43 51bd a9d2 eabc 225d 37bd bc2b 9f3d
000002b0: 496e 07be ef4f 2d3d bb63 2fbe c60c 34bd
000002c0: 7875 bb3d be80 04be d81d d63c e3e5 2e3b
000002d0: aa5f f0bb 0f93 203d 264a bf3d 6a3c a6bd
000002e0: 6db7 e23b 4848 bdbc 1d10 3f3d b028 9cbd
000002f0: 57e4 14bc dbe2 a73c 213c b0bd 002c 963b
00000300: 36ca 3e3d 773d 16be 0b3c b43d 395b c0bd
00000310: 196f 61bb f89b db3c 002b 53be c472 55bd
00000320: 00e5 50bc a895 97bd a1fe 6dbe 5be2 533e
00000330: 2c74 72bd 723e 14bd 604d ed3b a39f e1bd
00000340: 5ad4 e13c 3be1 b73b d0dd aebd 4800 483d
00000350: c05c 013d 031f 0f3d 36ba 4c3c 29e9 ce3c
00000360: 33dc 22be 1db8 5abd 5d4f 02be 7b51 a0bc
00000370: 9e55 e73d c2b0 313e 1601 d4bb 2275 f93d
00000380: 24e1 993d a241 6b3d ca1a 383d 8b44 49be
00000390: 8046 5fbd 2872 ef3c 968b bebc c3a8 0d3e
000003a0: 169d 9abd df27 23be 0d75 bd3c 8b44 8ebd
000003b0: 256b aa3d 77d8 07be 5ebb 5b3d 8228 1b3c
000003c0: 2020 5b3c ade7 a03d 2599 7b3a 3aea 33bd
000003d0: 7d02 a2bd 679b eebb 7085 88bd 6908 633d
000003e0: b1ac 8a3d f6d3 bf3d da20 23be 68e6 a03c
000003f0: 790d 723d 5b1c 903d fabf 0b3d d61d fa3d
0.033666894 -0.45939946 0.044027098 -0.12626724 -0.04588329 0.056708388 0.020973332 -0.12865156
0.04385729 0.08990393 -0.0074824686 -0.00625309 -0.10164704 0.046238128 -0.059178546 -0.1470898
-0.23587854 0.059071027 0.12368788 -0.032412466 -0.06643836 -0.0035932858 0.05221042 0.022266082
0.093943305 -0.084981784 -0.07102083 -0.006414183 -0.07177435 0.022290554 0.09286414 -0.08621593
-0.17104347 -0.10578933 0.11839228 -0.3483914 -0.0792579 0.11691822 0.09610021 -0.00036389258
0.04898034 -0.058075268 0.12560676 -0.020762647 -0.11328782 -0.11196302 0.08075841 -0.054509312
0.07852061 -0.06731416 -0.021203471 -0.15793443 -0.02283746 0.05819015 -0.07777642 0.10434536
-0.12577802 0.08452059 0.07160994 -0.06866726 0.08557697 0.01845779 -0.004990999 0.0765153
-0.008083246 0.018109148 -0.1890687 -0.10671595 0.09204905 -0.058839846 0.07755393 -0.10694204
-0.05313386 -0.01087449 -0.0039159865 -0.08013561 -0.026743148 0.0994451 -0.083577275 -0.07879964
0.048899822 -0.14259647 -0.10791734 0.011226365 -0.28286722 0.015601096 -0.12838049 -0.1630324
-0.051887218 -0.044471152 0.043278743 0.08762853 -0.004968092 0.018864254 0.09418366 -0.088891566
0.1721683 0.029552832 -0.12009435 0.19732006 -0.05855782 -0.025283262 -0.08759859 -0.048976514
-0.052126065 0.03201871 -0.111675344 -0.086992115 0.0519523 -0.0433415 0.059736505 0.018837195
0.06052123 -0.08257769 -0.13068931 -0.104337536 0.06674224 -0.090658635 -0.16578372 -0.101908945
-0.17589878 0.10315317 0.3346175 -0.058609083 -0.037131872 -0.05539007 0.14338472 -0.03929542
-0.0010408404 -0.035608344 0.016565299 -0.10750584 -0.044007696 -0.0065029664 0.03827462 0.027947828
0.051905826 -0.050430723 -0.021858033 -0.065761566 0.013662519 -0.07599617 0.086672485 0.05853639
-0.020103062 -0.107344575 -0.092749625 -0.13878712 0.0009394095 -0.06782734 0.04421298 0.089846045
-0.03609319 -0.02184162 -0.0036805852 -0.062694035 0.06348993 -0.11809313 -0.0069775796 0.04808613
0.04684546 -0.031064747 -0.002046632 -0.07504961 0.063767135 -0.009880453 0.010204598 0.015322126
-0.05108976 -0.028664904 -0.044766553 0.077720135 -0.13225664 0.04231256 -0.17127888 -0.043957494
0.09153265 -0.12939736 0.026137277 0.0026687316 -0.007335623 0.039202746 0.093403146 -0.08116992
0.0069188387 -0.023105755 0.046646226 -0.07624948 -0.009087644 0.020493915 -0.08605219 0.004582882
0.046579562 -0.14671884 0.08800515 -0.09392399 -0.0034398495 0.02680777 -0.20621872 -0.052111402
-0.01274991 -0.074015915 -0.23241664 0.20691817 -0.05919282 -0.036192365 0.00724189 -0.110167764
0.027567077 0.0056115664 -0.08538401 0.048828393 0.031582594 0.034941684 0.012495568 0.025257664
-0.15904312 -0.05339824 -0.12725587 -0.019570103 0.11295627 0.17352584 -0.006469856 0.121805444
0.07513645 0.05743564 0.044947423 -0.19655053 -0.054510593 0.029229239 -0.02325992 0.13833909
-0.07549493 -0.15933178 0.023127103 -0.06946667 0.083212174 -0.13266169 0.053645484 0.009470107
0.013374358 0.07856689 0.00095977105 -0.043924548 -0.07910631 -0.007281709 -0.06666076 0.055427942
0.067712195 0.093666 -0.159305 0.019641116 0.05909488 0.070366584 0.03411863 0.12212722

layers.1.bias f4 [64]
00000000: 276e 9e3d 998e e0bd fc7a 9d3c a5a7 4b3e
00000010: 167d e0bd 99f3 96bc 7ec9 d0bb 5599 4abe
00000020: 334f cebd 7251 523d d9aa 07bd fff7 09be
00000030: cb64 87bd 3973 7c3d e005 bebc 7e8c 1e3d
00000040: 49f8 803d 0fd9 5bbd ec6f 6cbc 252f b9bd
00000050: 5dea b1bd 45f8 a83d ca26 6e3e d3df e8bd
00000060: 63c3 1ebe e718 17bd 85cc 36bd 7c50 17be
00000070: afc8 18be 0d5a e3bd 8cd0 5dbc 9bfa d9bd
00000080: 72b3 e3bc c3ac 0e3d dd9a a63d 1b44 70bc
00000090: 0ba0 223d 3731 423d 2927 87bd 15a1 24bd
000000a0: dfc4 2b3e dbf1 0c3d 38be 0f3d 59ab 953c
000000b0: 31b5 b93d ecb7 47bc 7ea1 03be a748 82bd
000000c0: ab16 9dbd 1f38 1bbe b6f1 d6bd a797 463d
000000d0: 6442 8d3b 6340 acbd 4d02 0e3d 1ebf 5ebd
000000e0: f70b ff3c 3389 6b3c 1a2c fdbd ff2f 07be
000000f0: 15e0 00bd 4d19 133d 6d21 2dbd df61 e9bd
0.07735854 -0.10964698 0.019223683 0.1988817 -0.10961358 -0.018426703 -0.006371676 -0.19785054
-0.100737 0.051347204 -0.033121917 -0.13473509 -0.066110216 0.061633322 -0.02319616 0.038708203
0.06297357 -0.0536738 -0.014430981 -0.09042195 -0.086872794 0.08250479 0.23256984 -0.11370816
-0.15504222 -0.036888983 -0.04462864 -0.14776796 -0.14920305 -0.1110116 -0.013538491 -0.10643502
-0.027795527 0.034832727 0.081350066 -0.014664675 0.03970341 0.047410216 -0.06599266 -0.040192682
0.16774319 0.03441034 0.035093516 0.018270181 0.09067763 -0.0121898465 -0.12854573 -0.063615136
-0.07670339 -0.15158127 -0.104953215 0.04848447 0.004310893 -0.08410718 0.034670163 -0.054381482
0.031133635 0.014375973 -0.12361927 -0.13201903 -0.0314637 0.0359128 -0.042268205 -0.113956206

layers.2.weight f4 [9, 64]
00000000: db59 ffbb e933 27be 60c4 ac3d c2a8 843d
00000010: 29ff 033c 71d1 b4bd 2757 3f3c 3c7f 803d
00000020: 9ff1 043e 302e af3c 82fb d93d 5005 e6bd
00000030: 7522 f9bc b726 f23c 3050 063d f8c2 eb3c
00000040: 2815 033d 4d07 b9bb 298e 043d 699a e0be
00000050: a4fe 9b3d 9305 7a3d 7dae f03d ef40 a1be
00000060: 9e50 84bd e5e7 aa3c f706 b8bd 11db 00bf
00000070: 510d dfbe d60e 553d 5670 1cbd c5c3 46be
00000080: 5733 6c3b 782c 7e3d e1ee e9bd e437 f3bd
00000090: 0e23 afbd 3f17 603d a097 493d cc3e 9ebe
000000a0: f60d ce3d f1c0 673d fa92 5b3d ea65 673d
000000b0: 4df1 0b3d 84c1 73be 5fed 8ebe fcc3 b8bc
000000c0: 1b47 f13d 44d4 7abe 2c76 90bd 135b 683d
000000d0: 73ca 553d cab7 733d 05bd 97bd 2ce5 a03c
000000e0: 9612 023e 2c8e a93d ef14 8dbd 8713 063b
000000f0: 9972 dabd 0f4f c03d 6459 aabd febb c3bc
00000100: 5733 a53d 43e0 6b3d 5a02 a23d 8386 4b3d
00000110: 3f2c 26bd 166a 9a3c b50c 863c 33d9 ee3c
00000120: 166e c9be 94fd c1bd 0000 f23b 85a3 82be
00000130: 8a8a ee3d efa9 263c 88ff 28bd a5cc 0abe
00000140: f224 903c b149 b5bc 2a1f 2c3c e17f 33bd
00000150: 62ac fd3d f433 e03d 9265 d03d 8929 bfbe
00000160: ca4b bcbd 5f62 27bc 4e41 f0bd 464b 67be
00000170: d646 e6be 0332 debd c472 ab3d 9d5c 8ebe
00000180: 8111 8c3c 17f5 bdbc 824b cc3d 500c c53d
00000190: ca3d dd3c b28e 393d 63b6 e53d 2315 b9be
000001a0: 9f19 d63d 6592 c8bd 884f edbc 43d2 933d
000001b0: c260 a5bc 089a 0fbe 832f e9be 4cc3 02bd
000001c0: 4402 a7bc 431c 16be e2f8 abbd 3b88 4d3d
000001d0: ad05 803d 410b ae3d 4d9e 90bb a210 973c
000001e0: 754d e53d 411b bd3d 00f5 69be 9876 9fbd
000001f0: 3be5 a13d 4899 b03d ca9f 4f3d 8c59 5c3d
00000200: 0a26 743d 9838 fe3d 88e1 3b3d 920b df3d
00000210: 1341 943d da34 793d 5090 5a3d bfc3 d43c
00000220: 6510 89be 0d8b 493d 203c 303c 3d93 3c3e
00000230: e06c e03c 6f81 513c d81a 81bc a6ce 0bbe
00000240: 74a7 c13d a515 02bf 33d0 9a3d a037 383c
00000250: 1046 af3c 346c b03d d179 a93d d233 b4be
00000260: 559e d8bb 2792 f8bd 11fa 21be 82c1 a1bc
00000270: b2b2 a3be fdd7 9ebd dd13 333d 3adc ddbe
00000280: 2e83 823c 6f81 27bd 78f3 d9bd 087d c03c
00000290: 6838 423d ab82 f33c e6ac 8e3d 4130 053e
000002a0: bceb fe3c 332f a23c f0d6 aebc 29c8 703d
000002b0: c010 24bb 60cd 4bbd ecfb 813c d2ea 14bc
000002c0: 2eef dabd 5712 13be d600 e73d b553 153c
000002d0: b8e3 c4bc 5868 d7bd 612a 883d 85c0 913d
000002e0: 4779 833d 10e7 813d 6016 3dbe 10aa 8e3d
000002f0: 0bec f7bd 3f55 ee3d a0ef bcbd 19ad 093d
00000300: 0dc0 a4ba 1f10 22bd 3d5a 3f3c 1911 5f3d
00000310: 475e 53bd 57f2 04bd fa73 d8bb 9343 a93d
00000320: 6f16 ef3a 48eb bbbd 802c 813d a81f 9cbe
00000330: 4094 453c edeb 093d 2cc2 19bd ca82 49bb
00000340: bb34 7abc b12c f23b 3498 113d adaf e1be
00000350: c8df c1bc 3a58 a5be f08d fd3d 555f 833d
00000360: c723 b73d 0a96 523d abef d0be eacf c5bd
00000370: bf5e 26bf f346 763d bfa4 04bd fb3e 5cbd
00000380: 7be1 5ebd 63bd af3d 03f5 1c3d c09f 2dbb
00000390: fe63 663d 484c 9e3d 566e c23d 02bd aebd
000003a0: c1c9 dc3d f3e4 bfbd 000d 91bc de03 223d
000003b0: 6100 cb3c d6af 153e 696c 8cbe b9ed bebb
000003c0: b82c bebb cf3d 75bd 58a7 ecbd 87fb 9eba
000003d0: 659d cdbd eb90 45bc 6161 163e 55ec 173d
000003e0: 8a2b d9bc 7c21 263d 7b9c d0bd a6a3 563c
000003f0: 3b33 dbbd cb82 be3d b6d7 873c d1ae 6cbb
-0.007792694 -0.16328396 0.08435893 0.064775005 0.00805644 -0.0882901 0.011678494 0.06274268
0.12982796 0.021384329 0.106436744 -0.11231482 -0.030411938 0.029559476 0.032791317 0.028779492
0.032002598 -0.0056466223 0.032362137 -0.43867806 0.07616928 0.061040472 0.11752031 -0.31494853
-0.06460689 0.020862529 -0.089857034 -0.5033427 -0.43564847 0.0520161 -0.03819307 -0.19410618
0.0036041343 0.062054127 -0.11422516 -0.11875895 -0.08551608 0.05470967 0.049216866 -0.30907285
0.100612566 0.056580488 0.053606965 0.056493677 0.03416567 -0.23804289 -0.27915475 -0.02255439
0.117811404 -0.24495035 -0.070537895 0.05672748 0.052195024 0.059501447 -0.074090995 0.019640528
0.12702402 0.0827907 -0.068887584 0.0020458417 -0.10666389 0.09390079 -0.08317831 -0.023893353
0.08066433 0.05758692 0.07910605 0.049688827 -0.04056954 0.018849414 0.016363481 0.029156303
-0.393418 -0.09472194 0.007385254 -0.2551538 0.11647518 0.010172351 -0.04125932 -0.13554628
0.017595742 -0.022129865 0.010505477 -0.043823127 0.12386395 0.10947409 0.10175623 -0.37336376
-0.09194143 -0.010216325 -0.11731206 -0.22587308 -0.4497592 -0.10849383 0.08371499 -0.27805033
0.01709819 -0.023188157 0.099753395 0.09621489 0.027007002 0.0453021 0.11216428 -0.3614894
0.104541056 -0.097935475 -0.028968588 0.072178386 -0.02018774 -0.14023602 -0.4554406 -0.03192453
-0.020386823 -0.14659218 -0.0839708 0.050178748 0.062510826 0.0849824 -0.004413402 0.018440548
0.111964144 0.09233714 -0.22847366 -0.07786292 0.0790505 0.08622986 0.050689496 0.053796336
0.05960659 0.12413138 0.04586938 0.10890879 0.072389744 0.06084142 0.053360283 0.025972245
-0.2677032 0.049204875 0.010756522 0.18415542 0.027395666 0.012787207 -0.01575987 -0.13653049
0.09455767 -0.50814277 0.07559242 0.011243731 0.021395713 0.08614388 0.08275188 -0.35195786
-0.0066106715 -0.12137251 -0.15818049 -0.019745592 -0.3197227 -0.0775604 0.043720115 -0.43332082
0.015931692 -0.040894922 -0.10642141 0.02349712 0.047417074 0.029725393 0.069665715 0.13006689
0.031118266 0.019797897 -0.021342725 0.058784638 -0.0025034398 -0.049756408 0.015867196 -0.009089189
-0.10690151 -0.14362465 0.11279456 0.009114196 -0.024034366 -0.10517949 0.06648708 0.07116798
0.06419616 0.063429 -0.18465567 0.069660306 -0.121055685 0.11637353 -0.09225392 0.033612344
-0.0012569443 -0.039566156 0.011679229 0.054459665 -0.05160358 -0.032457676 -0.0066056224 0.08264842
0.0018240939 -0.09175736 0.06307316 -0.30492902 0.012059271 0.033672262 -0.037538692 -0.0030748122
-0.015271361 0.0073905815 0.035545543 -0.44079342 -0.023666278 -0.32293874 0.12380588 0.064146675
0.08942371 0.05141262 -0.40807852 -0.09658797 -0.6498832 0.060126256 -0.032383677 -0.053771
-0.054414254 0.085810445 0.0383196 -0.0026492923 0.056247704 0.07729393 0.09493701 -0.08532144
0.10780669 -0.093698405 -0.017706394 0.03955447 0.024780454 0.14617857 -0.2742646 -0.0058266786
-0.0058036707 -0.0598734 -0.11555356 -0.0012129404 -0.10039786 -0.012058477 0.14685585 0.03709062
-0.026510019 0.040559277 -0.10186096 0.01310054 -0.10703131 0.093022905 0.016582351 -0.003611494

layers.2.bias f4 [9]
00000000: deec cc3c 7dbc e63d 512c 9e3c 2e49 0c3e
00000010: fc1f 633e 0fc8 f13b cf70 d23d fd3d a03d
00000020: 5521 ca3d
0.02501529 0.1126642 0.019308241 0.13699791 0.2218017 0.007378585 0.10275423 0.07824323
0.09869639
