experiments/learn_cdrive/cdrive/2022_01_20_133524692467_4_664e5/2022_01_20_133524692467_4_664e5_9999.pth (torch, 32215 bytes, 6 tensors)

layers.0.weight f4 [64, 7]
-0.32673004 0.051234286 -0.22071159 -0.08084062 0.15241167 0.21521996 0.2957327 -0.031021912
0.36097693 -0.24533625 0.16390535 0.09712022 0.23659322 -0.47310904 -0.3329992 0.13310745
-0.37197772 -0.22390541 0.059523374 0.047726214 -0.14392622 0.22754139 -0.15378265 -0.11741297
0.14053077 0.061439443 0.119955316 0.2370335 -0.02442831 -0.1643018 -0.14421146 0.37301943
0.102736495 -0.30495915 0.19979216 0.23949125 -0.35206243 0.043014765 -0.3598897 -0.16176383
-0.18253815 -0.18903522 -0.3688151 -0.26916897 -0.27252844 0.13795617 -0.09423515 0.10146326
0.22531411 0.15940925 0.20932934 -0.27678457 -0.046132583 0.036888696 0.38071927 -0.0014260266
-0.35299328 -0.14814441 -0.018764881 -0.031626713 0.29908133 -0.14717962 0.23151933 -0.32633042
0.0085515175 0.21255857 0.3402107 -0.007415036 0.26344195 -0.26910222 -0.27596623 -0.2033106
-0.34541792 0.024009585 -0.115606934 -0.15640944 -0.2729307 0.2571899 0.00014643975 0.15231943
-0.3235438 -0.16377346 0.17971241 -0.42724508 -0.28125262 -0.07421443 0.035000682 -0.31623906
-0.25876758 -0.36143386 -0.04140538 0.10738724 -0.14530636 0.2878638 -0.16694687 0.087349296
-0.06704214 -0.40192056 -0.2761471 -0.031986214 0.015029034 -0.3646163 -0.31632024 0.16645885
0.19801553 0.35238156 -0.14607519 -0.15229909 0.380204 -0.39546233 -0.07338119 -0.5041609
-0.2107105 -0.15066084 -0.030899143 -0.17767711 0.14501576 -0.0009635283 -0.36339802 -0.23946755
0.22355776 -0.12983195 -0.22459552 -0.20402272 0.06674677 0.42244166 -0.05475665 -0.36245075
-0.16913293 0.19894068 -0.116403066 -0.11808605 0.44756746 0.20178817 -0.06190713 -0.11700689
-0.22397651 0.20617974 -0.29152244 -0.36181486 0.15246306 -0.36815035 0.14255773 -0.08439702
0.14679578 -0.3274908 0.3231634 -0.07197083 0.027039824 0.32408705 -0.29782325 -0.16486202
-0.008167101 0.42326823 -0.20492545 -0.27451998 0.11675376 0.09266003 0.040792122 -0.2932902
-0.32841188 0.15402558 0.32805225 0.07966537 0.35830438 0.059853803 0.28386933 -0.29913595
-0.19314401 -0.28990057 -0.3184078 0.086353414 -0.2511086 0.088867806 -0.36418933 0.107286036
0.1047003 -0.06236134 0.029188732 -0.04291836 0.08256117 0.2424589 0.1655806 -0.21173216
-0.3643752 0.026179608 0.17995451 -0.1831618 0.1493443 -0.27345675 0.02310137 -0.026330957
0.3348645 0.22575474 0.11348234 0.34693846 0.27399236 0.30384743 0.065816246 0.10049575
-0.32722747 -0.15754558 0.22603641 0.038067967 -0.18853788 -0.2022418 0.08520013 0.010892004
-0.2778745 -0.24077709 0.38297772 -0.2551822 -0.19215134 -0.081933245 -0.24446839 0.34649152
0.20492488 0.20863888 -0.32391563 -0.1919444 0.10971415 0.09121348 -0.31783047 0.21381594
0.07042903 -0.31749856 0.2674635 -0.11170514 0.19551507 0.15071444 0.102977104 -0.051404882
0.39179268 -0.25897443 -0.25697225 0.0066631823 -0.106733955 -0.34320673 -0.08611057 -0.16789809
0.25264913 0.3162638 0.22947983 -0.3634075 -0.21870917 0.058566365 -0.25883743 -0.09267513
0.2834628 -0.04991823 0.11856047 0.09148656 -0.0683679 -0.31069657 -0.28937125 -0.10351813
00000000: 2949 a7be 0bdb 513d 3802 62be c48f a5bd
00000010: ce11 1c3e 9f62 5c3e 476a 973e aa21 febc
00000020: f8d1 b83e 6d39 7bbe ced6 273e f7e6 c63d
00000030: 7e45 723e 593b f2be df7e aabe 524d 083e
00000040: dd73 bebe 7647 65be c8ce 733d 907c 433d
00000050: 6561 13be 9c00 693e 3379 1dbe 3676 f0bd
00000060: 4ce7 0f3e eda7 7b3d 22ab f53d e9b8 723e
00000070: e11d c8bc bb3e 28be 2bac 13be 67fc be3e
00000080: 8367 d23d 9b23 9cbe 5196 4c3e 323d 753e
00000090: 8741 b4be 4030 303d 7643 b8be 6ba5 25be
000000a0: 48eb 3abe 7392 41be 55d5 bcbe 84d0 89be
000000b0: d988 8bbe 6244 0d3e 5cfe c0bd f8cb cf3d
000000c0: beb8 663e 2e3c 233e 6e5a 563e b5b6 8dbe
000000d0: 85f5 3cbd 9a18 173d a3ed c23e 83e9 baba
000000e0: 89bb b4be 2bb3 17be cfb8 99bc 038b 01bd
000000f0: 3021 993e 41b6 16be 6713 6d3e c814 a7be
00000100: aa1b 0c3c f4a8 593e 1930 ae3e d5f9 f2bb
00000110: dde1 863e c4c7 89be 724b 8dbe a730 50be
00000120: 9eda b0be c0af c43c 54c3 ecbd cc29 20be
00000130: 93bd 8bbe 65ae 833e 9f8d 1939 a0f9 1b3e
00000140: 88a7 a5be 3bb4 27be 8806 383e debf dabe
00000150: 5800 90be bcfd 97bd e05c 0f3d 16ea a1be
00000160: 2f7d 84be dc0d b9be b098 29bd d7ed db3d
00000170: 31cb 14be e262 933e 1ff4 2abe 30e4 b23d
00000180: 644d 89bd 88c8 cdbe 2763 8dbe fa03 03bd
00000190: 563c 763c fdae babe baf4 a1be 3074 2a3e
000001a0: 95c4 4a3e 5b6b b43e bc94 15be 4bf4 1bbe
000001b0: 19aa c23e 0a7a cabe e148 96bd b010 01bf
000001c0: 7ec4 57be d646 1abe 3320 fdbc fdf0 35be
000001d0: 037f 143e 4a95 7cba 4e0f babe fb36 75be
000001e0: 53ec 643e abf2 04be 5efc 65be 55eb 50be
000001f0: 88b2 883d 464a d83e 8248 60bd 2593 b9be
00000200: 2f31 2dbe 1bb7 4b3e bb64 eebd 19d7 f1bd
00000210: 9027 e53e 8fa1 4e3e 5592 7dbd 4fa1 efbd
00000220: 195a 65be c820 533e 6e42 95be cc3f b9be
00000230: 471f 1c3e 347e bcbe a7fa 113e 58d8 acbd
00000240: a251 163e e0ac a7be ac75 a53e 7165 93bd
00000250: 9f82 dd3c bdee a53e 4a7c 98be 97d1 28be
00000260: 4ecf 05bc 9db6 d83e fad7 51be e28d 8cbe
00000270: 981c ef3d 8bc4 bd3d a415 273d 222a 96be
00000280: 9a25 a8be e2b8 1d3e 77f6 a73e 9927 a33d
00000290: ac73 b73e 4329 753d 5257 913e 5928 99be
000002a0: 8bc7 45be d96d 94be 5906 a3be 0fda b03d
000002b0: 4e91 80be 5300 b63d 0677 babe c8b8 db3d
000002c0: 1c6d d63d 9b6e 7fbd 351d ef3c 2acb 2fbd
000002d0: d515 a93d 2547 783e f68d 293e 51d0 58be
000002e0: 638f babe 9e76 d63c ff45 383e c48e 3bbe
000002f0: b6ed 183e 8602 8cbe 163f bd3c 05b4 d7bc
00000300: 5c73 ab3e 402c 673e 6e69 e83d eba1 b13e
00000310: ba48 8c3e e491 9b3e abca 863d b7d0 cd3d
00000320: 5c8a a7be a153 21be 1776 673e 28ed 1b3d
00000330: 1310 41be 7918 4fbe 687d ae3d 6074 323c
00000340: 9145 8ebe 458e 76be a815 c43e 3ea7 82be
00000350: 52c3 44be 9ecc a7bd ec55 7abe 5667 b13e
00000360: d4d7 513e 6ea5 553e 45d8 a5be 138d 44be
00000370: d0b1 e03d 22ce ba3d adba a2be 91f2 5a3e
00000380: 183d 903d 2c8f a2be faf0 883e aac5 e4bd
00000390: 1a35 483e e354 1a3e a9e5 d23d ed8d 52bd
000003a0: 0d99 c83e 4c98 84be de91 83be d356 da3b
000003b0: 5597 dabd cbb8 afbe bd5a b0bd 7aed 2bbe
000003c0: 3a5b 813e 54ed a13e c3fc 6a3e 8c10 babe
000003d0: 4cf5 5fbe 49e3 6f3d 5786 84be 75cc bdbd
000003e0: 0922 913e 0f77 4cbd d5cf f23d 4e5d bb3d
000003f0: 7804 8cbd 9f13 9fbe 7828 94be 5001 d4bd

layers.0.bias f4 [64]
-0.018174272 -0.27017507 -0.110723615 0.13327122 -0.20873076 -0.14993387 -0.32478356 0.36518073
0.32582936 -0.05205547 -0.070904106 -0.09111507 -0.07373297 -0.3008156 0.32994503 0.39643645
0.17411895 -0.010429667 0.15428764 0.09017077 0.23440054 0.10785955 0.20006162 0.20876609
0.11118304 -0.1771738 -0.10987285 -0.121488206 -0.3566858 -0.25683945 -0.017989561 0.17950806
-0.29703718 0.29178327 0.20828629 0.3268313 0.19792834 0.091770984 -0.08573846 0.30128375
0.30550864 0.079929866 0.0045522475 0.18022189 0.14095877 0.17986655 0.0074241594 0.21989396
-0.036456406 0.084613904 0.10036524 -0.3662625 0.25584036 -0.082910486 0.038613092 0.28818998
-0.30329534 -0.3257889 0.29672235 -0.14699282 -0.33095318 -0.005388952 -0.27445006 0.124138825
00000000: 36e2 94bc 6354 8abe 10c3 e2bd 4078 083e
00000010: 84bd 55be 4488 19be 084a a6be f8f8 ba3e
00000020: 1bd3 a63e 1e38 55bd 2c36 91bd 8a9a babd
00000030: 5001 97bd 8104 9abe 8eee a83e b8f9 ca3e
00000040: 3d4c 323e 32e1 2abc 94fd 1d3e 74ab b83d
00000050: b206 703e 78e5 dc3d f4dc 4c3e c7c6 553e
00000060: efb3 e33d 0c6d 35be 0405 e1bd cfce f8bd
00000070: 859f b6be 7680 83be d85e 93bc f6d0 373e
00000080: 4215 98be 9e64 953e 0049 553e 6f56 a73e
00000090: baad 4a3e 6df2 bb3d a597 afbd dd41 9a3e
000000a0: a16b 9c3e 45b2 a33d 052b 953b 168c 383e
000000b0: 7f57 103e f02e 383e 5d46 f33b e22b 613e
000000c0: 5053 15bd 0e4a ad3d 4a8c cd3d c286 bbbe
000000d0: 82fd 823e f9cc a9bd c328 1e3d a38d 933e
000000e0: 8749 9bbe cdcd a6be feeb 973e 4985 16be
000000f0: b272 a9be ce95 b0bb b884 8cbe 7f3c fe3d

layers.1.weight f4 [64, 64]
0.04587297 -0.04085688 -0.0077916384 0.038958084 0.0044161696 0.021192476 -0.010880634 -0.06373257
0.0020700202 -0.0821307 -0.084436804 -0.14839341 0.123070285 0.02385918 0.009156794 -0.079577945
0.06796046 -0.04187744 0.032812264 -0.0826539 0.09510847 0.05407969 0.09300121 -0.057546653
-0.09252024 0.094828434 -0.021767057 -0.05746428 0.14678797 -0.112003624 0.02890617 0.13535243
-0.097268544 -0.06303049 -0.011732404 0.09509212 -0.103079006 -0.019040387 -0.008068933 -0.09978606
0.018663852 0.13819906 -0.1034164 0.068748534 -0.07601939 0.083409674 -0.019452773 0.018197516
-0.008282796 -0.002449306 -0.007515496 0.10516162 -0.091686666 0.09572433 0.042997822 0.14383297
0.13545412 0.10584489 -0.06643664 0.06996544 0.09300326 0.16247669 -0.03534771 0.069010556
-0.027949084 -0.042406663 -0.0649841 -0.09232613 0.10615138 0.07460983 -0.017626226 -0.056071647
-0.037415214 -0.08395457 -0.005902946 -0.06314711 -0.006556645 0.0072103394 0.089059435 0.03643207
0.05271774 0.019593846 -0.040641684 0.06534652 -0.0022207827 -0.04173273 -0.11600006 0.13899279
0.057340357 0.10625943 0.09218896 0.053397566 -0.012323288 0.05437182 -0.10356308 0.07087831
-0.003093407 -0.11704473 0.0019085682 -0.083304696 -0.10866602 -0.01069211 -0.06973705 0.051368836
-0.03217483 -0.13031529 -0.10459121 0.1442869 -0.0056840857 -0.102119245 0.15263627 0.11357735
-0.015249237 -0.08907326 0.07769673 -0.02802189 -0.017344888 0.13310327 -0.0021980049 -0.050184574
0.057536576 0.09224294 0.089962624 0.09188408 -0.115341045 -0.10098542 -0.100390725 -0.064597845
-0.015289029 0.160695 -0.04264216 -0.13247587 0.05401969 -0.022413567 -0.07904251 0.015507489
-0.08491035 -0.13383543 -0.06814265 0.13318628 -0.10186514 -0.10802208 -0.001766281 0.0017162303
0.11421053 0.021863962 -0.15013817 -0.00979724 0.015120432 -0.050259687 -0.112945065 -0.08408743
0.04432232 -0.023611033 0.1020609 0.0006281473 0.036116816 0.10003555 -0.054766096 -0.15951195
0.101648785 0.06342037 -0.033535123 0.04955041 0.025187612 -0.09462489 -0.11898367 0.07134253
-0.045441233 0.14802669 0.1678108 0.08464116 -0.052696258 -0.025113855 -0.033477213 0.018222237
-0.056812465 0.13095252 0.072850674 -0.08177598 -0.029106686 0.12550028 -0.0653181 -0.09660303
-0.10609285 -0.013672611 -0.07608805 -0.07321071 0.027572753 0.02073581 0.050670713 0.1409303
0.09357537 -0.03689848 0.11908157 0.14698242 0.0922716 -0.11933567 0.077871636 0.060998015
0.01313148 -0.14302343 -0.04547803 0.045204517 0.053332224 -0.12280105 0.013223066 -0.031042248
-0.01495936 0.084828444 -0.1804062 0.09141727 -0.06750512 -0.10064143 0.07311618 -0.01827979
-0.10767459 -0.025199214 0.080620445 -0.08342692 0.07234748 -0.11395474 0.011454729 0.060389906
-0.14932889 -0.013922175 -0.14752378 0.03778015 0.070769936 0.046998166 0.024567867 -0.05678811
-0.06787122 -0.052075442 -0.12996277 0.012912351 0.18916231 -0.027283257 -0.1840695 -0.039615262
-0.044093728 -0.07976773 -0.05354827 -0.05229685 0.070549324 -0.13957435 -0.058690257 0.05935487
-0.008386954 0.013820703 0.090592936 -0.03542068 -0.022904823 0.048444837 -0.05045478 0.04270926
00000000: 4ce5 3b3d 8b59 27bd 0051 ffbb 8392 1f3d
00000010: 84b5 903b d89b ad3c b044 32bc 3986 82bd
00000020: 2da9 073b 2434 a8bd 34ed acbd 71f4 17be
00000030: 460c fc3d 5474 c33c 6106 163c c3f9 a2bd
00000040: db2e 8b3d ae87 2bbd 2766 063d 7346 a9bd
00000050: 3bc8 c23d aa82 5d3d 6b77 be3d 0ab6 6bbd
00000060: 407b bdbd 6935 c23d d450 b2bc aa5f 6bbd
00000070: 964f 163e 2862 e5bd a2cc ec3c d499 0a3e
00000080: bb34 c7bd 2116 81bd 4539 40bc a8bf c23d
00000090: 161b d3bd 96fa 9bbc 8f33 04bc a25c ccbd
000000a0: efe4 983c 0e84 0d3e facb d3bd 08cc 8c3d
000000b0: 0eb0 9bbd b1d2 aa3d 6c5b 9fbc f512 953c
000000c0: 90b4 07bc 8984 20bb 8d44 f6bb fa5e d73d
000000d0: 38c6 bbbd 1e0b c43d 7c1e 303d f348 133e
000000e0: 7cb4 0a3e 35c5 d83d ef0f 88bd 0a4a 8f3d
000000f0: 7e78 be3d 4a60 263e c3c8 10bd 6855 8d3d
00000100: 7af5 e4bc 9cb2 2dbd 6216 85bd 7b15 bdbd
00000110: e565 d93d 0acd 983d e064 90bc 62ab 65bd
00000120: b240 19bd 60f0 abbd 806d c1bb 4653 81bd
00000130: 20d9 d6bb b644 ec3b cb64 b63d cb39 153d
00000140: 8fee 573d 4683 a03c e577 26bd 65d4 853d
00000150: 8d8a 11bb f0ef 2abd 7191 edbd 2054 0e3e
00000160: b9dd 6a3d 8b9e d93d 91cd bc3d 68b7 5a3d
00000170: 9ee7 49bc fcb4 5e3d e118 d4bd a628 913d
00000180: c2ba 4abb 26b5 efbd ec28 fa3a a79b aabd
00000190: 4a8c debd f62d 2fbc 4cd2 8ebd 2168 523d
000001a0: c1c9 03bd 5f71 05be eb33 d6bd f2bf 133e
000001b0: 9141 babb e523 d1bd af4c 1c3e 3e9b e83d
000001c0: f0d7 79bc 0b6c b6bd 771f 9f3d 2a8e e5bc
000001d0: de16 8ebc 394c 083e 670c 10bb 578e 4dbd
000001e0: 79ab 6b3d dee9 bc3d 533e b83d b82d bc3d
000001f0: ed37 ecbd 72d1 cebd a799 cdbd e04b 84bd
00000200: d67e 7abc 3b8d 243e 8ca9 2ebd c1a7 07be
00000210: c043 5d3d a89c b7bc 0ae1 a1bd 2013 7e3c
00000220: 7ae5 adbd 280c 09be 608e 8bbd fc61 083e
00000230: ac9e d0bd ae3a ddbd 8e82 e7ba 22f3 e03a
00000240: 36e7 e93d 0d1c b33c d2bd 19be 9a84 20bc
00000250: b0bb 773c 1add 4dbd be4f e7bd 0836 acbd
00000260: 528b 353d ed6b c1bc 4e05 d13d 40aa 243a
00000270: 3aef 133d 70df cc3d 6a52 60bd 1a57 23be
00000280: 3d2d d03d 8ae2 813d 205c 09bd 5ff5 4a3d
00000290: 4056 ce3c b2ca c1bd b6ad f3bd 081c 923d
000002a0: 9620 3abd 4f94 173e 98d6 2b3e 5858 ad3d
000002b0: 08d8 57bd 92bb cdbc 671f 09bd cd46 953c
000002c0: 30b4 68bd 6b18 063e bc32 953d 2a7a a7bd
000002d0: 2571 eebc 2583 003e 7fc5 85bd cfd7 c5bd
000002e0: 3547 d9bd 1603 60bc 0dd4 9bbd 7fef 95bd
000002f0: 41e0 e13c 25de a93c 188c 4f3d 0850 103e
00000300: 72a4 bf3d dc22 17bd 0ae1 f33d 8f82 163e
00000310: e5f8 bc3d 4266 f4bd 2a7b 9f3d 0ed9 793d
00000320: 6b25 573c bc74 12be 2c47 3abd 5f28 393d
00000330: e472 5a3d 1e7f fbbd 8fa5 583c 504c febc
00000340: 1a18 75bc 89ba ad3d 67bc 38be fa38 bb3d
00000350: 2040 8abd 181d cebd f0bd 953d 80bf 95bc
00000360: 7f84 dcbd 956e cebc 551c a53d bcdb aabd
00000370: ea2a 943d 1a61 e9bd 9eac 3b3c 685b 773d
00000380: ace9 18be d619 64bc 7910 17be 5cbf 1a3d
00000390: d4ef 903d 2681 403d 8d42 c93c a69a 68bd
000003a0: 1100 8bbd 0f4d 55bd f614 05be 538e 533c
000003b0: c4b3 413e 2381 dfbc b77c 3cbe 9d43 22bd
000003c0: a09b 34bd 435d a3bd 6e55 5bbd 3935 56bd
000003d0: 2a7c 903d 94ec 0ebe 3265 70bd 181e 733d
000003e0: 6f69 09bc 3b70 623c ca88 b93d 4615 11bd
000003f0: e5a2 bbbc 186e 463d aca9 4ebd e8ef 2e3d

layers.1.bias f4 [64]
-0.02094183 0.045047726 0.12134943 -0.06885655 -0.0010873947 -0.0598203 0.00047495338 -0.09212734
-0.08667327 -0.088972904 0.050869543 -0.07155593 -0.043701336 0.080494605 0.085429296 0.106166475
-0.117551796 -0.012651439 0.020637915 -0.11561322 -0.066682845 0.02586429 -0.010518111 -0.098557636
0.08561987 -0.07759609 -0.0636531 0.16026092 -0.013830443 -0.021222882 0.00814128 -0.13680445
0.107551314 -0.0006591292 -0.048098426 0.05746478 0.09907572 -0.07526222 -0.1255865 0.101709045
-0.08594458 0.051762998 -0.06416937 0.04333181 0.05629547 0.04974483 0.08572297 -0.11626291
-0.049396098 -0.0103342105 -0.03588364 0.0037424853 0.042019684 0.048955742 -0.09426704 0.08400348
-0.0050768917 0.18233 0.04267904 -0.038509153 0.013671279 0.056709558 -0.026478348 0.06815062
00000000: 338e abbc f783 383d 0d86 f83d aa04 8dbd
00000010: e986 8eba 2206 75bd 2a03 f939 42ad bcbd
00000020: c181 b1bd 6d37 b6bd 955c 503d ea8b 92bd
00000030: 2c00 33bd 5bda a43d 8ef5 ae3d cf6d d93d
00000040: ffbe f0bd fb47 4fbc d810 a93c a0c6 ecbd
00000050: 0491 88bd 59e1 d33c 2854 2cbc 96d8 c9bd
00000060: 7859 af3d b3ea 9ebd 8e5c 82bd 701b 243e
00000070: 1599 62bc 9cdb adbc 0163 053c 7716 0cbe
00000080: dd43 dc3d 69c9 2cba db02 45bd 3060 6b3d
00000090: 36e8 ca3d 1423 9abd bf99 00be d54c d03d
000000a0: b603 b0bd 7005 543d 3b6b 83bd b27c 313d
000000b0: 1496 663d 3cc1 4b3d 868f af3d 401b eebd
000000c0: 9053 4abd d250 29bc b9fa 12bd 7c44 753b
000000d0: d51c 2c3d d185 483d 140f c1bd 040a ac3d
000000e0: 0e5c a6bb b7b4 3a3e 38d0 2e3d c6bb 1dbd
000000f0: 80fd 5f3c 4848 683d 1fe9 d8bc 8d92 8b3d

layers.2.weight f4 [45, 64]
0.022011524 -0.05831463 0.017256705 -0.08320402 0.0032022407 0.07304318 -0.013615391 -0.11285227
0.1232828 -0.09363568 0.0598058 0.027516961 0.03388732 0.020359784 -0.028436033 -0.10966242
-0.06300199 0.11045188 0.063732386 -0.056346595 0.09484576 -0.108272746 0.12004485 0.05971758
0.048423424 -0.038316283 0.038612112 0.037553083 0.0684461 0.023920998 0.16034953 -0.08890142
-0.013207369 0.10698797 -0.051594153 -0.113361716 -0.056416005 0.11614126 0.04926402 0.12768131
-0.08496213 0.087626055 -0.04874986 0.08244897 -0.10246815 -0.06317121 -0.01866608 -0.023821592
-0.004235536 0.051368624 0.043935865 0.018938068 -0.07973082 -0.012757265 0.0056241006 0.1147576
-0.028560245 0.16973935 0.018919226 -0.053715967 0.059059314 0.15584871 0.018173201 -0.09282032
0.093094334 -0.124020144 0.031378254 -0.016917706 -0.11061823 -0.045113683 -0.05702731 0.051891297
0.020163804 -0.069949776 0.0054456443 0.035894066 0.077404514 0.108065635 -0.073049515 -0.09653534
-0.04495415 -0.0052239 -0.039476216 0.1059168 0.018283889 0.08122882 0.06656465 -0.092805624
0.08161308 -0.009938896 -0.10375768 0.12119213 -0.0074736327 0.062574 0.10097796 -0.09885743
0.09074573 -0.021563351 -0.028079852 0.071446985 0.11315289 -0.07543875 -0.006246567 -0.08845629
0.02127038 0.019969448 0.015618354 -0.11836392 -0.061530456 0.027767077 -0.118301004 0.012905106
0.029731184 -0.03562832 0.05106102 0.09684408 0.029772535 -0.009645432 0.057663545 -0.06142497
0.11611733 0.10023756 0.01597415 -0.11580171 0.04077916 -0.11092211 0.041281953 0.041851163
0.11177794 0.0307465 0.050501734 -0.025246786 -0.08186614 0.15817665 -0.07767278 -0.067195475
-0.09542061 0.1013961 0.1435643 -0.115809634 -0.074518055 -0.045305967 -0.10671687 -0.00018336829
-0.011467144 0.053879797 0.104808904 -0.05391839 -0.0839299 -0.07851826 -0.07898096 0.08368738
0.108993575 0.0042287903 -0.10461193 0.03275876 0.068253875 -0.04491298 -0.029682687 0.006641591
0.123431526 0.007996008 0.02543152 0.101446 0.15633391 -0.12427561 0.08424391 0.001974842
-0.049852997 0.061503764 -0.08243419 0.08128822 -0.10988839 0.096410915 0.13928476 0.0028804315
-0.033403233 0.09363813 0.10892559 -0.11911156 -0.033269316 0.11531786 0.12467927 0.13087569
-0.012805778 0.02231592 -0.050845552 0.10567081 -0.06935363 0.11946378 0.07553036 0.11053924
-0.10541113 -0.004720722 0.15175614 -0.08390426 0.16506791 0.14972259 -0.0072908727 0.06548749
0.03484723 0.048542798 0.11376974 0.12376338 -0.051568113 0.14053765 0.019249314 0.11224683
0.11894597 -0.03102696 -0.011232036 -0.025240995 -6.774068e-05 0.0728625 -0.04944334 0.12099445
-0.0888288 -0.00813812 0.084991515 0.10533424 0.0006518861 0.011052236 0.07474645 0.06053736
0.12611392 0.057576 -0.06860689 0.0018155636 -0.035656575 0.12114146 -0.10701461 0.036271583
0.052347403 0.024258852 0.07088447 -0.0050930944 -0.04740043 0.04313025 0.0038885074 0.10408838
0.093862355 0.18036723 0.04247053 -0.009429496 0.041748866 0.09083182 0.08694889 0.012588363
-0.09028064 0.16550712 0.12607558 -0.05343605 -0.02915877 -0.0031495749 0.006581531 0.09886973
00000000: 8351 b43c 52db 6ebd ef5d 8d3c df66 aabd
00000010: afdc 513b aa97 953d 1713 5fbc 171f e7bd
00000020: b17b fc3d 10c4 bfbd edf6 743d 406b e13c
00000030: 6ecd 0a3d 90c9 a63c aff2 e8bc b196 e0bd
00000040: 3007 81bd 9834 e23d 2086 823d b0cb 66bd
00000050: 7e3e c23d 1abe ddbd 13da f53d 6c9a 743d
00000060: a457 463d 89f1 1cbd bc27 1e3d 43d1 193d
00000070: 782d 8c3d f8f5 c33c ab32 243e f311 b6bd
00000080: b863 58bc 821c db3d 6454 53bd 302a e8bd
00000090: 7814 67bd 78db ed3d 12c9 493d e4be 023e
000000a0: a000 aebd 4a75 b33d efad 47bd 01db a83d
000000b0: d2da d1bd e85f 81bd 9be9 98bc 8025 c3bc
000000c0: 40ca 8abb e867 523d 18f6 333d 0224 9b3c
000000d0: ea49 a3bd d903 51bc 604a b83b 0806 eb3d
000000e0: 2df7 e9bc 27d0 2d3e 7efc 9a3c 4605 5cbd
000000f0: 2ee8 713d ce96 1f3e f7df 943c 9418 bebd
00000100: 3ea8 be3d 46fe fdbd 7c86 003d 0097 8abc
00000110: d08b e2bd 20c9 38bd 7895 69bd f88b 543d
00000120: 902e a53c d441 8fbd 6071 b23b a805 133d
00000130: 4286 9e3d 8451 dd3d fc9a 95bd 52b4 c5bd
00000140: d821 38bd 402d abbb d0b1 21bd e8ea d83d
00000150: 18c8 953c 4c5b a63d 0c53 883d e010 bebd
00000160: c224 a73d c0d6 22bc e87e d4bd 9433 f83d
00000170: 60e5 f4bb cc26 803d 88cd ce3d c475 cabd
00000180: e6d8 b93d a0a5 b0bc b807 e6bc cc52 923d
00000190: b4bc e73d a27f 9abd 00b0 ccbb 9228 b5bd
000001a0: 383f ae3c f896 a33c 20e4 7f3c c868 f2bd
000001b0: 5c07 7cbd c877 e33c cc47 f2bd f06f 533c
000001c0: d08e f33c 00ef 11bd 5c25 513d 3056 c63d
000001d0: 88e5 f33c e007 1ebc 9c30 6c3d c098 7bbd
000001e0: ecce ed3d 5a49 cd3d 38dc 823c 7229 edbd
000001f0: 0c08 273d 222b e3bd 4417 293d 206c 2b3d
00000200: d5eb e43d 15e0 fb3c e8da 4e3d 59d2 cebc
00000210: 6fa9 a7bd 0ff9 213e e812 9fbd c89d 89bd
00000220: e16b c3bd c2a8 cf3d 8502 133e 9a2d edbd
00000230: ec9c 98bd c092 39bd 608e dabd 8d46 40b9
00000240: b0e0 3bbc 10b1 5c3d 0da6 d63d 88d9 5cbd
00000250: 70e3 abbd 2ece a0bd c5c0 a1bd 4a64 ab3d
00000260: 0638 df3d aa91 8a3b c83e d6bd 0d2e 063d
00000270: b0c8 8b3d acf6 37bd 1b29 f3bc b4a1 d93b
00000280: abc9 fc3d b001 033c c355 d03c ecc2 cf3d
00000290: ff15 203e 3684 febd 1288 ac3d 5a6c 013b
000002a0: a832 4cbd 5feb 7b3d 42d3 a8bd 707a a63d
000002b0: 2a0d e1bd 1673 c53d aaa0 0e3e 9fc5 3c3b
000002c0: d4d1 08bd 59c5 bf3d 6114 df3d c3f0 f3bd
000002d0: 6845 08bd c52b ec3d d857 ff3d 4704 063e
000002e0: 53cf 51bc e0cf b63c 6d43 50bd f069 d83d
000002f0: 4709 8ebd 6da9 f43d a9af 9a3d 6662 e23d
00000300: cae1 d7bd 49b0 9abb f665 1b3e ffd5 abbd
00000310: 9007 293e e150 193e 46e8 eebb 4e1e 863d
00000320: f8bb 0e3d d0d4 463d 1c00 e93d a877 fd3d
00000330: 1639 53bd 1ae9 0f3e bdb0 9d3c aae1 e53d
00000340: f299 f33d 402c febc 9306 38bc 34c6 cebc
00000350: 0010 8eb8 ef38 953d 1a85 4abd f0cb f73d
00000360: e0eb b5bd c055 05bc 0810 ae3d 7ab9 d73d
00000370: 56e3 2a3a 7014 353c ab14 993d 06f6 773d
00000380: 0224 013e d0d4 6b3d c581 8cbd 35f8 ed3a
00000390: a10c 12bd 0419 f83d 7a2a dbbd 8391 143d
000003a0: 3b6a 563d 80ba c63c e12b 913d f9e3 a6bb
000003b0: f426 42bd 58a9 303d 54d6 7e3b 4a2c d53d
000003c0: e83a c03d 30b2 383e 94f5 2d3d 2c7e 1abc
000003d0: dc00 2b3d 0906 ba3d 4212 b23d 6c3f 4e3c
000003e0: 0ee5 b8bd b37a 293e f519 013e c2df 5abd
000003f0: 5fde eebc 1969 4ebb e2a9 d73b 377c ca3d

layers.2.bias f4 [45]
0.099832565 0.08569461 -0.001468802 0.10616126 0.08529405 -0.06175164 0.08802595 -0.007735312
0.17242306 -0.013239011 0.07968052 0.034649346 0.06788232 0.078635186 -0.074316606 0.107632145
0.12673455 0.061099797 -0.09554261 0.11877771 0.0515542 0.036477253 0.020818245 -0.0021292865
-0.023261901 -0.017282426 0.02430275 -0.05870523 0.17374095 -0.08360456 0.08312765 -0.005881943
0.023684502 -0.10241753 0.02362816 -0.06809804 -0.036625564 -0.04411748 0.035462562 -0.1011557
0.08223195 0.046937518 0.02600123 -0.0096924035 0.08778769
00000000: 0475 cc3d a880 af3d d184 c0ba 136b d93d
00000010: a6ae ae3d 4aef 7cbd f346 b43d 8078 fdbb
00000020: ac8f 303e 70e8 58bc 8a2f a33d 79ec 0d3d
00000030: e305 8b3d 7c0b a13d 4e33 98bd 3e6e dc3d
00000040: b4c6 013e c843 7a3d d8ab c3bd ba41 f33d
00000050: 7f2a 533d 2c69 153d 068b aa3c 808b 0bbb
00000060: be8f bebc e093 8dbc 9016 c73c e574 70bd
00000070: 26e9 313e de38 abbd d43e aa3d 50bd c0bb
00000080: 0006 c23c 48c0 d1bd d88f c13c fc76 8bbd
00000090: b004 16bd 88b4 34bd 3141 113d b82a cfbd
000000a0: 3969 a83d 8e41 403d 8800 d53c e3cc 1ebc
000000b0: 08ca b33d
