experiments/learn_cdrive/cdrive/2022_01_20_133524692467_4_664e5/2022_01_20_133524692467_4_664e5_1999.pth (torch, 32215 bytes, 6 tensors)

layers.0.weight f4 [64, 7]
000000 82 08 94 be 5e 30 93 3d 57 b4 7c be b5 99 e1 bd
       -0.2891274 0.0718696 -0.24678169 -0.110156454
000010 e2 65 17 3e 2e 35 72 3e de 3b a2 3e 1c 23 e3 bc
       0.14784959 0.23653099 0.316863 -0.027726702
000020 27 f3 af 3e ee 40 45 be 6a fb 17 3e b6 9e 6b 3d
       0.34365198 -0.1926305 0.14842 0.057524405
000030 26 70 66 3e b4 fa 89 be df 7e aa be 52 4d 08 3e
       0.22503719 -0.26949084 -0.3329992 0.13310745
000040 dd 73 be be 76 47 65 be c8 ce 73 3d 90 7c 43 3d
       -0.37197772 -0.22390541 0.059523374 0.047726214
000050 65 61 13 be b7 17 86 3e ae 2b 30 be dd b2 9f bd
       -0.14392622 0.26189968 -0.17204162 -0.07797787
000060 3f 5f 26 3e d4 2b a8 3d 8d ec 20 3e c6 91 9c 3e
       0.16247271 0.082114846 0.15715237 0.30579966
000070 9a 8e 05 bd 78 bc 35 be de 21 17 be 12 7c ba 3e
       -0.0326067 -0.17747676 -0.14759013 0.36422783
000080 4f 46 e1 3d 75 98 a0 be 8e 95 43 3e 32 3d 75 3e
       0.109997384 -0.31366315 0.1910002 0.23949125
000090 87 41 b4 be 40 30 30 3d 76 43 b8 be 6b a5 25 be
       -0.35206243 0.043014765 -0.3598897 -0.16176383
0000a0 48 eb 3a be 73 92 41 be 55 d5 bc be 84 d0 89 be
       -0.18253815 -0.18903522 -0.3688151 -0.26916897
0000b0 d9 88 8b be 62 44 0d 3e 5c fe c0 bd f8 cb cf 3d
       -0.27252844 0.13795617 -0.09423515 0.10146326
0000c0 be b8 66 3e f1 a3 31 3e 56 3d 55 3e 38 b9 8a be
       0.22531411 0.17347695 0.20824179 -0.27094436
0000d0 fc ea 15 bd 82 c0 b6 3d f3 80 ca 3e 09 e6 8b 3d
       -0.03660105 0.08923437 0.39551505 0.06830985
0000e0 a5 a0 91 be 99 85 08 be 2b c2 c2 3c 80 1c 20 bc
       -0.28442875 -0.13332213 0.023774227 -0.00977242
0000f0 37 42 ac 3e ac 07 db bd 65 a7 79 3e 15 16 92 be
       0.33644268 -0.10694823 0.24380262 -0.28532472
000100 99 aa 05 bc f8 0d 7c 3e cf 89 be 3e ce 61 9e 3c
       -0.008158349 0.24614704 0.37214515 0.019333746
000110 f7 d7 95 3e d8 27 82 be 72 4b 8d be a7 30 50 be
       0.2926633 -0.25421023 -0.27596623 -0.2033106
000120 9e da b0 be c0 af c4 3c 54 c3 ec bd cc 29 20 be
       -0.34541792 0.024009585 -0.115606934 -0.15640944
000130 93 bd 8b be 1a a2 83 3e b4 23 b4 bb 18 57 24 3e
       -0.2729307 0.2570961 -0.00549742 0.16048849
000140 3f 95 a2 be 9e cb 6e be e0 ed 37 3e 54 51 b1 be
       -0.3175449 -0.23319861 0.17961836 -0.3463236
000150 58 00 90 be bc fd 97 bd e0 5c 0f 3d 16 ea a1 be
       -0.28125262 -0.07421443 0.035000682 -0.31623906
000160 2f 7d 84 be dc 0d b9 be b0 98 29 bd 88 35 16 3e
       -0.25876758 -0.36143386 -0.04140538 0.14668858
000170 75 bd 0f be 04 5c b9 3e 8d 8c 02 be e4 b8 04 3e
       -0.14037116 0.36203015 -0.12748928 0.12961155
000180 3c f8 e1 bc 6c 6e 98 be 0b 8e 64 be c4 76 ab 3b
       -0.027584188 -0.29771745 -0.2231981 0.005232664
000190 8e b7 21 3d f1 c5 b8 be 2c 28 93 be 04 4b 56 3e
       0.039481692 -0.36088517 -0.28741586 0.20927054
0001a0 3a 0f 81 3e d8 58 b6 3e ba a1 21 be af bb 0f be
       0.2520693 0.35614657 -0.1578435 -0.1403644
0001b0 0f 5e c3 3e 16 c6 ae be 7b dd 95 bd 2b d9 f6 be
       0.381577 -0.34135503 -0.07317635 -0.4821256
0001c0 d5 7b 28 be c3 43 0c be fb 0a 3e bc e4 f7 2d be
       -0.16453488 -0.13697724 -0.011599298 -0.16989094
0001d0 84 34 27 3e 60 16 e0 3c 4e 0f ba be 91 f2 7b be
       0.16328627 0.02735442 -0.36339802 -0.2460425
0001e0 bd b0 60 3e db 5b 0f be 73 99 6f be e9 58 86 be
       0.2194242 -0.13999884 -0.2339838 -0.26239708
0001f0 7f 88 7d 3d 88 f9 d9 3e 26 48 4c bd 2d dd c9 be
       0.06189775 0.4257319 -0.049873494 -0.39426556
000200 1c c8 2b be 87 1f 4a 3e 15 bf 53 be 18 2d ec bd
       -0.16775554 0.19738589 -0.20678361 -0.115320385
000210 8e aa d3 3e 1f a3 60 3e 1e 95 be bd 7b 99 94 bd
       0.4134106 0.21937226 -0.093057856 -0.072558366
000220 5c ad 3b be a9 69 70 3e f2 a2 8c be bc 88 83 be
       -0.1832785 0.23477806 -0.27468067 -0.25690258
000230 6d 50 32 3e f3 a2 aa be 4c a4 30 3e 38 5b 8d bd
       0.17413493 -0.33327445 0.17250174 -0.06902164
000240 78 f0 27 3e 3b 90 9a be 28 53 b3 3e 78 67 76 bd
       0.16400325 -0.30188164 0.3502438 -0.06015727
000250 93 c6 dd 3c 92 0f af 3e 44 90 95 be 80 34 24 be
       0.027072227 0.34191567 -0.29211628 -0.16035652
000260 82 14 7f 3b c0 8a d7 3e fa d7 51 be e2 8d 8c be
       0.0038922136 0.42098045 -0.20492545 -0.27451998
000270 98 1c ef 3d 8b c4 bd 3d a4 15 27 3d 22 2a 96 be
       0.11675376 0.09266003 0.040792122 -0.2932902
000280 9a 25 a8 be 0c 76 33 3e 48 37 a7 3e 4c c6 b3 3d
       -0.32841188 0.175255 0.32659364 0.087780565
000290 2e d6 b5 3e 9d fe 08 3e 42 aa 94 3e 46 90 82 be
       0.3551497 0.13378377 0.29036146 -0.25500697
0002a0 8b c7 45 be ee 3b 90 be 59 06 a3 be ac a1 c1 3d
       -0.19314401 -0.28170723 -0.3184078 0.094546646
0002b0 4e 91 80 be f0 c7 c6 3d 06 77 ba be 33 54 41 3e
       -0.2511086 0.09706104 -0.36418933 0.18879776
0002c0 5a 92 50 3e 4c 92 c1 bc ae da a4 3d 24 99 e7 3c
       0.20368329 -0.02362933 0.08049522 0.028271265
0002d0 c1 28 35 3e 99 a2 80 3e 55 43 68 3e 9f 4f 2e be
       0.17691328 0.25124052 0.22681935 -0.1702256
0002e0 20 b9 a2 be 1f 12 95 3d 45 9d 7a 3e a3 8a f6 bd
       -0.31781864 0.07278847 0.24474056 -0.120381616
0002f0 8b 09 33 3e 77 16 80 be 5c d5 28 3d 72 60 71 bc
       0.17484109 -0.2501714 0.0412191 -0.014732467
000300 f2 34 b0 3e 3a aa 82 3e bb dc 08 3e b0 1a a3 3e
       0.34415394 0.25520498 0.13365452 0.31856298
000310 4b 61 9d 3e b4 82 ae 3e 05 a2 4f 3d 83 df b1 3d
       0.3073829 0.34084094 0.050691623 0.086852096
000320 d0 8f bd be df 7d df bd 10 cc 71 3e 28 ed 1b 3d
       -0.37023783 -0.1091268 0.23613 0.038067967
000330 13 10 41 be 79 18 4f be 68 7d ae 3d 60 74 32 3c
       -0.18853788 -0.2022418 0.08520013 0.010892004
000340 91 45 8e be 45 8e 76 be c0 d4 c7 3e c7 3c 83 be
       -0.2778745 -0.24077709 0.39029503 -0.25632307
000350 86 b4 39 be 0d f0 96 bd c8 18 7a be 13 83 b5 3e
       -0.1813527 -0.07370005 -0.24423516 0.35451564
000360 48 a0 92 3e 57 86 72 3e 3c ae b5 be b2 e0 1f be
       0.2863791 0.23684059 -0.35484493 -0.15613058
000370 2b a8 08 3e f9 91 f4 3d 03 8a 8b be 37 07 52 3e
       0.13345401 0.119419046 -0.27253732 0.20510565
000380 40 5a bd 3d 36 9b 99 be d9 e4 8e 3e 82 25 c1 bd
       0.092457294 -0.3000123 0.27908972 -0.09430982
000390 4a df 78 3e 24 d4 2e 3e 17 a6 c7 3d a0 af 3f bd
       0.24303928 0.17073113 0.09748476 -0.04679835
0003a0 c5 8f c2 3e 4c 98 84 be 84 b1 9a be e0 71 1c bd
       0.38000312 -0.25897443 -0.3021356 -0.038194537
0003b0 09 71 f1 bd e4 12 8b be c9 56 88 bd 6b e2 45 be
       -0.11789138 -0.2716285 -0.06657178 -0.19324653
0003c0 3a 94 90 3e c6 4a aa 3e 70 80 78 3e 5a 6d b3 be
       0.28238088 0.33260173 0.24267745 -0.35044366
0003d0 41 0c 54 be 0c 96 9b 3d f0 6d 8a be 37 fd b5 bd
       -0.207078 0.075969785 -0.27037 -0.088861875
0003e0 36 67 90 3e a8 ed 3d bd 3b 20 04 3e 39 6c b8 3d
       0.28203744 -0.046369225 0.1290292 0.09005017
0003f0 78 04 8c bd 9f 13 9f be 78 28 94 be 50 01 d4 bd
       -0.0683679 -0.31069657 -0.28937125 -0.10351813

layers.0.bias f4 [64]
000000 4e 3e 4f 3b 64 35 90 be 10 c3 e2 bd fd f5 26 3e
       0.003162283 -0.28165734 -0.110723615 0.16304775
000010 47 be 5e be 44 88 19 be 08 4a a6 be 7a 65 c2 3e
       -0.21752273 -0.14993387 -0.32478356 0.37968045
000020 b1 72 bc 3e 54 ce bb bc 2c 36 91 bd ce cb ba bd
       0.36806253 -0.022925533 -0.070904106 -0.09120904
000030 50 01 97 bd a1 d0 85 be cd 7f be 3e 3f 2f cb 3e
       -0.07373297 -0.26135734 0.3720688 0.39684483
000040 8d 4b 4f 3e d9 ef 71 bc 4d 4c 1f 3e 06 7e da 3d
       0.20243664 -0.014766657 0.1555645 0.10668568
000050 e5 4d 83 3e 13 26 f1 3d f4 dc 4c 3e 6b 0d 5f 3e
       0.25645366 0.1177484 0.20006162 0.21782462
000060 9c 7b f4 3d af f9 ac bd b1 9d 44 bd d2 1a cf bd
       0.11937639 -0.08446061 -0.04800195 -0.101125374
000070 a7 4f a6 be 76 80 83 be bc 7e 29 bc 26 a0 54 3e
       -0.32482645 -0.25683945 -0.010345157 0.20764217
000080 f1 9f 8d be 59 5b 8f 3e 05 bf 64 3e aa 11 ac 3e
       -0.27661088 0.2799938 0.22338493 0.33607227
000090 ba ad 4a 3e ea de 13 3e 57 ce a4 bd b8 29 9b 3e
       0.19792834 0.14440504 -0.08047169 0.30305266
0000a0 63 0f b0 3e 60 14 9a 3d 4f f4 05 bb 5f 46 42 3e
       0.3438674 0.075234175 -0.0020439809 0.18972157
0000b0 69 0e 20 3e 56 05 4f 3e ca 43 92 3c 6e 03 67 3e
       0.15630497 0.20216879 0.01785459 0.22559902
0000c0 50 53 15 bd b0 5a 14 3e 23 7f bb 3d 20 1a a4 be
       -0.036456406 0.1448772 0.09155109 -0.32051182
0000d0 c8 fb 8d 3e 7b e6 6d bd d2 5e 5a 3d 70 19 9e 3e
       0.27731156 -0.05808113 0.053313084 0.30878782
0000e0 39 ab 88 be f0 14 a0 be de 20 b7 3e 7c 3b 0a be
       -0.26693133 -0.31265974 0.35767263 -0.13499254
0000f0 3f 25 8d be ad 39 5d 3c b8 84 8c be b8 73 2c 3e
       -0.2756748 0.0135025205 -0.27445006 0.16841018

layers.1.weight f4 [64, 64]
000000 01 41 70 3d 4e 1f 4b bd 00 51 ff bb 2b 81 35 3d
       0.058655743 -0.0495904 -0.0077916384 0.044312637
000010 6a 53 4b bc d8 9b ad 3c b0 44 32 bc 03 bf 5e bd
       -0.012410024 0.021192476 -0.010880634 -0.05438138
000020 74 9e c0 bb cd 37 99 bd 34 ed ac bd ef 46 0d be
       -0.005878264 -0.07481346 -0.084436804 -0.1379659
000030 46 0c fc 3d 1b 30 10 3d 2d 15 1f 3d 42 59 af bd
       0.123070285 0.035202127 0.038838554 -0.085619465
000040 03 0d 92 3d 89 03 a1 bb 0b 93 1b 3d 67 a1 ad bd
       0.07131388 -0.0049137515 0.037982028 -0.08478051
000050 3e b1 ad 3d 85 d0 91 3d 6b 77 be 3d b7 6a 6a bd
       0.08481072 0.0711985 0.09300121 -0.057230677
000060 68 f1 bd bd 47 87 d8 3d d9 c3 aa bc 0d 8c 79 bd
       -0.0927456 0.10572677 -0.02084534 -0.06092458
000070 dd 0a 23 3e 28 62 e5 bd 46 4e 40 3d 33 1f 0d 3e
       0.15922113 -0.112003624 0.046949647 0.13781433
000080 55 4a b3 bd 5f 23 71 bd 39 06 b6 bc e3 0c c7 3d
       -0.08754412 -0.058871623 -0.022219764 0.09719255
000090 16 1b d3 bd d7 02 92 3b 8c 1c 88 bb 3d a5 af bd
       -0.103079006 0.004455905 -0.0041537937 -0.085764386
0000a0 c0 cf 76 3c f7 10 07 3e e5 9e b6 bd 06 a2 aa 3d
       0.01506418 0.13190065 -0.089170255 0.08331685
0000b0 a3 03 97 bd 82 09 a7 3d 80 92 42 bc f4 71 e5 3b
       -0.073737405 0.0815611 -0.011875749 0.0070021097
0000c0 90 b4 07 bc f4 41 8b 3b 30 b6 fa b9 4b 36 cf 3d
       -0.008282796 0.0042498056 -0.00047819456 0.101177774
0000d0 fe 37 b6 bd dc 98 d3 3d fb af 69 3d 8f 7c 17 3e
       -0.088973984 0.1033189 0.057052594 0.14793609
0000e0 c3 57 16 3e 69 29 97 3d bb 4e a3 bd ac 07 9b 3d
       0.14681916 0.07380945 -0.07974001 0.07569823
0000f0 8f f7 ac 3d c9 b5 32 3e c3 c8 10 bd 9e 48 92 3d
       0.084456556 0.17452158 -0.03534771 0.07142757
000100 ce 33 b5 bc c2 f6 3a bd 62 16 85 bd 35 e7 bc bd
       -0.022119429 -0.045645483 -0.0649841 -0.09223787
000110 4d 77 d2 3d 0a cd 98 3d e0 64 90 bc 07 4a 3c bd
       0.10276661 0.07460983 -0.017626226 -0.045969035
000120 42 a5 ec bc 35 5d c4 bd 80 6d c1 bb 20 dc 2d bd
       -0.028887395 -0.0958809 -0.005902946 -0.042446256
000130 20 d9 d6 bb 96 8a 5f 3c 7f 73 db 3d 20 c1 d2 3c
       -0.006556645 0.013643881 0.107153885 0.025726855
000140 d4 c8 9a 3d 53 fc c4 bb 1c ff 57 bd 6c 15 ba 3d
       0.07557836 -0.0060115247 -0.052733526 0.09086117
000150 cb b4 ab bb fe b2 5b bd 71 91 ed bd 7f 68 09 3e
       -0.005240058 -0.053637497 -0.11600006 0.13418768
000160 fa 40 85 3d 18 50 d5 3d 59 f3 e9 3d 00 d2 3e 3d
       0.06506534 0.10415667 0.11423368 0.04658699
000170 f8 f1 0c bc fc b4 5e 3d 3f 3b ba bd 8c 3d 9c 3d
       -0.008602612 0.05437182 -0.090933315 0.07628927
000180 ce 16 e8 3b e5 e6 c7 bd 73 7e 9f ba 9d 33 bb bd
       0.0070827967 -0.097608365 -0.0012168422 -0.09140704
000190 4a 8c de bd 01 64 38 3a 6d 93 b4 bd 3b 33 4d 3d
       -0.10866602 0.0007033945 -0.08817182 0.050097685
0001a0 24 7a 14 bd e1 e6 82 bd 35 dc 1e bd 9c 03 0e 3e
       -0.036249295 -0.06391693 -0.038784225 0.13868564
0001b0 ab a1 c1 bc 26 4b c5 bd f2 91 1a 3e 15 1a ed 3d
       -0.02363666 -0.09633474 0.15094736 0.115772404
0001c0 f0 d7 79 bc a9 5c 99 bd b7 92 8e 3d cd 1b f0 bc
       -0.015249237 -0.07488377 0.069615774 -0.029310131
0001d0 fb 51 95 bc 01 0f 02 3e b2 96 04 3c a4 20 6c bd
       -0.018227568 0.12701036 0.008092569 -0.057648316
0001e0 f4 cd c7 3d 16 be aa 3d 6a ed 92 3d cd 74 bb 3d
       0.09756079 0.08337037 0.071741894 0.09153137
0001f0 cf f3 cb bd d6 73 f5 bd a7 99 cd bd 8c cf 47 bd
       -0.09958612 -0.119849846 -0.100390725 -0.048781916
000200 fd 9e 4c bd be 1b 17 3e 8c a9 2e bd 95 9d 04 be
       -0.04995631 0.14756677 -0.04264216 -0.12950738
000210 c0 43 5d 3d a8 9c b7 bc 0a e1 a1 bd b8 e4 49 3c
       0.05401969 -0.022413567 -0.07904251 0.012322597
000220 29 5a 26 be b1 fa fb bd 60 8e 8b bd 45 37 14 3e
       -0.16245331 -0.12303675 -0.06814265 0.14474209
000230 ac 9e d0 bd b9 5a c3 bd 41 2e ed 3b eb 69 2d 3c
       -0.10186514 -0.09538788 0.00723818 0.010584335
000240 63 eb 3e 3d ba 68 38 3d 60 00 e1 3c 6a 0c a1 bd
       0.0466112 0.04502175 0.027466 -0.07863696
000250 9b cc e7 3c fe d8 c0 bc be 4f e7 bd 3b 70 b6 bd
       0.028295806 -0.02354097 -0.112945065 -0.08908125
000260 32 c5 59 3d 7d cb c6 bc d8 e1 16 3d 28 10 4b bd
       0.053166576 -0.024266953 0.036836475 -0.049575955
000270 93 c1 5e 3d 70 df cc 3d a8 5d 04 bd c0 11 1a be
       0.054383826 0.10003555 -0.03231588 -0.15045834
000280 f7 14 a2 3d 95 b0 72 3d 38 f4 98 bc 05 13 88 3d
       0.07914155 0.059250433 -0.01867114 0.06644253
000290 40 56 ce 3c d3 44 f0 bd 45 a3 d8 bd 4a fe 99 3d
       0.025187612 -0.11731877 -0.10578016 0.07519205
0002a0 ee bc 67 bd 5a 3e 0c 3e be aa 2b 3e d5 b0 bc 3d
       -0.05657666 0.1369566 0.16764352 0.092134155
0002b0 50 6a fd bc 94 4c 98 bd a9 3c 13 bd 12 04 be 3c
       -0.030934483 -0.07436481 -0.035946522 0.0231953
0002c0 30 b4 68 bd 88 3a e0 3d fe 62 a7 3d 01 63 6c bd
       -0.056812465 0.10948664 0.08173178 -0.057711605
0002d0 03 8f ba bc 18 2e 11 3e 67 02 50 bd 72 1a bb bd
       -0.022773271 0.1417774 -0.05078354 -0.091359034
0002e0 a2 d4 0b be 03 05 3b bb 59 e7 6a bd 4c 7d 92 bd
       -0.13655332 -0.0028536923 -0.057349537 -0.07152805
0002f0 43 00 26 bd 57 7a 1c 3d 18 8c 4f 3d ff 88 cf 3d
       -0.040527593 0.03820261 0.050670713 0.10133552
000300 77 e0 b3 3d 4b 3d 0d bd 0a e1 f3 3d b5 5d 1c 3e
       0.08783048 -0.03448228 0.11908157 0.15270121
000310 62 cc b6 3d 42 66 f4 bd 2a 7b 9f 3d 2e 54 93 3d
       0.08925702 -0.11933567 0.077871636 0.071937904
000320 9c 44 51 bc b6 71 c3 bd 2c 47 3a bd 29 de 55 3d
       -0.012772705 -0.09543173 -0.04547803 0.05221382
000330 e4 72 5a 3d 95 62 ea bd 67 0f 29 3d 8e 6a 98 bd
       0.053332224 -0.11444584 0.041274454 -0.07442199
000340 55 42 26 3d 86 0e fd 3d c1 de de bd 36 64 90 3d
       0.040590603 0.12356286 -0.10882331 0.07050364
000350 53 cc 9e bd 63 88 8e bd f0 bd 95 3d 44 9e 13 ba
       -0.077538155 -0.069596075 0.07311618 -0.00056311884
000360 1a 3d d0 bd 27 25 1a bc b9 dd 48 3d 46 51 ba bd
       -0.10167904 -0.009408272 0.049039576 -0.09097533
000370 52 85 d2 3d 1a 61 e9 bd c6 04 ac 3c 29 11 98 3d
       0.10279335 -0.11395474 0.02099837 0.07425148
000380 84 8a 49 be 18 b0 41 bc c2 40 cb bd 55 f3 5b 3d
       -0.19681746 -0.011821769 -0.09924461 0.053698856
000390 d4 ef 90 3d a6 58 58 3d 4e 39 79 3d 70 e0 1e bd
       0.070769936 0.052818917 0.060845666 -0.03878826
0003a0 7d 90 6c bd e1 0f 83 bd 29 61 ec bd f7 61 12 3d
       -0.057754982 -0.06399513 -0.11541969 0.035737958
0003b0 ac 37 42 3e de b9 63 bd 08 d3 21 be 40 9b ef bc
       0.1896655 -0.05559718 -0.15803158 -0.029248834
0003c0 a0 9b 34 bd 77 91 a5 bd 54 a1 46 bd 7b 7c dd ba
       -0.044093728 -0.08084386 -0.0484937 -0.001689806
0003d0 44 c9 a3 3d 40 79 03 be 0f e2 2f bd 1f 1d 95 3d
       0.07997373 -0.12839222 -0.042940196 0.07280945
0003e0 6b 74 26 bc 5f 7a 89 3c 4e 9c b9 3d 5f 13 ae bc
       -0.010159592 0.016781984 0.09063016 -0.021249471
0003f0 11 6c 06 be 9b 63 99 3d ac a9 4e bd 08 5f db 3c
       -0.13127162 0.07489701 -0.05045478 0.026778713

layers.1.bias f4 [64]
000000 b3 db 83 bc 92 5b 1a 3d 10 c8 f3 3d e5 47 4e bd
       -0.016095972 0.037684985 0.11903393 -0.050361533
000010 be 8f 47 bc a1 cb 91 bd 68 50 20 3c 3b d4 a9 bd
       -0.012180267 -0.07118917 0.009784795 -0.08292433
000020 bd fe a9 bd 21 83 ac bd 66 c7 dc 3c ea 8b 92 bd
       -0.083005406 -0.08423448 0.02695055 -0.07155593
000030 8c a7 83 bd 54 4a 6d 3d 23 32 d5 3d 6f 2f e8 3d
       -0.064284414 0.057932213 0.104099534 0.11337172
000040 1a a3 df bd 00 32 83 3a c9 30 e9 3c f7 d0 d1 bd
       -0.10919781 0.0010009408 0.028465645 -0.10244935
000050 04 91 88 bd a1 9f f2 3c 2d 78 86 bc 96 d8 c9 bd
       -0.066682845 0.029617133 -0.016414726 -0.098557636
000060 8c 9e a6 3d 61 d5 95 bd 8e 5c 82 bd 16 b1 11 3e
       0.08135709 -0.073160894 -0.0636531 0.14227709
000070 b7 66 28 bc 2e f9 fa ba ca 7f 88 bb e5 9a f8 bd
       -0.010278395 -0.0019147748 -0.0041656243 -0.12138919
000080 a1 2d ca 3d 09 22 ea 3b fc 36 e4 bc e1 09 9f 3d
       0.09871984 0.0071451706 -0.02785825 0.07765556
000090 14 32 b6 3d 14 23 9a bd 23 77 da bd 6c 69 a5 3d
       0.088962704 -0.07526222 -0.10667255 0.08076748
0000a0 4d a2 d2 bd 4d fe 60 3d ae 00 68 bd 9c a7 06 3d
       -0.10284863 0.05493002 -0.056641273 0.03287469
0000b0 14 96 66 3d 3c c1 4b 3d d0 11 c4 3d 2d ac ea bd
       0.05629547 0.04974483 0.0957371 -0.11458621
0000c0 90 53 4a bd ce 13 81 bc b9 fa 12 bd f3 fc 32 3c
       -0.049396098 -0.015756514 -0.03588364 0.010924566
0000d0 35 5b 76 3d 1a 3c 3c 3d 14 0f c1 bd d3 71 9a 3d
       0.060145576 0.045955755 -0.09426704 0.075412415
0000e0 06 e6 cc 3c 4d 4b 18 3e 38 28 39 3d f2 e9 0d bd
       0.025012027 0.14872475 0.04520437 -0.034646936
0000f0 f0 64 80 3c 33 4c e4 3c cc cd 18 bd c9 1b 87 3d
       0.01567313 0.027868366 -0.03730564 0.065970965

layers.2.weight f4 [45, 64]
000000 ca 26 89 3c 85 1a df bd e4 e9 49 bd ee 77 cf bd
       0.016742129 -0.1089373 -0.04929532 -0.10130297
000010 9e 49 4b bd 80 23 03 3d 41 c6 7f bd cb c8 f1 bd
       -0.049630754 0.032016277 -0.06244493 -0.11805876
000020 1b 72 b5 3d 10 c4 bf bd 0d 6f 4d 3c 40 6b e1 3c
       0.088596545 -0.09363568 0.012538684 0.027516961
000030 cc ed 54 3d a6 3b 3d bd af f2 e8 bc 62 bc f2 bd
       0.051984593 -0.046199463 -0.028436033 -0.118523374
000040 30 07 81 bd 98 34 e2 3d 20 86 82 3d b0 cb 66 bd
       -0.06300199 0.11045188 0.063732386 -0.056346595
000050 7e 3e c2 3d ea 14 e9 bd 13 da f5 3d 6c 9a 74 3d
       0.09484576 -0.11380942 0.12004485 0.05971758
000060 a4 57 46 3d c2 18 1d bd bc 27 1e 3d 98 f9 82 bc
       0.048423424 -0.03835369 0.038612112 -0.015988156
000070 9a 8d 15 3d f8 f5 c3 3c 75 9f f8 3d e2 e0 c0 bd
       0.036511995 0.023920998 0.12139789 -0.09417893
000080 2c e3 fd bd 82 1c db 3d 7c 94 ac bd 30 2a e8 bd
       -0.12396845 0.10698797 -0.08426759 -0.113361716
000090 82 21 d3 bd 78 db ed 3d 12 c9 49 3d d0 fa c8 3d
       -0.103091255 0.11614126 0.04926402 0.09813464
0000a0 a0 00 ae bd 4a 75 b3 3d e6 2c 90 bd 9b 73 6c 3d
       -0.08496213 0.087626055 -0.07039814 0.057727437
0000b0 d2 da d1 bd e8 5f 81 bd 74 8e 0d bd 80 25 c3 bc
       -0.10246815 -0.06317121 -0.034559682 -0.023821592
0000c0 40 ca 8a bb 00 fe 8f 3d 18 f6 33 3d 69 0f 2b bd
       -0.004235536 0.070308685 0.043935865 -0.041762743
0000d0 0a aa ae bd 46 f4 1a bd 60 4a b8 3b d6 e4 db 3d
       -0.08528526 -0.037830614 0.0056241006 0.10737006
0000e0 cf 01 09 bd 29 1e fa 3d 49 22 65 bc 21 ed bb bd
       -0.03344899 0.12212784 -0.013985225 -0.09176088
0000f0 77 02 3c 3c b2 5e e8 3d c1 ba 44 bd 4a d3 d4 bd
       0.011475197 0.11346187 -0.048029665 -0.10391863
000100 3e a8 be 3d 46 fe fd bd 7c 86 00 3d 00 97 8a bc
       0.093094334 -0.124020144 0.031378254 -0.016917706
000110 d0 8b e2 bd 20 c9 38 bd 78 95 69 bd f8 8b 54 3d
       -0.11061823 -0.045113683 -0.05702731 0.051891297
000120 90 2e a5 3c d4 41 8f bd 60 71 b2 3b a8 05 13 3d
       0.020163804 -0.069949776 0.0054456443 0.035894066
000130 42 86 9e 3d 84 51 dd 3d fc 9a 95 bd 52 b4 c5 bd
       0.077404514 0.108065635 -0.073049515 -0.09653534
000140 d8 21 38 bd 40 2d ab bb d0 b1 21 bd e8 ea d8 3d
       -0.04495415 -0.0052239 -0.039476216 0.1059168
000150 18 c8 95 3c 4c 5b a6 3d 0c 53 88 3d e0 10 be bd
       0.018283889 0.08122882 0.06656465 -0.092805624
000160 c2 24 a7 3d c0 d6 22 bc e8 7e d4 bd 94 33 f8 3d
       0.08161308 -0.009938896 -0.10375768 0.12119213
000170 60 e5 f4 bb cc 26 80 3d 88 cd ce 3d c4 75 ca bd
       -0.0074736327 0.062574 0.10097796 -0.09885743
000180 e6 d8 b9 3d a0 a5 b0 bc b8 07 e6 bc cc 52 92 3d
       0.09074573 -0.021563351 -0.028079852 0.071446985
000190 b4 bc e7 3d a2 7f 9a bd 00 b0 cc bb 92 28 b5 bd
       0.11315289 -0.07543875 -0.006246567 -0.08845629
0001a0 38 3f ae 3c f8 96 a3 3c 20 e4 7f 3c c8 68 f2 bd
       0.02127038 0.019969448 0.015618354 -0.11836392
0001b0 5c 07 7c bd c8 77 e3 3c cc 47 f2 bd f0 6f 53 3c
       -0.061530456 0.027767077 -0.118301004 0.012905106
0001c0 d0 8e f3 3c 00 ef 11 bd 5c 25 51 3d 30 56 c6 3d
       0.029731184 -0.03562832 0.05106102 0.09684408
0001d0 88 e5 f3 3c e0 07 1e bc 9c 30 6c 3d c0 98 7b bd
       0.029772535 -0.009645432 0.057663545 -0.06142497
0001e0 ec ce ed 3d 5a 49 cd 3d 38 dc 82 3c 72 29 ed bd
       0.11611733 0.10023756 0.01597415 -0.11580171
0001f0 0c 08 27 3d 22 2b e3 bd 44 17 29 3d 20 6c 2b 3d
       0.04077916 -0.11092211 0.041281953 0.041851163
000200 93 1f 63 3d 59 c6 f5 bb e8 da 4e 3d 0f 31 81 bd
       0.055450033 -0.0075004515 0.050501734 -0.06308185
000210 22 aa a7 bd 52 dd cf 3d bd 7b a9 bd 7b ac a6 bd
       -0.08186747 0.101496354 -0.08275554 -0.08138367
000220 e1 6b c3 bd c2 a8 cf 3d 8a 8a bc 3d 9a 2d ed bd
       -0.09542061 0.1013961 0.09206112 -0.115809634
000230 bc ff c6 bd 0b 9c b0 bd 10 e0 e8 bd ae d0 b8 ba
       -0.09716746 -0.08623513 -0.113708615 -0.0014100277
000240 b0 e0 3b bc 10 b1 5c 3d fc 45 96 3d 88 d9 5c bd
       -0.011467144 0.053879797 0.07337567 -0.05391839
000250 70 e3 ab bd 2e ce a0 bd c5 c0 a1 bd 4a 64 ab 3d
       -0.0839299 -0.07851826 -0.07898096 0.08368738
000260 a4 7c 69 3d aa 91 8a 3b c8 3e d6 bd 6b 71 d4 bc
       0.057003632 0.0042287903 -0.10461193 -0.025932988
000270 da d4 85 3d ac f6 37 bd b0 bd af bd fc 57 ae 3b
       0.06534739 -0.04491298 -0.08581102 0.005320547
000280 b9 e0 8e 3d b0 01 03 3c 97 a7 ce 3c 1a 4f 9d 3d
       0.06976456 0.007996008 0.025226397 0.07681103
000290 e8 a7 d6 3d 36 84 fe bd 12 88 ac 3d f1 4b 55 bd
       0.10481244 -0.12427561 0.08424391 -0.052074376
0002a0 82 c2 85 bd 5f eb 7b 3d 42 d3 a8 bd 28 d5 c4 3c
       -0.0653124 0.061503764 -0.08243419 0.024027422
0002b0 2a 0d e1 bd 16 73 c5 3d ca 13 fe 3d 9f c5 3c 3b
       -0.10988839 0.096410915 0.12406118 0.0028804315
0002c0 d4 d1 08 bd 1a 40 1d 3d 61 14 df 3d ac 55 ff bd
       -0.033403233 0.03839121 0.10892559 -0.124675125
0002d0 68 45 08 bd c5 2b ec 3d d8 57 ff 3d 0e b0 be 3d
       -0.033269316 0.11531786 0.12467927 0.093109235
0002e0 53 cf 51 bc c9 e9 1e bd 11 8c 89 bd 43 b8 72 3d
       -0.012805778 -0.038797174 -0.06716169 0.059257757
0002f0 97 77 93 bd 60 2c 79 3d a9 af 9a 3d 18 97 e0 3d
       -0.07200544 0.060833335 0.07553036 0.10966319
000300 9b f7 b1 bd d4 a6 3a bd 7c 6d c0 3d 06 05 92 bd
       -0.08689805 -0.045569256 0.093958825 -0.071298644
000310 bb c2 b6 3d d4 8a 0d 3e 5a d6 bc bd 38 4b 01 3e
       0.08923861 0.1382249 -0.09220572 0.1262635
000320 55 48 cd bb d0 d4 46 3d 44 e0 a7 3d a8 77 fd 3d
       -0.006264726 0.048542798 0.08197072 0.12376338
000330 b8 0c 15 bd 20 ff a8 3d cb ea 66 3d c4 2b e7 3d
       -0.036389083 0.08251786 0.05637626 0.112876445
000340 f2 99 f3 3d 40 2c fe bc 57 00 f9 3c 34 c6 ce bc
       0.11894597 -0.03102696 0.03039567 -0.025240995
000350 00 10 8e b8 a9 13 c9 3d 8c 30 e8 bd f0 cb f7 3d
       -6.774068e-05 0.09818203 -0.113373846 0.12099445
000360 ca 4a c9 bd c0 55 05 bc 08 10 ae 3d f5 35 d6 3c
       -0.09828718 -0.00813812 0.084991515 0.026148776
000370 27 3d ad bd 70 14 35 3c c8 ec 14 3d 29 22 5b 3d
       -0.084589295 0.011052236 0.036358625 0.053499375
000380 e9 b1 33 3d d0 d4 6b 3d cd 95 bb bd 5b ea 70 3d
       0.04387084 0.057576 -0.091594316 0.05881725
000390 3f 48 b4 bd 04 19 f8 3d 7a 2a db bd f0 d0 53 bb
       -0.08802842 0.12114146 -0.10701461 -0.0032320581
0003a0 dd 4d a4 39 80 ba c6 3c b8 a4 8a 3d 85 35 cf bc
       0.0003133853 0.024258852 0.06769699 -0.025294075
0003b0 f4 26 42 bd 58 a9 30 3d a6 7f b8 bc 4a 2c d5 3d
       -0.04740043 0.04313025 -0.022521805 0.10408838
0003c0 e8 3a c0 3d af 3b 0a 3e 94 f5 2d 3d 99 dc 67 bc
       0.093862355 0.1349933 0.04247053 -0.014151716
0003d0 dc 00 2b 3d a5 dd bf 3d 42 12 b2 3d 66 eb d0 3d
       0.041748866 0.09368447 0.08694889 0.10201149
0003e0 01 a7 e6 bd 4b 2c d6 3d 82 64 da 3d c8 9c c3 bd
       -0.11262322 0.10457667 0.106637016 -0.09551388
0003f0 f3 e3 c2 bd 24 6f ff bc d2 61 a0 bd 82 7b 88 3d
       -0.09516134 -0.031180926 -0.07831158 0.06664182

layers.2.bias f4 [45]
000000 94 72 66 3d a8 80 af 3d 0a 96 65 bd 6a 04 46 3d
       0.056261614 0.08569461 -0.05605129 0.048344053
000010 a6 ae ae 3d 25 d6 62 bd 5a 42 29 3d 80 78 fd bb
       0.08529405 -0.055380005 0.041323043 -0.007735312
000020 0f ed e8 3d 70 e8 58 bc 8a 2f a3 3d b0 cf ee 3c
       0.1137334 -0.013239011 0.07968052 0.029151767
000030 0e 9b d8 3c b9 d8 1d 3d 4e 33 98 bd 3e 6e dc 3d
       0.026441123 0.03853676 -0.074316606 0.107632145
000040 ad ce e0 3d d9 8a 0e 3b d8 ab c3 bd ed cf e8 3d
       0.1097692 0.002175024 -0.09554261 0.11367784
000050 04 56 17 bc 2c 69 15 3d 94 12 65 3a 80 8b 0b bb
       -0.009236816 0.036477253 0.0008738425 -0.0021292865
000060 9d 6f 10 bd e0 93 8d bc 90 16 c7 3c 53 23 c4 bd
       -0.035262693 -0.017282426 0.02430275 -0.0957705
000070 df fb 03 3e de 38 ab bd d4 3e aa 3d 62 97 e3 bc
       0.1288905 -0.08360456 0.08312765 -0.027782146
000080 00 06 c2 3c 48 c0 d1 bd d8 8f c1 3c fc 76 8b bd
       0.023684502 -0.10241753 0.02362816 -0.06809804
000090 b0 04 16 bd 88 b4 34 bd cb 37 c2 bc b8 2a cf bd
       -0.036625564 -0.04411748 -0.023708245 -0.1011557
0000a0 6c b6 11 3d ab 7b 75 bc b9 39 f7 bb 4c 46 8b bd
       0.03557436 -0.014983098 -0.007544723 -0.068005174
0000b0 bc b6 a5 3c
       0.020228736
