experiments/learn_cdrive/cdrive/2022_01_20_133524692467_4_664e5/2022_01_20_133524692467_4_664e5_4999.pth (torch, 32215 bytes, 6 tensors)

layers.0.weight f4 [64, 7]
00000000: a2c1 96be ec37 903d 5603 80be 40fa cebd
00000010: 0649 1e3e 5a33 703e 7cde a23e cbf3 debc
00000020: 3e00 b43e 8828 6dbe 4015 1b3e 160b 903d
00000030: 5698 6b3e 87b7 afbe df7e aabe 524d 083e
00000040: dd73 bebe 7647 65be c8ce 733d 907c 433d
00000050: 6561 13be b21d 813e aadd 24be 9c39 b6bd
00000060: 522c 1c3e 0b05 9c3d 192c 183e 6a3f 953e
00000070: d712 0abd 3747 34be 0bb4 19be 62eb b93e
00000080: a85a db3d 324b a2be 6574 423e 323d 753e
00000090: 8741 b4be 4030 303d 7643 b8be 6ba5 25be
000000a0: 48eb 3abe 7392 41be 55d5 bcbe 84d0 89be
000000b0: d988 8bbe 6244 0d3e 5cfe c0bd f8cb cf3d
000000c0: beb8 663e cf51 2e3e 97b4 543e e369 8fbe
000000d0: 2023 3fbd 96d8 6e3d 763a c73e b04d 3c3d
000000e0: 604c 9dbe 4ed1 00be c47d 173c e334 8ebc
000000f0: 9edf a23e 4209 f1bd 2489 7c3e 7673 9abe
00000100: b2a7 04bc 3f50 713e 8ce3 b53e 1f63 6f3b
00000110: afd9 8d3e a5a4 83be 724b 8dbe a730 50be
00000120: 9eda b0be c0af c43c 54c3 ecbd cc29 20be
00000130: 93bd 8bbe 907b 853e f6eb 6bb9 fd8c 1e3e
00000140: 076c a3be 9a4a 46be dba0 3b3e efa9 dbbe
00000150: 5800 90be bcfd 97bd e05c 0f3d 16ea a1be
00000160: 2f7d 84be dc0d b9be b098 29bd daa8 0c3e
00000170: e44b 10be 690c b43e 441e 0cbe 9f73 f13d
00000180: 771d 17bd b9bf 9ebe c1bf 6bbe 3a7c db3b
00000190: b2cb 013d f603 babe 994c 96be 29cf 513e
000001a0: e5e8 813e 84bf b63e 3f22 1bbe 641d 11be
000001b0: 3c32 c33e b504 c3be 29f8 92bd 9f96 fabe
000001c0: 8098 32be ce52 08be a5ac 97bc 0fd5 30be
000001d0: c7f7 223e 1071 b23c 4e0f babe 10f0 7cbe
000001e0: 5a75 613e 59cc c7bd b02c 4ebe c999 71be
000001f0: f675 803d e5a5 dd3e 1cd7 60bd 7ec5 d1be
00000200: 9186 30be dd1a 453e c6fb 63be f89a f6bd
00000210: 14d9 d63e c7d3 533e 5dcb adbd 1219 babd
00000220: 4e96 4cbe 4740 613e d8db 92be cad7 83be
00000230: ca88 2a3e 0661 acbe 5332 283e 368b 9bbd
00000240: 4595 223e 077f 9ebe 3880 b53e f6d1 8abd
00000250: 3c20 c53c da2f ac3e 0a8c 98be 7b1d 2ebe
00000260: 5396 60bb f6ee da3e fad7 51be e28d 8cbe
00000270: 981c ef3d 8bc4 bd3d a415 273d 222a 96be
00000280: 9a25 a8be b872 2f3e 2987 a53e 5237 aa3d
00000290: c6eb b33e 4d57 a03d 729a 923e db4d 8abe
000002a0: 8bc7 45be ade0 8dbe 5906 a3be b90e cb3d
000002b0: 4e91 80be fd34 d03d 0677 babe 6b0d 2d3e
000002c0: 7f43 403e 4257 19bd a798 863d 8cc3 1c3c
000002d0: 06cc 1f3e 8fc6 853e ee7a 563e 0668 35be
000002e0: 83bc acbe 865a 4e3d ebf4 633e 9afa 0fbe
000002f0: 32e4 263e 789b 83be 1cf4 323d 15f2 9abc
00000300: e91f ae3e 3f17 7b3e 365b 033e 7a35 a83e
00000310: 2ad6 9a3e 3aa5 ad3e 3416 4e3d ed26 ab3d
00000320: ee74 a5be b5a2 e8bd 1fa9 803e 28ed 1b3d
00000330: 1310 41be 7918 4fbe 687d ae3d 6074 323c
00000340: 9145 8ebe 458e 76be 5867 c73e aa5e 80be
00000350: d25f 41be 9e2e a1bd 1f06 7fbe 0b26 b53e
00000360: 20d9 893e 3749 623e 0db3 b7be c72b 2fbe
00000370: 4d7e f33d 2509 d83d 2cdc 93be 4016 4e3e
00000380: 8aca aa3d 90bd 99be 9c82 8a3e 70ab d4bd
00000390: a9a2 5f3e 0e28 253e 68c0 bd3d 5672 35bd
000003a0: 232d c73e 4c98 84be 2bdf 92be 001d afbc
000003b0: 082c dfbd d8e7 8ebe 9084 94bd 4526 49be
000003c0: 2efc 8c3e d3fd a63e bdc0 723e 55cf b6be
000003d0: fef1 4fbe 5059 923d b7fa 85be e1c2 c2bd
000003e0: a2e7 8d3e 46c5 55bd a6ea 003e 3552 b93d
000003f0: 7804 8cbd 9f13 9fbe 7828 94be 5001 d4bd
-0.29444605 0.07041916 -0.25002545 -0.10106325 0.15457544 0.23457089 0.31810367 -0.027215859
0.35156435 -0.23159993 0.15144825 0.070333645 0.2300733 -0.34319708 -0.3329992 0.13310745
-0.37197772 -0.22390541 0.059523374 0.047726214 -0.14392622 0.25217968 -0.16100183 -0.08897707
0.15251282 0.07618149 0.14860572 0.29149944 -0.033709373 -0.17605291 -0.15010087 0.36312395
0.10710651 -0.31697994 0.18989713 0.23949125 -0.35206243 0.043014765 -0.3598897 -0.16176383
-0.18253815 -0.18903522 -0.3688151 -0.26916897 -0.27252844 0.13795617 -0.09423515 0.10146326
0.22531411 0.17023395 0.20772015 -0.28010473 -0.046664357 0.05831202 0.3891179 0.045972526
-0.30722332 -0.12579843 0.009246293 -0.017359203 0.3181123 -0.11769344 0.2466169 -0.30166215
-0.008096622 0.23565768 0.35525167 0.0036527587 0.27705142 -0.2571155 -0.27596623 -0.2033106
-0.34541792 0.024009585 -0.115606934 -0.15640944 -0.2729307 0.26070833 -0.00022499249 0.1548347
-0.31918356 -0.19364396 0.1832308 -0.42903087 -0.28125262 -0.07421443 0.035000682 -0.31623906
-0.25876758 -0.36143386 -0.04140538 0.13736287 -0.1409145 0.35165718 -0.1368342 0.11789631
-0.036893334 -0.31005648 -0.23022367 0.0066981586 0.0316884 -0.36331147 -0.29355314 0.20489182
0.25372997 0.3569299 -0.15149783 -0.14171368 0.38124263 -0.3808953 -0.07176239 -0.4894304
-0.17440987 -0.13312837 -0.01851494 -0.17268775 0.15914832 0.021782428 -0.36339802 -0.24700952
0.22017422 -0.09755773 -0.20134234 -0.2359382 0.06272499 0.4329063 -0.054892644 -0.40970987
-0.17238833 0.19248529 -0.22264013 -0.12041277 0.41962492 0.20686255 -0.08486054 -0.09086813
-0.19979212 0.21997176 -0.28683352 -0.2575057 0.16653743 -0.33667773 0.16425447 -0.07594912
0.15877254 -0.3095629 0.35449386 -0.06778328 0.024063222 0.33630258 -0.2979434 -0.17003433
-0.0034269288 0.42760438 -0.20492545 -0.27451998 0.11675376 0.09266003 0.040792122 -0.2932902
-0.32841188 0.17133605 0.32329682 0.08311333 0.35140818 0.07829151 0.28633457 -0.27012524
-0.19314401 -0.27710477 -0.3184078 0.099149175 -0.2511086 0.10166357 -0.36418933 0.1689965
0.18775748 -0.03743673 0.06572085 0.009568106 0.15605173 0.2612805 0.20945331 -0.17715463
-0.33737573 0.0503793 0.22261398 -0.1406044 0.16297987 -0.2570455 0.043689832 -0.018914262
0.3400872 0.24520586 0.12827763 0.328533 0.3024152 0.3391512 0.050314143 0.08357034
-0.32315773 -0.11359159 0.2512903 0.038067967 -0.18853788 -0.2022418 0.08520013 0.010892004
-0.2778745 -0.24077709 0.38946033 -0.25072223 -0.18884209 -0.0787022 -0.24904679 0.35380587
0.26923466 0.22098242 -0.35878792 -0.17106543 0.11889324 0.10548619 -0.28878915 0.20125675
0.083394125 -0.30027437 0.27052772 -0.103842616 0.21839394 0.16128561 0.09265214 -0.044298492
0.38901624 -0.25897443 -0.2868589 -0.021376133 -0.1089707 -0.27911258 -0.07251847 -0.19643505
0.27536148 0.32615528 0.23706336 -0.35705057 -0.20307156 0.07145941 -0.26167843 -0.095098265
0.27715784 -0.052190088 0.12589511 0.09048883 -0.0683679 -0.31069657 -0.28937125 -0.10351813

layers.0.bias f4 [64]
00000000: 3ea3 9a3a 75ab 8dbe 10c3 e2bd 802f 1e3e
00000010: 70df 5fbe 4488 19be 084a a6be 2b31 bf3e
00000020: 29a6 b73e 3b7a 1dbd 2c36 91bd c165 b3bd
00000030: 5001 97bd d894 8abe 2960 bc3e 40ed cb3e
00000040: f396 493e 45a6 65bc a71a 1a3e 7d8d c23d
00000050: 70f4 7e3e c280 e23d f4dc 4c3e d1c3 5a3e
00000060: a9e8 fd3d 3300 d5bd a907 8bbd ec04 dabd
00000070: e581 a8be 7680 83be 0bff 32bc c872 443e
00000080: 4269 92be b6f8 933e 4c03 5e3e 5186 aa3e
00000090: baad 4a3e 9861 073e 7cea a5bd 97f5 9a3e
000000a0: 75b0 a93e 6599 9e3d 4bb6 f63a 54d5 3e3e
000000b0: 225d 233e 79b9 493e e75a 583c 7c17 6b3e
000000c0: 5053 15bd c084 063e 08cf c33d f0cb acbe
000000d0: 471c 8c3e 8bc3 85bd e10d 573d e411 9c3e
000000e0: a45b 8abe 7b3c a4be 7ddb b23e 5bad 0abe
000000f0: 5ddb 98be e4d2 113c b884 8cbe 5c99 263e
0.0011797918 -0.27669874 -0.110723615 0.15447807 -0.21862578 -0.14993387 -0.32478356 0.373422
0.35868958 -0.038446646 -0.070904106 -0.087596424 -0.07373297 -0.27066684 0.36792114 0.39829445
0.19686489 -0.0140166925 0.1504923 0.09499643 0.24897933 0.11059715 0.20006162 0.2136376
0.12397892 -0.104004286 -0.067885704 -0.1064547 -0.32911602 -0.25683945 -0.010925065 0.1918441
-0.2859593 0.2890069 0.21680945 0.333056 0.19792834 0.13220823 -0.08101365 0.30265495
0.3314244 0.077441014 0.0018822638 0.18636066 0.15953496 0.19699658 0.013205267 0.22958177
-0.036456406 0.13136578 0.095609725 -0.33749342 0.27365324 -0.065314375 0.05250347 0.304824
-0.2702304 -0.32077393 0.3493308 -0.13542692 -0.2985486 0.008900378 -0.27445006 0.1626944

layers.1.weight f4 [64, 64]
00000000: 587c 6e3d 483c 72bd 0051 ffbb cac0 1a3d
00000010: bbc4 3ebc d89b ad3c b044 32bc ff1a 7dbd
00000020: ab63 01bc 6096 a2bd 34ed acbd 79f1 15be
00000030: 460c fc3d ee42 e63c f17c 263d 5b0d babd
00000040: 5897 8c3d 35b2 55ba 4eee 2c3d 68fa b6bd
00000050: f627 a83d 4940 993d 6b77 be3d cc50 84bd
00000060: 407b bdbd b3cd cf3d e251 ddbc 90f5 82bd
00000070: f94d 263e 2862 e5bd d9c5 343d 13b4 073e
00000080: ae7a bdbd 0242 8ebd 9f53 dbbc 526d bd3d
00000090: 161b d3bd 82bc 723a be8d dabb 2e43 bdbd
000000a0: aa2f 213c 8799 f93d cf17 cbbd f5ae 9f3d
000000b0: b3a8 80bd 95d9 973d 9a0b 9bbc 09e4 8f3a
000000c0: 90b4 07bc 24c0 09bb 4b20 c7bb 2b8d cb3d
000000d0: 2018 c0bd fa20 c83d 069c 563d 3324 153e
000000e0: cc0c 193e 3743 963d 276d a9bd 8835 8d3d
000000f0: c214 9f3d a10c 383e c3c8 10bd 5d1b 873d
00000100: 4284 ffbc 43e0 48bd 6216 85bd 933a c1bd
00000110: 8eba d33d 0acd 983d e064 90bc ccb2 48bd
00000120: 2ec0 28bd 5315 c3bd 806d c1bb d3be 25bd
00000130: 20d9 d6bb fbf1 1a3c 9044 df3d a30c f93c
00000140: 6938 823d 7720 633b af41 57bd 4d83 aa3d
00000150: da9e 04bc 87fe 5cbd 7191 edbd 4819 083e
00000160: f6ea 893d 0dd7 d03d ece2 cb3d 07fe 1f3d
00000170: 4fd3 4dbc fcb4 5e3d 7c48 b7bd 2b49 953d
00000180: edcb 953a c631 d1bd d88d 9ebb c988 b8bd
00000190: 4a8c debd c3db e6bb 4e5e aebd d09a 4d3d
000001a0: f6c8 21bd 442a 9fbd 9bf8 4fbd 7952 113e
000001b0: dc85 c1bc 3ec8 d9bd 1d51 1a3e b882 ef3d
000001c0: f0d7 79bc ad07 a3bd bb3e 983d 56a1 1cbd
000001d0: 4704 9fbc c839 033e 01e8 203c 8a35 68bd
000001e0: 9264 9f3d aece a63d fe7b 993d ec7b ba3d
000001f0: c383 e1bd 7722 edbd a799 cdbd 8451 76bd
00000200: f920 14bd 5a0e 1e3e 8ca9 2ebd 61c5 04be
00000210: c043 5d3d a89c b7bc 0ae1 a1bd c3bc 803c
00000220: 8c4e 0abe 123a 07be 608e 8bbd 37da 143e
00000230: ac9e d0bd 263a ddbd 5c01 1a3c 7b5f 183c
00000240: f754 953d 6836 333d f869 e23c 13c7 63bd
00000250: cbf5 953c f023 e3bc be4f e7bd 933e b1bd
00000260: 4e5b a23d f186 b2bc 8411 753d 6cb3 06bd
00000270: c8d0 613d 70df cc3d 7181 0dbd e456 23be
00000280: 69b4 a13d fb10 833d 5d82 f7bc 0e01 803d
00000290: 4056 ce3c dd38 e7bd b86a dbbd f2c1 9c3d
000002a0: 0ded 5bbd 17b4 103e 126a 2f3e 3c2f bf3d
000002b0: 35aa 07bd 5acc 62bd d117 15bd a7b2 d13c
000002c0: 30b4 68bd 01d0 e93d c958 a63d 30e7 12bd
000002d0: f682 adbc 32fe 0c3e 34af 54bd e7e6 b5bd
000002e0: 3008 08be 97ff 5fbc fe06 7dbd b80c 91bd
000002f0: 7c35 e5bb 8ea6 243d 188c 4f3d 5c6e eb3d
00000300: b138 d53d 8279 1abd 0ae1 f33d ae49 213e
00000310: da1e ab3d 4266 f4bd 2a7b 9f3d 8fdb 993d
00000320: 2d3f 563c 649e b2bd 2c47 3abd 9142 443d
00000330: e472 5a3d cf77 e4bd 7669 303d a440 9cbd
00000340: 2fe7 903c 3ef0 023e ac75 d7bd 5bb4 ad3d
00000350: 7622 98bd dd77 89bd f0bd 953d c039 043a
00000360: dfa4 d5bd 49d3 b3bb ce7a 7a3d a1fb 8dbd
00000370: 86b3 d23d 1a61 e9bd 74a5 c33c 3e58 9a3d
00000380: 9121 3cbe a846 58bc 7e10 f7bd 549c 6b3d
00000390: d4ef 903d 582d 733d 1ab2 803d 8eb2 18bd
000003a0: 8538 5cbd cec4 79bd bc37 f1bd 11d5 143d
000003b0: c1ac 513e 80d5 04bd 91da 27be f82b f7bc
000003c0: a09b 34bd ba67 a1bd 4d29 55bd 9c22 bebc
000003d0: 2146 a73d a843 05be a85a 33bd 8d54 9b3d
000003e0: f5d2 1b3b ec18 d23b e777 b53d 6cfe 96bc
000003f0: 9a15 98bd 41f1 993d aca9 4ebd 16b3 343d
0.058224052 -0.05913952 -0.0077916384 0.037781514 -0.011643584 0.021192476 -0.010880634 -0.061793324
-0.007897298 -0.07938838 -0.084436804 -0.14642896 0.123070285 0.028108086 0.040646497 -0.090845786
0.06864804 -0.000815186 0.042219453 -0.0893448 0.08210747 0.074829645 0.09300121 -0.06460723
-0.09252024 0.10146656 -0.027016584 -0.063944936 0.16240682 -0.112003624 0.044133995 0.13252287
-0.09251915 -0.06946184 -0.026773272 0.09249367 -0.103079006 0.0009259657 -0.006669729 -0.09241329
0.009838024 0.12187486 -0.099166505 0.07797042 -0.06282177 0.07414547 -0.01892643 0.0010977994
-0.008282796 -0.0021019066 -0.0060768477 0.09939035 -0.093796015 0.09771915 0.05239489 0.1456459
0.14946288 0.07337039 -0.08272772 0.06894976 0.07767631 0.17973568 -0.03534771 0.06597016
-0.031190995 -0.049041998 -0.0649841 -0.09435 0.10338317 0.07460983 -0.017626226 -0.04899864
-0.0411989 -0.09525552 -0.005902946 -0.040465187 -0.006556645 0.009457107 0.10901749 0.030401533
0.06358416 0.0034656802 -0.052552875 0.08325825 -0.008094514 -0.053953674 -0.11600006 0.13290894
0.06734268 0.10197268 0.09955391 0.03906062 -0.012562587 0.05437182 -0.08949372 0.07289346
0.0011428572 -0.10214572 -0.0048386864 -0.09010465 -0.10866602 -0.0070452406 -0.08514081 0.05019647
-0.039498292 -0.077717334 -0.050774198 0.14191617 -0.0236234 -0.10633896 0.15070005 0.116948545
-0.015249237 -0.079604484 0.0743384 -0.0382398 -0.01941122 0.1281501 0.009820939 -0.056691684
0.07782854 0.0814489 0.07494353 0.091056675 -0.1101146 -0.11578839 -0.100390725 -0.060136333
-0.036164258 0.15435162 -0.04264216 -0.12965919 0.05401969 -0.022413567 -0.07904251 0.015715009
-0.13506526 -0.13205746 -0.06814265 0.14536367 -0.10186514 -0.108021066 0.009399738 0.009300108
0.072915964 0.043753058 0.02763842 -0.055609774 0.01830568 -0.027727097 -0.112945065 -0.08654513
0.07927571 -0.02179286 0.059831157 -0.032885954 0.05513075 0.10003555 -0.034547273 -0.15951115
0.07895739 0.06399723 -0.03021353 0.06250201 0.025187612 -0.11290143 -0.10713714 0.0765418
-0.053692866 0.14131199 0.17130306 0.09335181 -0.033121306 -0.055370666 -0.036399666 0.025597883
-0.056812465 0.11416627 0.08122403 -0.03586501 -0.021180611 0.13768843 -0.0519249 -0.08881932
-0.13284373 -0.013671777 -0.061774246 -0.07082504 -0.006994901 0.0401979 0.050670713 0.11495659
0.10411204 -0.037713535 0.11908157 0.15750763 0.08355494 -0.11933567 0.077871636 0.075125806
0.013076586 -0.08721617 -0.04547803 0.047915045 0.053332224 -0.11155664 0.043069325 -0.07629517
0.017688362 0.12786958 -0.10520491 0.08481666 -0.07428448 -0.06712315 0.07311618 0.0005044006
-0.10431837 -0.0054878336 0.061152272 -0.0693276 0.10288148 -0.11395474 0.023882605 0.07536362
-0.1837218 -0.0132004395 -0.120636925 0.057522133 0.070769936 0.059369415 0.0628397 -0.037279658
-0.05376484 -0.060978703 -0.117782086 0.03633601 0.20476057 -0.032430172 -0.1639197 -0.030172333
-0.044093728 -0.078811124 -0.05204134 -0.023209862 0.08167673 -0.1301409 -0.04378763 0.07584486
0.0023776863 0.0064116623 0.0886076 -0.018431865 -0.07425995 0.07516719 -0.05045478 0.044116102

layers.1.bias f4 [64]
00000000: 8f90 bbbc e0fb 183d 1ae5 f73d 4440 46bd
00000010: 870b 0bbc 4242 95bd f3dc 0e3c 24bd b0bd
00000020: 09af abbd 9bfc a9bd 958d 023d ea8b 92bd
00000030: 8ca7 83bd 6b08 7c3d 0622 cd3d 2731 e23d
00000040: ffbe f0bd fb47 4fbc 1247 eb3c 3bc9 dabd
00000050: 0491 88bd 2dff ee3c fa4a 40bc 96d8 c9bd
00000060: 956a 9e3d a2f3 9cbd 8e5c 82bd f174 153e
00000070: 5f28 2dbc 2ef9 faba d06a 94ba 4afc 02be
00000080: e2f7 cf3d e8e9 3b3b ff51 23bd ef09 983d
00000090: a317 b43d 1423 9abd 1184 dfbd 6bb1 ab3d
000000a0: 8435 d8bd 170c 5c3d ef29 7abd 09f9 f93c
000000b0: 1496 663d 3cc1 4b3d ac0c bd3d 2dac eabd
000000c0: 9053 4abd e357 9bbc b9fa 12bd a83a 7a3b
000000d0: 1c07 433d 2429 3b3d 140f c1bd 6ca2 9a3d
000000e0: 3a86 5f3c 366a 1e3e e9f9 303d d76d 15bd
000000f0: 5682 9b3c 65f7 033d f7a8 17bd 3bc5 813d
-0.02289608 0.03734958 0.121042445 -0.048401132 -0.008486635 -0.07288028 0.008719671 -0.08629826
-0.08382995 -0.08300134 0.031873304 -0.07155593 -0.064284414 0.061531466 0.10016255 0.11044531
-0.117551796 -0.012651439 0.028720412 -0.10682913 -0.066682845 0.029174412 -0.011736626 -0.098557636
0.07735173 -0.07663657 -0.0636531 0.14595391 -0.010568707 -0.0019147748 -0.0011323337 -0.12791553
0.10154702 0.0028673355 -0.03987312 0.0742377 0.08793571 -0.07526222 -0.109138615 0.08383449
-0.10557082 0.053722467 -0.061075147 0.030514257 0.05629547 0.04974483 0.092309326 -0.11458621
-0.049396098 -0.018962806 -0.03588364 0.0038181935 0.047614202 0.04569353 -0.09426704 0.07550511
0.013642842 0.15470204 0.043207083 -0.036481705 0.018983047 0.032218356 -0.03702637 0.06336447

layers.2.weight f4 [45, 64]
00000000: 0fc2 b53c 53ce a9bd e4e9 49bd ee77 cfbd
00000010: ad46 07bd 2c98 2e3d b592 33bd 171f e7bd
00000020: f3a7 d43d 10c4 bfbd 9e93 d03c 406b e13c
00000030: cced 543d 23d4 b7bc aff2 e8bc b196 e0bd
00000040: 3007 81bd 9834 e23d 2086 823d b0cb 66bd
00000050: 7e3e c23d ea14 e9bd 13da f53d 6c9a 743d
00000060: a457 463d 89f1 1cbd bc27 1e3d 4950 913a
00000070: a6f0 353d f8f5 c33c e898 093e a4d2 b7bd
00000080: 1611 aebd 821c db3d a598 73bd 302a e8bd
00000090: 4b1f bebd 78db ed3d 12c9 493d 9a51 d73d
000000a0: a000 aebd 4a75 b33d c212 57bd 7593 773d
000000b0: d2da d1bd e85f 81bd c8b6 e6bc 8025 c3bc
000000c0: 40ca 8abb 00fe 8f3d 18f6 333d e853 93bc
000000d0: ea49 a3bd 4a81 0fbd 604a b83b 8f1b e33d
000000e0: f3e0 ecbc 12a1 0c3e 8a85 ecbb 41c5 a8bd
000000f0: eade fe3c 546f 043e 3ad1 bcbc 9418 bebd
00000100: 3ea8 be3d 46fe fdbd 7c86 003d 0097 8abc
00000110: d08b e2bd 20c9 38bd 7895 69bd f88b 543d
00000120: 902e a53c d441 8fbd 6071 b23b a805 133d
00000130: 4286 9e3d 8451 dd3d fc9a 95bd 52b4 c5bd
00000140: d821 38bd 402d abbb d0b1 21bd e8ea d83d
00000150: 18c8 953c 4c5b a63d 0c53 883d e010 bebd
00000160: c224 a73d c0d6 22bc e87e d4bd 9433 f83d
00000170: 60e5 f4bb cc26 803d 88cd ce3d c475 cabd
00000180: e6d8 b93d a0a5 b0bc b807 e6bc cc52 923d
00000190: b4bc e73d a27f 9abd 00b0 ccbb 9228 b5bd
000001a0: 383f ae3c f896 a33c 20e4 7f3c c868 f2bd
000001b0: 5c07 7cbd c877 e33c cc47 f2bd f06f 533c
000001c0: d08e f33c 00ef 11bd 5c25 513d 3056 c63d
000001d0: 88e5 f33c e007 1ebc 9c30 6c3d c098 7bbd
000001e0: ecce ed3d 5a49 cd3d 38dc 823c 7229 edbd
000001f0: 0c08 273d 222b e3bd 4417 293d 206c 2b3d
00000200: 1850 833d ccbd 5ebb e8da 4e3d 2e0d 56bd
00000210: 6fa9 a7bd 76cc e13d 8596 a3bd 569a 9ebd
00000220: e16b c3bd c2a8 cf3d 8a8a bc3d 9a2d edbd
00000230: bcff c6bd 3337 a5bd 74c7 e3bd 654d 4cb9
00000240: b0e0 3bbc 10b1 5c3d fc45 963d 88d9 5cbd
00000250: 70e3 abbd 2ece a0bd c5c0 a1bd 4a64 ab3d
00000260: 9e35 823d aa91 8a3b c83e d6bd d273 9abc
00000270: 9bff 893d acf6 37bd 5f20 a1bd b4a1 d93b
00000280: feec 9c3d b001 033c 6db5 d23c b199 ac3d
00000290: 5732 e33d 3684 febd 1288 ac3d 36a5 3ebd
000002a0: 9e62 86bd 5feb 7b3d 42d3 a8bd 6b98 0d3d
000002b0: 2a0d e1bd 1673 c53d 632d 033e 9fc5 3c3b
000002c0: d4d1 08bd a6aa 3b3d 6114 df3d ace8 f8bd
000002d0: 6845 08bd c52b ec3d d857 ff3d a2df c83d
000002e0: 53cf 51bc 083a edbc 2584 82bd d9dc 853d
000002f0: e1ca 8dbd 7bb1 913d a9af 9a3d 6662 e23d
00000300: 921d d4bd 3a97 5cbc 2d59 f13d 849d fdbd
00000310: b8cf 013e c3b6 133e 5877 66bd 613e be3d
00000320: e58e 7b3c d0d4 463d d4da 9f3d a877 fd3d
00000330: b80c 15bd a7ad e13d 65d1 653d aae1 e53d
00000340: f299 f33d 402c febc 3ed5 a93c 34c6 cebc
00000350: 0010 8eb8 a913 c93d b815 d5bd f0cb f73d
00000360: 5764 08be c055 05bc 0810 ae3d c66c 803d
00000370: d30c 59bd 7014 353c f03e 693d 06f6 773d
00000380: 525b a83d d0d4 6b3d 1b25 9ebd e83a 323b
00000390: 87a4 8bbd 0419 f83d 7a2a dbbd 6865 553c
000003a0: 0b47 bb3c 80ba c63c 6493 cb3d 3ad5 e9bc
000003b0: f426 42bd 58a9 303d b6d1 93bc 4a2c d53d
000003c0: e83a c03d 97cb 233e 94f5 2d3d b53d 9cbb
000003d0: dc00 2b3d 0037 dc3d 4212 b23d 3007 8e3d
000003e0: 0ee5 b8bd 8eaf 063e afe2 013e e719 a6bd
000003f0: 57c4 8ebd 4416 c2bc 496a 29bd c942 bb3d
0.02218726 -0.08291306 -0.04929532 -0.10130297 -0.033026386 0.04262559 -0.043841083 -0.11285227
0.10383596 -0.09363568 0.025461014 0.027516961 0.051984593 -0.022440022 -0.028436033 -0.10966242
-0.06300199 0.11045188 0.063732386 -0.056346595 0.09484576 -0.11380942 0.12004485 0.05971758
0.048423424 -0.038316283 0.038612112 0.0011086549 0.044418953 0.023920998 0.13437235 -0.089757234
-0.08499353 0.10698797 -0.059471745 -0.113361716 -0.092833124 0.11614126 0.04926402 0.10513611
-0.08496213 0.087626055 -0.052508123 0.06044336 -0.10246815 -0.06317121 -0.028163329 -0.023821592
-0.004235536 0.070308685 0.043935865 -0.017984346 -0.07973082 -0.03503541 0.0056241006 0.11089241
-0.028915858 0.13733318 -0.0072180675 -0.08240748 0.031112153 0.12933093 -0.023048986 -0.09282032
0.093094334 -0.124020144 0.031378254 -0.016917706 -0.11061823 -0.045113683 -0.05702731 0.051891297
0.020163804 -0.069949776 0.0054456443 0.035894066 0.077404514 0.108065635 -0.073049515 -0.09653534
-0.04495415 -0.0052239 -0.039476216 0.1059168 0.018283889 0.08122882 0.06656465 -0.092805624
0.08161308 -0.009938896 -0.10375768 0.12119213 -0.0074736327 0.062574 0.10097796 -0.09885743
0.09074573 -0.021563351 -0.028079852 0.071446985 0.11315289 -0.07543875 -0.006246567 -0.08845629
0.02127038 0.019969448 0.015618354 -0.11836392 -0.061530456 0.027767077 -0.118301004 0.012905106
0.029731184 -0.03562832 0.05106102 0.09684408 0.029772535 -0.009645432 0.057663545 -0.06142497
0.11611733 0.10023756 0.01597415 -0.11580171 0.04077916 -0.11092211 0.041281953 0.041851163
0.06411761 -0.003398764 0.050501734 -0.052258663 -0.08186614 0.11025326 -0.07987694 -0.07744281
-0.09542061 0.1013961 0.09206112 -0.115809634 -0.09716746 -0.08067169 -0.11122027 -0.00019483788
-0.011467144 0.053879797 0.07337567 -0.05391839 -0.0839299 -0.07851826 -0.07898096 0.08368738
0.06357883 0.0042287903 -0.10461193 -0.018854056 0.06738206 -0.04491298 -0.078675024 0.006641591
0.0766239 0.007996008 0.025721276 0.08427752 0.11093586 -0.12427561 0.08424391 -0.046544276
-0.065617785 0.061503764 -0.08243419 0.034569185 -0.10988839 0.096410915 0.12810282 0.0028804315
-0.033403233 0.04581704 0.10892559 -0.12153754 -0.033269316 0.11531786 0.12467927 0.098082796
-0.012805778 -0.028958336 -0.06372861 0.06536264 -0.06923462 0.0711393 0.07553036 0.11053924
-0.103572026 -0.01346379 0.11784587 -0.12383559 0.12676895 0.14425187 -0.05626616 0.092892416
0.015353893 0.048542798 0.0780541 0.12376338 -0.036389083 0.1101945 0.056107897 0.11224683
0.11894597 -0.03102696 0.020731565 -0.025240995 -6.774068e-05 0.09818203 -0.10404533 0.12099445
-0.13319527 -0.00813812 0.084991515 0.06270747 -0.052990746 0.011052236 0.056944788 0.06053736
0.08220543 0.057576 -0.07721921 0.0027195755 -0.068184905 0.12114146 -0.10701461 0.013024665
0.022861024 0.024258852 0.09940222 -0.028544057 -0.04740043 0.04313025 -0.018044334 0.10408838
0.093862355 0.15995632 0.04247053 -0.0047680982 0.041748866 0.10752678 0.08694889 0.06934965
-0.09028064 0.13152906 0.12684129 -0.08110409 -0.069710426 -0.023692258 -0.041361127 0.09143598

layers.2.bias f4 [45]
00000000: 5077 883d a880 af3d 35ea 47bd 60ff 903d
00000010: a6ae ae3d fe3c 68bd d8ce 303d 8078 fdbb
00000020: f3ab f13d 70e8 58bc 8a2f a33d a15e e43c
00000030: acf7 093d e9f4 343d 4e33 98bd 3e6e dc3d
00000040: e0c2 e83d c488 313c d8ab c3bd 2575 f03d
00000050: 4af7 0cba 2c69 153d 1533 2c3c 808b 0bbb
00000060: 30ea fbbc e093 8dbc 9016 c73c 3887 bdbd
00000070: 2556 073e de38 abbd d43e aa3d a6f1 c1bc
00000080: 0006 c23c 48c0 d1bd d88f c13c fc76 8bbd
00000090: b004 16bd 88b4 34bd 0ac9 50bc b82a cfbd
000000a0: 7ce3 353d 8b2a 943b 9674 d3bb 2482 4dbd
000000b0: a445 403d
0.06663382 0.08569461 -0.04880734 0.07079959 0.08529405 -0.05669879 0.04316601 -0.007735312
0.11800375 -0.013239011 0.07968052 0.027877154 0.033683464 0.044178877 -0.074316606 0.107632145
0.113652945 0.01083583 -0.09554261 0.117410935 -0.0005377425 0.036477253 0.010510226 -0.0021292865
-0.030751318 -0.017282426 0.02430275 -0.092543066 0.13216455 -0.08360456 0.08312765 -0.023674797
0.023684502 -0.10241753 0.02362816 -0.06809804 -0.036625564 -0.04411748 -0.012743244 -0.1011557
0.0444064 0.004521673 -0.006453107 -0.05017294 0.046941414
