experiments/learn_cdrive/cdrive/2022_01_20_133405660078_2_664e5/2022_01_20_133405660078_2_664e5_999.pth (torch, 32215 bytes, 6 tensors)

layers.0.weight f4 [64, 7]
000000 c0 d5 4e be 01 e3 7a 3d f1 83 9c be 76 a3 b5 bd
       -0.20198727 0.061251644 -0.30569413 -0.08869068
000010 0b 52 5d be ce 5c a3 3d 7c cf 35 be 11 b8 7c 3e
       -0.21613328 0.079766855 -0.1775493 0.24679591
000020 54 87 88 3d 58 53 b4 3e 90 9c 41 3e 0e 74 45 be
       0.06666437 0.35219836 0.1890738 -0.19282553
000030 b0 c2 d5 3d 49 7f 75 be a8 6c a3 3d 8d 2e 7b be
       0.10437524 -0.23974337 0.07979709 -0.24529476
000040 38 c6 3f be d8 2e 57 3d 92 fb 86 be 39 d1 11 be
       -0.18727958 0.052534908 -0.26363808 -0.14239968
000050 90 d1 a2 bc 74 35 97 be df b9 f0 3d a3 e7 af bd
       -0.019875318 -0.2953297 0.11754202 -0.08589103
000060 10 d9 d4 b5 48 1b 85 bd ed 92 bf 3e f9 56 51 3e
       -1.5858404e-06 -0.06499344 0.37416783 0.20443334
000070 fd 38 bd be f1 6f b1 3e ff f4 b0 3e c1 70 b2 be
       -0.3695754 0.34655717 0.34561917 -0.3485165
000080 75 a5 80 be 82 d1 93 3e 76 dd 76 be da 04 67 be
       -0.25126234 0.2887078 -0.24107918 -0.22560444
000090 84 da 9d 3e 48 b3 1d bc 1c 3d be be 93 aa 2e 3e
       0.30830777 -0.0096252635 -0.37155998 0.17057256
0000a0 17 0a 5c 3e bf bd 98 3e 7e 6d af bd e2 1c 92 3e
       0.21488224 0.29832265 -0.08565806 0.2853766
0000b0 69 da 0b be 07 f9 72 3e 32 bd b8 be b2 a3 50 bd
       -0.13657536 0.23727809 -0.36081845 -0.050937362
0000c0 d1 90 a1 be 3e a3 a0 be 57 d6 22 bd 36 d4 94 3e
       -0.315558 -0.31374544 -0.03975519 0.29068154
0000d0 58 1f 6c bd 1c 22 84 be a4 c7 19 3e 4b f2 93 3e
       -0.05764708 -0.25807273 0.15017563 0.28895792
0000e0 84 9e 89 be 11 4f 54 bd 59 c3 a7 3e 46 d3 74 be
       -0.2687875 -0.051833216 0.32766226 -0.2390872
0000f0 f4 d3 98 be b1 68 ac be dd a2 50 3e 4c 6d 4d 3e
       -0.29849207 -0.33673623 0.20374627 0.20061225
000100 79 72 ab 3e dc b5 e2 3d 03 86 9b 3e a5 59 8b be
       0.33485773 0.11069843 0.3037568 -0.2721683
000110 85 8b 53 3e bf ed 40 3e 3f 86 ac 3e 7c 55 ad be
       0.20658691 0.18840693 0.33696172 -0.33854282
000120 a1 e2 88 be 5e de 00 3d 06 b8 00 3e 2a 48 ff bb
       -0.26735404 0.031462066 0.125702 -0.007790585
000130 10 82 6c 3d ef 3f e1 3d 1c 52 cb 3c b0 47 af 3e
       0.057741225 0.109985225 0.024819426 0.3423438
000140 88 36 3b 3e c9 46 c0 be e4 bf 5f 3e c3 52 99 be
       0.18282521 -0.37554005 0.21850544 -0.29945955
000150 ab a6 d0 3e a3 e0 43 bd 34 29 b7 bb 21 2a 4a 3e
       0.40752158 -0.047821652 -0.0055896286 0.19742633
000160 13 42 55 be 75 78 b9 3d 72 0f 55 3e 22 21 5f 3e
       -0.20825987 0.090561785 0.20806673 0.21789983
000170 c6 c4 2d be 69 f1 88 3e b8 d1 8e be 81 41 8b 3d
       -0.16969594 0.2674668 -0.27894378 0.06799603
000180 37 d8 be 3e 5f c6 87 be 1d 1b ea 3c 77 b8 6c 3e
       0.37274334 -0.26518533 0.028577382 0.23117243
000190 f7 4e 8e 3e cd 93 31 bc e5 3d 20 bd ba be 8d be
       0.2779462 -0.010838461 -0.039121527 -0.27684575
0001a0 ac e8 d7 3e 2b c3 6c be 44 bf bb 3e 64 19 bb 3e
       0.42169702 -0.23121326 0.36669362 0.3654281
0001b0 ec 0c c6 3e 46 77 c8 bd 2e d3 26 bd 6c 26 b2 be
       0.38681734 -0.097883746 -0.04072874 -0.3479494
0001c0 08 eb 51 bd d9 9a 4d be af d7 0a be 48 f5 cb bd
       -0.051249534 -0.20078601 -0.1355884 -0.09958893
0001d0 6a b0 3f be b0 01 d9 bc e0 85 a0 3d 66 56 ed bc
       -0.1871964 -0.026490062 0.07838035 -0.028971862
0001e0 61 98 92 3e e1 2f 1c 3e d9 1a 95 3e 94 6b 25 3d
       0.2863188 0.1525264 0.29122046 0.040385798
0001f0 09 18 48 3e 9e d2 96 bd 0e 78 e5 bd 34 fd 53 3e
       0.19540419 -0.07364391 -0.11204539 0.20702058
000200 f0 af 40 bc a5 6e 83 3e aa 66 0a 3c 41 f5 c4 be
       -0.011760697 0.25670353 0.008447329 -0.38468364
000210 26 13 00 3e ed 1c ad 3e e1 90 b1 bd 7c fb 77 3e
       0.12507305 0.3381113 -0.086702116 0.24217027
000220 41 78 f8 bd a6 a9 4a 3e 1a 29 3b 3c 8b 13 6f bd
       -0.121323116 0.19791278 0.011423374 -0.058368247
000230 45 64 97 3e 35 80 4f 3e 4f 27 cd 3d 6c 7a 24 be
       0.29568687 0.20263751 0.10017263 -0.16062325
000240 5f fe 80 bd d5 e8 7e be a9 4c 93 bc 20 7f 4f be
       -0.062985174 -0.24893506 -0.01798089 -0.20263338
000250 a8 ce b6 bd 40 8c 83 bd 24 3a 99 be 4d 22 53 be
       -0.08926135 -0.06423235 -0.2992717 -0.20618553
000260 20 8a aa be 86 b0 6f 3e 72 f4 18 be 7a 7b a0 be
       -0.33308506 0.23407182 -0.14936998 -0.31344205
000270 4a 2d ad 3e 5a 3d 81 3e b0 0c 4f be 14 0f b1 be
       0.33823615 0.2524212 -0.20219684 -0.34581816
000280 f9 87 82 3e 7e 71 c8 3e 49 42 a6 3e f0 49 9d 3e
       0.25494364 0.39149088 0.32472447 0.30720472
000290 ac 24 79 3e 56 45 95 be 1e 11 62 be 9c 32 65 be
       0.24330395 -0.29154462 -0.22076842 -0.22382587
0002a0 08 72 88 bd bf 28 1f be f5 a3 35 be 41 34 ae 3e
       -0.06662375 -0.15542887 -0.17738326 0.34024242
0002b0 6a d9 bb 3e 0a f6 52 bc cf 64 8f 3d 31 93 3f 3e
       0.3668931 -0.012876043 0.070016496 0.18708493
0002c0 1f 3a 4b 3d 27 6b b9 3e 5a 46 bc bd ad 2f 5c be
       0.049615975 0.36214563 -0.09193106 -0.21502562
0002d0 7c 19 33 3c 09 43 6b bc b8 39 10 3e 3d 81 a4 be
       0.010931369 -0.014359244 0.14084518 -0.3212985
0002e0 e3 ea a7 3e 26 e6 90 3e 88 85 1e be 76 93 a0 be
       0.32796392 0.2830059 -0.15480626 -0.31362504
0002f0 36 9b 42 3e 34 5f 95 be 07 73 90 be 63 5b 9b be
       0.19004521 -0.29174197 -0.2821276 -0.3034316
000300 98 13 b2 bd 75 92 95 be 50 68 d9 bc f1 20 b1 be
       -0.086951435 -0.292133 -0.026538998 -0.34595445
000310 63 0d 88 bc 99 ca 95 3b 50 d4 15 3e db 1b 84 be
       -0.016607946 0.0045712707 0.14631772 -0.25802502
000320 82 30 ef 3d f5 81 71 3e 79 b0 c8 3e 87 b6 97 3e
       0.11679174 0.23584731 0.39197138 0.29631445
000330 49 12 c2 3d 38 f5 39 be 9d d1 a1 3e ca 28 b4 3d
       0.09476144 -0.1815995 0.31605235 0.087968424
000340 a4 c6 82 be d1 f5 4b 3e 42 18 b4 3e a4 1b 89 bd
       -0.25542176 0.1991799 0.35174757 -0.06694725
000350 80 84 6e 3d 33 b6 b4 3d ac cd 4a 3e 68 b2 b7 bd
       0.05823183 0.08823814 0.1980502 -0.08969575
000360 f9 9b 87 be 58 84 1d 3d 67 c4 8b 3d 55 ff a1 bd
       -0.26486185 0.03845629 0.0682457 -0.07910029
000370 bc 68 55 3c 1d 7f 1a 3d 9c af 3c be cc 11 97 bd
       0.013025459 0.03771888 -0.18426365 -0.07376441
000380 ee 5a e9 3d c6 a5 89 3e 9a 04 01 3e 0e d4 63 3e
       0.113942966 0.26884288 0.12599412 0.22248861
000390 f4 b7 33 bd 58 f0 ae be 0d c6 bf 3e 7a b0 b6 be
       -0.043876603 -0.34167743 0.37455788 -0.35681516
0003a0 c3 5a 36 be 23 12 87 3d 0f b9 a8 3e 44 e0 3e 3e
       -0.1780806 0.06595256 0.32953689 0.18640238
0003b0 37 9d 9f be 02 9c 67 3d ca b4 a6 3d 96 f9 95 bd
       -0.31174633 0.056545265 0.081399515 -0.07322995
0003c0 3e 4a 83 3e c5 ba d1 3d 8c eb 0d be 31 70 5b 3e
       0.2564258 0.102407016 -0.13859385 0.21429516
0003d0 e8 05 98 be d0 cd 8f bc 10 70 a9 be 15 80 39 be
       -0.29692006 -0.017554194 -0.3309331 -0.18115266
0003e0 3c 8f b7 be 94 54 8f be 11 1d b9 be ba f5 04 3e
       -0.35851467 -0.27994215 -0.36154988 0.12984362
0003f0 a0 8b 49 3e ce ce e3 bd ef 4b 5a 3d 2b f6 a6 3c
       0.19682169 -0.11123429 0.053295072 0.020381054

layers.0.bias f4 [64]
000000 52 f0 89 3e e9 14 9a 3e b0 e6 9f 3c 27 db 60 3e
       0.26941162 0.30094078 0.01951918 0.219586
000010 0d 1b ed 3b 1e a3 2d be 43 f1 55 3e 4b 4a 6e 3e
       0.0072358907 -0.16956756 0.20892815 0.23270528
000020 11 9c b4 3d e4 9b ff bd 04 1b ca 3d 37 e7 e8 bd
       0.0881883 -0.12480906 0.09868434 -0.11372226
000030 03 e1 97 be 7f 81 2f 3e a8 c4 2a 3c e8 20 09 be
       -0.29663858 0.17139243 0.010422863 -0.13391459
000040 ee e8 25 3e e7 98 93 3e 8e 7b 48 3e 55 3b 00 3d
       0.16202137 0.28827593 0.19578382 0.031306583
000050 92 ab 81 3e 48 07 1a 3d fe 92 4e 3e b0 3f a2 be
       0.2532621 0.0376046 0.2017326 -0.31689215
000060 2c 71 b4 bd 84 4b 07 be ee 1b c3 be f1 ba 94 3e
       -0.08810648 -0.132124 -0.38107246 0.29048875
000070 d4 ae 61 be 6e 5b 01 bd 01 00 45 bc af f2 92 3e
       -0.22039348 -0.031581335 -0.012023927 0.28700778
000080 e7 4a 5f bd e4 86 8f 3e 6d c9 ce 3e d0 0e c0 be
       -0.05451479 0.280326 0.4038805 -0.375113
000090 a2 29 70 3e 29 fe 02 3e 1e e5 2d bd 26 24 8a be
       0.23453382 0.12792267 -0.04245483 -0.26980704
0000a0 97 8d 5c be ba 40 8c be 8f 92 ab bd 8b 74 95 3e
       -0.21538387 -0.27393132 -0.08377563 0.29190478
0000b0 83 6a 07 3e f7 8d ec bd cb 88 fa bc 0f 47 41 be
       0.13224225 -0.11550515 -0.030582806 -0.18874763
0000c0 19 18 b1 3e 45 49 e6 3d e3 61 43 be c5 80 d3 bd
       0.34588698 0.11244444 -0.1908031 -0.10327295
0000d0 9f b2 17 be 44 b4 5f be 03 67 83 3d 46 e5 31 3d
       -0.14814232 -0.2184611 0.06416132 0.043431543
0000e0 01 af 8d 3e 4f ee a2 3e bc 6f 2d be b2 22 31 be
       0.2767258 0.3182244 -0.16937155 -0.17298391
0000f0 2f 8a 95 be 79 4f 1e 3e c4 ba 19 bd 83 6a 64 be
       -0.29206988 0.15460004 -0.03753163 -0.22306256

layers.1.weight f4 [64, 64]
000000 79 ac 02 bd 5f 54 03 3e 60 98 b4 3b 1c d9 90 3d
       -0.031902764 0.12825154 0.0055113286 0.0707266
000010 09 3f 88 3d 66 81 66 3d 7f b0 a9 3d d0 ed b0 3d
       0.06652648 0.056275748 0.08285617 0.08639109
000020 88 53 82 bc 5f ba f9 3d 9c 2a c0 3d 63 88 e7 3c
       -0.015908971 0.121937506 0.09383127 0.028263276
000030 64 b2 d1 3d c7 8d 26 3d c4 c8 14 bd a6 78 b2 3d
       0.102391034 0.040662553 -0.036324278 0.08714418
000040 4c 46 ef bd b0 e9 18 bd 4d 4c ff b9 7a d5 da 3d
       -0.1168333 -0.037332237 -0.0004869424 0.10685249
000050 b5 cc 0f 3d b8 e6 f7 bc 3b 8a b3 bc ba d0 cc 3d
       0.035107333 -0.030261382 -0.0219165 0.10000749
000060 28 87 28 bd e5 28 d8 3d 88 37 6e 3d be c1 a4 3d
       -0.04114452 0.10554675 0.058158427 0.08044766
000070 54 1c 14 be 49 0f 88 bc bd 85 1c 3e 4e 1e c4 3c
       -0.14463931 -0.016608851 0.15285392 0.023940232
000080 d1 fb c5 bd 3c 6c e4 bd 7e 99 cf 3d 56 69 c3 3d
       -0.09667171 -0.111534566 0.10136698 0.095415756
000090 5f c4 a1 bd 5d 63 13 3e f8 0e f8 3c 80 4c 53 3d
       -0.07898783 0.14393373 0.030280575 0.051586628
0000a0 a4 e3 1c 3e a6 4c a0 3c 97 e0 a7 bd c2 90 fc bd
       0.15321213 0.019567799 -0.08197134 -0.12332298
0000b0 1c 9a 0c 3d a8 80 ba ba 69 df 1e bd db f5 10 be
       0.034326658 -0.0014229016 -0.03878728 -0.14156286
0000c0 d0 6a cf 3d 95 df ed 3d 3a 63 c0 bd 6d 7f 1e 3a
       0.10127795 0.116149105 -0.09393926 0.00060462096
0000d0 14 93 79 bd 31 44 db bc 57 9b d4 3d aa f6 b5 bd
       -0.06093128 -0.026765915 0.10381191 -0.08884938
0000e0 c1 91 db 3c bd 98 9c 3d ed d9 d4 3d a3 d2 03 3e
       0.0268029 0.0764632 0.103931285 0.1287332
0000f0 f4 09 25 3d 1f 54 ec 3d cd 67 c1 bd 75 81 c3 3d
       0.040292695 0.11539482 -0.094436266 0.09546176
000100 86 13 75 bd bf 42 e0 3b 8c d5 8f bd e0 ab cb bd
       -0.059833072 0.0068438943 -0.07023153 -0.09944892
000110 13 fe c7 bc 69 43 02 3c a8 2d c1 3d 0f 38 06 3d
       -0.024413144 0.007950642 0.09432536 0.032768305
000120 c0 0e f5 3d b5 60 3a 3d 64 c2 b9 3d de 13 a7 bb
       0.11965704 0.045502383 0.0907028 -0.005098804
000130 4c ae 84 3d 14 9b 02 3e ab 74 90 3d 6d 8e 7c 3d
       0.06478557 0.1275447 0.07053503 0.061659265
000140 4e d9 be bd c1 52 0e 3d bc cd ee 3d 74 66 00 be
       -0.09318791 0.03474689 0.116603345 -0.12539083
000150 18 77 4d 3d 50 61 ac bd 16 5b 9d bd 9a 6c 9c bd
       0.050162405 -0.084169984 -0.07683389 -0.076379016
000160 57 11 3e bd 2d 63 a3 3d 31 8f c1 3d ba d5 da bd
       -0.046403255 0.07977901 0.0945114 -0.10685296
000170 6e 95 2c bd f5 96 bf 3d 26 75 96 3d 60 34 0d 3e
       -0.042134695 0.09354965 0.07346563 0.1378951
000180 6f 08 ef bd 2c f0 a7 3d 0a a0 d3 3c c8 a8 ac bd
       -0.116715305 0.08200106 0.025833149 -0.0843063
000190 46 4a c0 3c af cb 0b 3d 23 76 81 bd de 4f b8 3d
       0.023472916 0.034129795 -0.06321361 0.089996085
0001a0 1c 3a 4f 3d ed 30 bb 3d 9e b5 e6 3c 9c fc 73 3d
       0.050592527 0.09140191 0.028162774 0.05956708
0001b0 03 79 34 bd da ea 8b 3d e0 2b 99 bd 2a ff 52 bb
       -0.04406072 0.06831904 -0.074790716 -0.0032195547
0001c0 06 18 e0 bd ed 67 86 3d 30 57 b6 bd db f4 8c 3d
       -0.10942082 0.06562791 -0.089033484 0.0688264
0001d0 1d 56 e3 3a 7f 09 ac bc 6f db c2 bd f0 f2 c4 bd
       0.0017344389 -0.021000622 -0.0951451 -0.09616649
0001e0 b2 d1 61 3d d0 39 fa 3d 3a 26 ae bd 16 57 d4 bc
       0.05513162 0.12218058 -0.08503385 -0.025920432
0001f0 49 be bd 3d 2c 9a 38 3c 45 8e f8 bd bc 47 a5 bd
       0.0926481 0.011267226 -0.12136511 -0.08070323
000200 e7 fc 5c 3d 74 1f 26 bd 2e 54 dd 3d 37 68 2e bd
       0.053952124 -0.04055734 0.108070716 -0.042579856
000210 03 f2 1e 3d 06 24 7e bd 65 0a 8b bd 41 da a2 bc
       0.03880502 -0.062046073 -0.06789092 -0.019879462
000220 62 f9 b0 bd f6 4e 5c 3d c0 cb d6 bd 6e f6 18 3c
       -0.08641316 0.05378624 -0.10488081 0.009336097
000230 b7 5a 89 bd 9a 53 e7 bc e2 2c 41 bc 1b 28 07 3d
       -0.067067556 -0.028238107 -0.011790486 0.032997232
000240 d2 08 9f bd b2 2b 7b 3d 74 d4 ac 3d 2c f7 c4 3d
       -0.07765354 0.061320968 0.0843896 0.09617457
000250 79 9e 93 bd c0 d0 42 3d bf d9 d1 3d 90 c3 34 bd
       -0.07207961 0.04756236 0.1024661 -0.044131815
000260 fb a4 5a 3c bb 62 a3 3c cb 36 d9 3d 50 74 68 bc
       0.0133449985 0.01994454 0.10606154 -0.014187887
000270 38 a5 af 3d 43 72 91 bd fc 6b bf 3b 61 eb a4 bc
       0.08576435 -0.07101872 0.00584173 -0.020131769
000280 d4 9a 8a 3c 24 3b ff 3d 3c ed 45 3d 50 b3 d4 bc
       0.01691953 0.12462452 0.048321947 -0.02596441
000290 64 4f 68 3c 41 5c 5c bd ac 6a 6e 3d 54 9f cd 3d
       0.014179084 -0.053798918 0.0582072 0.10040155
0002a0 b4 f2 81 bd c8 f1 43 bd 1d 84 ed 3c a2 c5 fc 3d
       -0.0634512 -0.047838002 0.02899366 0.12342383
0002b0 b5 42 eb 3d 5c 14 f7 3d 3d bc 9d bd 2a 95 64 bc
       0.11487333 0.1206443 -0.07701919 -0.013951579
0002c0 f5 39 01 3d 1f 4c 6a 3d 0c ee 2c bd d3 44 8d 3d
       0.031549413 0.0572015 -0.042219207 0.06897893
0002d0 20 4d af bc dc 43 8d bc 01 36 9a 3c a8 5d ce 3d
       -0.02139908 -0.017244272 0.01882458 0.10076457
0002e0 22 7b d3 3d 1e ae b0 3d 5e bf 14 be be b2 ab bd
       0.1032622 0.0862696 -0.14526126 -0.08383702
0002f0 a8 c0 3c bd f2 c2 78 bd 21 48 03 3e 14 09 87 bd
       -0.04608217 -0.06073279 0.12820484 -0.065935284
000300 2d 12 84 3d fd de 94 3d ee fb aa 3d c4 8f e5 3d
       0.06448779 0.07269094 0.08348833 0.11209062
000310 66 f5 9b bd b0 7f 87 3c eb fb 64 bd 5d 79 ab bd
       -0.076151654 0.016540378 -0.05590431 -0.083727576
000320 2e 4b cf bb 4d 9e cc 3d 96 6f e3 3d 54 19 96 3d
       -0.006326101 0.09991131 0.11105268 0.0732905
000330 4a e8 02 3c f0 75 da bd 2b d2 c4 3c 93 a3 6a 3d
       0.007989952 -0.10667026 0.024025997 0.057284903
000340 10 10 0c 3d 64 c7 3c 3d 12 b1 a5 bd 04 e8 c3 bc
       0.034195006 0.04608859 -0.08090414 -0.023914345
000350 4b a3 ae 3c a0 eb 16 bc d7 a8 f8 bb 90 19 7c bd
       0.021318099 -0.009211451 -0.0075884867 -0.061547816
000360 93 aa 3b bd 91 41 bd bd 5b d5 f8 bd f0 59 d7 3d
       -0.04581697 -0.092410214 -0.12150069 0.10515201
000370 1b 9f f0 3c 04 7b 99 bd 82 cd a4 3d ec 94 bb 3c
       0.029372742 -0.074941665 0.0804701 0.02289816
000380 17 da 12 bd ed f6 ff 3d 9c ce f3 bd b8 18 4d bd
       -0.035852518 0.12498269 -0.11904642 -0.0500724
000390 7e 1b dc bd d5 cb e6 3d b7 f8 86 bd fc ba 2a 3d
       -0.10747431 0.112693466 -0.06590407 0.04168223
0003a0 48 81 9e bd 20 32 ed bd 44 0e 31 bd e2 38 91 bd
       -0.07739502 -0.11581826 -0.043226495 -0.07090928
0003b0 92 71 98 bc 49 3b d4 bc 8e ca a2 3c 63 5b c1 bd
       -0.018608842 -0.025907176 0.019871976 -0.09441259
0003c0 a8 f5 18 bd 97 58 99 3d 9b 99 c5 bd 12 24 85 bd
       -0.03734365 0.074876 -0.096484385 -0.065010205
0003d0 96 38 ec 3d 5b 7d e2 bd ab 07 b4 3c 99 6d 78 3d
       0.115342304 -0.11059066 0.021976313 0.060651395
0003e0 50 7b 7f 3d 4b cc d3 bd a0 31 0f 3d 08 f6 bb 3d
       0.06237346 -0.103417 0.034959435 0.09177786
0003f0 18 1b cf bc 16 59 35 3c f8 6a 11 3d 7f a9 6a 3c
       -0.025281474 0.011068603 0.035502404 0.014322638

layers.1.bias f4 [64]
000000 0c 03 a0 3d b8 55 8f 3c 4a a4 81 3d 69 98 e2 bd
       0.07813081 0.017496929 0.06330164 -0.11064226
000010 99 6f 8a 3d 00 99 af bd c4 5e df bc d4 de a5 bd
       0.06759567 -0.08574104 -0.027266867 -0.08099142
000020 65 03 11 39 78 03 98 bd d8 64 68 bd 68 18 e3 bd
       0.00013829542 -0.074225366 -0.056736797 -0.110886395
000030 59 9c f6 3d d9 51 05 3d 9c dc 74 3d b2 63 67 3d
       0.1204154 0.03254876 0.059780702 0.05649156
000040 68 24 84 bb 93 d0 0d 3e e8 bb 38 bc 7b bc 6d bc
       -0.0040326603 0.13849096 -0.011275269 -0.014510269
000050 25 7b 85 bd c7 fa 1a 3d e3 6a 9f bc b1 3f fc 3d
       -0.065176286 0.037836816 -0.019460147 0.12316836
000060 3b 5d e0 3c 04 c6 b4 bd f3 54 3d 3d fb eb a1 bd
       0.027388206 -0.08826831 0.046223592 -0.07906338
000070 3d f9 ad bd dc 4a f7 3d f5 60 1a bc 06 21 87 bd
       -0.08494804 0.12074825 -0.00942253 -0.065980956
000080 3a 17 ae 3d 19 ab 47 bc 88 6c d6 3c 93 27 b0 3d
       0.08500524 -0.012186789 0.026174799 0.08601298
000090 5f 85 f7 3d eb 0c 86 bd 9a 18 ff bd 3d 09 43 bc
       0.120859854 -0.06545433 -0.12455864 -0.011904058
0000a0 51 b6 a1 3c 5c 20 d8 bb b0 a6 f6 3c 55 c7 c8 3d
       0.019740256 -0.0065956544 0.03010878 0.098036446
0000b0 3d 3e 13 bd c0 44 bd 3d 95 45 99 3d 8b d8 dd bd
       -0.035948027 0.09241629 0.07483975 -0.10832318
0000c0 9b ad d9 bd b9 04 52 bd 58 c9 bd bd ca 08 bb 3d
       -0.10628816 -0.051274035 -0.09266919 0.09132536
0000d0 08 ff e2 bd 78 a7 e5 3d f9 2b 8f 3d 97 88 9e 3d
       -0.110837996 0.11213583 0.06990809 0.07740896
0000e0 1d 77 7f ba dc 01 a8 3d 44 9f 1b bd 82 1c c8 3c
       -0.0009745227 0.0820348 -0.037993684 0.024427656
0000f0 51 ff b3 bd 88 0f 62 3c 13 27 b3 3d 2a 60 a7 ba
       -0.08788932 0.013797648 0.08747687 -0.0012769748

layers.2.weight f4 [45, 64]
000000 4b c3 a8 3d d1 81 92 3c 3d 8e d2 3d 66 f5 84 bb
       0.08240374 0.017884167 0.10281036 -0.004057574
000010 b2 ed 11 3d f8 57 25 bd fe 1d 00 be 00 28 2a bc
       0.035627075 -0.040367097 -0.12511441 -0.010385513
000020 f8 ae ea bc 78 92 96 3d 80 28 10 bd 78 fa d6 bd
       -0.028647885 0.073521554 -0.035194874 -0.10496992
000030 65 6b ef bd a3 45 36 bd ac b5 8e 3d 68 76 d8 3d
       -0.11690406 -0.044500005 0.06968245 0.10569459
000040 e8 8c d8 bc 65 76 2a 3d 9b 92 bf 3d fb e0 50 bc
       -0.026434377 0.041616816 0.09354135 -0.012748952
000050 c2 a4 52 bd fa 2a f4 3d bb 88 ae bc a0 dc 94 3d
       -0.051426657 0.1192226 -0.021305433 0.072686434
000060 e2 e8 5a 3a c8 23 bf bd bb 43 fb 3d 32 9c 10 bc
       0.0008350742 -0.093329966 0.12268778 -0.008826302
000070 a4 92 83 3d 35 bc 5e bd 57 1e 95 ba 80 65 eb 3d
       0.06424454 -0.054378707 -0.001137684 0.11493969
000080 58 14 a6 3d c0 0d cb 3d 38 15 a8 3d 09 27 c3 3d
       0.08109349 0.09914732 0.08207172 0.0952893
000090 a4 03 9e bd da 29 00 bc f8 ba 6f 3d ec 1f e4 3d
       -0.07715538 -0.007822478 0.058527917 0.11138901
0000a0 f5 f7 4a 3d ec d8 87 bd 88 7c 52 3d 48 40 c5 bc
       0.049552877 -0.066331714 0.051388294 -0.024078503
0000b0 34 21 0e 3d fc e8 b7 bd 28 75 4f bd 2b 4f cd bb
       0.034699634 -0.08979985 -0.05064884 -0.006265541
0000c0 ce c9 bf bd ac 36 fe 3d b1 7d ef bd de f3 f3 3c
       -0.09364663 0.124127716 -0.116938956 0.02977937
0000d0 70 5b 36 3d ea a8 8a bd 03 15 c6 3d 30 58 ab bd
       0.044520795 -0.06770499 0.096719764 -0.0836643
0000e0 f1 25 e4 3c 89 f9 9d 3c f8 a4 e3 bd 02 18 9a bd
       0.027850123 0.019284027 -0.1111545 -0.075241104
0000f0 81 c0 18 3d 9a 27 2d bd 34 35 4b bd a4 14 f9 bd
       0.03729296 -0.042274095 -0.049611285 -0.1216214
000100 ac e2 9e 3d 40 ec 8a bd 44 8b ee bd d8 73 7c bd
       0.07758078 -0.06783342 -0.116476566 -0.061633915
000110 20 40 e5 bb b2 b9 a1 3d 8c 6a 90 bd a8 e2 19 3d
       -0.0069961697 0.07896747 -0.07051572 0.037569672
000120 d0 8d 30 bc 68 08 91 bd f4 94 7e 3d f0 9d 88 bc
       -0.010775998 -0.070816815 0.06215377 -0.016676873
000130 b8 2c b6 bc c0 65 24 3b 7e 1f af bd d0 e1 71 3c
       -0.02223812 0.0025085062 -0.085509285 0.014763311
000140 02 86 f2 bd 10 b8 ee bc 8a 42 ab 3d c0 63 29 bd
       -0.11841966 -0.029140502 0.08362301 -0.041354895
000150 28 32 83 3c fe bd ea 3d e8 ae 7c bd 40 e2 70 bc
       0.016015127 0.114620194 -0.06169024 -0.01470238
000160 b0 4e 04 bc 2a 54 ea 3d ae dd d2 bd 38 83 17 3d
       -0.008075401 0.11441834 -0.10296188 0.036990374
000170 52 b5 f9 3d 72 4f e7 3d 10 e2 27 bc 08 f8 f9 3c
       0.12192787 0.1129445 -0.010246769 0.030513778
000180 e2 44 f5 bd 20 62 6c 3d 9a d7 92 3d e8 37 d4 bc
       -0.11976029 0.057710767 0.07170029 -0.025905564
000190 56 94 a2 bd a8 c9 f5 3d cc 38 82 3d aa 8e e5 bd
       -0.07938449 0.120013535 0.063584894 -0.11208852
0001a0 60 00 46 bd 08 3b 89 bc 98 2e 8a 3d 9c 77 1d 3d
       -0.0483402 -0.016751781 0.06747168 0.038444147
0001b0 90 67 e8 3c 0c f5 56 3d a0 6d 96 bc 4c 35 90 bd
       0.028369695 0.05247979 -0.01836282 -0.070414156
0001c0 18 28 5d bd e4 a5 6c bd a0 e6 22 bc c4 94 fc bd
       -0.053993315 -0.057775393 -0.009942681 -0.12333062
0001d0 78 a9 83 bc f2 12 d8 3d 5a 89 fc 3d cc 2e 27 3d
       -0.01607202 0.105504885 0.12330885 0.040816113
0001e0 1c 26 c8 3d 5c 7b 8b 3d c8 ef 25 3d 30 f7 cd 3d
       0.09772894 0.06810638 0.040511876 0.10056913
0001f0 90 8c 6c 3c 60 24 f9 3b da ae f9 3d ba 58 fd bd
       0.01443781 0.007603213 0.121915534 -0.12370439
000200 2f 42 39 3c 5f e4 86 3d 0f 68 01 bd 96 4c 6b bc
       0.011307283 0.06586527 -0.03159338 -0.014361521
000210 6d 04 dd 3d 4e db ef bc 9e 66 f0 bd ca 48 db bd
       0.1079186 -0.029279377 -0.11738323 -0.10707243
000220 27 05 3e 3c 70 2b 38 bd ca 62 f3 bd 00 90 cb 3a
       0.011597908 -0.0449633 -0.11884077 0.0015530586
000230 2e b7 d5 bc dc c4 82 bc 27 5f c9 bc 31 39 4e 3d
       -0.026088323 -0.01596301 -0.024581505 0.05034751
000240 92 ec 21 3d 13 fb 93 3d 72 e6 d9 3d 86 bd b9 bd
       0.03953225 0.07225623 0.10639657 -0.09069352
000250 0a d2 6b bd 27 db 9e bd 1d 1e ee bb 35 73 53 bd
       -0.057573356 -0.07756644 -0.0072667734 -0.05162354
000260 4e e7 02 3e a0 89 21 3d 4e a3 ce bd b0 53 d2 bd
       0.12783548 0.03943789 -0.10089742 -0.102698684
000270 30 1e 58 bd 72 bf a9 bd 2e 94 f2 3c 1a e9 67 3d
       -0.052763164 -0.082884684 0.029611673 0.056618787
000280 bf d9 c3 bd 84 f8 f3 bd 02 a0 ac bd 91 be ca bc
       -0.09563016 -0.11912635 -0.084289566 -0.024749072
000290 7f e7 aa bd ae fa 3f bd d0 f9 22 bd b6 86 8e 3d
       -0.083449356 -0.046869926 -0.03978902 0.06959288
0002a0 c8 7a 18 bd 2e ab dc 3d 64 0d 4b 3d 80 2e ac 3d
       -0.03722647 0.107748374 0.049573317 0.08407307
0002b0 32 d0 e1 bd 96 42 7f 3d c0 b0 aa bb 1e 1e c3 3d
       -0.11026038 0.06231936 -0.0052090585 0.09527229
0002c0 6c eb a3 bd b3 05 f1 3d 7e fd e5 3d cc ae eb 3d
       -0.080038875 0.11768665 0.112299904 0.11507949
0002d0 30 61 d9 bc 3a 60 bb 3d a8 93 1d 3c 26 20 e6 3d
       -0.0265356 0.09149213 0.0096177235 0.112366006
0002e0 f6 bf d3 3d f3 11 4d bc 32 70 fc bd 5e c3 f3 bd
       0.10339348 -0.012516486 -0.12326087 -0.11902498
0002f0 10 a9 2d 3d 90 9a 85 bd ef 7a 6f 3c e8 52 5b 3d
       0.04239756 -0.06523621 0.014616712 0.053545862
000300 57 64 dd 3d 41 5f 88 bd d8 5c d5 bd f0 fc 0d bc
       0.10810154 -0.06658793 -0.10418099 -0.008666262
000310 27 e0 a7 bd 89 96 c7 3d 46 d2 c1 3d ae c4 f4 3d
       -0.081970505 0.09745509 0.094639346 0.11951576
000320 86 0f 3a bc de f6 e0 bd 6a c0 cc 3d 98 5f f4 bd
       -0.01135624 -0.10984586 0.099976376 -0.119322956
000330 29 ee fb bc bb fc b1 3d 87 6b 06 be cf 39 f3 3d
       -0.030753212 0.08690783 -0.13126956 0.118762605
000340 90 3f b9 bd ab aa 6a bd 7c 48 e2 3d a0 8e c5 bc
       -0.09045327 -0.057291668 0.110489815 -0.02411586
000350 17 62 50 3d fc b6 1b 3d 20 3b f4 bb a0 eb e2 bc
       0.050874796 0.038016304 -0.0074533373 -0.027700245
000360 b1 36 e8 bd 20 c1 6b bc ef e0 f9 bc 9a 9a d0 3d
       -0.113385566 -0.014389306 -0.030502765 0.10185738
000370 a2 53 ba bd 46 e9 4d bc 0b 55 e1 3d cf 05 82 3d
       -0.09097983 -0.012567824 0.11002549 0.06348764
000380 f7 93 e2 3c 74 bd 2d bd c4 45 0f bd e1 34 7d bd
       0.027658446 -0.042417005 -0.034978643 -0.061818007
000390 a3 70 9c bd 1e ad a4 bd 5c 9d 55 3d 31 3d 85 3d
       -0.07638671 -0.08040832 0.052152023 0.06505812
0003a0 92 1a 86 bd 9c 5e 45 3d 10 19 db 3c 1a fd e0 bd
       -0.06548037 0.04818593 0.02674535 -0.10985775
0003b0 3e ec a9 3d b0 93 8e bd 79 3a ec 3d 04 ee cc 3a
       0.08297013 -0.06961763 0.1153459 0.0015634899
0003c0 c0 87 8f 3b 8d e2 00 bd 2d 92 49 bd c6 79 ea 3d
       0.0043801963 -0.031466056 -0.04921167 0.11449008
0003d0 04 c0 17 bd 74 50 38 3d 55 7b 0c bd fe 0d a5 3d
       -0.037048355 0.0449986 -0.034297306 0.080593094
0003e0 05 af 8e 3d eb 94 41 bd c8 c3 a1 3d d7 be cc bd
       0.06966976 -0.04726116 0.078986704 -0.09997337
0003f0 ff 33 5a 3c cc c8 17 3d fd 74 e8 3c 3e 80 e4 bb
       0.013318061 0.03705673 0.028376097 -0.0069732955

layers.2.bias f4 [45]
000000 06 49 92 3b 3a eb 84 bd a9 77 87 3c bd aa 96 3d
       0.0044642715 -0.064901784 0.01653655 0.073567845
000010 08 d2 cd 3c 6f 65 a8 bd fe 63 21 bb 7e 5c ca 3d
       0.025124565 -0.08222472 -0.002462625 0.09880923
000020 e5 80 57 3c 88 8f c8 3d b4 26 d1 3d 9c 44 d2 3c
       0.013153289 0.097930014 0.1021246 0.025667481
000030 82 9f 81 bc 82 87 b4 3c 10 ac 44 bd 00 99 5d bb
       -0.01582313 0.022037271 -0.048015654 -0.003381312
000040 02 b3 a6 bd d2 85 92 bd 16 1a b1 bd b3 d6 5f 3d
       -0.08139612 -0.071544304 -0.086475536 0.054648113
000050 0c a7 e3 3d 4a 58 e3 bd 0e 4b 54 bd a0 6f dd bb
       0.11115846 -0.11100824 -0.05182939 -0.0067576915
000060 31 4b a0 3d 00 62 3c ba e8 82 2e bd da ef de 3d
       0.078268416 -0.0007186234 -0.04260531 0.10885592
000070 af 8a b5 bd 86 fa f4 3d 60 f5 20 bc f4 84 4b 3d
       -0.088643424 0.11961846 -0.009824127 0.04968734
000080 80 1b 24 bd 16 56 ed 3d 48 a2 f9 bd a0 bb 6c 3c
       -0.04006529 0.11588685 -0.12189156 0.01444903
000090 ac af 54 bd ac f1 4a 3d de 58 b6 bd 90 e4 db bc
       -0.051925346 0.049546883 -0.08903669 -0.026842386
0000a0 a5 33 b2 bd 74 32 ec 3d a7 6c 8a bc f9 66 1d 3d
       -0.08701257 0.11533061 -0.016897513 0.03842828
0000b0 62 a4 4e 3d
       0.050449736
