experiments/learn_racetrack/racetrack2/2022_01_20_202157182591_0_fbdf8/2022_01_20_202157182591_0_fbdf8_2999.pth (torch, 24919 bytes, 6 tensors)

layers.0.weight f4 [64, 15]
0	0xbd8c6bcf	-0.068565
1	0x3e32e6cf	0.17470859
2	0x3786e628	1.608122e-05
3	0xbd93b150	-0.07211554
4	0x3dfc07d0	0.123061776
5	0x3d206ea8	0.03916803
6	0xbe941cdf	-0.28928277
7	0x3baa52bd	0.0051978515
8	0xbcff6d32	-0.031179998
9	0x3d09c6e4	0.033636943
10	0x3cfd3f5e	0.030914005
11	0x3e13130d	0.14362736
12	0xbe88a036	-0.2668473
13	0x3d99f91c	0.07518217
14	0x3e40c502	0.18825153
15	0xbe625ce1	-0.22105743
16	0x3e674fce	0.22589037
17	0x3de86115	0.11346642
18	0xbc8a7b1a	-0.016904403
19	0x3df2d7ed	0.11857591
20	0x3e049429	0.12947144
21	0x3e0c45ea	0.13698545
22	0x3e2e5167	0.1702324
23	0x3e66c34c	0.22535437
24	0xbd106373	-0.035251092
25	0xbc8d34a3	-0.017237013
26	0xbe2b0dc5	-0.16704471
27	0xbde2ef2c	-0.11080775
28	0x3cbce8de	0.023060258
29	0x3e4360c5	0.19079883
30	0x3db8e54e	0.090281114
31	0x3e7cfd57	0.24706016
32	0x3e42fbfc	0.19041437
33	0x3e11b912	0.14230755
34	0x3d2a492e	0.041573696
35	0xbcd70d78	-0.02625154
36	0xbe41b472	-0.1891649
37	0x3e0b6479	0.13612546
38	0xbe0a57eb	-0.135101
39	0xbd095418	-0.033527464
40	0x3e2aca7e	0.16678807
41	0x3e505c96	0.20347819
42	0xbd39716b	-0.04527418
43	0x3e326b74	0.17423803
44	0x3e721b88	0.23643315
45	0xbe35bb4e	-0.17747232
46	0x3eb322e2	0.3498755
47	0x3dbfbc80	0.093621254
48	0x3e1448ce	0.14480898
49	0xbe6364f8	-0.22206485
50	0xbdc21c1a	-0.09478016
51	0x3e24f976	0.16110787
52	0x3e545a79	0.20737638
53	0xbdca460d	-0.098766424
54	0x3ddc695a	0.10762282
55	0x3c951cd2	0.01820222
56	0xbe065f2a	-0.1312224
57	0x3db7cd68	0.08974725
58	0x3e3015dc	0.17195839
59	0xbe29f65e	-0.16597888
60	0xbd538342	-0.05163885
61	0x3e5520eb	0.20813338
62	0x3d0e3c9a	0.034725763
63	0x3db07686	0.086163566
64	0xbe55b29b	-0.20868914
65	0xbe567d88	-0.20946324
66	0x3e22bac1	0.15891553
67	0xbc5dd770	-0.013540134
68	0x3d9f79e3	0.0778692
69	0xbdae2f13	-0.085050724
70	0x3e402aaa	0.18766275
71	0x3c1dde51	0.009635524
72	0xbe986b54	-0.29769385
73	0x3dbd6e75	0.09249584
74	0x3da33c43	0.079704784
75	0xbd67102e	-0.056411915
76	0x3ec0906c	0.37610185
77	0x3d79b7dc	0.060966358
78	0x3daab8f5	0.08336059
79	0xbe52a364	-0.20570141
80	0x3de7f20d	0.113254644
81	0xbe61a95d	-0.22037263
82	0xbe0289c9	-0.12747873
83	0x3d8540af	0.06506478
84	0xbe2053e4	-0.15657002
85	0x3dfd06e6	0.123548314
86	0x3d99e467	0.075142674
87	0x3d048910	0.032357275
88	0x3e33fbf2	0.17576578
89	0x3c5c28ad	0.013437432
90	0xbda7e4e2	-0.08197953
91	0x3e316de8	0.17327082
92	0xb9e3d800	-0.00043457747
93	0xbe1c2124	-0.15247017
94	0xbdda2688	-0.106518805
95	0x3da3c160	0.07995868
96	0xbcc20968	-0.023686126
97	0xbd448338	-0.047976702
98	0x3dbf6584	0.093455344
99	0xbe7921ca	-0.24329296
100	0xbdc0de74	-0.094174296
101	0xbe7ce14a	-0.24695316
102	0x3c4620a0	0.012092739
103	0x3d997a38	0.074940145
104	0x3d352660	0.04422605
105	0x3f22606a	0.63428366
106	0x3dbab5c4	0.091167
107	0x3d293b32	0.04131622
108	0x3da1a71b	0.07893201
109	0xbe0462fd	-0.12928386
110	0x3e7537a5	0.23947008
111	0xbe0e183e	-0.13876435
112	0x3e04d364	0.12971264
113	0x3e65f186	0.22455415
114	0xbe1283d7	-0.14308105
115	0xbe21c553	-0.1579793
116	0xbbdf4dcc	-0.006814694
117	0xbe3882b4	-0.1801861
118	0x3df3b4b8	0.11899704
119	0x3c00c905	0.007860427
120	0x3f1fbcf6	0.62397707
121	0xbf05c421	-0.52252394
122	0xbd1ea8b6	-0.038735114
123	0xbc9307b5	-0.017948011
124	0xbdb2d9d1	-0.087329514
125	0xbe1a423d	-0.1506433
126	0xbe9287a3	-0.28619108
127	0xbdab2afd	-0.08357809
128	0x3d957e81	0.07299519
129	0x3e369eeb	0.1783406
130	0xbe808e92	-0.25108773
131	0x3dd08230	0.10181081
132	0xbe3eef3b	-0.18645947
133	0x3e572983	0.21011929
134	0xbe11dbc6	-0.14243993
135	0xbd2fe713	-0.04294498
136	0xbeb01b5a	-0.34395868
137	0x3de10ed4	0.10989156
138	0xbe8f3099	-0.27966765
139	0x3e0bbf8a	0.13647285
140	0x3e16bba4	0.14720017
141	0xbe4ee002	-0.2020264
142	0x3dcdd70a	0.10050781
143	0x3def95cd	0.11698494
144	0xbe9c52a5	-0.30531803
145	0xbe44b5d3	-0.19209985
146	0x3dbc5a84	0.09196952
147	0xbe4f023c	-0.20215696
148	0x3e0a1e7d	0.13488193
149	0xbdac3d6b	-0.08410152
150	0x3c9dc580	0.019259214
151	0xbeca73d9	-0.3954151
152	0x3cd015e1	0.025401058
153	0xbe51146a	-0.20417944
154	0xbe5d1bae	-0.2159259
155	0x3d4c84eb	0.049931448
156	0xbe24a884	-0.16079909
157	0xbd621f0f	-0.0552054
158	0xbde4250f	-0.11139881
159	0x3d7160ae	0.05893009
160	0x3e80f4cc	0.25186765
161	0x3dd6de56	0.10491626
162	0xbe819991	-0.25312474
163	0xbe60d6eb	-0.21956985
164	0xbdf09f90	-0.11749184
165	0xbdfb7315	-0.122778095
166	0x3f23fa64	0.6405394
167	0x3dcba9e8	0.099445164
168	0x3d9f2705	0.07771114
169	0x3e118370	0.14210296
170	0x3de000de	0.109376654
171	0x3d76461e	0.060125463
172	0xbdad95ba	-0.08475824
173	0x3d83e76a	0.06440623
174	0xbcdd01f1	-0.026978465
175	0xbe07d86a	-0.13266149
176	0xbc1714d9	-0.009221279
177	0xbe832f5d	-0.25622073
178	0x3e33937b	0.17536728
179	0x3e414856	0.1887525
180	0xbe68ad7c	-0.22722429
181	0x3e1343a9	0.14381279
182	0xbdeb144c	-0.11478481
183	0x3c25f967	0.010130263
184	0x3e198bf7	0.14994799
185	0x3e2ecc7d	0.17070194
186	0x3d01fb92	0.031734057
187	0x3d58c5b8	0.052922934
188	0xbe204170	-0.15649962
189	0xbe8a5316	-0.27016515
190	0xbe3aac04	-0.18229681
191	0xbdf913d0	-0.12161982
192	0xbcbdce23	-0.023169583
193	0xbd574d1a	-0.052563764
194	0x3e650356	0.22364554
195	0xbd985e9e	-0.07439922
196	0xbfa97b92	-1.3240836
197	0x3e060b48	0.13090241
198	0xbd7a4edb	-0.06111036
199	0x3e36a858	0.17837656
200	0xbe715e8a	-0.2357122
201	0xbd723642	-0.059133776
202	0x3db50ef2	0.08840741
203	0xbd2bb5b3	-0.04192133
204	0xbcdc95c1	-0.026926877
205	0x3e63c273	0.22242145
206	0xbd938adf	-0.07204222
207	0xbe073c6f	-0.13206647
208	0x3c213c08	0.009840973
209	0x3dd39741	0.10331584
210	0xbe2ce9ec	-0.16886109
211	0x3e3259a8	0.17417014
212	0xbe7ff142	-0.24994376
213	0x3e4c0a84	0.19925886
214	0xbe44713e	-0.19183823
215	0x3c63fbc0	0.013915002
216	0xbe31b0ff	-0.17352675
217	0xbe5e6376	-0.21717629
218	0x3e82068f	0.2539563
219	0x3ddbd8e4	0.10734728
220	0xbe5e15d0	-0.21688008
221	0xbe681463	-0.22664027
222	0xbc61d440	-0.0137835145
223	0x3e2a10d4	0.16607982
224	0x3e1307ac	0.14358395
225	0x3c3a3860	0.01136598
226	0x3d093410	0.033496916
227	0xbe439904	-0.1910134
228	0x3e2137de	0.15743968
229	0xbce30e80	-0.027716875
230	0xbe54e9ae	-0.20792267
231	0xbe428df2	-0.1899946
232	0xbd59dd18	-0.053189367
233	0xbe268964	-0.16263348
234	0xbdaa7218	-0.08322543
235	0x3e80fdc3	0.25193605
236	0x3c35de00	0.011100292
237	0xbe0f8014	-0.14013702
238	0x3e4e2124	0.2012983
239	0x3e756ac4	0.23966509
240	0x3c4cf00d	0.012508404
241	0xbe81dabc	-0.25362194
242	0x3cb4958d	0.022043968
243	0xbdcebe8f	-0.1009494
244	0xbc38d1fb	-0.011280532
245	0x3cdfa58c	0.027300619
246	0x3e254bec	0.16142243
247	0x3da9524c	0.0826765
248	0x3d896807	0.06709295
249	0xbc417cc5	-0.0118095325
250	0x3df19256	0.117954895
251	0x3d9858a4	0.07438782
252	0x3cb38404	0.021913536
253	0x3de868d8	0.11348122
254	0x3dd157ef	0.1022185
255	0xbef5dbde	-0.48019308

layers.0.bias f4 [64]
0	0xbdb847f5	-0.089981
1	0x3d1256e9	0.035727415
2	0x3db9b681	0.09068013
3	0x3d8fe922	0.070268884
4	0x3b45c7e8	0.0030178968
5	0xbe3223b2	-0.17396429
6	0x3e30a914	0.17251998
7	0x3e728d24	0.23686653
8	0xbe111854	-0.14169437
9	0x3e12665a	0.14296857
10	0xbd294e42	-0.041334398
11	0x3d516d6a	0.051129736
12	0xbddb2494	-0.10700336
13	0x3d1863a2	0.037204392
14	0x3d056660	0.032568336
15	0xbe10e531	-0.1414993
16	0x3d1eb5fe	0.03874778
17	0x3db89ae7	0.0901392
18	0x3e202bbf	0.15641688
19	0x3e17735a	0.14790097
20	0xbe02fd17	-0.12791859
21	0xbe92e9d9	-0.28694037
22	0x3d7a0084	0.061035648
23	0xbd854b5a	-0.06508513
24	0x3e2ac785	0.16677673
25	0x3e80cbca	0.2515548
26	0x3e23fbd4	0.16014034
27	0x3e71d6c8	0.23617089
28	0x3bd0d763	0.0063733323
29	0x3cfbf650	0.0307571
30	0xbe47a98e	-0.19498274
31	0xbd83a44f	-0.06427824
32	0x3d8bd962	0.06828572
33	0xbe8b1ab8	-0.27168822
34	0x3e1ab8a3	0.15109496
35	0x3da7a65f	0.0818603
36	0xbe56b3e7	-0.20967065
37	0x3c5ce07f	0.013481258
38	0x3ddde3e2	0.10834481
39	0x3e6f2b6b	0.23356406
40	0x3dadeb98	0.084922016
41	0xbe208927	-0.1567732
42	0x3dcfe03b	0.101501904
43	0xbe67f138	-0.22650611
44	0xbe14b6d4	-0.14522868
45	0x3d5060e7	0.050873663
46	0xbe00089b	-0.12503283
47	0x3e270219	0.16309394
48	0x3dfba949	0.12288148
49	0xbdcea414	-0.10089889
50	0xbea7d710	-0.32781267
51	0xbe691981	-0.22763635
52	0xbd50ca07	-0.05097392
53	0x3b840940	0.004029423
54	0xbba26686	-0.0049560694
55	0xbe807a35	-0.25093237
56	0x3d8e887a	0.069596246
57	0xbe6fa85b	-0.23404066
58	0x3c0dada8	0.00864736
59	0xbdc3af2f	-0.09554898
60	0xbe0d181b	-0.13778727
61	0xbdd119e0	-0.102100134
62	0xbddd099a	-0.10792847
63	0xbd68e630	-0.05686015

layers.1.weight f4 [64, 64]
0	0xbddbff15	-0.107420124
1	0xbe24bf0c	-0.16088504
2	0xbdb889e1	-0.09010673
3	0x3bd62075	0.006534631
4	0xbd393eb0	-0.0452258
5	0xbdc6ecb0	-0.09713113
6	0xbd9e3fb6	-0.07726996
7	0xbd6b53bd	-0.057452906
8	0xbdcac220	-0.09900308
9	0x3c76e432	0.015069054
10	0x3ccfe5b5	0.025378088
11	0x3d36a0b0	0.044586837
12	0xbce0baa2	-0.027432743
13	0xbe8beee7	-0.27330706
14	0xbda8b8b6	-0.08238356
15	0x3d009588	0.031392604
16	0x3bb29a6d	0.005450538
17	0xbd836f66	-0.06417732
18	0xbc82e7ca	-0.015979666
19	0x3d9b4403	0.075813316
20	0x3d9d12bb	0.07669588
21	0x3c163a34	0.00916915
22	0x3d13b6be	0.03606295
23	0xbb1134c3	-0.0022156693
24	0xbda02e67	-0.078213505
25	0x3ba01434	0.004885221
26	0xbdb66f1c	-0.08907911
27	0x3c8d7e40	0.017272115
28	0xbde1ef4a	-0.11031969
29	0x3b5c2280	0.00335899
30	0xbdaa01d2	-0.083011284
31	0x3e126c42	0.1429911
32	0xbe2b0019	-0.16699256
33	0xbe09f4c5	-0.13472278
34	0x3cda5ff3	0.02665708
35	0x3b9461ed	0.004528275
36	0xbcd79b60	-0.026319206
37	0x3d9ac1a9	0.07556469
38	0x3d96dada	0.073659614
39	0x3e114782	0.14187434
40	0xba44d80a	-0.0007508999
41	0xbca4f5b4	-0.020136692
42	0x3d860d37	0.06545489
43	0x3d4c53df	0.049884673
44	0xbca136c4	-0.019679435
45	0x3c7735e3	0.015088531
46	0xbc05f880	-0.008176923
47	0xbd112d69	-0.035443697
48	0xbd9ddf1c	-0.0770857
49	0x3df2e5e2	0.11860253
50	0xbd452976	-0.048135243
51	0x3d16b8ac	0.03679721
52	0x3dc5377d	0.09629724
53	0xbe2612f3	-0.16218166
54	0xbdacc4c3	-0.08435967
55	0x3ddcf923	0.107897066
56	0x3a95e2e6	0.0011435419
57	0xbd20dded	-0.039274145
58	0x3dc8ea87	0.098103575
59	0xbe13ce05	-0.14434059
60	0x3d83739c	0.06418535
61	0xbdb3ca2a	-0.08778794
62	0x3dcc017c	0.099612206
63	0xbddf06ce	-0.1088997
64	0xbd44457d	-0.04791783
65	0x3d9717f3	0.07377615
66	0x3c494c0c	0.012286197
67	0xbe12bc8a	-0.14329734
68	0xbde9e094	-0.11419788
69	0xbde7e02a	-0.11322053
70	0x3d927600	0.07151413
71	0xbdd00a0e	-0.10158168
72	0xbc4a055f	-0.012330382
73	0xbdbb4807	-0.091445975
74	0x3dc76c7a	0.09737487
75	0x3d26829d	0.040651906
76	0xbd757d82	-0.059934147
77	0xbdc6ab4a	-0.097006395
78	0xbd891c96	-0.066949055
79	0xbd744acc	-0.059641644
80	0xbd972710	-0.073804975
81	0xbc84239c	-0.016130261
82	0x3d83f393	0.064429425
83	0xbe03486c	-0.12820596
84	0x3cce0bdb	0.025152138
85	0xbe144bbc	-0.14482015
86	0xbdfa041d	-0.12207816
87	0xbd937a4e	-0.07201062
88	0x3d878e08	0.06618887
89	0x3d29f5a8	0.04149404
90	0xbd3eed7b	-0.046613198
91	0xbdd90d72	-0.105982676
92	0xbdc72f29	-0.09725792
93	0xbdfe2c76	-0.12410824
94	0x3b8d59e0	0.0043136925
95	0x3d92b078	0.07162565
96	0xbc4dbece	-0.012557698
97	0x3d390eb8	0.045180053
98	0xbd75dcec	-0.06002514
99	0x3c72b886	0.014814502
100	0xbd8f7c52	-0.07006134
101	0xbd3aedff	-0.045637127
102	0x3d840abe	0.064473614
103	0x3dd8cb50	0.10585654
104	0x3bd80617	0.006592523
105	0xbd267067	-0.04063454
106	0xbd0ad91b	-0.033898454
107	0xbdd6a245	-0.10480169
108	0xbd1ad36c	-0.037799284
109	0xbd5c62a9	-0.053805027
110	0x3d85c40c	0.065315336
111	0xbde4331a	-0.11142559
112	0x3d44632c	0.04794614
113	0x3ca4c970	0.020115584
114	0xbe0ace44	-0.13555247
115	0xbd8b72ad	-0.06808982
116	0x3d77e893	0.060524534
117	0xbcb15013	-0.021644628
118	0x3d4dfa82	0.05028773
119	0x3db3dd06	0.08782391
120	0xbdcb6394	-0.099311024
121	0x3cd548d1	0.026035698
122	0x3d6c4cda	0.05769048
123	0xbd9f7312	-0.0778562
124	0xbd9f2e1e	-0.07772468
125	0x3d6ccae8	0.057810694
126	0xbd026dec	-0.03184311
127	0xbc6eb310	-0.014569059
128	0xbd759b4d	-0.05996256
129	0xbd4c3ba0	-0.04986155
130	0x3ca0d010	0.019630462
131	0x3d4890bc	0.048966154
132	0x3df7f49a	0.12107201
133	0xbd0e1da1	-0.034696225
134	0x3ded250c	0.11579332
135	0xbc186588	-0.009301551
136	0x3d76223b	0.06009124
137	0x3db115c1	0.08646727
138	0x3da3537f	0.0797491
139	0xbc0b5c11	-0.008505837
140	0xbcc168e1	-0.02360958
141	0x3b0cf363	0.0021507374
142	0x3df3ca90	0.1190387
143	0xbd035f1c	-0.032073125
144	0x3da9cf3e	0.082914814
145	0xbdc49536	-0.09598772
146	0x3cc3563c	0.02384483
147	0xbd75ddc8	-0.06002596
148	0xbd8f3797	-0.06993025
149	0x3da6bcd3	0.08141484
150	0xbd95c845	-0.07313589
151	0x3c7386cb	0.01486368
152	0xbd2d342b	-0.04228608
153	0x3e6e5c40	0.23277378
154	0xbdd74559	-0.10511274
155	0xbd3b8f10	-0.045790732
156	0x3c09c31e	0.008408336
157	0x3c3c17c0	0.011480272
158	0xbdc9789e	-0.09837459
159	0x3d89cb46	0.067282245
160	0xbe2e04f3	-0.16994075
161	0x3e02e690	0.12783265
162	0x3de54e7b	0.111966096
163	0x3d3f8089	0.04675344
164	0x3dc7940c	0.097450346
165	0xbd92d8bb	-0.07170244
166	0x3db248a3	0.087052606
167	0xbe10be18	-0.14135015
168	0x3e0fb2e2	0.14033082
169	0xbd724109	-0.059144054
170	0x3d8de564	0.069285184
171	0x3d453f11	0.048155848
172	0xbdac7417	-0.0842058
173	0xbd37ef5b	-0.044906
174	0x3de2c7dc	0.110732764
175	0x3c7fd808	0.015615471
176	0x3ddf74f2	0.109109774
177	0x3dc8419a	0.097781375
178	0x3d10d499	0.035359
179	0xba8f90f8	-0.0010953238
180	0x3cfe3d26	0.031035017
181	0x3dd8c814	0.10585037
182	0x3d80a8c3	0.06282189
183	0xbc6d8ce5	-0.014498924
184	0xbe00ed45	-0.12590511
185	0xbdd711f5	-0.10501472
186	0xbd3fc962	-0.046822913
187	0xbd49f719	-0.049307916
188	0xbcff3b3c	-0.031156175
189	0x3d96d1b4	0.073642164
190	0xbdc0ef4c	-0.09420642
191	0x3dab3a6c	0.083607525
192	0xbe0d6d29	-0.13811173
193	0x3ddc22ee	0.1074885
194	0xbd644268	-0.055727392
195	0x3e07f6cf	0.13277744
196	0xbc92385c	-0.01784914
197	0xbdc0be9e	-0.09411357
198	0x3dd953c6	0.10611682
199	0x3d04bb8d	0.032405425
200	0xbeb209c5	-0.3477308
201	0xbdc474bd	-0.095925786
202	0x3d4445a7	0.04791799
203	0x3e02354e	0.12715647
204	0xbda51ae2	-0.08061768
205	0xbe6d3431	-0.2316444
206	0xbc6b42e0	-0.014359206
207	0xbd848fd8	-0.064727485
208	0x3c7e9b9b	0.015540029
209	0xbbae6433	-0.0053220033
210	0xbcab1f9d	-0.020889098
211	0x3d1b5c6a	0.03792993
212	0x3db7a64f	0.08967268
213	0xbd480b27	-0.04883876
214	0xbd0e848e	-0.034794383
215	0xbdc6a217	-0.09698885
216	0xbd0e9d15	-0.034817774
217	0xbd0155d1	-0.03157598
218	0xbe969bce	-0.29415745
219	0x3be160e0	0.0068780035
220	0x3d99839f	0.07495808
221	0x3da8a312	0.08234228
222	0xbd2edfd8	-0.042693943
223	0xbd9992a0	-0.074986696
224	0xbd3759e4	-0.04476346
225	0x3c447183	0.011989954
226	0xbe3208a4	-0.17386109
227	0xbd439759	-0.04775176
228	0x3d396f2c	0.045272037
229	0x3d19cf6b	0.037551325
230	0xbc886e8e	-0.01665428
231	0xbe2e295a	-0.17007962
232	0x3dad4dd6	0.08462112
233	0x3c3e9218	0.011631511
234	0x3d53c892	0.05170495
235	0x3de7bb8d	0.11315069
236	0x3db12e7d	0.08651445
237	0x3e0951c6	0.134101
238	0xbdbd6288	-0.09247309
239	0xbd3f198e	-0.04665523
240	0xbc548421	-0.012970955
241	0x3d104de8	0.035230547
242	0xbc20f708	-0.009824522
243	0x3c9dbd90	0.01925543
244	0x3d0e7b8f	0.034785803
245	0xbe0295da	-0.12752476
246	0x3e0c81c1	0.13721372
247	0xbdec6e5f	-0.11544489
248	0x3da86de3	0.08224084
249	0x3ccb1d3e	0.024794217
250	0x3d09805d	0.033569682
251	0x3de61a6e	0.1123551
252	0x3e564ef2	0.20928553
253	0x3c4e48e0	0.012590617
254	0x3e416c8a	0.1888906
255	0xbd2392fc	-0.039935097

layers.1.bias f4 [64]
0	0xbdbb5808	-0.0914765
1	0x3c305bf8	0.010764115
2	0xbd03a37f	-0.032138344
3	0xbdbc4c4a	-0.091942385
4	0x3dd1aefd	0.102384545
5	0xbde2b701	-0.110700615
6	0xbc72defe	-0.014823673
7	0xbda88b4c	-0.08229694
8	0x3d4ddfa4	0.05026211
9	0xbdcac72b	-0.099012695
10	0xbdff9e98	-0.12481421
11	0x3dafaf98	0.08578414
12	0x3cbe2108	0.02320911
13	0xbd214321	-0.03937066
14	0xbd793b10	-0.060847342
15	0xbcdb18bd	-0.026745195
16	0xbda7cabe	-0.08192967
17	0x3cbeca48	0.023289815
18	0xbd798bd5	-0.06092437
19	0xbd28b397	-0.041186895
20	0x3de17811	0.11009229
21	0x3e043c14	0.12913543
22	0xbd5c750d	-0.053822566
23	0xbd401e2c	-0.046903774
24	0xbe399a64	-0.18125302
25	0xbd9abf14	-0.075559765
26	0xbc35127b	-0.011051769
27	0x3d9ea040	0.07745409
28	0xbd78acd0	-0.06071168
29	0x3dbf0bfb	0.09328457
30	0x3dfd87b7	0.12379401
31	0xbcea5cc1	-0.028608682
32	0x3c2b5e76	0.010459533
33	0x3deeaf9a	0.11654587
34	0x3cda42da	0.026643205
35	0x3ca8aca9	0.020590143
36	0xbbe4d92c	-0.0069838967
37	0x3cf6d4aa	0.030130703
38	0x3d9d4162	0.076784864
39	0x3db0b4ff	0.08628272
40	0x3d791ce3	0.060818564
41	0xbe0d6fd2	-0.13812187
42	0x3da450fb	0.08023258
43	0xbdc458a6	-0.09587221
44	0xbdc39f0c	-0.0955182
45	0x3d5e130c	0.054217383
46	0x3d10d03d	0.03535484
47	0x3dad4126	0.08459692
48	0x3dbe522b	0.09293016
49	0x3dbbc26c	0.091679424
50	0x3c4f8770	0.012666568
51	0x3da13e9d	0.07873271
52	0xbdd5ed82	-0.10445692
53	0xbdedcfeb	-0.11611923
54	0x3ce6a7c0	0.028156161
55	0xbd9b3f43	-0.075804256
56	0x3cd5df60	0.02610749
57	0xbb4850c0	-0.003056571
58	0x3d509635	0.0509245
59	0xbd625685	-0.055258293
60	0xbb3459bb	-0.0027519304
61	0xbdcc375f	-0.09971499
62	0xbe0d3d8c	-0.1379301
63	0x3d015d78	0.03158328

layers.2.weight f4 [9, 64]
0	0x3dd763c5	0.105170764
1	0xbcfbb1f6	-0.030724507
2	0xbd67da37	-0.05660459
3	0x3db46e38	0.08810085
4	0x3dca8093	0.09887805
5	0xbda7a53b	-0.08185812
6	0xbd96ab0d	-0.07356844
7	0x3ce2ac2f	0.027669994
8	0xbde125a0	-0.109935045
9	0x3d258c82	0.0404172
10	0x3d04791a	0.032342054
11	0xbe71fe03	-0.23632054
12	0xbe224188	-0.1584531
13	0x3da84557	0.082163505
14	0x3d993bf5	0.07482139
15	0x3d5eb567	0.054372218
16	0xbd827514	-0.06369987
17	0xbdd1a3a0	-0.10236287
18	0xbe535013	-0.20636015
19	0x3cbc5a4d	0.022992278
20	0x3d2599ed	0.04043
21	0x3cb7d427	0.02244003
22	0xbe143454	-0.14473087
23	0xbd0c3402	-0.034229286
24	0xbd85e8e0	-0.06538558
25	0xbdbaf8f2	-0.09129514
26	0x3dfcd059	0.12344427
27	0x3c002c5d	0.007823077
28	0xbdcceb85	-0.10005859
29	0x3b6162e2	0.0034391214
30	0x3d3becc9	0.045880113
31	0xbdd87eab	-0.10571035
32	0x3d8268a6	0.06367616
33	0xbd28216d	-0.041047502
34	0xbdd404b2	-0.10352458
35	0xbdc1639a	-0.094428256
36	0x3bafae9f	0.0053613926
37	0xbde278da	-0.11058207
38	0x3da5f87a	0.08104034
39	0xbd87b8ab	-0.066270195
40	0x3d0b9908	0.03408149
41	0xbe8956a6	-0.2682392
42	0xbd3f06b1	-0.04663724
43	0x3d88282a	0.06648286
44	0x3d0fda60	0.035120368
45	0xbd80435a	-0.06262846
46	0x3d2f67b8	0.042823523
47	0xbd7ac499	-0.061222646
48	0x3db664bb	0.089059316
49	0x3dd6b4d5	0.1048371
50	0x3c205d94	0.009787936
51	0xba9d6d1f	-0.001201067
52	0xbdce77e1	-0.10081459
53	0x3d4ae590	0.049535334
54	0xbd8e14a4	-0.06937531
55	0xbcdebefd	-0.02719068
56	0xbda4a6be	-0.08039616
57	0x3ac16c80	0.0014757067
58	0x3ceb25eb	0.028704604
59	0x3d121693	0.03566606
60	0xbb874ca3	-0.004129009
61	0xbd387ded	-0.045041967
62	0x3d8b4151	0.067995675
63	0x3dfead38	0.124353826
64	0xbcec7fd5	-0.028869549
65	0xbdd414c4	-0.10355523
66	0xbcfe6d16	-0.031057876
67	0x3cb63ba9	0.022245245
68	0xbe13e064	-0.14441067
69	0xbc45737d	-0.01205146
70	0x3d88d4cf	0.06681215
71	0x3ade846d	0.0016976722
72	0x3d182674	0.037146047
73	0xbc89bd7f	-0.016813992
74	0x3d5fa937	0.054604735
75	0xbd40ca9a	-0.047068216
76	0xbe5b5ffe	-0.21423337
77	0xbd8ee97b	-0.069781266
78	0x3d6cc131	0.05780143
79	0xbdb53ad0	-0.08849108
80	0xbcbbda04	-0.022931106
81	0x3c216930	0.009851739
82	0xbd1f62d8	-0.038912624
83	0x3dbd2414	0.09235397
84	0x3c9c0b27	0.019048287
85	0x3ceabf14	0.028655566
86	0xbd293e38	-0.041319102
87	0x3afe81e6	0.0019417375
88	0xbd0f6906	-0.035012268
89	0x3d27618c	0.040864512
90	0x3db76e68	0.08956605
91	0xbde19ec8	-0.11016613
92	0x3c441324	0.011967454
93	0x3c653d44	0.013991658
94	0x3d9c77bf	0.07640027
95	0xbdc1b4ad	-0.09458289
96	0x3d1b3806	0.037895225
97	0x3da8e44b	0.082466684
98	0xbc9c7440	-0.019098401
99	0xbe2a2cde	-0.16618678
100	0xbdbc5561	-0.09195972
101	0x3c0f54c4	0.008748237
102	0xbd317d45	-0.043332357
103	0xbd9c28c5	-0.07624964
104	0xbd551478	-0.052021474
105	0xbddee86a	-0.10884173
106	0x3d935c27	0.07195311
107	0x3c8bc1ff	0.017060278
108	0x3db8ee62	0.09029843
109	0x3da1ed7f	0.07906627
110	0xbd156b98	-0.036479563
111	0x3d6a36d3	0.05718119
112	0xbc9cbc35	-0.019132713
113	0x3d21674d	0.039405156
114	0x3c285550	0.010274246
115	0x3cf17efc	0.029479496
116	0xbce93e2b	-0.028472027
117	0x3d692d29	0.056927834
118	0x3d6a0028	0.057129055
119	0xbc22c845	-0.009935443
120	0xbe025996	-0.12729487
121	0xbdeb2042	-0.11480762
122	0xbcb3bdb5	-0.021941045
123	0x3997342e	0.0002883984
124	0x3cf6d9a0	0.030133069
125	0x3bbaf0ae	0.005704961
126	0x3c376894	0.011194367
127	0x3d0baae8	0.034098536
128	0x3d5d8900	0.05408573
129	0x3e0871c4	0.13324648
130	0x3d309cb7	0.043118205
131	0xbd2f7356	-0.042834602
132	0xbdba7903	-0.091051124
133	0xbd768a87	-0.060190704
134	0xbd928aaf	-0.07155358
135	0x3da151a9	0.078769036
136	0xbc709ba0	-0.014685541
137	0xbc9d4c60	-0.019201458
138	0xbdd2c568	-0.102915585
139	0xbd9d7110	-0.076875806
140	0xbe876be4	-0.26449502
141	0xbe9c0893	-0.30475292
142	0x3de32ce8	0.110925496
143	0x3cefe540	0.02928412
144	0xbc377842	-0.011198105
145	0x3d2919e8	0.04128447
146	0xbc1c783d	-0.009550151
147	0x3ddd32f1	0.10800732
148	0x3ce1a259	0.027543234
149	0x3dbbd7f9	0.09172053
150	0xbdf8663a	-0.12128873
151	0x3d545ac3	0.05184437
152	0x3b808a9b	0.003922773
153	0xbdc99fe0	-0.09844947
154	0xbc32f630	-0.0109229535
155	0xbd1dd884	-0.038536564
156	0xbda20557	-0.07911175
157	0xbe0feb9a	-0.14054719
158	0x3da2b086	0.079438254
159	0x3d03b07c	0.03215073
160	0x3dd9c100	0.10632515
161	0x3ba75df2	0.0051076347
162	0xbe830030	-0.2558608
163	0xbda761b4	-0.08172932
164	0x3d9d86fe	0.07691763
165	0x3c8a44fb	0.016878596
166	0xbd180b8a	-0.03712038
167	0xbd3eab2b	-0.046549957
168	0x3d42e400	0.04758072
169	0xbe1e0973	-0.15433292
170	0x3da75e05	0.0817223
171	0x3d3ebcfd	0.046566952
172	0xbde75892	-0.1129619
173	0xbd10912b	-0.035294693
174	0x3d8a5e34	0.06756249
175	0x3de902f1	0.11377514
176	0xbd879f5a	-0.06622191
177	0x3d6f39c3	0.058404695
178	0xbe02b9bc	-0.12766165
179	0x3c29f135	0.01037245
180	0x3d92a5a1	0.071604975
181	0x3c55b766	0.013044214
182	0xbd797418	-0.06090173
183	0x3b2d1539	0.0026410355
184	0xbda4c106	-0.08044629
185	0xbd8c18ec	-0.06840691
186	0xbd95ee47	-0.073208384
187	0x3e152d2d	0.14568014
188	0xbdc125e8	-0.09431058
189	0x3d551e9e	0.052031152
190	0x3de9e446	0.11420493
191	0xbde32e08	-0.11092764
192	0xbc694c2e	-0.014239354
193	0x3d1f77e8	0.03893271
194	0x3d5b48ce	0.05353623
195	0x3de1ec54	0.11031404
196	0xbd1df438	-0.038562983
197	0xbe083c61	-0.13304283
198	0xbcbb8c10	-0.022893935
199	0xbd502d29	-0.050824318
200	0xbd2739b8	-0.04082653
201	0xbd5c53ea	-0.053790964
202	0x3d825ee8	0.06365758
203	0xbea97152	-0.3309427
204	0x3e05e36c	0.13075036
205	0xbda159ba	-0.07878442
206	0x382044f6	3.8211198e-05
207	0x3d259b78	0.04043147
208	0xbde3877d	-0.11109827
209	0x3de32f3c	0.110929936
210	0xbe26fa89	-0.16306509
211	0xbd413cc9	-0.04717711
212	0xbbcd2720	-0.0062607676
213	0x3dbf7f5b	0.09350463
214	0xbe65eee9	-0.22454418
215	0x3da320ae	0.079652175
216	0xbddf1d63	-0.10894277
217	0x3d924744	0.07142499
218	0x3da9b82f	0.08287083
219	0x3d9e1f82	0.077208534
220	0xbc6cca40	-0.014452517
221	0xbd44d5a6	-0.048055314
222	0x3deb8de1	0.11501671
223	0xbda8421e	-0.08215736
224	0x3d45faaf	0.048334774
225	0xbd0c91b7	-0.034318652
226	0xbd9441e5	-0.07239131
227	0xbe5910e0	-0.21197844
228	0x3ce177a0	0.027522862
229	0xbbabd152	-0.005243459
230	0xbdd3e320	-0.10346055
231	0xbd975f1c	-0.073911875
232	0xbb786d40	-0.0037906915
233	0xbe349688	-0.17635548
234	0xbd28af94	-0.04118307
235	0x3d9fa1a0	0.077944994
236	0x3df31b8e	0.1187049
237	0x3dc5b8f4	0.09654418
238	0xbc863b40	-0.016385674
239	0x3d96dea3	0.07366683
240	0xbc608f93	-0.013706106
241	0xbc216e1e	-0.009852914
242	0xbceb5a00	-0.028729439
243	0x3d68ca57	0.05683359
244	0x3afa34f2	0.0019089265
245	0xbd5bac95	-0.053631384
246	0xbd258ac4	-0.04041554
247	0x3d906657	0.0705077
248	0x3da6017e	0.08105753
249	0xbd9c69be	-0.07637356
250	0x3c958b64	0.018254943
251	0xbd9271bc	-0.07150599
252	0xbd01fbc7	-0.031734254
253	0x3d4f51e0	0.05061519
254	0xbc934d6d	-0.017981255
255	0x3c8f1e18	0.017470405

layers.2.bias f4 [9]
0	0x3d6596ad	0.0560519
1	0x3dcc087d	0.099625565
2	0xbadb6d13	-0.0016740881
3	0x3e009451	0.12556578
4	0x3bd7bc14	0.0065837
5	0x3dcd3129	0.10019142
6	0x3d5bb259	0.053636882
7	0xbd212e89	-0.03935102
8	0x3cc86202	0.024460796
