experiments/learn_cdrive/cdrive/2022_01_20_133255623656_1_664e5/2022_01_20_133255623656_1_664e5_3999.pth (torch, 32215 bytes, 6 tensors)

layers.0.weight f4 [64, 7]
000000 14 df 9d be 0f ac 76 be 34 f4 8a be 42 a3 1c 3e
       -0.30834258 -0.24089073 -0.27139437 0.15296653
000010 af d1 8d be 1c fc ca bd fe b9 48 be 62 c6 33 3e
       -0.27699038 -0.09911367 -0.196022 0.17556146
000020 a5 96 bd 3e b3 30 63 be 3b 09 b9 be 85 c7 70 3d
       0.37028995 -0.22186546 -0.36139855 0.058784027
000030 d8 f3 33 3d 25 d6 f3 be fc c7 a1 3e 61 8b 92 be
       0.04393372 -0.47624317 0.31597888 -0.28621963
000040 bb b1 8e 3e aa 74 83 3e d5 ee fe 3d cb 4e 65 3d
       0.27869973 0.25674945 0.12447897 0.055983346
000050 64 90 7c 3e 9c 32 f7 3c 3d 99 11 3e c3 ef 82 be
       0.24664456 0.0301755 0.14218612 -0.2557355
000060 2a a4 6d 3e 4e fa 94 be 3d c7 36 be e4 69 d4 be
       0.23207155 -0.29097217 -0.17849441 -0.41487038
000070 82 87 5e bd d2 7d a4 be 67 78 5d 3e df 55 e6 3b
       -0.05432845 -0.32127243 0.21627961 0.0070292796
000080 43 5b 97 be 1b 28 0f 3e 61 81 23 3e 7a 44 a6 3e
       -0.29561815 0.13980143 0.15967323 0.32474118
000090 f0 0c b2 be e1 4e 94 be 57 66 a9 be 82 08 a8 bd
       -0.34775496 -0.2896643 -0.33085892 -0.08204748
0000a0 bd 4f 19 3e a5 5a e5 bc 19 14 a6 3e 83 57 0b be
       0.14971824 -0.027997324 0.32437208 -0.13607602
0000b0 eb 6b b8 3c 06 7a b0 3b 91 c8 24 3e fc 46 9d 3e
       0.022512397 0.00538564 0.16092135 0.3071822
0000c0 c9 fa ca be 1f 36 52 be 4e 91 57 3e 9b 34 b4 be
       -0.3964446 -0.20528458 0.21051523 -0.35196385
0000d0 d7 e3 38 be f8 31 b4 be cc 8c 96 bd d8 a7 66 bd
       -0.18055664 -0.35194373 -0.073510736 -0.056312412
0000e0 74 f7 80 be 79 46 03 be 74 49 a4 3e 7e 57 36 bd
       -0.25188792 -0.12819852 0.3208729 -0.044517033
0000f0 3a 26 95 bd 06 ef 82 be 82 6f 5c be 0c ef 6c 3c
       -0.07282682 -0.25572985 -0.21526912 0.01446129
000100 eb eb 9b 3e 4c df 24 be ac b8 9d 3e 81 bf 95 3e
       0.3045343 -0.16100806 0.30804956 0.29247668
000110 e2 5d b3 3d bb 3a 0f 3d 9e 8d d4 be 4c be 25 3c
       0.08758141 0.03496812 -0.41514295 0.010116171
000120 c0 6f bf be 5b 9a b3 bc 79 68 b1 3d 6d 5c 94 be
       -0.37389946 -0.021924188 0.08662505 -0.28976765
000130 ce 93 fe 3e 13 75 c1 be 09 59 73 bd 8b d8 72 3e
       0.4972214 -0.37784633 -0.059411082 0.23715417
000140 79 9f 03 bd b8 ba ec 3c 6a ed b6 bd 96 e2 cb 3c
       -0.032134507 0.028897628 -0.08932002 0.024888318
000150 c0 a7 bb bd fc 55 bb be d3 86 d1 3d 78 b3 11 be
       -0.09162855 -0.36589038 0.10230794 -0.14228618
000160 0b 00 2e 3e 30 2b 93 be cc 2f d3 bd 20 4c d6 bc
       0.16992204 -0.28743887 -0.10311851 -0.026159346
000170 40 2e ec 3c d8 e0 7e be 88 73 aa bd 92 ea 9c be
       0.028830647 -0.24890459 -0.08322817 -0.30647713
000180 4f bd 0f be c2 2b 5f 3e 01 c1 d6 bd 73 d8 b7 be
       -0.14037059 0.21794036 -0.10486031 -0.35907325
000190 59 a8 2a 3e 4a f0 75 3e 0e 9e c1 3d 8e 4f 45 3e
       0.16665782 0.24017444 0.09453975 0.19268629
0001a0 16 24 e3 3d 80 1b 4a bd e0 43 6d 3c a0 82 c8 bc
       0.11090867 -0.049342632 0.014481515 -0.02447635
0001b0 1c 6a 05 be 58 2b fa bd ba 9d ab be d0 3e 0c 3d
       -0.13028759 -0.122152984 -0.33518773 0.03423959
0001c0 19 bf 56 be 76 b2 85 be 0f e6 83 be 53 a6 1e be
       -0.20971335 -0.26112717 -0.25761458 -0.15493135
0001d0 a0 1c 4d bd 0f 48 88 be b0 e2 cd bc cc a6 bd 3e
       -0.050076127 -0.26617476 -0.025132507 0.37041318
0001e0 43 e7 67 3e 81 2b 78 3d 5a 57 4e 3e c8 84 de 3d
       0.22646813 0.060588364 0.2015051 0.1086517
0001f0 4c cf c3 3d 05 26 f8 bd d9 c5 9e 3d 15 dd 55 3e
       0.09561023 -0.12116627 0.0775258 0.20885117
000200 1a 55 f8 3d d7 ac 75 3d be 44 a6 bc 84 49 1c 3b
       0.12125607 0.059979286 -0.02029645 0.002384753
000210 8c 81 98 3e 5f ef 83 be 60 bf de bd 50 26 0a be
       0.29786336 -0.25768563 -0.10876346 -0.13491178
000220 22 04 9a be a0 e3 16 be 54 c3 b5 be 20 7a 0f be
       -0.30081278 -0.1473527 -0.35500586 -0.1401143
000230 6f 7c 52 bd 6d 65 28 3e 76 dd 65 3e 2b 63 ac be
       -0.0513882 0.16444941 0.22447762 -0.3366941
000240 b9 1b 39 3d d7 ce 46 be bb 66 42 be 07 d1 b4 3e
       0.045192454 -0.1941484 -0.18984501 0.35315725
000250 1f 0c bd be 7d e4 3d be f0 e4 a9 3e f2 2c 41 be
       -0.3692331 -0.18544193 0.33182478 -0.18864802
000260 64 26 81 be 38 9c db 3c 11 eb d2 be 4c 87 d7 3d
       -0.25224602 0.02680789 -0.41194966 0.10523853
000270 c7 f4 89 bd b9 3e 3a 3d d0 da b1 3e 67 07 9c 3e
       -0.06736141 0.045469973 0.34737253 0.30474398
000280 66 da 26 be 65 5a ae 3d ed 46 b0 3e d2 43 a4 3e
       -0.1629425 0.08513335 0.34429112 0.32082993
000290 0c eb 92 be df 61 31 be 99 29 1e 3e da 04 33 3e
       -0.28694952 -0.17322491 0.15445556 0.1748232
0002a0 f8 e1 ae be fb 91 b0 be 60 d3 12 be de 32 13 3e
       -0.34156775 -0.34486374 -0.14338446 0.14374873
0002b0 78 56 00 bd e8 62 03 bd 9c e6 a1 be 67 61 bc 3e
       -0.031332463 -0.032076746 -0.31621253 0.36793062
0002c0 53 e5 68 3e 44 70 c7 3d 41 43 a2 3e ad b8 a0 3e
       0.2274373 0.0973821 0.31691936 0.31390896
0002d0 23 62 c3 bd b1 71 1a be 20 4d 85 be 94 ff 17 be
       -0.095402025 -0.15082432 -0.26035404 -0.14843589
0002e0 d3 2a 89 3d e8 77 b4 bd b6 e7 85 be 10 c0 c2 3e
       0.06697621 -0.08811933 -0.26153344 0.38037157
0002f0 14 8b b6 be 43 b5 31 3e 3a a8 d7 bd f2 0f 26 3e
       -0.35652983 0.17354302 -0.105301335 0.1621702
000300 dc 45 05 be b6 ba 4d bd 79 2b a8 bd 51 91 68 3e
       -0.1301493 -0.05022689 -0.08211417 0.22711684
000310 7f 12 a6 be 87 da 3a be c9 2e 50 be a5 47 e0 3d
       -0.32435986 -0.18247424 -0.20330347 0.10951165
000320 43 2c 95 3d e4 b7 1d ba a1 9c 39 be fe 62 3a 3e
       0.07283833 -0.00060164765 -0.18126155 0.18201825
000330 5f d9 cf bd 07 62 88 be 3c 2b a6 3e ca 03 cc bd
       -0.10148882 -0.2663729 0.3245486 -0.0996166
000340 00 e4 50 3d 41 4d 47 3e dc d4 12 3e c2 67 87 bd
       0.050998688 0.19463064 0.14339012 -0.06611587
000350 c4 ee d2 3d cc e3 8b 3e 5d 8c 06 be 87 a4 8a bc
       0.10299447 0.27322233 -0.13139482 -0.016924156
000360 59 fe c6 3e 8a b3 b8 bc d3 48 a8 bd 59 a4 81 3e
       0.38865927 -0.022546548 -0.08217015 0.253207
000370 b5 61 a6 3d f0 00 a4 be 61 c4 aa bc 13 af d1 be
       0.08124105 -0.32031965 -0.020845594 -0.40953884
000380 d0 68 ae be 1c c6 8c be 29 9f 94 3e d2 7c 8e be
       -0.3406434 -0.27494895 0.2902768 -0.27829605
000390 80 c3 07 bd f9 58 a6 be 92 f3 6a 3e cd 88 ae be
       -0.033145428 -0.32489756 0.22944477 -0.34088746
0003a0 36 ae 4f bd 05 bd f1 3d 59 19 a7 3e 7b 3a 44 3d
       -0.05070325 0.11803631 0.32636526 0.047907334
0003b0 35 99 03 3e 7b e6 43 be 78 d0 84 be 64 7a b3 bc
       0.12851413 -0.1913089 -0.259403 -0.021908946
0003c0 63 e8 a9 be 9a 76 ab be a6 96 92 bd d7 e2 54 3e
       -0.3318511 -0.33488923 -0.0715764 0.20789658
0003d0 b3 88 1a 3e 9d dd 33 be 9c 38 af 3a d2 64 23 3e
       0.15091209 -0.17565008 0.0013368311 0.15956429
0003e0 ad d8 3f be df 45 9b 3e b2 c2 12 be 8e ef 95 be
       -0.18734999 0.30326745 -0.14332083 -0.29284328
0003f0 01 5a 62 3e e0 3a 16 be 85 e7 38 3e 61 93 96 3c
       0.22104646 -0.14670897 0.18057068 0.018380823

layers.0.bias f4 [64]
000000 26 41 0e 3e 03 fa 3b be ff ee 9e 3e a8 16 d0 3e
       0.1389204 -0.1835709 0.31041715 0.40642285
000010 54 47 ad be 9e 47 a4 3e cc 0c 42 3e 4b ce 85 be
       -0.33843482 0.3208589 0.18950194 -0.26133952
000020 3b 4b 85 bd 02 af 43 be 0d 1f 32 3e 76 83 11 be
       -0.0650849 -0.19109729 0.17394657 -0.14210305
000030 5f bd 45 bd b0 27 5f be 73 2e 0f 3e 50 82 ac be
       -0.0482763 -0.21792483 0.13982563 -0.3369317
000040 e0 bd 18 be f6 dd 1e 3e c0 bc b0 be 74 a2 40 be
       -0.14916182 0.15514359 -0.34519005 -0.18811971
000050 cb e2 2d 3d 72 39 96 3e c6 14 20 3e 61 99 ef bb
       0.042452615 0.29340702 0.15632924 -0.0073119854
000060 a8 96 d5 bd 06 0a 96 be d0 cb 49 3d 4e 2f 94 3e
       -0.10429126 -0.29304522 0.049266636 0.2894234
000070 72 b9 86 bb e7 d9 27 be 38 32 fe bd d5 49 0d 3e
       -0.0041114623 -0.16391717 -0.12411922 0.13797696
000080 6a a1 b5 be c8 dd de bd 9b 0d c1 3d 66 96 a5 3e
       -0.35474712 -0.10882145 0.09426423 0.32341307
000090 a2 07 9a be 4e 5b 33 be 5b 88 27 bc 9c 3b 8f 3e
       -0.30083948 -0.17515299 -0.010225381 0.27975166
0000a0 61 17 3d be 2c a5 93 be cd 13 ed bd 8e b2 1a be
       -0.1846595 -0.28836954 -0.11576042 -0.15107176
0000b0 f4 0a 8c 3e 0f 00 8c 3e 0e a9 6a 3e 82 ef 88 3e
       0.27352107 0.27343795 0.22916052 0.2674523
0000c0 41 d2 1b 3e 99 3b 87 3d 41 30 6d 3e 8d 11 47 be
       0.15216924 0.06603164 0.23162939 -0.19440289
0000d0 e2 6d 66 3e 04 ab c3 bd 90 6a b4 3e 07 67 30 be
       0.22502854 -0.09554103 0.3523755 -0.17226802
0000e0 e3 3d e1 3c ac c7 fc 3c 6b 3c 34 3e 5e f3 66 3e
       0.02749533 0.03085693 0.17601173 0.22553775
0000f0 68 18 be 3c 6a 91 f5 bd 42 d2 1e 3e 95 fe 86 3e
       0.023204997 -0.11990626 0.15509894 0.26366106

layers.1.weight f4 [64, 64]
000000 38 e7 c2 3c 24 b4 7b 3c c5 0c 84 3d cf 89 9f 3c
       0.023791894 0.015362773 0.06447748 0.019474892
000010 b7 73 0c be 56 8e f2 bd bd 66 d6 3d c0 18 c0 bb
       -0.13716017 -0.11843555 0.104688145 -0.0058623254
000020 0e 12 08 be 79 92 0d bd d4 b9 fb bd 5b 88 ba 3d
       -0.13288137 -0.034563515 -0.12291303 0.09108039
000030 99 e7 c7 3d 80 a2 3f 3c 5e 4a 06 3d c4 e6 57 bd
       0.097609706 0.011696458 0.032785766 -0.05271031
000040 4c e8 a6 bd c6 45 a8 bc c6 c9 8b 3d 68 de d5 3c
       -0.08149776 -0.020541083 0.068255946 0.026107028
000050 6d c8 f5 3c c4 d3 d9 3c bd ab 9f bd 9a b2 b1 3d
       0.030002797 0.026590236 -0.07796428 0.08676644
000060 e0 cc 3c bc 91 b8 fd bc 76 da 58 bd de 63 c4 bd
       -0.011523455 -0.030971797 -0.052942716 -0.09589361
000070 58 41 17 3d b3 eb cf 3b e1 5a 71 3d 22 df b4 3d
       0.03692755 0.006345236 0.05892456 0.08831622
000080 60 92 a7 3b b0 d5 b4 3b f0 7d aa 3c 2b 47 fc bc
       0.005113885 0.0055186376 0.020812005 -0.030795654
000090 3d 55 7d bd 94 42 a2 3d 5b 85 1c bc 68 c5 e1 bc
       -0.061848868 0.07922855 -0.009553279 -0.027559951
0000a0 db 91 a5 3b f6 d0 41 3d 23 49 d1 3d d1 7a 36 3d
       0.0050527877 0.04731842 0.10219028 0.04455072
0000b0 6a 70 c4 3d 63 5e 48 bd 64 8b ed b9 f4 dd 9c 3d
       0.09591754 -0.04891814 -0.00045308017 0.07659522
0000c0 d6 7e 7e 3d d1 d3 82 bd 1a 5b 42 3d 50 e2 45 bd
       0.06213268 -0.06388057 0.047450162 -0.04831153
0000d0 fd 2f bc 3d 00 71 ac bc fe f4 b0 ba 96 15 9d bd
       0.091888405 -0.021049976 -0.0013500748 -0.07670133
0000e0 cc 4d 65 3d 75 8b b0 3d 54 55 9f 3d 58 27 4d bd
       0.055982396 0.08620349 0.07779947 -0.05008635
0000f0 67 1c bd 3d 29 81 ea bd d8 73 dc bc 3b 85 09 be
       0.09233933 -0.114504166 -0.026910707 -0.1342973
000100 42 69 dd bd 79 8a dd 3d 2c c4 7c bd fc f0 79 bb
       -0.10811092 0.10817427 -0.06171052 -0.0038138023
000110 2d 79 0f be ed 22 5c bd d2 83 a6 3d 5c d5 d4 3d
       -0.14011069 -0.053744245 0.081306115 0.103922576
000120 d2 fe ad 3d 28 c9 83 3d 79 a1 b2 bd 4f cf 94 3c
       0.08495869 0.06434852 -0.08722205 0.018165259
000130 60 40 55 bc 40 36 df bb a2 cc dc bc d8 a9 e4 3c
       -0.0130158365 -0.006811887 -0.026953045 0.027913019
000140 00 2e 58 bd ff aa 47 3d 0d 62 64 3d b8 2d 0b 3d
       -0.052778244 0.04874706 0.05575757 0.033979148
000150 37 ca 09 3d 4b b8 3a 3d 31 ec 1b 3d c0 e6 8b bd
       0.033640113 0.04558591 0.038067047 -0.068311214
000160 e0 7f bc 3c 49 a3 ae 3d f2 22 d1 3c 20 51 b3 bd
       0.023010194 0.08527238 0.025529359 -0.08755708
000170 0a 1f 77 3d 4c ba 0e 3c b2 f2 f2 bd d2 7d df bc
       0.060332336 0.008711409 -0.11862697 -0.027281675
000180 e0 d5 18 bd 13 5a aa 3d 27 bb 98 3c ef 11 bd bd
       -0.037313342 0.083179615 0.018643929 -0.09231936
000190 2a 6e df bc fc ad 0e 3e f3 ce 9e bd 8c b7 91 bd
       -0.02727421 0.13933557 -0.07754316 -0.07115087
0001a0 9f f8 4d 3d 97 c1 2e be 50 d5 1c bd bf 7d 6a 3d
       0.05028593 -0.17066036 -0.03828937 0.057248827
0001b0 07 dc 22 3e ac 87 7c bd fc 96 1a 3d 44 14 9b 3d
       0.15904246 -0.061652824 0.037741646 0.07572225
0001c0 8c 07 16 3e c0 9e 11 be 08 e4 63 bd 5c 6d 51 bd
       0.14651316 -0.14220715 -0.05563739 -0.051129684
0001d0 32 e2 8d bd 68 5d cd 3d 6d 0e 20 3b 90 5a 87 bd
       -0.06927909 0.100275815 0.002442266 -0.0660907
0001e0 39 e5 c6 3d 53 c3 1f 3e 19 69 0d 3d 6b 34 d0 3d
       0.097116895 0.15601854 0.034524057 0.10166248
0001f0 33 9e 9a bd 85 47 11 3e 40 c1 91 bb 43 63 49 3d
       -0.07549705 0.14187439 -0.004448086 0.04916693
000200 00 40 be bd 96 1c 6b bd 05 31 7b bc 24 0b 01 3e
       -0.09289551 -0.05740031 -0.015331511 0.12601906
000210 ce 68 fc 3d 9e 5a 62 3d de c5 31 bd 1c 5a 43 3d
       0.123246774 0.0552622 -0.04340159 0.047693357
000220 51 8b 84 3d 1f dc a7 3d 78 ef b3 bd eb d2 9d bc
       0.06471885 0.08196282 -0.087859094 -0.019265613
000230 6e b0 29 3d ea 7b a0 bd db 92 d4 3a 78 aa 2f 3d
       0.041428022 -0.07836135 0.0016218083 0.04288718
000240 48 40 f0 bc cb a5 02 3e 97 0b 8f bc 1a 1d b8 3d
       -0.029327527 0.12758557 -0.017461581 0.08989926
000250 3f b1 24 3d b3 2e ac bd 10 7b 74 bd fb bc 07 3e
       0.040208098 -0.08407345 -0.059687674 0.13255684
000260 a8 a9 94 3d 83 ff a4 3d e3 e6 f6 bc e7 9b ca bd
       0.07258922 0.080565475 -0.030139392 -0.09893017
000270 6d 94 2b bd 10 8f e4 bc 45 60 ce bd f7 f9 2e 3d
       -0.041889597 -0.027900249 -0.10076956 0.042718854
000280 98 06 41 bd 8a 3c e6 bd a6 4a a4 bc de 65 95 3d
       -0.04712543 -0.11242016 -0.020055126 0.0729482
000290 4f e0 9c 3d 44 4b fe 3c 39 e5 39 bd 2f 1c 2b bd
       0.07659971 0.031041749 -0.04538462 -0.041774925
0002a0 f7 ef 9f 3d d3 29 3b bd 1d 81 6c 3b 94 c8 29 bd
       0.078094415 -0.045694184 0.00360877 -0.04145105
0002b0 80 db 6d bd 1d 5e 7c bc ec 42 c0 bc e3 a6 93 bd
       -0.05807066 -0.015403298 -0.02346941 -0.072095655
0002c0 6b b3 c5 3b 4d 88 21 3c 34 a6 8c bd 2c de 37 bd
       0.006033351 0.009859157 -0.06867638 -0.044889614
0002d0 87 27 48 3d 70 79 3b bc 12 7a a7 3d d0 83 a7 bc
       0.04886582 -0.011442527 0.0817758 -0.020448595
0002e0 ed 4f 96 3d 00 5b f1 3d 0c da ed 3d 1e 3b e1 bc
       0.073394634 0.11784935 0.11613855 -0.02749401
0002f0 0c ad ed 3d 99 05 a9 3d a0 3a 20 3c 37 c3 16 3e
       0.11605272 0.08253021 0.009779602 0.14722906
000300 5c 5e 79 3d a1 fe 83 3c 1e 97 d9 3d 32 87 5d 3d
       0.060881004 0.016112627 0.106245264 0.05408401
000310 f0 91 28 3c f1 fb d3 bc be 58 cd 3c a6 1f c6 3d
       0.0102887 -0.025876971 0.02506673 0.09674005
000320 04 ab aa 3d 58 da 4e 3d b6 74 e9 bd 76 c5 c6 3c
       0.083334 0.050501198 -0.11399214 0.024264079
000330 38 83 f3 bc f0 bc 9d bc 0b 3b 12 bd ec cc 8d bd
       -0.029725656 -0.019255131 -0.03570084 -0.06923851
000340 f6 8d b5 bd d0 b2 f0 bd e9 29 af 3d 24 9d ff 3d
       -0.088649675 -0.11752856 0.085529156 0.12481144
000350 6c e1 dd 3d ee 2d 1a 3d 14 b0 03 bd d0 ae 88 bd
       0.108340114 0.03764146 -0.032150343 -0.06673968
000360 50 ca 49 3d f4 2e ed bd 7c 1b a9 3d 07 26 09 bd
       0.049265206 -0.11581221 0.08257195 -0.03348353
000370 1e e7 c3 bd ca ac e2 bd c6 5d 9a bd d5 44 3a bb
       -0.095655665 -0.11068113 -0.07537417 -0.0028422375
000380 02 1e d9 bd 98 ac b0 bd b9 4d db bb ec 1e 7d bd
       -0.10601427 -0.0862667 -0.006692615 -0.061797068
000390 9a 43 ab bd be 9f 5b bd 2c 99 cf bd 24 19 94 3d
       -0.08362503 -0.05361914 -0.10136637 0.07231358
0003a0 4c b8 46 3d 2b 91 2c bd 5d 57 b4 3d be 57 b3 bd
       0.048515603 -0.04213063 0.08805726 -0.0875697
0003b0 80 69 3b 3d 89 c4 39 3d f1 be 0a 3d 86 1d 83 3d
       0.04575491 0.045353446 0.033873502 0.064021155
0003c0 a1 ea 77 3d 94 18 24 bd 12 47 e2 3d 68 fd b7 bd
       0.060526494 -0.040062502 0.11048712 -0.0898388
0003d0 a8 2c cf 3c 60 70 44 3c eb a6 7d 3c 28 76 a2 3c
       0.025289848 0.011989683 0.015481691 0.019831732
0003e0 8a c4 19 bd d2 fc be 3d 0b ed 38 3d 64 98 d8 3c
       -0.03754095 0.093255654 0.045147937 0.026439853
0003f0 07 a8 11 bd a7 54 62 3d 82 93 c3 3d 43 2a cd bd
       -0.035560634 0.055256512 0.09549619 -0.100178264

layers.1.bias f4 [64]
000000 c5 e9 84 bd 6f 57 f6 3d 5d 1f 43 bd 5a f1 f2 bd
       -0.064899005 0.120283954 -0.047637332 -0.118624404
000010 ee 0f f6 3d 08 a0 54 bc d6 1b f9 bd 8c 28 97 3d
       0.12014757 -0.012977608 -0.121635124 0.073807806
000020 44 03 b7 bc a2 19 c4 3d 38 98 be 3d fd cf cc 3d
       -0.022340424 0.095752016 0.09306377 0.10000608
000030 07 de e7 3c dd 3a aa bd 43 55 1d bd 2e 59 b9 bd
       0.028304113 -0.083120085 -0.03841139 -0.09050213
000040 39 26 3c bc 19 47 f6 bd f2 be 8a 3d 9b 2e c1 3d
       -0.011483722 -0.120252796 0.06774701 0.094327174
000050 1d fc 9f 3d 38 0e cb bd ed db 85 bd 61 33 87 bd
       0.07811759 -0.099148214 -0.06536088 -0.066015966
000060 dd 68 95 3d 50 3a c5 bd cf 8c 0f bd 3d 64 98 bd
       0.07295392 -0.09630263 -0.035046395 -0.07440994
000070 d9 98 d9 3c 22 39 fe bd e7 44 e4 bd cf 7c fe 3c
       0.026562141 -0.12413241 -0.111459546 0.031065373
000080 71 89 f5 3d f2 f0 8b bd e2 97 63 bd 11 78 be bd
       0.119891055 -0.06833066 -0.05556477 -0.093002446
000090 b3 00 1d bd 29 2a a6 3d e9 00 82 3d 4c 6e 58 bd
       -0.038330745 0.0811351 0.0634783 -0.052839562
0000a0 90 64 b7 bd a1 f7 b8 bd 72 e3 0a 3e 82 81 2c 3b
       -0.08954728 -0.090316065 0.13563326 0.002632231
0000b0 fc aa 8b 3d ee 25 d6 39 3e 44 ba bd 98 f5 97 3d
       0.06819722 0.0004084552 -0.090950474 0.0741989
0000c0 7c ac 81 3d 91 f7 fc bc 5b fc d3 3d 5c e3 fb bd
       0.06331727 -0.030879768 0.10350867 -0.12299225
0000d0 71 a3 17 3d 51 91 4a 3d 78 af 3e bd 64 34 c4 3d
       0.037021104 0.04945499 -0.04655406 0.09580305
0000e0 60 45 08 3d 92 3b f4 bd 66 cf 84 bd d5 24 fc bc
       0.033269286 -0.11925425 -0.064848706 -0.030779282
0000f0 6e 53 d5 3d e9 9f 83 3b 14 04 f5 3d 4a 11 d1 bc
       0.104163036 0.0040168655 0.119636685 -0.02552094

layers.2.weight f4 [45, 64]
000000 56 66 ce 3d 23 81 0d 3d c6 ac 29 bd e0 0d 26 bc
       0.10078113 0.034546982 -0.041424535 -0.010135144
000010 7f 94 a5 3d d0 29 e7 3d 8a aa 60 3c d4 ac 80 bd
       0.08084964 0.11287272 0.013712535 -0.06282964
000020 e1 fd ff 3c 92 8b 87 3d c0 17 e3 3d c4 27 01 3e
       0.031248989 0.06618418 0.11088514 0.12612826
000030 67 d3 9a bd 72 ad 8d bc 82 50 04 3d e8 6c fe bd
       -0.07559853 -0.01729462 0.03230334 -0.12423116
000040 be 66 9e bc 88 68 e2 bd d0 3a 0d 3d a0 ea d3 3d
       -0.0193361 -0.11055094 0.034479916 0.103474855
000050 94 66 d4 3d 10 01 2b 3d 36 5b ce 3d 5a e7 bc bd
       0.10371128 0.04174906 0.10075991 -0.09223814
000060 8a d1 c2 bc 10 13 0b 3c ac 8d ae bd b1 d7 0d bc
       -0.023781557 0.008488432 -0.085231155 -0.008657382
000070 45 21 53 3b c5 bf 48 3c 00 23 62 bb 8a 6e 30 bd
       0.0032215875 0.012252753 -0.0034505725 -0.04307417
000080 a8 ae dc 3c 00 38 0a bd 21 4d 0e 3d c6 91 d1 bc
       0.026938751 -0.033744812 0.034741525 -0.025582206
000090 59 cc f0 3d a8 0a ef bc 47 fe df 3d 90 89 21 bc
       0.11757726 -0.029179886 0.109371714 -0.009859458
0000a0 b5 45 e7 3c 0d 6c 03 3e 0c 7e 9a 3d 5e 11 e4 3d
       0.028231481 0.12834187 0.07543573 0.11136125
0000b0 08 26 d4 3d a9 41 4a 3d 15 75 c6 3d e2 d2 10 3e
       0.103588164 0.049379025 0.096903004 0.14142945
0000c0 47 91 a4 3c f5 3b bc bd 3a 1c 24 3d 20 6e 38 3d
       0.020088805 -0.091911234 0.04006598 0.0450269
0000d0 3f 56 98 3c f5 dc e8 3c 80 87 da 3d 0e 2a e4 3d
       0.018595813 0.028425673 0.10670376 0.11140834
0000e0 40 d6 5c 3d a0 14 d5 3b a6 c4 a9 3d 68 87 fc bd
       0.053915262 0.006502703 0.08289461 -0.12330514
0000f0 40 88 b8 bd 1a 27 f2 3d cc dc 51 3d 47 e0 8d 3d
       -0.090103626 0.11823864 0.05123596 0.06927543
000100 60 58 cb 3b 78 bd b6 bc e0 bb e8 3c f4 8f c9 3d
       0.0062056035 -0.022307143 0.028409898 0.0984191
000110 98 eb 5e bd e0 6a b1 3c de 21 d5 bd 62 61 8c bd
       -0.0544239 0.021657407 -0.1040685 -0.06854512
000120 78 66 e9 bc 98 5f aa 3c 08 bd 9a bd 9c 70 b5 3d
       -0.028491244 0.020797536 -0.07555586 0.08859369
000130 be 79 cc 3d 6c 34 ab 3d 18 bd b8 3c f8 a8 d6 bc
       0.09984158 0.08359608 0.022551104 -0.026203617
000140 ec a8 5c 3d c8 32 70 bd 40 a6 ed 3c 60 54 e8 bd
       0.053872034 -0.05864218 0.029009938 -0.11344218
000150 10 2c 46 3c d8 c2 a9 bc ee fb d6 bd 5e 2a 9d bd
       0.012095466 -0.020722792 -0.104972705 -0.076740965
000160 00 6c e6 3d bc 59 16 3d 38 8e a2 3d 5c 55 8b bd
       0.11251068 0.03670667 0.07937282 -0.068033904
000170 ee f9 dc 3d b0 ea 91 bd 7c b6 f9 bd 90 0f 87 bd
       0.10789858 -0.07124841 -0.12193009 -0.06594765
000180 1c bf 79 3d 04 ff 7b 3d 8c 37 c2 3d b8 d2 3a 3d
       0.06097327 0.0615225 0.09483251 0.045611113
000190 90 55 58 bd 20 99 b2 3c 2e 1e 97 3d f2 47 a9 3d
       -0.052815974 0.021801531 0.07378803 0.082656756
0001a0 c0 06 fe 3d 80 f2 7d bd ac ca 5a 3d e6 32 8b 3d
       0.12403631 -0.061998844 0.05341594 0.067968175
0001b0 c4 5b 7a 3d b4 8e 42 bd 48 57 f1 3c 00 f2 d1 3b
       0.06112267 -0.047499374 0.029460564 0.0064070225
0001c0 86 6e f3 3d 20 ab 38 bd 7c e5 e9 bd 20 d7 e8 3b
       0.11886315 -0.045085073 -0.11420724 0.007105723
0001d0 e0 93 7d 3d 00 2c 33 b9 ba 8d dd 3d 68 fd d2 3c
       0.061908603 -0.00017087162 0.10818048 0.0257556
0001e0 98 26 af bc 70 d9 22 bd a0 00 01 3d b0 57 e8 bd
       -0.021380708 -0.039758146 0.031494737 -0.1134485
0001f0 a0 e6 9e bb e2 fa a6 bd b4 07 42 3d 38 6a 8c 3d
       -0.00484927 -0.08153321 0.047370628 0.06856197
000200 72 90 91 3d e2 71 43 bd e4 54 91 bd 38 67 40 bd
       0.07107629 -0.04771603 -0.0709627 -0.046973437
000210 68 fd fa 3d 25 28 02 3e f6 53 95 3d 0f ea 08 3e
       0.12255365 0.12710626 0.07291405 0.13370536
000220 4a 23 95 3d 10 4d 3e 3d 70 e7 4b bd bf 62 34 3d
       0.072821215 0.04646021 -0.049781263 0.044039484
000230 fa 36 e4 3c dd 82 e9 3c 52 1f aa bb c9 08 00 bd
       0.027858246 0.028504783 -0.005191722 -0.03125838
000240 54 31 3a 3c 6e bf cb bd e4 b6 af 3d 66 72 d8 3d
       0.0113643 -0.09948622 0.085798055 0.10568695
000250 6f 9a 16 bd 80 22 cb 3a 0a ac fc 3d 8e 2f e5 3d
       -0.036768373 0.0015497953 0.12337501 0.11190711
000260 44 2c 9c 3d 10 19 93 bd 16 1e 89 3d d4 2d 14 3e
       0.076256305 -0.07182515 0.066951916 0.14470607
000270 6b 76 16 3d 92 42 96 3d 82 7d 0e 3d 20 86 5b bc
       0.036734026 0.07336916 0.034787662 -0.013398677
000280 0a 49 ed 3d 56 f4 84 3d 93 f6 ca bd c2 bf 9b 3c
       0.11586197 0.06491916 -0.099103115 0.019012336
000290 fb b1 f3 3d 98 ff 93 bc c6 21 bb bd 14 53 16 3d
       0.118991815 -0.018066213 -0.09137301 0.036700323
0002a0 8c 34 bd bd d0 b8 96 bd 18 9d 50 bd 79 4a bf bd
       -0.09238538 -0.07359469 -0.050931066 -0.093403764
0002b0 20 6f a7 3d 59 e5 cd 3d b0 b5 f1 bc 60 bc 00 3e
       0.08175492 0.1005351 -0.02950558 0.1257186
0002c0 fd f2 b1 bc ec 95 a9 3d 5e c7 b3 bd f4 ef 95 3d
       -0.021722311 0.082805485 -0.08778261 0.07321158
0002d0 68 e1 42 bd 35 e2 99 bc 22 86 90 bd 24 2a 65 bd
       -0.047578245 -0.018784622 -0.07056834 -0.05594839
0002e0 20 36 85 3d 30 28 c4 3d 08 3f f5 3c 78 f5 39 bd
       0.06504464 0.09577978 0.029937282 -0.045400113
0002f0 a6 16 9f 3d 74 4b 20 3d 06 01 b7 3d d8 d4 10 3d
       0.07767992 0.039134458 0.08935742 0.035359234
000300 08 99 ad bc 50 26 96 3b bb fe a8 bd d5 47 d0 3c
       -0.021191135 0.004582204 -0.08251711 0.025424877
000310 98 75 9b bd 52 7e 3a 3d 9d 9c 0b 3e 10 6e 7a 3d
       -0.075907886 0.045530625 0.13633962 0.06114012
000320 6e 9b 05 be d0 0c b4 3d 9e 66 f1 3d 02 75 0c 3e
       -0.13047573 0.08791506 0.11787151 0.1371651
000330 54 65 cd 3d 24 e7 2a be 6f c4 6a bc 62 59 f6 bd
       0.100290924 -0.16689736 -0.01432906 -0.12028767
000340 cb b3 19 bc 70 83 7f bc d6 a4 ad bd f0 fa 46 3d
       -0.009381245 -0.015595302 -0.084787056 0.048579156
000350 7c 28 ff 3d 62 d1 b5 3d cc bc 31 3d 48 4d e6 3c
       0.12458894 0.08877827 0.04339294 0.028113022
000360 01 40 0f bc 70 d7 2e bd d2 bd e2 3d f2 0f 8c bd
       -0.008743287 -0.042685926 0.110713616 -0.06838979
000370 77 69 cc 3c e2 e4 e9 bd f4 99 bf bd 84 2a 2b bd
       0.024952633 -0.11420609 -0.09355536 -0.041788593
000380 5e 76 e7 3d fe e6 77 b9 99 06 31 3c ed 4c 9a 3d
       0.113018736 -0.00023641807 0.010804796 0.07534204
000390 0b 2c 2e 3d d5 e6 4b 3d 38 17 00 3e 70 45 ff 3d
       0.04252247 0.049780685 0.12508857 0.12464416
0003a0 d8 c2 79 3d 1d 79 1a 3d 18 79 8c 3d b8 b1 e2 bd
       0.060976833 0.03771316 0.06859034 -0.110690534
0003b0 8e fc 25 3d 7e b0 bc 3a a4 1e b1 3c 2e b9 2f 3e
       0.040524058 0.001439586 0.021621056 0.17160484
0003c0 c8 eb 85 bb af fe e8 3d 1a 66 aa bd dc 39 92 3d
       -0.004086945 0.11376702 -0.083202556 0.07139942
0003d0 b3 a0 cb ba 8d 6f 99 3c c0 9e 51 bd 98 57 17 3e
       -0.0015535563 0.01872995 -0.051176786 0.14779508
0003e0 f7 3c 8b 3d b6 c4 a0 bd 7d bb cc 3d 6c f2 e0 3d
       0.067987375 -0.0785002 0.09996698 0.10983738
0003f0 3c 03 ac 3d 7e 7c c0 bc bc 84 c0 3d c8 32 11 3e
       0.083990544 -0.023496863 0.09400317 0.14179528

layers.2.bias f4 [45]
000000 e1 5e 3a 3d 10 4a 41 3c a8 f7 d8 3d 88 bc 42 3d
       0.04550064 0.011797443 0.10594112 0.04754308
000010 c0 35 7a 3d f6 b6 8b bd 79 83 a2 3d 58 41 8f bc
       0.061086416 -0.068220064 0.07935233 -0.017487213
000020 f9 fd 27 3d 80 5b 19 3b 52 05 ae 3d d4 82 44 bd
       0.04101369 0.0023400486 0.084971085 -0.04797633
000030 8b dc d8 3d e1 ee 81 3c 50 ed 31 3d 64 b1 43 3d
       0.1058894 0.015860977 0.04343921 0.047776595
000040 da c8 0d bd d1 fb 31 3d 6c b4 8f 3d 59 fe a0 3c
       -0.034615375 0.04345304 0.070168346 0.019652532
000050 8d 79 eb 3d c8 29 be 3d 47 6a b9 3d e0 6a 50 bd
       0.11497793 0.09285313 0.09053474 -0.050883174
000060 5f f6 d4 3d 54 44 8a bd 00 b3 3e ba 26 7b e0 3d
       0.10398554 -0.06751314 -0.0007274598 0.10960989
000070 b2 9b a2 bd 68 92 c0 3c 18 91 2e 3d 3d 47 fe 3d
       -0.07939853 0.023507312 0.04261884 0.124159314
000080 5c c7 95 bd a0 6d 0b bc 18 08 fe 3c e8 6b 01 3d
       -0.073134154 -0.008510023 0.031009719 0.031597048
000090 a0 ff 62 3c c0 eb 8d 3c 0c d1 84 3d 50 26 7a 3c
       0.013854891 0.017324328 0.06485185 0.0152679235
0000a0 67 8c 24 3e 57 f8 d1 3d e9 6d c5 bc 35 d2 5a 3d
       0.16069184 0.10252445 -0.02410026 0.053423125
0000b0 67 8a d4 3d
       0.10377961
